python/CNN17.pth (torch_old, 252622 bytes, 10 tensors)

conv1.weight f4 [6, 3, 5, 5]
0.45749825 0.57607996 0.61848766 0.4812364 0.59874374 0.016136028 0.055913948 0.061770372
0.28850105 0.24236043 0.0077425484 -0.2265723 -0.21417624 -0.22199626 -0.16584812 0.1473785
0.1325257 -0.0058545144 0.0052238996 -0.06632781 0.35978884 0.5719528 0.3252561 0.18759097
-0.13243407 -0.048252773 0.10603114 0.25579828 0.34095556 0.36285475 -0.22708324 -0.28474352
-0.17802666 0.030675005 -0.024681775 -0.30308363 -0.5900762 -0.48807126 -0.59082603 -0.31291804
-0.12491914 -0.049167685 -0.23281541 -0.39225635 -0.30923977 0.2143644 0.31566483 0.2307937
-0.20043185 -0.3305468 0.020426447 0.04896623 0.34677234 0.3277794 0.26692462 -0.15732627
-0.22281627 -0.16208062 0.0815839 0.13351826 -0.25597468 -0.5397049 -0.61815995 -0.47212216
-0.37329507 0.015065561 -0.11410495 -0.22928257 -0.31930393 -0.2736283 0.47720987 0.33229178
0.113422714 -0.058302782 -0.2645884 -0.042054236 0.020298451 -0.03120537 0.01674176 0.025663598
0.14553694 0.18574373 0.17457159 0.23019652 0.19683915 -0.11135749 0.17980003 0.16578661
0.24754877 0.32136938 -0.22237122 -0.16605562 -0.089200065 0.0020835411 0.13376924 -0.09036331
-0.104307145 -0.34885287 -0.17875503 -0.1751886 -0.010095793 -0.04758202 -0.002053755 -0.026928494
-0.025968317 0.06565366 0.28613588 0.26623222 0.29772162 0.16417599 0.101952255 0.15014088
0.2522804 0.3715999 0.37625557 -0.1742313 -0.17811896 -0.2275535 -0.041968975 0.03640602
-0.0031529183 -0.08463736 -0.15890358 -0.112689845 -0.109657265 -0.1430342 -0.028634101 -0.14575031
0.010795695 -0.07361958 -0.15540247 0.009091671 0.16779163 -0.014562261 0.027596995 -0.18164583
-0.007184344 -0.010618689 0.20720217 0.21483885 -0.24363177 -0.30665255 -0.3605911 -0.22448976
-0.008946853 -0.13382144 -0.3529952 -0.3438537 -0.42014608 -0.23573239 0.209396 0.26506573
0.1024353 -0.07680659 -0.050136313 0.21320169 0.06726952 -0.23637754 -0.31754568 -0.29453507
0.34427088 -0.035870537 -0.35601842 -0.50038046 -0.30660293 0.4111404 0.21433678 -0.4035961
-0.45781195 -0.16538091 0.73504406 0.36494234 -0.018353248 -0.27270305 -0.083350144 -0.007814653
0.19955206 -0.13165593 -0.3217774 -0.14207731 -0.06070274 0.010967557 -0.36517087 -0.39075196
-0.40826726 -0.12809263 0.0015830338 -0.3859473 -0.36298752 -0.39340127 0.22073157 0.026961487
-0.2931948 -0.5370581 -0.20913473 0.22950533 0.09997289 -0.23470688 -0.4488238 -0.13358937
0.23334521 0.42255172 0.355261 0.049286436 0.16375434 0.049156148 0.17444205 0.122021966
-0.008546359 0.10441044 0.09862255 0.25460184 -0.026581058 -0.11705835 0.18496768 0.31998855
0.24782157 -0.08599314 0.04066638 0.32424313 0.54318035 0.35071823 0.06836633 0.021728426
0.23395887 0.068020195 0.120422214 -0.05490068 0.16776992 0.2252647 0.028726824 0.08127635
0.14902715 0.016195191 0.25932506 -0.09992922 -0.014568596 -0.10914142 -0.06945641 0.012282164
-0.16431347 -0.08162736 -0.008400335 0.1082231 0.12423671 -0.20318863 -0.05658173 -0.085017204
-0.016224394 0.15111332 -0.27656832 -0.29991615 -0.26430404 -0.22874224 0.0003132161 -0.10026139
00000000: 363d ea3e fa79 133f 3555 1e3f 9e64 f63e
00000010: 4547 193f b42f 843c 0606 653d ee02 7d3d
00000020: 69b6 933e 552d 783e 34b5 fd3b 9202 68be
00000030: 0451 5bbe fd52 63be 17d4 29be 64ea 163e
00000040: d1b4 073e 3ad7 bfbb 3f2d ab3b e0d6 87bd
00000050: 3e36 b83e 806b 123f f887 a63e d917 403e
00000060: cc9c 07be b3a4 45bd db26 d93d fef7 823e
00000070: ba91 ae3e 19c8 b93e 8288 68be e7c9 91be
00000080: 9f4c 36be 264a fb3c 6f31 cabc c72d 9bbe
00000090: 3c0f 17bf 7ae4 f9be 6040 17bf cb36 a0be
000000a0: 9bd5 ffbd 0e64 49bd 2a67 6ebe d3d5 c8be
000000b0: ad54 9ebe 5782 5b3e d29e a13e 2f55 6c3e
000000c0: 023e 4dbe 6e3d a9be 5d55 a73c d090 483d
000000d0: 258c b13e b4d2 a73e 58aa 883e 231a 21be
000000e0: f329 64be 76f8 25be 7615 a73d 03b9 083e
000000f0: 1d0f 83be 1a2a 0abf bb3f 1ebf ffb9 f1be
00000100: 8820 bfbe 8bd5 763c dbaf e9bd 0dc9 6abe
00000110: ce7b a3be 0219 8cbe da54 f43e 2622 aa3e
00000120: 2b4a e83d e6ce 6ebd 2178 87be 1041 2cbd
00000130: f048 a63c 67a2 ffbc 0426 893c 773c d23c
00000140: a307 153e 9b33 3e3e e5c2 323e a3b8 6b3e
00000150: 3490 493e 650f e4bd 801d 383e f7c3 293e
00000160: 6d7d 7d3e 878a a43e 48b5 63be 7c0a 2abe
00000170: 86ae b6bd 058c 083b cefa 083e 6610 b9bd
00000180: fc9e d5bd d89c b2be 8f0b 37be a464 33be
00000190: d368 25bc 5de5 42bd 4b98 06bb 2599 dcbc
000001a0: 82bb d4bc 6d75 863d 6780 923e 974f 883e
000001b0: f86e 983e c01d 283e 58cc d03d 88be 193e
000001c0: e62a 813e 5842 be3e 92a4 c03e b169 32be
000001d0: d164 36be c903 69be a9e7 2bbd 7b1e 153d
000001e0: 31a1 4ebb 5a56 adbd 9fb7 22be efc9 e6bd
000001f0: fd93 e0bd 8f77 12be 1092 eabc 923f 15be
00000200: 6de0 303c ddc5 96bd d321 1fbe 3bf5 143c
00000210: 92d1 2b3e 8d96 6ebc 1813 e23c 5d01 3abe
00000220: a56a ebbb 02fa 2dbc ce2c 543e b7fe 5b3e
00000230: 9b7a 79be 9001 9dbe 669f b8be a5e0 65be
00000240: d295 12bc 7d08 09be c9bb b4be 980d b0be
00000250: 631d d7be d563 71be e86b 563e b2b6 873e
00000260: 99c9 d13d c64c 9dbd bc5b 4dbd 8b51 5a3e
00000270: 9ac4 893d f40c 72be 5995 a2be 4dcd 96be
00000280: 4644 b03e fcec 12bd 0c48 b6be ef18 00bf
00000290: 0ffb 9cbe ff80 d23e 1a7b 5b3e 26a4 cebe
000002a0: 5466 eabe 9d59 29be d92b 3c3f b9d9 ba3e
000002b0: 8d59 96bc bc9f 8bbe 7bb3 aabd 0809 00bc
000002c0: 6057 4c3e d0d0 06be 02c0 a4be b77c 11be
000002d0: 70a3 78bd 45b1 333c adf7 babe a410 c8be
000002e0: 6808 d1be b72a 03be cd7d cf3a e29a c5be
000002f0: 80d9 b9be e46b c9be 7507 623e 56de dc3c
00000300: a11d 96be a47c 09bf 6a27 56be 7203 6b3e
00000310: 96be cc3d 0057 70be 3ccc e5be a7cb 08be
00000320: 0cf2 6e3e b358 d83e c5e4 b53e 93e0 493d
00000330: 38af 273e f557 493d f0a0 323e a7e6 f93d
00000340: 0706 0cbc 24d5 d53d 9ffa c93d 2c5b 823e
00000350: 85c0 d9bc 4abc efbd 2b68 3d3e 8ad5 a33e
00000360: f0c4 7d3e 2c1d b0bd ca91 263d 3203 a63e
00000370: de0d 0b3f 5791 b33e a503 8c3d d0ff b13c
00000380: ea92 6f3e 2c4e 8b3d ec9f f63d 89df 60bd
00000390: e1cb 2b3e caab 663e 8454 eb3c 3774 a63d
000003a0: 939a 183e c7ab 843c 41c6 843e b1a7 ccbd
000003b0: 1fb1 6ebc 8985 dfbd 2a3f 8ebd 213b 493c
000003c0: ca41 28be 3f2c a7bd 8fa1 09bc 13a4 dd3d
000003d0: d16f fe3d ae10 50be 3ec2 67bd 801d aebd
000003e0: 05e9 84bc 73bd 1a3e 5d9a 8dbe 9c8e 99be
000003f0: dc52 87be 683b 6abe 2737 a439 d855 cdbd

conv1.bias f4 [6]
0.3111422 0.03263975 0.37225097 -0.46995372 -0.1994198 0.105990894
00000000: 084e 9f3e 42b1 053d ae97 be3e c69d f0be
00000010: b434 4cbe c111 d93d

conv2.weight f4 [16, 6, 5, 5]
-0.12296595 -0.08448458 0.024472054 0.15166193 0.18548729 -0.15111057 -0.03846549 0.17739034
0.05296478 -0.041234333 -0.06378464 -0.0623117 0.20126848 0.28799084 0.006960621 -0.1019513
-0.107603386 -0.14226924 -0.084307015 -0.093866214 -0.12924789 0.08698393 0.10963025 -0.092909
-0.20429242 -0.12519309 0.012858423 0.0941337 -0.056501564 0.026532 -0.043332607 -0.02952901
0.20192884 0.12568937 0.14821121 0.13730939 0.0326118 0.08619883 0.010200524 -0.033716343
0.13375668 0.19162181 0.16093928 0.03977577 -0.08994403 0.068195075 -0.07343519 -0.030043023
-0.027163379 -0.11275286 0.38035876 0.19432586 0.14543998 -0.008278707 -0.030083138 0.20023373
0.13081998 0.051164206 -0.18766753 -0.16783272 0.047949746 0.034756746 -0.12158741 -0.16034086
-0.22469604 -0.004634739 -0.26585707 -0.29741547 -0.2852952 -0.26692787 -0.15914527 -0.25568652
-0.18458258 -0.17195639 -0.0666627 0.30595538 0.31529373 0.18241748 0.10311839 0.15548111
0.260881 0.33359382 0.24170986 0.12260141 0.01694019 0.06436421 -0.06585631 0.07824832
-0.12549677 -0.016604325 -0.028504537 -0.12521383 -0.027779186 -0.08054355 -0.070327796 0.0740839
-0.20322053 -0.1571742 -0.14582342 -0.14898029 0.16229156 0.20240253 0.08550309 0.090035275
0.16155076 0.2956565 0.20568177 0.027306724 -0.089980446 -0.10188555 0.078817286 -0.114554636
-0.0824889 -0.1577983 -0.21605198 -0.066486016 -0.17136115 -0.21723789 -0.16329117 -0.18124361
-0.055965196 -0.08259221 -0.07942145 -0.10486748 -0.11460211 -0.093720704 0.11404552 0.041642122
-0.0012076936 0.13844733 0.16208416 0.16483732 0.07462031 0.04092235 -0.02746442 0.060719468
0.10946467 0.22578888 -0.0033225564 -0.09268563 0.09870798 -0.030088898 0.0064683543 -0.066870585
-0.21873632 0.12941478 0.046807945 -0.12546885 -0.17160794 -0.048389424 -0.16101733 -0.10579434
0.05512639 0.12664925 0.3311485 -0.03502952 -0.06235223 -0.20721954 -0.0360888 -0.07392001
0.23816997 0.15461273 -0.097309336 -0.026954114 -0.0823578 -0.0074542942 0.13708663 0.0016906334
-0.0058682817 -0.049855616 -0.00367635 -0.1999246 -0.1994629 -0.15863709 -0.17480083 -0.08236543
-0.1250377 -0.13422537 -0.10933056 0.064609684 0.10984582 0.12701066 -0.0788868 -0.04748038
0.113478765 0.06998796 -0.019974807 0.09408783 -0.012628167 0.068024464 -0.15278804 -0.121213995
-0.059120283 -0.113723986 0.019981265 -0.0054221163 -0.17273113 -0.14471784 -0.18152203 0.07429981
-0.053586897 -0.28833532 -0.029607477 0.14043677 -0.18925773 -0.19745493 -0.18515185 -0.030246578
-0.05790996 -0.17272042 0.00039569376 0.21155323 0.019287078 -0.070245326 -0.20849875 0.016295888
0.36120862 0.13004722 0.37254992 -0.09485126 0.057715952 0.24463934 0.14971331 0.39575955
-0.1192828 -0.22152977 -0.24353977 -0.3050853 -0.11853194 -0.07416551 -0.027683789 -0.040087633
-0.0015784105 0.019089377 0.012727913 -0.14738065 0.0066413027 0.12902914 0.1378068 0.09444681
-0.03224925 0.038402196 0.23207314 0.22186795 0.22436872 0.13376027 0.16092385 0.067563295
0.13529049 0.19360551 -0.18173654 -0.30447352 -0.28807047 -0.12838775 -0.09297411 -0.11195866
00000000: 92d5 fbbd 4006 adbd 9e79 c83c 444d 1b3e
00000010: 61f0 3d3e bbbc 1abe fd8d 1dbd d0a5 353e
00000020: 99f1 583d 55e5 28bd 85a1 82bd 8e3a 7fbd
00000030: 5319 4e3e 8973 933e ec15 e43b d8cb d0bd
00000040: 2a5f dcbd 07af 11be 28a9 acbd ee3c c0bd
00000050: 8f59 04be a124 b23d d385 e03d 1347 bebd
00000060: 0832 51be 9e32 00be 23ac 523c 2bc9 c03d
00000070: 2f6e 67bd a359 d93c 887d 31bd d3e6 f1bc
00000080: 6fc6 4e3e b7b4 003e aec4 173e d59a 0c3e
00000090: f393 053d 0389 b03d 1920 273c 261a 0abd
000000a0: 83f7 083e 8238 443e 44cd 243e ebeb 223d
000000b0: 9334 b8bd dca9 8b3d 3065 96bd c91c f6bc
000000c0: bc85 debc f9ea e6bd 62be c23e 5cfd 463e
000000d0: 38ee 143e 6aa3 07bc ea70 f6bc 120a 4d3e
000000e0: acf5 053e 8f91 513d eb2b 40be 57dc 2bbe
000000f0: f466 443d 175d 0e3d d202 f9bd 6530 24be
00000100: b816 66be 02df 97bb 6b1e 88be d746 98be
00000110: 3612 92be c5aa 88be faf6 22be 58e9 82be
00000120: 3703 3dbe 5615 30be 7486 88bd 2fa6 9c3e
00000130: 2e6e a13e a6cb 3a3e bc2f d33d 7136 1f3e
00000140: 3292 853e cfcc aa3e ca82 773e 7316 fb3d
00000150: 27c6 8a3c 62d1 833d acdf 86bd a840 a03d
00000160: 3a82 00be cb05 88bc 5982 e9bc 0e38 00be
00000170: 2d91 e3bc 04f4 a4bd 0508 90bd 4db9 973d
00000180: 0b19 50be 46f2 20be bc52 15be 4a8e 18be
00000190: c22f 263e 9c42 4f3e 3e1c af3d 6a64 b83d
000001a0: 906d 253e 4a60 973e 3e9e 523e 5ab2 df3c
000001b0: ab47 b8bd 5fa9 d0bd f56a a13d 9f9b eabd
000001c0: f1ef a8bd e195 21be bb3c 5dbe d229 88bd
000001d0: 4c79 2fbe 9c73 5ebe cd35 27be ed97 39be
000001e0: c33b 65bd 1b26 a9bd b7a7 a2bd c3c4 d6bd
000001f0: 83b4 eabd a4f0 bfbd b390 e93d ee90 2a3d
00000200: 794b 9eba 23c5 0d3e 64f9 253e 1dcb 283e
00000210: 88d2 983d 329e 273d 10fd e0bc fab4 783d
00000220: 032f e03d 3335 673e 3fbf 59bb f7d1 bdbd
00000230: 6927 ca3d fe7c f6bc 7df4 d33b 72f3 88bd
00000240: 6afc 5fbe 4f85 043e b0b9 3f3d e87a 00be
00000250: feb9 2fbe fd33 46bd bae1 24be b4aa d8bd
00000260: 36cc 613d 57b0 013e 4c8c a93e 1d7b 0fbd
00000270: 0d65 7fbd 5c31 54be d9d1 13bd 6063 97bd
00000280: d4e2 733e cd52 1e3e 1e4a c7bd e0ce dcbc
00000290: 35ab a8bd 2743 f4bb 7060 0c3e 3e98 dd3a
000002a0: b74a c0bb 6735 4cbd ebee 70bb 09b9 4cbe
000002b0: 0140 4cbe c371 22be fdfe 32be 35af a8bd
000002c0: e209 00be 6072 09be b3e8 dfbd 1552 843d
000002d0: d8f6 e03d 150f 023e 678f a1bd c97a 42bd
000002e0: 8e67 e83d d955 8f3d 35a2 a3bc 1fb1 c03d
000002f0: 5fe6 4ebc 6950 8b3d 7874 1cbe 0b3f f8bd
00000300: 1c28 72bd 1fe8 e8bd c0af a33c 02ac b1bb
00000310: 6ee0 30be ea30 14be e9e0 39be 802a 983d
00000320: ef7d 5bbd b0a0 93be 618b f2bc a8ce 0f3e
00000330: c7cc 41be a031 4abe 7298 3dbe acc7 f7bc
00000340: ff32 6dbd 9fdd 30be 1e75 cf39 69a1 583e
00000350: efff 9d3c c8dc 8fbd b280 55be f47e 853c
00000360: 56f0 b83e 192b 053e ddbe be3e 6141 c2bd
00000370: 9067 6c3d bc82 7a3e 724e 193e ffa0 ca3e
00000380: 8a4a f4bd b3d8 62be 7d62 79be 2434 9cbe
00000390: e0c0 f2bd 16e4 97bd 1dc9 e2bc ee32 24bd
000003a0: abe2 ceba 5361 9c3c bd88 503c f4ea 16be
000003b0: 499f d93b 3720 043e 3a1d 0d3e 546d c13d
000003c0: ca17 04bd 9f4b 1d3d 95a4 6d3e 5a31 633e
000003d0: eac0 653e 74f8 083e 39c9 243e a05e 8a3d
000003e0: 9789 0a3e 8640 463e 2519 3abe f4e3 9bbe
000003f0: f97d 93be 1478 03be 3669 bebd 954a e5bd

conv2.bias f4 [16]
0.018012365 -0.037384428 0.10570674 -0.016198695 -0.018166844 0.14758499 -0.038653407 0.09928429
-0.06731942 0.021531334 0.07244146 -0.03906868 -0.031711675 -0.027979055 0.03579148 -0.10360101
00000000: ab8e 933c 6a20 19bd c67c d83d 20b3 84bc
00000010: a2d2 94bc 8520 173e 0953 1ebd 9055 cb3d
00000020: c4de 89bd 7b62 b03c 305c 943d 7b06 20bd
00000030: 1ae4 01bd 5534 e5bc 169a 123d c42c d4bd

fc1.weight f4 [120, 400]
-0.07741639 -0.0135750985 0.007393953 -0.105090894 -0.07014249 -0.05465675 0.0074395225 -0.0052796076
-0.05424143 -0.04999739 -0.032779235 0.027174322 0.05311644 0.01902599 -0.07437323 -0.06550142
0.00026388126 -0.022176934 -0.0009245652 0.004708941 -0.057240598 0.0029476553 -0.018223524 -0.00047751982
-0.06798634 0.009652845 -0.018154 -0.0315253 -0.01795496 -0.027970687 0.008949022 0.021116486
0.013685303 0.011021267 -0.018197764 -0.05071109 -0.065019205 -0.054930046 -0.011479635 -0.036583733
0.081953816 0.087554425 0.0411643 0.03872442 0.008988201 -0.023424573 0.069327794 0.0049995487
0.15024859 0.042648133 -0.080243185 -0.030672029 -0.0572673 -0.061479893 0.0052551967 -0.022659266
-0.12949927 -0.05947108 -0.086506836 -0.102455586 -0.06286022 -0.015408341 -0.025425185 -0.06660783
-0.0689691 0.026094466 -0.07046097 -0.077013135 -0.100564055 -0.05551373 -0.09326446 -0.09996882
0.0088234 0.0054162545 -0.080890864 -0.002084111 0.017423298 -0.0006194976 -0.012696081 -0.017418506
-0.009239167 -0.0025422238 0.027197253 -0.041187532 0.028073065 0.04145355 0.03110342 -0.042739846
0.014727711 -0.016730746 0.04510594 0.041440316 0.0034549886 -0.019996166 0.0340872 0.004015889
0.035109825 0.014006571 -0.047301974 0.037788335 -0.03482749 -0.05189807 0.031819586 0.040536497
-0.028865675 -0.0048385193 0.01426167 -0.008252906 0.022550108 0.01321847 0.046494305 0.049482297
-0.008330709 -0.028867185 0.015654866 -0.045926668 0.01036149 0.027260762 0.034273818 0.009530182
0.045019586 0.019993475 0.052264407 -0.076050244 0.0481705 0.075922385 -0.0047004092 -0.0002748648
0.046699945 -0.0067846645 0.010849261 -0.02652654 0.003784555 -0.018011533 0.012952881 0.026365578
0.0318776 -0.050606918 -0.042484123 0.05898596 0.083317176 0.024853848 -0.039140236 -0.031188987
0.0013471111 0.13308975 -0.029054677 0.005057598 0.1056482 0.14851733 0.025147622 -0.045709986
0.040095612 0.02274145 0.008632557 0.040278137 0.02852096 0.003863891 -0.0148900645 -0.010438996
0.03626506 -0.0020973957 -0.02112718 0.05648896 -0.041109793 -0.008471201 0.0068777967 0.06391553
-0.015554932 -0.07455056 0.0106519135 0.031940404 -0.007030468 0.0070563774 -0.04212393 -0.015907088
0.030959388 0.019164883 -0.031510342 -0.012864221 -0.0024953943 -0.046798076 0.11420197 0.02395073
-0.052601963 -0.008534928 -0.0015515179 -0.0165158 0.0035315836 0.044120442 0.007835885 0.025253555
0.017478371 -0.028379785 0.050766505 -0.033805266 -0.03115706 0.06242082 0.03945086 0.07423988
-0.040586803 -0.036630534 -0.0119938515 -0.0026580077 0.033411365 -0.07455286 -0.06071936 -0.07059863
0.030813765 0.066758774 -0.060726233 -0.015138729 0.019707063 -0.024036646 0.00064691703 0.02907083
-0.058484327 0.007648142 0.064452894 0.08157669 -0.014077432 -0.0661482 -0.0053989035 0.050963342
0.0032482808 0.08925699 0.048648696 -0.060089294 -0.0320826 0.02763555 0.095629245 -0.009796573
-0.08938965 0.053462274 0.009395213 0.009737745 -0.043692768 -0.084566124 -0.014673526 0.016248252
0.077688634 0.09830275 -0.032898333 -0.025688095 0.0011771893 0.059830368 0.08103618 -0.09671772
-0.055194635 0.09932827 0.04385914 -0.030595504 0.018826313 -0.058030553 -0.0073729907 -0.038694497
00000000: 7c8c 9ebd 176a 5ebc f948 f23b e539 d7bd
00000010: dea6 8fbd c2df 5fbd 3dc7 f33b 8f00 adbb
00000020: 432c 5ebd 10ca 4cbd 8543 06bd af9c de3c
00000030: a090 593d 65dc 9b3c fe50 98bd 9c25 86bd
00000040: 8b59 8a39 67ac b5bc 855e 72ba 764d 9a3b
00000050: 1e75 6abd 732d 413b 8049 95bc a05b fab9
00000060: 6c3c 8bbd f726 1e3c b3b7 94bc ac20 01bd
00000070: 4816 93bc c822 e5bc eb9e 123c 7bfc ac3c
00000080: 5238 603c 8b92 343c 7a13 95bc 6fb6 4fbd
00000090: ca28 85bd 54fe 60bd 1415 3cbc d3d8 15bd
000000a0: 67d7 a73d bc4f b33d e69b 283d 7f9d 1e3d
000000b0: 3f43 133c e4e4 bfbc bbfb 8d3d 41d3 a33b
000000c0: c4da 193e cfaf 2e3d 8a56 a4bd e843 fbbc
000000d0: 1e91 6abd 57d2 7bbd c933 ac3b ed9f b9bc
000000e0: 759b 04be f297 73bd 7f2a b1bd 3cd4 d1bd
000000f0: dcbc 80bd 4473 7cbc 7a48 d0bc b069 88bd
00000100: ac3f 8dbd 10c4 d53c d74d 90bd 10b9 9dbd
00000110: 87f4 cdbd 5d62 63bd 7001 bfbd 74bc ccbd
00000120: 0690 103c d67a b13b 1caa a5bd 9595 08bb
00000130: 4ebb 8e3c c865 22ba 3903 50bc 41b1 8ebc
00000140: e05f 17bc 709b 26bb c6cc de3c 42b4 28bd
00000150: 7cf9 e53c 33cb 293d 99cc fe3c fa0f 2fbd
00000160: 7f4c 713c eb0e 89bc 02c1 383d 52bd 293d
00000170: 176d 623b 00cf a3bc 059f 0b3d b897 833b
00000180: 52cf 0f3d d17b 653c b7bf 41bd f1c7 1a3d
00000190: 45a7 0ebd 1293 54bd 4155 023d 9909 263d
000001a0: b577 ecbc 718c 9ebb c8a9 693c 3237 07bc
000001b0: 01bb b83c 4892 583c d070 3e3d f3ad 4a3d
000001c0: 877d 08bc e07a ecbc a23e 803c 9a1d 3cbd
000001d0: 3dc3 293c f651 df3c b462 0c3d 7b24 1c3c
000001e0: 7566 383d 5bc9 a33c 3413 563d 3bc0 9bbd
000001f0: 6e4e 453d 327d 9b3d e405 9abb bb1b 90b9
00000200: 7148 3f3d e451 debb 19c1 313c 304e d9bc
00000210: 4c06 783b ec8c 93bc 5238 543c a0fc d73c
00000220: 1692 023d 3349 4fbd d503 2ebd 439b 713d
00000230: 32a2 aa3d 4c9a cb3c 8351 20bd 0c80 ffbc
00000240: 8c91 b03a ae48 083e 1304 eebc 35ba a53b
00000250: 155e d83d ed14 183e 6302 ce3c 653a 3bbd
00000260: 4c3b 243d 474c ba3c 916f 0d3c b0fa 243d
00000270: caa4 e93c 5539 7d3b 75f5 73bc 5308 2bbc
00000280: ac8a 143d 7674 09bb e812 adbc f860 673d
00000290: be62 28bd cbca 0abc 245f e13b 25e6 823d
000002a0: 1dda 7ebc f7ad 98bd 5d85 2e3c f1d3 023d
000002b0: d75f e6bb 2f39 e73b 248a 2cbd 954f 82bc
000002c0: 8b9e fd3c acff 9c3c fd10 01bd 74c4 52bc
000002d0: c589 23bb 57af 3fbd b9e2 e93d 5234 c43c
000002e0: 2875 57bd 15d6 0bbc 4d5c cbba 254c 87bc
000002f0: 2472 673b a3b7 343d 1562 003c 8be0 ce3c
00000300: cd2e 8f3c b97c e8bc 8af0 4f3d 6477 0abd
00000310: 173d ffbc f9ac 7f3d 3a97 213d 140b 983d
00000320: 593e 26bd e609 16bd dc81 44bc f831 2ebb
00000330: 5bda 083d 2baf 98bd ddb4 78bd 0496 90bd
00000340: 266d fc3c d3b8 883d 12bc 78bd 6e08 78bc
00000350: b570 a13c 80e8 c4bc de95 293a f325 ee3c
00000360: 438d 6fbd 449d fa3b e1ff 833d ae11 a73d
00000370: 08a5 66bc b578 87bd 49e9 b0bb f0be 503d
00000380: 1ce1 543b 5ecc b63d db43 473d 3120 76bd
00000390: 0b69 03bd f363 e23c 44d9 c33d ce81 20bc
000003a0: ec11 b7bd 42fb 5a3d 61ee 193c 108b 1f3c
000003b0: 30f7 32bd 0131 adbd 3b69 70bc 0e1b 853c
000003c0: 381b 9f3d f452 c93d 67c0 06bd d76f d2bc
000003d0: eb4b 9a3a b010 753d 4cf6 a53d f113 c6bd
000003e0: c513 62bd 9f6c cb3d a4a5 333d 6ca3 fabc
000003f0: a439 9a3c 72b1 6dbd 2199 f1bb 1f7e 1ebd

fc1.bias f4 [120]
0.0614959 0.0015923142 0.028929213 0.06921393 0.017961627 0.083822995 -0.015404432 0.07936304
-0.040857974 -0.027380047 -0.018322833 -0.014122813 0.090546355 -0.0034395133 -0.06117593 0.009128706
0.048667543 0.100089535 -0.06599018 0.04920134 -0.013318989 0.18826407 -0.023764025 0.038239017
0.06444952 -0.01795898 0.062243804 0.047844574 -0.021135801 0.0064017503 0.07564838 -0.012266494
-0.027226869 0.14440437 0.058524057 -0.047771156 -0.02247045 -0.07554083 -0.021340186 0.010408919
-0.043650903 0.033162616 0.003108875 0.02282013 -0.020289848 -0.039397076 0.10702638 0.0063540405
-0.026477652 0.01277789 0.061570283 -0.014689576 -0.047412153 0.07962188 -0.012609186 -0.0040598335
-0.030707758 -0.059477203 0.019641122 -0.054751493 -0.0059847794 0.06156583 0.06856052 0.04493841
0.059565663 0.009548339 0.010054054 0.010223962 -0.029487511 -0.040824562 0.038539167 -0.0030851506
-0.0014597358 -0.032056883 0.06100534 -0.019518087 -0.043313652 -0.011062454 -0.004624605 0.0091884835
0.118846975 -0.010743144 0.023527155 0.008734177 -0.042074382 0.13244024 0.06280546 -0.018677572
0.010654905 0.017125007 0.0095015345 -0.009061995 0.06928039 0.017646046 0.06428649 0.04160426
-0.006537131 -0.034886144 -0.03544331 0.0022264144 -0.028306121 0.021099087 0.04621254 -0.0062218327
0.040887617 -0.012869016 -0.041035865 -0.02111379 -0.0067419503 -0.0058168443 0.01504706 0.020403743
0.007996545 0.08404775 0.058188535 0.023543267 -0.003995447 -0.022713764 0.05595024 -0.029889744
00000000: 20e3 7b3d 33b5 d03a f5fc ec3c 08c0 8d3d
00000010: 4324 933c 64ab ab3d df62 7cbc 1789 a23d
00000020: b15a 27bd 1f4c e0bc c419 96bc 5f63 67bc
00000030: 5e70 b93d 7569 61bb 9d93 7abd 9190 153c
00000040: 9e57 473d befb cc3d dc25 87bd 5887 493d
00000050: e437 5abc 4cc8 403e c6ac c2bc 84a0 1c3d
00000060: 1cfe 833d b61e 93bc 5cf3 7e3d acf8 433d
00000070: fd24 adbc c6c5 d13b 8aed 9a3d 68f9 48bc
00000080: e20a dfbc bdde 133e ecb6 6f3d b0ab 43bd
00000090: f313 b8bc 27b5 9abd 9dd1 aebc 2c8a 2a3c
000000a0: 4acb 32bd 86d5 073d 44be 4b3b 48f1 ba3c
000000b0: e536 a6bc d45e 21bd a630 db3d 8e35 d03b
000000c0: a9e7 d8bc 5b5a 513c 1f31 7c3d 8cac 70bc
000000d0: 3f33 42bd cc10 a33d c296 4ebc 5a08 85bb
000000e0: d68e fbbc 5e9e 73bd 6be6 a03c 1a43 60bd
000000f0: f81b c4bb 742c 7c3d 7569 8c3d 5711 383d
00000100: 20fb 733d a370 1c3c c2b9 243c 6882 273c
00000110: cb8f f1bc a837 27bd 3fdb 1d3d 3d30 4abb
00000120: 9b54 bfba 144e 03bd bce0 793d 65e4 9fbc
00000130: a869 31bd 4c3f 35bc 008a 97bb 4b8b 163c
00000140: 0b66 f33d 0304 30bc 05bc c03c cb19 0f3c
00000150: 3056 2cbd 6a9e 073e 26a0 803d b501 99bc
00000160: e991 2e3c be49 8c3c 53ac 1b3c c378 14bc
00000170: e1e2 8d3d 718e 903c a3a8 833d 3b69 2a3d
00000180: 6e35 d6bb c6e4 0ebd 012d 11bd 09e9 113b
00000190: 3de2 e7bc fed7 ac3c 5c49 3d3d 84e0 cbbb
000001a0: c679 273d 91d8 52bc 3915 28bd d4f6 acbc
000001b0: 94eb dcbb 3a9b bebb f287 763c c025 a73c
000001c0: f103 033c 3a21 ac3d 1a57 6e3d cfdd c03c
000001d0: 3dec 82bb 3712 babc 142c 653d 56db f4bc

fc2.weight f4 [84, 120]
-0.17404476 0.12340306 -0.014706041 0.16631487 0.010113015 -0.1284363 0.01478252 -0.20427781
0.02008953 -0.049718935 -0.025408393 -0.034671515 -0.035265647 0.036691878 -0.09919798 0.0214015
-0.054417055 0.1465291 0.0896968 -0.09671868 0.02064455 -0.017733673 -0.10336913 -0.1120974
-0.09741288 0.050441496 0.0433521 0.20214763 -0.030483741 -0.036878344 -0.16306572 0.030686572
0.1352537 -0.0012155612 0.09293725 0.05208526 0.09648702 0.07898198 -0.02809142 0.12206453
0.06323661 -0.0025454992 -0.023580762 -0.021970004 -0.13264851 0.046829253 -0.1620554 -0.083966315
0.051709604 0.09745899 -0.10126158 -0.056314327 0.014443802 0.036285874 0.14360003 0.08569151
0.051186852 0.031431876 -0.09727655 0.13877095 0.05303045 0.076982915 -0.037578464 0.0056155315
-0.06657523 -0.008634198 0.13683534 0.049145285 0.023789326 0.081502706 0.08519639 -0.044362303
-0.091212705 -0.03864264 -0.022068175 0.05659573 -0.04838974 0.0109086875 -0.16923316 -0.23792821
0.02085764 0.06098227 -0.037392974 0.08796963 0.08611259 -0.12603424 0.025117153 0.12875767
0.044646174 -0.025745891 0.091382906 -0.029229624 0.022451201 0.0818996 0.08836835 -0.15199608
-0.085339405 0.22279695 0.043523274 0.10083028 -0.06586482 -0.13425872 0.07407902 -0.029927561
-0.00040649463 -0.037826933 0.04959303 0.012407286 -0.06551216 0.020049002 -0.007716405 -0.050503522
-0.09844792 0.016853034 -0.121452115 0.02349014 0.023231288 -0.036590446 -0.06210552 -0.11092561
0.1445279 -0.14290093 0.049343564 0.023092762 -0.0064595807 0.021661904 -0.073812656 0.09103838
-0.040510386 0.025125338 -0.087834425 0.05012132 -0.15184939 -0.15671404 -0.01986207 0.07120122
-0.0795525 -0.06450436 -0.0825454 -0.0696702 0.030380253 -0.026353076 0.02618356 0.009012669
0.06272166 0.07773587 0.005250075 -0.10852863 0.056430493 0.029350586 0.13213511 -0.0016293594
0.05029449 0.16562131 -0.03448618 0.047129337 -0.09787894 -0.050273515 -0.026182646 0.016216272
0.091839015 -0.14429587 -0.116242364 0.12944916 0.19652465 0.06619353 -0.015089246 -0.05782305
-0.041185796 -0.025175586 0.057568923 0.039156627 0.0057670483 -0.054116413 -0.16494478 -0.19681764
-0.0018336854 0.09881627 -0.08919518 -0.018522916 -0.018535534 0.04477482 -0.049776614 0.09515974
0.18352608 0.093953386 0.054457646 -0.048399046 -0.23827125 0.05545935 -0.086129725 -0.029055925
0.0280873 0.11919667 0.1872226 -0.017611826 -0.060215466 -0.079063125 0.14477582 0.20833787
0.17347428 0.047793392 0.06202257 -0.026130239 -0.041124318 0.033521168 -0.24234743 0.10440755
-0.07467219 -0.12494562 0.0662967 0.09453071 0.1975784 -0.10132006 -0.039703168 0.02356327
0.041400235 -0.07424637 -0.011424527 -0.10667334 -0.006562537 0.08509862 0.0009324525 0.0656328
-0.018815573 0.042839684 0.02890396 0.09716576 -0.10633708 0.022549124 0.05304411 0.025396533
-0.11859975 0.118630715 -0.07028302 -0.07872991 0.060555607 0.03207148 0.0044823117 -0.06962486
-0.162979 -0.06298959 0.010536291 0.022589935 0.009947483 -0.006531671 -0.0013641407 0.084091544
0.036431864 -0.06349212 -0.06654607 0.05596065 0.05045004 0.05847515 -0.044117868 -0.00977267
00000000: ca38 32be beba fc3d 9bf1 70bc 724e 2a3e
00000010: 0fb1 253c ce84 03be 6232 723c 342e 51be
00000020: cc92 a43c 15a6 4bbd 4325 d0bc b803 0ebd
00000030: b672 10bd 394a 163d 4f28 cbbd 3352 af3c
00000040: 6be4 5ebd b90b 163e f5b2 b73d 7114 c6bd
00000050: c21e a93c 3546 91bc 32b3 d3bd 5293 e5bd
00000060: 6780 c7bd be9b 4e3d f991 313d caff 4e3e
00000070: 0ab9 f9bc bf0d 17bd b3fa 26be 6862 fb3c
00000080: f27f 0a3e 7753 9fba e355 be3d 5b57 553d
00000090: fd9a c53d 4ec1 a13d fa1f e6bc f8fc f93d
000000a0: 3282 813d 64d2 26bb 712c c1bc 70fa b3bc
000000b0: 03d5 07be 08d0 3f3d daf1 25be 88f6 abbd
000000c0: 73cd 533d 9498 c73d 3b62 cfbd daa9 66bd
000000d0: b2a5 6c3c 7fa0 143d e30b 133e 087f af3d
000000e0: 4ea9 513d b6be 003d ee38 c7bd f919 0e3e
000000f0: 7536 593d 38a9 9d3d e0eb 19bd 7e02 b83b
00000100: 9858 88bd 7476 0dbc 901e 0c3e 914c 493d
00000110: d5e1 c23c e4ea a63d 727b ae3d 3fb5 35bd
00000120: bacd babd bf47 1ebd 51c8 b4bc edd0 673d
00000130: 5234 46bd 5aba 323c 754b 2dbe 74a3 73be
00000140: a4dd aa3c 8bc8 793d 6029 19bd 6c29 b43d
00000150: cc5b b03d 1f0f 01be 7dc2 cd3c 0dd9 033e
00000160: e8de 363d 0ce9 d2bc f626 bb3d f772 efbc
00000170: 95eb b73c faba a73d 77fa b43d dca4 1bbe
00000180: 6dc6 aebd e224 643e 7645 323d 1b80 ce3d
00000190: 22e4 86bd 1e7b 09be beb6 973d a52a f5bc
000001a0: c91e d5b9 6af0 1abd 1022 4b3d ee47 4b3c
000001b0: 3d2b 86bd ce3d a43c e6d9 fcbb c8dc 4ebd
000001c0: 109f c9bd 600f 8a3c e3bb f8bd 656e c03c
000001d0: 8b4f be3c dddf 15bd 5c62 7ebd f72c e3bd
000001e0: 1fff 133e 9f54 12be 7a1c 4a3d 082d bd3c
000001f0: e4aa d3bb 4e74 b13c 172b 97bd 5572 ba3d
00000200: 38ee 25bd a7d3 cd3c 89e2 b3bd 034c 4d3d
00000210: 687e 1bbe a579 20be c8b5 a2bc f2d1 913d
00000220: 6cec a2bd dd1a 84bd 900d a9bd 40af 8ebd
00000230: 02e0 f83c 68e2 d7bc e87e d63c e0a9 133c
00000240: 3774 803d fc33 9f3d d208 ac3b 4244 debd
00000250: a923 673d a470 f03c 6d4e 073e 3b90 d5ba
00000260: 9801 4e3d a298 293e 6141 0dbd b10a 413d
00000270: c174 c8bd 9aeb 4dbd fd7c d6bc fdd7 843c
00000280: 1816 bc3d 4cc2 13be 7a10 eebd 528e 043e
00000290: c23d 493e 7990 873d e338 77bc ddd7 6cbd
000002a0: 70b2 28bd 083d cebc 64cd 6b3d b362 203d
000002b0: 82f9 bc3b 2ca9 5dbd 49e7 28be 908a 49be
000002c0: 4658 f0ba 2f60 ca3d f6ab b6bd 5fbd 97bc
000002d0: d5d7 97bc cd65 373d 90e2 4bbd 1ce3 c23d
000002e0: 43ee 3b3e a26a c03d fb0e 5f3d 143e 46bd
000002f0: 61fd 73be 5829 633d c864 b0bd b106 eebc
00000300: 5617 e63c 621d f43d 48b7 3f3e ad46 90bc
00000310: 7ea4 76bd d9eb a1bd 1d40 143e 8656 553e
00000320: 3ea3 313e 01c3 433d 610b 7e3d 150f d6bc
00000330: f971 28bd 7e4d 093d ed29 78be a0d3 d53d
00000340: bced 98bd 7de3 ffbd 90c6 873d 5199 c13d
00000350: fe51 4a3e e480 cfbd ca9f 22bd c207 c13c
00000360: 4b93 293d 7b0e 98bd f02d 3bbc 8d77 dabd
00000370: 8d0a d7bb 2f48 ae3d d46f 743a 7d6a 863d
00000380: 1e23 9abc aa78 2f3d ffc7 ec3c d8fe c63d
00000390: 41c7 d9bd f1b8 b83c c844 593d 640c d03c
000003a0: 6de4 f2bd a9f4 f23d 8bf0 8fbd 263d a1bd
000003b0: 2809 783d 625d 033d 5be0 923b 7b97 8ebd
000003c0: f8e3 26be b000 81bd 68a0 2c3c 870e b93c
000003d0: c5fa 223c a107 d6bb f7cc b2ba 3038 ac3d
000003e0: 9439 153d 2808 82bd 4e49 88bd ff36 653d
000003f0: b3a4 4e3d a483 6f3d f0b4 34bd 8d1d 20bc

fc2.bias f4 [84]
0.029006157 0.09520928 0.031365216 -0.0037262894 0.103505045 -0.051391695 -0.07142926 0.0465897
0.078669116 0.16097677 -0.03827035 -0.054047316 -0.051090058 0.026993958 0.016761966 -0.06844857
0.1061641 -0.04315 0.01715524 0.14059763 -0.055925243 0.30337444 -0.031264994 0.2159592
0.17421977 0.2106431 0.08776599 0.049141485 0.08896771 -0.05716009 0.08585729 -0.04458197
-0.039735995 0.13469957 0.036021505 -0.045013722 0.25933272 -0.0032831058 0.02877378 0.039049696
-0.03815732 0.030048683 0.071348876 -0.04738362 0.0382566 -0.046982493 0.028208353 0.11599001
-0.059715737 0.15973102 -0.004219515 0.017531922 -0.052650936 0.034233164 -0.09741938 -0.05597809
0.015203295 0.20049828 0.121024854 0.011843639 -0.020434046 0.050055422 0.115332566 0.089291565
0.063548185 0.23735449 0.060717564 0.0029268288 -0.08588373 0.09133147 0.0018112783 0.014032961
-0.0732296 0.05094858 -0.08772249 0.10640544 -0.057728454 0.020571461 0.08028964 -0.06419611
0.08438753 -0.07759323 0.13938798 0.0022196916
00000000: 529e ed3c 15fd c23d d078 003d c334 74bb
00000010: 74fa d33d 1980 52bd 8149 92bd d7d4 3e3d
00000020: 461d a13d 18d7 243e 5fc1 1cbd b860 5dbd
00000030: cf43 51bd 6f22 dd3c 6450 893c c42e 8cbd
00000040: 906c d93d 0ebe 30bd 2589 8c3c d3f8 0f3e
00000050: de11 65bd e553 9b3e b90f 00bd 6924 5d3e
00000060: ab66 323e d3b2 573e a8be b33d 9548 493d
00000070: b434 b63d b320 6abd f2d5 af3d 959b 36bd
00000080: 36c2 22bd afee 093e 498b 133d 4f60 38bd
00000090: 42c7 843e 6029 57bb feb6 eb3c 93f2 1f3d
000000a0: da4a 1cbd a828 f63c 5c1f 923d 5415 42bd
000000b0: f4b2 1c3d b770 40bd 3415 e73c 2c8c ed3d
000000c0: 7d98 74bd 8790 233e db43 8abb 1b9f 8f3c
000000d0: 82a8 57bd 1338 0c3d d083 c7bd 4849 65bd
000000e0: 3e17 793c 6c4f 4d3e e1db f73d d30b 423c
000000f0: 4d65 a7bc ea06 4d3d 7b33 ec3d 7fde b63d
00000100: 8d25 823d 0e0d 733e fbb2 783d 0ad0 3f3b
00000110: cfe3 afbd fe0b bb3d 6a68 ed3a 81ea 653c
00000120: 67f9 95bd 75af 503d d9a7 b3bd 18eb d93d
00000130: ac74 6cbd 7b85 a83c e56e a43d 4079 83bd
00000140: 5fd3 ac3d 33e9 9ebd b9bb 0e3e 3f78 113b

fc3.weight f4 [19, 84]
-0.028241955 0.32308114 -0.24198794 -0.006089585 -0.17352588 -0.041252274 -0.37911952 -0.30883646
-0.045673344 -0.07372663 -0.3003855 0.18929908 0.04799191 0.29567507 0.013413354 0.30797037
-0.24813469 0.08015814 0.13256049 -0.023757828 0.07560303 -0.12823547 0.18957877 -0.13624638
-0.092522286 -0.2434376 -0.20711264 0.22062151 -0.13775332 -0.09961121 -0.010229015 0.03995546
-0.026908947 -0.12042184 -0.0678042 0.08377776 -0.25784093 -0.031748585 -0.045241904 0.16808626
-0.074935265 -0.11071303 -0.13788605 -0.110723965 0.21939403 -0.10856906 -0.4061428 0.23052227
-0.05702479 -0.036647 0.18800458 0.45922223 -0.23240383 -0.1547781 -0.08614337 0.03778517
0.1364702 0.33458427 -0.03660317 0.07088624 0.099059284 -0.29909047 -0.19964144 0.19511907
0.3236884 0.027247483 0.01641448 -0.02082448 0.067940034 0.16517882 -0.01754637 -0.041100796
0.009421673 0.033959072 0.041451145 -0.28147346 -0.010266668 0.3109621 0.0051031373 0.097918816
-0.11955722 -0.050549187 -0.078274205 0.19000064 -0.117020145 0.021346241 -0.16717538 0.079121254
-0.17088045 0.11796321 -0.045752984 0.14197697 -0.00044469134 -0.22081102 0.250694 0.10122265
-0.011784486 0.32207596 -0.07801316 -0.32217556 0.010398119 -0.08469926 -0.065577134 0.16199681
-0.19157472 -0.36211103 0.29166645 -0.13648011 -0.12668277 -0.18529183 0.15782928 0.4887513
-0.13768114 -0.04130421 -0.025512606 0.09029043 0.15580577 -0.09169964 0.064781554 0.04575469
-0.34709132 -0.03227119 -0.06155879 -0.22241664 0.10211699 -0.2949539 -0.13140649 0.0023767087
0.04341338 -0.08210163 0.2922836 -0.101416804 -0.044665046 -0.19425061 0.10669723 0.18007714
-0.015338049 0.044319596 0.009074157 -0.039741486 0.09077899 0.30011538 0.40746292 0.03771573
-0.0698361 0.26578683 0.21910119 0.12692344 0.18400177 -0.0149965715 -0.22433357 -0.21341299
-0.17670245 -0.24507692 0.25883144 -0.006881815 0.0012092459 -0.13356537 0.020432886 -0.08865582
-0.05068815 0.3062842 -0.030640991 0.0007764318 -0.19391152 -0.17311758 -0.14495918 -0.19789594
-0.10836531 0.1749515 0.11407704 -0.10583561 -0.035527658 0.027522223 -0.15751182 0.36669424
-0.16349363 -0.07441507 0.06198297 0.11030088 -0.11182103 0.04381545 -0.10802233 -0.0070736823
-0.022411216 0.033781838 0.03663068 -0.0495376 -0.1814952 -0.22547221 -0.03906351 -0.06443687
-0.06267079 -0.16796601 -0.10499547 -0.076692976 -0.27570313 0.08456673 0.42624018 -0.050446127
0.0047175093 -0.1958463 -0.10761795 0.28796983 -0.25024047 -0.13262782 -0.07651588 -0.034409553
0.06995776 -0.15581225 -0.13958691 -0.06448871 0.1931945 -0.055152815 0.11675459 0.16793206
0.07536064 0.00020097377 0.05490009 0.0035078991 -0.06876187 0.17890115 0.027344689 -0.031894322
0.3228229 0.2457013 -0.205389 -0.11268282 -0.14429286 -0.16678447 0.065653205 0.091278054
-0.08580548 -0.17115583 -0.20338055 0.156374 -0.071185775 -0.19245648 0.18518132 -0.015101923
0.094194986 0.30666894 -0.06319156 -0.09640741 -0.07240485 0.20493485 0.16497754 -0.21118122
-0.22659823 -0.007519031 0.06887046 -0.20006858 -0.13339783 0.25683892 -0.011558541 -0.039135776
00000000: ac5b e7bc e46a a53e b0cb 77be 248b c7bb
00000010: c5b0 31be 25f8 28bd f41b c2be d01f 9ebe
00000020: f913 3bbd fdfd 96bd 21cc 99be 9ed7 413e
00000030: 2a93 443d b962 973e afc3 5b3c 4bae 9d3e
00000040: 0517 7ebe f329 a43d f0bd 073e c79f c2bc
00000050: c3d5 9a3d 2950 03be f020 423e 2c84 0bbe
00000060: 537c bdbd b547 79be 5615 54be 9bea 613e
00000070: 350f 0dbe f600 ccbd 9997 27bc 56a8 233d
00000080: 2770 dcbc ba9f f6bd eedc 8abd ad93 ab3d
00000090: ba03 84be ce0a 02bd 934f 39bd ce1e 2c3e
000000a0: a977 99bd 83bd e2bd 0032 0dbe 3fc3 e2bd
000000b0: d4a8 603e 7559 debd f3f1 cfbe 080e 6c3e
000000c0: d492 69bd 2a1b 16bd 4684 403e 2d1f eb3e
000000d0: 45fb 6dbe 267e 1ebe ef6b b0bd 9fc4 1a3d
000000e0: d8be 0b3e a14e ab3e 35ed 15bd ce2c 913d
000000f0: 98df ca3d 6322 99be ce6e 4cbe 4bcd 473e
00000100: 7cba a53e 1d36 df3c a977 863c 1a98 aabc
00000110: 2524 8b3d a324 293e 68bd 8fbc 4f59 28bd
00000120: 5c5d 1a3c ab18 0b3d adc8 293d 4a1d 90be
00000130: 8735 28bc 6d36 9f3e 3838 a73b a989 c83d
00000140: 6ada f4bd aa0c 4fbd 3a4e a0bd 878f 423e
00000150: 42a8 efbd 50de ae3c 0630 2bbe 530a a23d
00000160: 49fb 2ebe b296 f13d 7b67 3bbd 6962 113e
00000170: 7625 e9b9 491c 62be f75a 803e d24d cf3d
00000180: b713 41bc 24e7 a43e 5dc5 9fbd 32f4 a4be
00000190: df5c 2a3c ce76 adbd 4e4d 86bd 7ee2 253e
000001a0: 2a2c 44be 9e66 b9be 4e55 953e 71c1 0bbe
000001b0: 21b9 01be 24bd 3dbe 009e 213e 9c3d fa3e
000001c0: 49fc 0cbe 9a2e 29bd d0ff d0bc 30ea b83d
000001d0: 8c8b 1f3e 05cd bbbd 31ac 843d 4569 3b3d
000001e0: f4b5 b1be cc2e 04bd 1225 7cbd 30c1 63be
000001f0: b622 d13d 3304 97be 6c8f 06be 8ec2 1b3b
00000200: 3ad2 313d e624 a8bd 32a6 953e 9db3 cfbd
00000210: b2f2 36bd a2e9 46be 1484 da3d 2466 383e
00000220: 714c 7bbc 7788 353d c6ab 143c f8c7 22bd
00000230: 56ea b93d b9a8 993e fb9e d03e cf7b 1a3d
00000240: 3b06 8fbd 3615 883e 105c 603e 38f8 013e
00000250: f66a 3c3e 2eb4 75bc b3b7 65be ef88 5abe
00000260: 7df1 34be 72f5 7abe 8e85 843e d980 e1bb
00000270: 8f7f 9e3a 5cc5 08be de62 a73c 2f91 b5bd
00000280: 619e 4fbd 48d1 9c3e d102 fbbc 7589 4b3a
00000290: be90 46be bc45 31be 2e70 14be 3ca5 4abe
000002a0: a2ee ddbd 7c26 333e 39a1 e93d 57c0 d8bd
000002b0: 7385 11bd 4976 e13c c74a 21be 59bf bb3e
000002c0: e06a 27be ee66 98bd dbe1 7d3d 6ee5 e13d
000002d0: 6d02 e5bd d477 333d d03a ddbd 59ca e7bb
000002e0: ba97 b7bc d35e 0a3d 0d0a 163d f0e7 4abd
000002f0: e1d9 39be 30e2 66be 0f01 20bd 7af7 83bd
00000300: 8b59 80bd 48ff 2bbe dd07 d7bd 3511 9dbd
00000310: f628 8dbe 5231 ad3d 273c da3e 99a0 4ebd
00000320: 5695 9a3b ef8b 48be cd66 dcbd c870 933e
00000330: 851f 80be 96cf 07be 5cb4 9cbd 08f1 0cbd
00000340: 0446 8f3d 3f8d 1fbe dfef 0ebe a812 84bd
00000350: c7d4 453e ebe7 61bd 081d ef3d 62f6 2b3e
00000360: ae56 9a3d 7cbc 5239 ebde 603d c8e4 653b
00000370: 06d3 8cbd dd31 373e f801 e03c 9fa3 02bd
00000380: 0b49 a53e 1f99 7b3e 7e51 52be 40c6 e6bd
00000390: 82c1 13be 8cc9 2abe 3075 863d fdef ba3d
000003a0: c9ba afbd 7943 2fbe fe42 50be 8120 203e
000003b0: d9c9 91bd 5013 45be 2ca0 3d3e 0e6e 77bc
000003c0: 4de9 c03d b603 9d3e 946a 81bd 4071 c5bd
000003d0: fe48 94bd 71da 513e dfef 283e e43f 58be
000003e0: 5e09 68be 3462 f6bb f50b 8d3d c7de 4cbe
000003f0: 7199 08be 6480 833e 0960 3dbc d64c 20bd

fc3.bias f4 [19]
-0.3118498 -0.11027748 0.046259344 0.010019194 -0.23504966 0.1439317 -0.32690397 0.0500284
-0.28074607 -0.07863043 0.32022563 -0.07015474 0.26336226 -0.035433337 0.07651217 0.1966717
0.014989036 0.2122405 -0.08036306
00000000: c7aa 9fbe 29d9 e1bd 707a 3d3d 8c27 243c
00000010: dcb0 70be d562 133e f55f a7be 94ea 4c3d
00000020: f3bd 8fbe fe08 a1bd 9df4 a33e 4aad 8fbd
00000030: 6bd7 863e 8c22 11bd 6ab2 9c3d 4e64 493e
00000040: 9394 753c 9355 593e 6395 a4bd
