python/CNN11.pth (torch_old, 252622 bytes, 10 tensors)

conv1.weight f4 [6, 3, 5, 5]
0	0x3ed50240	0.4160328
1	0x3f099bf9	0.5375362
2	0x3f138fbb	0.5764119
3	0x3ee0eded	0.43931523
4	0x3f10b9e4	0.56533647
5	0x3c9850fb	0.018593302
6	0x3d909e8f	0.07061493
7	0x3d82f60c	0.06394586
8	0x3e8bbdcb	0.27293238
9	0x3e68a93b	0.22720806
10	0x3c3beba2	0.011469753
11	0xbe4dd102	-0.20099261
12	0xbe3fd0ef	-0.18732046
13	0xbe4e172b	-0.20126025
14	0xbe14f527	-0.14546643
15	0x3e038fa6	0.12847766
16	0x3e06f4a7	0.13179265
17	0xbb4cea6e	-0.003126766
18	0x3cabe4bf	0.020983098
19	0xbd201252	-0.03907997
20	0x3ea68428	0.32522702
21	0x3f0a961f	0.54135317
22	0x3e9bc465	0.30423275
23	0x3e4796d4	0.1949113
24	0xbdf03bf2	-0.11730184
25	0xbd493a36	-0.04912778
26	0x3dcf56ee	0.101240024
27	0x3e710f9f	0.23541115
28	0x3e9f14fb	0.31070694
29	0x3eae02c6	0.3398649
30	0xbe495cea	-0.1966435
31	0xbe77b16e	-0.24188778
32	0xbe1e7a53	-0.1547635
33	0x3ce32529	0.02772768
34	0xbcfb20ab	-0.030655226
35	0xbe912546	-0.2834875
36	0xbf0c646c	-0.5484073
37	0xbee41543	-0.4454747
38	0xbf0f0b26	-0.55876386
39	0xbe9189b6	-0.28425378
40	0xbe0ead61	-0.13933326
41	0xbd3e2314	-0.04642017
42	0xbe64e7a1	-0.22353984
43	0xbebbecc0	-0.36704063
44	0xbe8b972e	-0.27263778
45	0x3e348880	0.17630196
46	0x3e90d3c6	0.2828657
47	0x3e5a1ea3	0.2130075
48	0xbe3be071	-0.18347336
49	0xbe9b40f2	-0.30322987
50	0x3c821a6e	0.015881743
51	0x3d2c3d4b	0.04205064
52	0x3ea7562f	0.3268294
53	0x3e99c98c	0.3003658
54	0x3e793aa3	0.24338774
55	0xbe08bed5	-0.13354047
56	0xbe3d8a15	-0.18509705
57	0xbe0f1181	-0.13971521
58	0x3da54f03	0.08071711
59	0x3e045ac0	0.12925243
60	0xbe79a06f	-0.24377607
61	0xbf00d554	-0.5032551
62	0xbf1448ab	-0.5792338
63	0xbee12f82	-0.43981558
64	0xbeb03c8a	-0.34421188
65	0xbbd8a3ac	-0.006611308
66	0xbdedfad3	-0.116201065
67	0xbe64a460	-0.22328329
68	0xbe977059	-0.29577902
69	0xbe7515b1	-0.23934056
70	0x3edd4680	0.4321785
71	0x3e94e8da	0.29083902
72	0x3db36304	0.0875912
73	0xbd49a589	-0.049230132
74	0xbe7a1047	-0.24420272
75	0xbd22e0ea	-0.039765276
76	0x3c86c881	0.01645303
77	0xbd1c82c7	-0.038210656
78	0x3c602b96	0.013682267
79	0x3d0046c4	0.031317487
80	0x3e1602b4	0.14649469
81	0x3e312f21	0.17303135
82	0x3e19d246	0.15021619
83	0x3e548979	0.20755567
84	0x3e3c49ec	0.18387574
85	0xbdc26d24	-0.09493473
86	0x3e40e531	0.1883743
87	0x3e23e0da	0.16003743
88	0x3e6e0134	0.23242646
89	0x3e9dbcdc	0.3080815
90	0xbe482b67	-0.19547807
91	0xbe0b496a	-0.13602224
92	0xbd840d10	-0.06447804
93	0x3c57af5f	0.01316437
94	0x3e11b74e	0.14230081
95	0xbda32dd2	-0.07967724
96	0xbdadfd27	-0.084955506
97	0xbea5e868	-0.32403874
98	0xbe22e838	-0.15908897
99	0xbe1e4be5	-0.15458639
100	0xbc29fa26	-0.010374581
101	0xbd5dbff0	-0.054138124
102	0xbc4308fd	-0.011903998
103	0xbd096e4f	-0.033552464
104	0xbcc2427b	-0.023713341
105	0x3d8bbf1f	0.06823563
106	0x3e8ca759	0.27471426
107	0x3e75fe5f	0.24022816
108	0x3e8a8967	0.27057955
109	0x3e1671b4	0.14691812
110	0x3dfce9e2	0.12349297
111	0x3e28818f	0.16455673
112	0x3e7e6036	0.24841389
113	0x3eb54d0e	0.3541035
114	0x3eb6fe08	0.35740685
115	0xbe12e70c	-0.1434595
116	0xbe0ff279	-0.1405734
117	0xbe4ad5c0	-0.19808102
118	0xbcfa2932	-0.030537222
119	0x3d297cd7	0.041378822
120	0x3bb53d55	0.005530993
121	0xbd7c39b0	-0.061578453
122	0xbe0449ed	-0.12918825
123	0xbdbaf68f	-0.091290586
124	0xbdb8af3e	-0.090178
125	0xbe0efb37	-0.13963018
126	0xbcef76b5	-0.029231409
127	0xbe178aa5	-0.14798982
128	0x3c4b76fc	0.012418505
129	0xbd7f6250	-0.062349617
130	0xbe13c317	-0.1442989
131	0x3c065ff3	0.008201587
132	0x3e1e006b	0.15429847
133	0xbceae655	-0.028674284
134	0x3cbc3ba1	0.022977652
135	0xbe1a2a3d	-0.15055175
136	0x3c97e1ce	0.01854029
137	0xba39cad9	-0.00070874166
138	0x3e50f2cd	0.20405121
139	0x3e57d107	0.21075831
140	0xbe4fa67e	-0.20278355
141	0xbe8473d3	-0.25869617
142	0xbea40c29	-0.32040527
143	0xbe4dc313	-0.20093946
144	0x3c1d232f	0.009590908
145	0xbde97484	-0.11399177
146	0xbea366ac	-0.3191427
147	0xbe9bf3f0	-0.30459547
148	0xbec73678	-0.38908744
149	0xbe527a7d	-0.20554538
150	0x3e46b5fb	0.19405358
151	0x3e7426a6	0.23842868
152	0x3db67df9	0.08910746
153	0xbd9dc6b7	-0.077039175
154	0xbda4c42e	-0.08045231
155	0x3e6567bf	0.22402857
156	0x3d9cd511	0.07657827
157	0xbe574c48	-0.21025193
158	0xbe965825	-0.29364124
159	0xbe92bf5c	-0.2866162
160	0x3eb0d201	0.3453522
161	0xbc9f8947	-0.019474639
162	0xbea56a12	-0.32307488
163	0xbeef30f9	-0.4671705
164	0xbe8ff086	-0.28113192
165	0x3ec35e5a	0.38157922
166	0x3e5d9e51	0.21642424
167	0xbebedb4c	-0.37276685
168	0xbed697c2	-0.41912657
169	0xbe09cbe2	-0.13456681
170	0x3f3049ea	0.68862784
171	0x3eae7cfb	0.34079728
172	0xbc8d5394	-0.017251767
173	0xbe857865	-0.26068416
174	0xbda476f9	-0.08030505
175	0xbb9b958d	-0.0047480525
176	0x3e3c663f	0.18398379
177	0xbe0c1df5	-0.13683303
178	0xbea06bad	-0.3133215
179	0xbe2774c9	-0.16353144
180	0xbd1b299c	-0.03788148
181	0x3cd24ee9	0.025672393
182	0xbeabc6db	-0.33550152
183	0xbeba4a34	-0.36384737
184	0xbecb5eac	-0.39720666
185	0xbdfac50f	-0.12244617
186	0x3cb01d95	0.02149848
187	0xbeb29c78	-0.34885
188	0xbea73bc2	-0.3266278
189	0xbebadfac	-0.36498773
190	0x3e476ca7	0.19475041
191	0x3d031529	0.0320026
192	0xbe84fed2	-0.25975662
193	0xbefeb78a	-0.49749404
194	0xbe34c671	-0.17653824
195	0x3e3df133	0.18549041
196	0x3d9e2efb	0.077238046
197	0xbe6d6697	-0.23183666
198	0xbedeea87	-0.43538305
199	0xbe00f25a	-0.1259245
200	0x3e81c7be	0.25347704
201	0x3ed44d46	0.41465205
202	0x3eb21650	0.34782648
203	0x3d44f54f	0.048085507
204	0x3e03411a	0.12817803
205	0x3daa0d74	0.08303347
206	0x3e422912	0.1896098
207	0x3e107389	0.14106573
208	0x39f65744	0.00046985794
209	0x3dc865e9	0.09785063
210	0x3de086dc	0.109632224
211	0x3e892a7d	0.26790228
212	0xbb9f857a	-0.0048682066
213	0xbdd0578c	-0.10172948
214	0x3e42564c	0.18978232
215	0x3e96fb55	0.29488626
216	0x3e79c64c	0.2439205
217	0xbd906e01	-0.070522316
218	0x3d70664c	0.058691308
219	0x3eaa22cb	0.3322967
220	0x3f010350	0.5039568
221	0x3ea3ba3a	0.31978017
222	0x3d68379e	0.056693666
223	0x3ca00896	0.019535344
224	0x3e658f4e	0.22417948
225	0x3d29d261	0.0414604
226	0x3dcae16e	0.099062786
227	0xbd8e5a18	-0.06950778
228	0x3e1f8d88	0.15581334
229	0x3e5b7935	0.21432956
230	0x3b9a18ec	0.004702678
231	0x3d838ae7	0.06422978
232	0x3e0cb3e4	0.13740498
233	0x3c4e6cba	0.012599165
234	0x3e82a410	0.25515795
235	0xbdcfb473	-0.1014184
236	0xbc93bc3a	-0.01803409
237	0xbdeb9755	-0.11503474
238	0xbd8b509e	-0.06802486
239	0x3bb4e35b	0.005520267
240	0xbe23ca5c	-0.15995163
241	0xbdac6fca	-0.084197596
242	0xbc50324c	-0.012707304
243	0x3dd455e1	0.103679426
244	0x3de5c9e8	0.11220151
245	0xbe4c9d9a	-0.19981995
246	0xbd5aed44	-0.05344893
247	0xbdb2463c	-0.087048024
248	0xbc96fd99	-0.018431472
249	0x3e14d3d3	0.1453393
250	0xbe8bf068	-0.27331853
251	0xbe959c5b	-0.29220852
252	0xbe812ced	-0.25229588
253	0xbe5f9d86	-0.21837434
254	0x3bda4b44	0.0066618044
255	0xbdce5b07	-0.10075956

conv1.bias f4 [6]
0	0x3e977dfe	0.29588312
1	0x3c783c18	0.015151046
2	0x3ec1df30	0.3786559
3	0xbef2b3d4	-0.47402823
4	0xbe3904a9	-0.18068184
5	0x3da50263	0.08057096

conv2.weight f4 [16, 6, 5, 5]
0	0xbdf137e2	-0.11778237
1	0xbdb89c99	-0.09014244
2	0x3ccaa5eb	0.024737319
3	0x3e1daa3e	0.15396973
4	0x3e2d6704	0.16933829
5	0xbdfec399	-0.12439651
6	0xbd073d5c	-0.0330175
7	0x3e2983ba	0.16554156
8	0x3da67dc1	0.081294544
9	0xbc946054	-0.01811234
10	0xbd34ca3e	-0.044138186
11	0xbd7fbea5	-0.062437672
12	0x3e245926	0.16049632
13	0x3e8197aa	0.25311023
14	0x3ce619ef	0.028088538
15	0xbdcd4159	-0.1002223
16	0xbde07786	-0.10960297
17	0xbe0ca366	-0.13734207
18	0xbdf1f432	-0.11814155
19	0xbdb8a184	-0.09015182
20	0xbe0e4e33	-0.13897018
21	0x3d84b80a	0.06480415
22	0x3d909d80	0.07061291
23	0xbdd46380	-0.103705406
24	0xbe5ffb0c	-0.2187311
25	0xbde667a4	-0.11250237
26	0x3ce1d865	0.027569005
27	0x3dd46fe4	0.10372904
28	0xbd168d76	-0.036756
29	0x3d3b3511	0.045704905
30	0xbcdc2b70	-0.026876181
31	0xbc9f288f	-0.01942852
32	0x3e45bee5	0.19311102
33	0x3de9e804	0.114212066
34	0x3e2c0125	0.16797312
35	0x3e0fc20a	0.14038864
36	0x3d1214dc	0.035664424
37	0x3dbf1c76	0.093316
38	0x3b2dd6d7	0.002652576
39	0xbcdd4bbb	-0.02701365
40	0x3e001cae	0.1251094
41	0x3e3a6a38	0.18204582
42	0x3e209866	0.15683135
43	0x3d3af705	0.045645732
44	0xbda1a9ff	-0.07893752
45	0x3dc43ecb	0.09582289
46	0xbd829515	-0.063760914
47	0xbcdc84be	-0.026918765
48	0xbcfaf5c2	-0.030634765
49	0xbddb909d	-0.10720942
50	0x3eb57f00	0.35448456
51	0x3e396f9b	0.1810898
52	0x3e12a736	0.14321598
53	0x3bfb3d66	0.0076672314
54	0xbd20f746	-0.03929832
55	0x3e3635c6	0.1779395
56	0x3de79448	0.11307579
57	0x3d938847	0.07203727
58	0xbe2b7ef8	-0.16747653
59	0xbe225ef3	-0.15856533
60	0x3caccec9	0.021094697
61	0x3d0fd3ba	0.035114028
62	0xbdf319a8	-0.11870128
63	0xbe124b23	-0.14286475
64	0xbe46e488	-0.19423115
65	0xbd0b9487	-0.034077194
66	0xbe82fed9	-0.25585058
67	0xbe949c89	-0.29025677
68	0xbe8f05c1	-0.27934077
69	0xbe75aa12	-0.23990658
70	0xbe20e410	-0.15711999
71	0xbe6b1761	-0.22958137
72	0xbe2918ce	-0.16513368
73	0xbe276518	-0.16347158
74	0xbd6b83db	-0.057498794
75	0x3e86e8d5	0.26349512
76	0x3e899a55	0.26875558
77	0x3e185573	0.14876346
78	0x3da0d6f9	0.07853503
79	0x3e05d7dc	0.13070625
80	0x3e82f802	0.2557984
81	0x3ea07660	0.31340313
82	0x3e66e76b	0.22549216
83	0x3dee40d9	0.116334625
84	0x3b87adfd	0.004140614
85	0x3d908083	0.07055762
86	0xbd9e76fc	-0.07737538
87	0x3d8d562b	0.06901201
88	0xbe078ed5	-0.1323808
89	0xbcdd5ef0	-0.027022809
90	0xbd1595bb	-0.036519747
91	0xbe0d5b1e	-0.1380429
92	0xbceb5aea	-0.028729875
93	0xbdac0131	-0.08398665
94	0xbd9f9fbe	-0.0779414
95	0x3d608340	0.05481267
96	0xbe60d2e8	-0.21955454
97	0xbe2aaea5	-0.16668184
98	0xbe26d689	-0.16292776
99	0xbe24a0a4	-0.16076905
100	0x3e0b97b6	0.13632092
101	0x3e3ccc59	0.18437327
102	0x3da2cc38	0.07949108
103	0x3dac9fff	0.08428954
104	0x3e152016	0.14563021
105	0x3e867268	0.2625916
106	0x3e3f68c8	0.18692315
107	0x3d0d3290	0.03447205
108	0xbd85cd0d	-0.06533251
109	0xbd925500	-0.07145119
110	0x3d907726	0.07053976
111	0xbdd190de	-0.10232709
112	0xbd760dca	-0.060071744
113	0xbe08ddd6	-0.13365874
114	0xbe39dace	-0.18149874
115	0xbd861142	-0.065462604
116	0xbe249a57	-0.16074501
117	0xbe3e1d48	-0.18565857
118	0xbe15a554	-0.14613849
119	0xbe204bb4	-0.15653878
120	0xbd3f325f	-0.046678897
121	0xbd8becc3	-0.06832268
122	0xbd804e46	-0.062649295
123	0xbdb2f7ee	-0.08738695
124	0xbdc7460e	-0.09730159
125	0xbdb65e56	-0.08904712
126	0x3de27ac9	0.11058576
127	0x3c05b535	0.008160879
128	0xbcfc53d1	-0.030801686
129	0x3dd02b00	0.101644516
130	0x3e185c2e	0.14878914
131	0x3e1e296f	0.15445493
132	0x3d9c9571	0.07645691
133	0x3d6a0b2b	0.057139557
134	0xbbb87fed	-0.0056304843
135	0x3d8db911	0.06920064
136	0x3ddb378f	0.10703956
137	0x3e5680c0	0.20947552
138	0x3c8058b5	0.015667299
139	0xbd4af57c	-0.04955052
140	0x3dd826f2	0.10554303
141	0xbd3f9a46	-0.046777986
142	0xbcc66dcd	-0.024222279
143	0xbdb2260c	-0.08698663
144	0xbe3e1774	-0.18563634
145	0x3e1155fc	0.14192957
146	0x3d7b02f6	0.06128212
147	0xbdd00e34	-0.10158959
148	0xbe1a71aa	-0.15082422
149	0xbd0530f7	-0.0325174
150	0xbe258541	-0.16164114
151	0xbd8e9ee4	-0.069639
152	0x3d87e751	0.06635917
153	0x3dea5d7c	0.11443612
154	0x3e9abf9e	0.30224317
155	0xbcb0de21	-0.021590294
156	0xbd6b10cc	-0.057389066
157	0xbe402f31	-0.18768002
158	0xbcec3763	-0.028835004
159	0xbd8ed95a	-0.0697505
160	0x3e587376	0.21137795
161	0x3dfcff46	0.12353377
162	0xbdd6ec83	-0.1049433
163	0xbd250d8a	-0.040296115
164	0xbdc57f46	-0.09643416
165	0xbcfd24ce	-0.030901339
166	0x3df15c54	0.11785188
167	0x3cbed956	0.023296993
168	0x3c815e6a	0.01579209
169	0xbd3a0c03	-0.04542161
170	0xbc66e379	-0.01409232
171	0xbe462048	-0.19348252
172	0xbe388591	-0.18019702
173	0xbe1f6ddb	-0.1556925
174	0xbe20a3d5	-0.15687497
175	0xbd93477d	-0.0719137
176	0xbe00ed2f	-0.12590478
177	0xbdec61f0	-0.115421176
178	0xbdc52ff5	-0.09628288
179	0x3d732074	0.05935712
180	0x3dc6f9f5	0.09715644
181	0x3dc09638	0.09403652
182	0xbdce41f2	-0.10071172
183	0xbd6ac4e9	-0.057316694
184	0x3dde15e9	0.10844023
185	0x3d7eb02a	0.062179722
186	0xbd286618	-0.04111299
187	0x3da7635a	0.08173247
188	0xbc849dec	-0.016188584
189	0x3d7565c1	0.059911493
190	0xbe0f0898	-0.13968122
191	0xbe007378	-0.12544048
192	0xbd932fe1	-0.071868666
193	0xbdece108	-0.11566359
194	0x3cb5be2e	0.022185411
195	0xbc9fb8e6	-0.019497346
196	0xbe201db8	-0.15636337
197	0xbdfae6fd	-0.12251089
198	0xbe1be25f	-0.15223072
199	0x3da37f78	0.07983297
200	0xbd0f5ed2	-0.035002537
201	0xbe9299b8	-0.28632903
202	0xbd76f307	-0.060290363
203	0x3e0c451a	0.13698235
204	0xbe2992e8	-0.16559947
205	0xbe32a63e	-0.17446229
206	0xbe42ef16	-0.19036517
207	0xbcdbffb0	-0.02685532
208	0xbd2a333f	-0.04155278
209	0xbe12aa11	-0.14322688
210	0xbc114708	-0.008867033
211	0x3e2fd25a	0.17170087
212	0x3cd611bf	0.026131509
213	0xbd83ebe8	-0.0644148
214	0xbe3bb739	-0.18331613
215	0xbc5441ea	-0.012955168
216	0x3ea2e1f9	0.31813028
217	0x3e226e09	0.15862288
218	0x3eb6a09d	0.35669413
219	0xbdbe25e5	-0.092845716
220	0x3d2950e9	0.041336928
221	0x3e5decbc	0.21672338
222	0x3e4f9917	0.20273243
223	0x3ebae1ec	0.3650049
224	0xbdf85cba	-0.12127061
225	0xbe615628	-0.22005522
226	0xbe64e015	-0.22351106
227	0xbe932e6f	-0.28746364
228	0xbdea908a	-0.1145335
229	0xbd855042	-0.065094486
230	0xbd15e696	-0.036596857
231	0xbd05da88	-0.03267911
232	0x3b439f5e	0.002984963
233	0x3c8181a7	0.015808893
234	0x3c1b6db9	0.009486609
235	0xbe1214af	-0.14265703
236	0x3c975fe5	0.018478343
237	0x3de67a0e	0.11253749
238	0x3df7e6fd	0.121046044
239	0x3da2b932	0.079454795
240	0xbca35213	-0.019936597
241	0x3cdc1c49	0.026868956
242	0x3e5012ae	0.20319626
243	0x3e509f12	0.2037318
244	0x3e4fa395	0.20277245
245	0x3e0d63e3	0.13807635
246	0x3e13c232	0.14429548
247	0x3d8736a6	0.0660222
248	0x3e0f6958	0.14005029
249	0x3e3ce79f	0.18447731
250	0xbe196893	-0.14981298
251	0xbe832c1d	-0.25619593
252	0xbe8b7c4b	-0.27243266
253	0xbe057081	-0.13031198
254	0xbdb174cd	-0.08664856
255	0xbdabb2ff	-0.0838375

conv2.bias f4 [16]
0	0x3c7c0108	0.015381105
1	0xbd01ab1b	-0.03165732
2	0x3db1f33d	0.08688972
3	0xbc8b72fd	-0.017022604
4	0xbce229be	-0.027607795
5	0x3e165df8	0.14684284
6	0xbd01f908	-0.031731635
7	0x3dc26ba5	0.09493188
8	0xbd8c601e	-0.068542704
9	0x3c97d7a9	0.018535452
10	0x3d86b6f3	0.065778635
11	0xbd094feb	-0.03352348
12	0xbd11db22	-0.035609372
13	0xbd1e8abb	-0.038706522
14	0x3cda99a7	0.026684595
15	0xbdda30da	-0.10653849

fc1.weight f4 [120, 400]
0	0xbd95fe18	-0.07323855
1	0xbc902e5b	-0.017600229
2	0x3c5df94c	0.013548207
3	0xbdc8e5f0	-0.09809482
4	0xbd962c43	-0.07332661
5	0xbd6bac5e	-0.05753743
6	0x3c36417f	0.011124014
7	0x3b0fc1d1	0.0021935592
8	0xbd46b18a	-0.04850916
9	0xbd33e601	-0.04392052
10	0xbd099100	-0.03358555
11	0x3cf6cb27	0.030126167
12	0x3d680b2f	0.05665129
13	0x3cabc1be	0.020966407
14	0xbd87d3a0	-0.06632161
15	0xbd696244	-0.05697848
16	0x3b439292	0.0029842001
17	0xbcb2d5b5	-0.02183042
18	0x3ab8361d	0.0014054213
19	0x3c7375f6	0.014859667
20	0xbd874cb6	-0.06606428
21	0xbbacd23a	-0.0052740844
22	0xbca324cb	-0.019915005
23	0x3b20cc47	0.0024535821
24	0xbd68d169	-0.056840334
25	0x3d0466a5	0.032324452
26	0xbc092ff8	-0.008373253
27	0xbce02b8b	-0.027364513
28	0xbbf3de75	-0.0074422904
29	0xbba55c8f	-0.0050464342
30	0x3cfe3ec2	0.031035785
31	0x3c2703e9	0.010193803
32	0x3c02a288	0.007973321
33	0x3c4963c1	0.01229185
34	0xbc9c6525	-0.019091198
35	0xbd1988a1	-0.037483815
36	0xbd857bab	-0.065177284
37	0xbd54d859	-0.051964138
38	0xbcc7b9fc	-0.024380676
39	0xbd0cdddd	-0.034391273
40	0x3da1a57a	0.0789289
41	0x3d87d6d3	0.06632771
42	0x3d3229fe	0.043497078
43	0x3d37801d	0.044799913
44	0x3c1dd9f2	0.009634482
45	0xbba406cf	-0.0050056945
46	0x3d982d46	0.0743051
47	0x3c060c50	0.0081816465
48	0x3e134ef1	0.14385583
49	0x3d488cd7	0.04896244
50	0xbd9f1767	-0.077681355
51	0xbd04add5	-0.03239234
52	0xbd56d990	-0.052453578
53	0xbd8cc19e	-0.06872867
54	0xbc887cc8	-0.016661063
55	0xbca3095a	-0.01990192
56	0xbdff71c4	-0.12472871
57	0xbd6f2a7e	-0.058390133
58	0xbdac6f08	-0.08419615
59	0xbdcac04d	-0.0989996
60	0xbd94936d	-0.07254682
61	0xbc85c068	-0.016327098
62	0xbcd78fa6	-0.026313614
63	0xbd8abb25	-0.06773976
64	0xbd93d87f	-0.07219028
65	0x3c7f1c26	0.015570676
66	0xbd8e705a	-0.06955023
67	0xbd9f8880	-0.07789707
68	0xbdd06fb6	-0.10177557
69	0xbd764d40	-0.060132265
70	0xbdc2f6a0	-0.09519696
71	0xbdd0eb5c	-0.10201141
72	0x3c12f2eb	0.008969049
73	0x3b5d5ddc	0.0033777868
74	0xbda38739	-0.07984776
75	0xbb19b87c	-0.0023455909
76	0x3ca22101	0.019791128
77	0x3b9a05eb	0.0047004125
78	0xbc083fed	-0.008316022
79	0xbc40b0a4	-0.011760864
80	0xbc186bd4	-0.009303052
81	0xbbad7b12	-0.005294212
82	0x3ce3925e	0.027779754
83	0xbd28b456	-0.041187607
84	0x3cfe7fea	0.031066854
85	0x3d2e1b06	0.04250624
86	0x3cfca0c4	0.030838378
87	0xbd2bc487	-0.04193547
88	0x3c5c7481	0.013455511
89	0xbc804032	-0.01565561
90	0x3d2fa28c	0.042879626
91	0x3d224ff7	0.03962704
92	0x3b97bc51	0.0046306034
93	0xbc9e8fcf	-0.019355683
94	0x3d0b1f4d	0.033965398
95	0x395a9aa7	0.00020847713
96	0x3d083831	0.033256713
97	0x3c7858bc	0.015157875
98	0xbd376483	-0.04477359
99	0x3d119d4f	0.03555041
100	0xbcece06c	-0.028915606
101	0xbd599b05	-0.053126354
102	0x3cffe73f	0.031238196
103	0x3d39ac69	0.04533044
104	0xbd160edc	-0.036635265
105	0xb9042d9e	-0.00012605495
106	0x3cacadb2	0.021078918
107	0xbb642cdc	-0.0034816777
108	0x3d08588a	0.033287562
109	0x3c5467b3	0.012964177
110	0x3d52eb6c	0.051494047
111	0x3d4f7c4b	0.050655644
112	0xbc5b9eba	-0.013404543
113	0xbcb2a0b8	-0.021805152
114	0x3c6664f2	0.014062153
115	0xbd1d9611	-0.038473193
116	0x3cd1d252	0.025612984
117	0x3c95e14b	0.018295905
118	0x3cf2e4fe	0.029650208
119	0x3c7fa4a9	0.015603223
120	0x3d17a0d4	0.037018612
121	0x3c536b17	0.01290395
122	0x3d532ce0	0.051556468
123	0xbd761cc8	-0.06008604
124	0x3d3ee202	0.046602257
125	0x3d90c780	0.070693016
126	0xb97cec91	-0.0002412072
127	0xb9f9f9bb	-0.00047679045
128	0x3d324ac3	0.04352833
129	0xbc59a159	-0.013283097
130	0x3c166fbc	0.009181913
131	0xbcccdd9f	-0.02500802
132	0x399987fa	0.00029283745
133	0xbc5dafce	-0.013530685
134	0xbad92378	-0.0016566357
135	0x3c9e1f6b	0.01930209
136	0x3cc94b37	0.024571998
137	0xbd3ae9e6	-0.04563322
138	0xbd31a918	-0.04337415
139	0x3d563086	0.05229237
140	0x3d9f32fb	0.07773396
141	0x3cc7c6d8	0.024386808
142	0xbd258994	-0.040414408
143	0xbcf3dd67	-0.029768659
144	0x3b9fd2f3	0.004877442
145	0x3e053c3e	0.13011262
146	0xbc96dd56	-0.018416088
147	0x3be8160c	0.0070827063
148	0x3db5edf3	0.08883276
149	0x3e07ae4d	0.13250084
150	0x3cbed994	0.023297109
151	0xbd321954	-0.043481186
152	0x3d159edd	0.036528457
153	0x3cb0a604	0.021563537
154	0x3bf86155	0.0075799623
155	0x3d4fe371	0.050754014
156	0x3cd08835	0.025455574
157	0x3baf24ac	0.005344948
158	0xbc50cff6	-0.012744894
159	0xbc05c4b7	-0.008164576
160	0x3d1ff6d1	0.03905374
161	0xbbfb4e97	-0.0076692807
162	0xbc895123	-0.016762322
163	0x3d61d461	0.05513418
164	0xbd31f0a6	-0.04344239
165	0xbac779c7	-0.0015218788
166	0x3b375d8b	0.002797934
167	0x3d6d69e0	0.0579623
168	0xbc89b839	-0.016811477
169	0xbd89c4e0	-0.06727004
170	0x3c35adb9	0.011088782
171	0x3cf1b42a	0.029504854
172	0xbc3f4912	-0.011675136
173	0x3be7fd39	0.007079747
174	0xbd247ccb	-0.040158074
175	0xba89cc76	-0.0010513205
176	0x3d027137	0.03184625
177	0x3c954fc4	0.018226512
178	0xbcacc817	-0.021091504
179	0x3badfaca	0.0053094374
180	0x3bf2a83c	0.007405309
181	0xbd526d9e	-0.05137407
182	0x3de41442	0.11136676
183	0x3c8c60c2	0.017135981
184	0xbd48f34f	-0.049060162
185	0xbc11974d	-0.008886171
186	0xbbae110f	-0.005312092
187	0xbc6621f1	-0.014046178
188	0xba71629e	-0.00092081155
189	0x3d3af7cd	0.045646477
190	0x3b989d14	0.004657397
191	0x3ccaf8f2	0.02477691
192	0x3cad4e82	0.0211556
193	0xbd079470	-0.033100545
194	0x3d65b1ef	0.056077894
195	0xbd0ab06b	-0.03385965
196	0xbd05fc12	-0.032711096
197	0x3d52cf64	0.051467314
198	0x3ced1626	0.028941225
199	0x3d8ae034	0.067810446
200	0xbd022e4b	-0.03178243
201	0xbd0ec159	-0.03485236
202	0xbbd2f27e	-0.0064375987
203	0xbbce8737	-0.00630274
204	0x3cdd9d26	0.027052473
205	0xbd90c96a	-0.07069667
206	0xbd81971a	-0.063276485
207	0xbd6c9399	-0.057757948
208	0x3cdc7ec2	0.026915912
209	0x3d8a6790	0.06758034
210	0xbd6798b6	-0.05654212
211	0xbc526db3	-0.012843537
212	0x3c8a4b2a	0.016881544
213	0xbca9450b	-0.020662805
214	0x3c150cf1	0.009097324
215	0x3d2d615a	0.04232917
216	0xbd34f723	-0.044181
217	0x3c419ee9	0.011817672
218	0x3d814b7f	0.06313228
219	0x3d945f96	0.07244794
220	0x3bb273bf	0.005445927
221	0xbd67689a	-0.05649624
222	0xbc1b9146	-0.009495085
223	0x3d4573dc	0.048206195
224	0x3c72afe9	0.014812448
225	0x3db38f1f	0.087675326
226	0x3d466c11	0.048442904
227	0xbd49b332	-0.04924316
228	0xbc8f6e9a	-0.017508794
229	0x3d21e6c5	0.03952672
230	0x3dc89c90	0.09795487
231	0xbb7fb6cb	-0.0039018865
232	0xbdc4b254	-0.09604326
233	0x3d38402f	0.044983085
234	0x3c6a36f0	0.014295325
235	0x3c7fd059	0.015613639
236	0xbd2c2c1b	-0.04203425
237	0xbda3a6e5	-0.07990817
238	0xbc615db9	-0.013755255
239	0x3bf365ff	0.0074279304
240	0x3d93e4f7	0.07221406
241	0x3daf33cf	0.085548036
242	0xbccdc434	-0.025117971
243	0xbc971ea4	-0.018447228
244	0x3b30d8b5	0.0026984636
245	0x3d6599ff	0.056055065
246	0x3d9be3a9	0.07611782
247	0xbdb56387	-0.08856874
248	0xbd317ac3	-0.043329965
249	0x3dc4b9c8	0.096057475
250	0x3d08c209	0.03338817
251	0xbc90d88f	-0.017681388
252	0x3cb26e55	0.021781126
253	0xbd28065d	-0.041021693
254	0x3bf177d7	0.0073690224
255	0xbd22e3ba	-0.03976796

fc1.bias f4 [120]
0	0x3d6efc01	0.0583458
1	0x3bdb2866	0.0066881655
2	0x3ce52865	0.027973363
3	0x3d8ca69b	0.06867715
4	0x3c715c08	0.014731415
5	0x3da86efb	0.08224293
6	0xbc86f20c	-0.016472839
7	0x3d9f1143	0.07766964
8	0xbd2ab324	-0.041674748
9	0xbce37d89	-0.02776982
10	0xbca1ed91	-0.0197666
11	0xbc65f6df	-0.014035909
12	0x3dc50d68	0.09621698
13	0xbb6614c3	-0.003510759
14	0xbd6666d0	-0.056250393
15	0x3c3e347a	0.011609191
16	0x3d38cb11	0.045115534
17	0x3dc3e99f	0.09566044
18	0xbd807a84	-0.06273368
19	0x3d373b03	0.044734012
20	0xbc853f16	-0.016265433
21	0x3e387332	0.18012694
22	0xbcc5201a	-0.024063159
23	0x3d1a176f	0.037620004
24	0x3d809337	0.06278079
25	0xbc9e76aa	-0.019343693
26	0x3d68db0b	0.05684952
27	0x3d446375	0.047946412
28	0xbcc32faf	-0.023826448
29	0x3ba42e23	0.0050103827
30	0x3d8bf032	0.06832923
31	0xbc49decc	-0.012321185
32	0xbce7aa68	-0.028279498
33	0x3e0b87fe	0.13626096
34	0x3d5aceb3	0.05341978
35	0xbd63d1e0	-0.055620074
36	0xbcb09318	-0.021554515
37	0xbd953377	-0.07285207
38	0xbcb31348	-0.02185978
39	0x3c6218e2	0.013799878
40	0xbd4a2783	-0.049354088
41	0x3cbc4315	0.022981206
42	0x39efb399	0.00045719443
43	0x3ca50d98	0.020148084
44	0xbcaa4d01	-0.020788671
45	0xbd2392b8	-0.039934844
46	0x3dd3fcc2	0.10350944
47	0x3bb15311	0.0054115136
48	0xbcf0b7d2	-0.029384527
49	0x3c285669	0.010274508
50	0x3d74786c	0.059685156
51	0xbc741853	-0.0148983775
52	0xbd363e54	-0.044493034
53	0x3da15da1	0.078791864
54	0xbbdc15ee	-0.0067164814
55	0xbb32d5ce	-0.0027288082
56	0xbcf4416f	-0.029816357
57	0xbd66a602	-0.05631066
58	0x3c924f0c	0.017859958
59	0xbd5f7ff2	-0.054565378
60	0xbbf362a5	-0.007427531
61	0x3d68de9a	0.056852914
62	0x3d80c432	0.06287421
63	0x3d1388d8	0.036019176
64	0x3d63a5bb	0.055577975
65	0x3c3916c2	0.01129693
66	0x3c0c30c6	0.00855655
67	0x3c34e95c	0.011041965
68	0xbceb3fbc	-0.028716914
69	0xbd2dbf48	-0.04241875
70	0x3d1f6710	0.038916647
71	0xbb3ba2fb	-0.002863108
72	0xba89bdf4	-0.0010508881
73	0xbd0ed265	-0.034868617
74	0x3d71af08	0.059004813
75	0xbcaaa29f	-0.020829497
76	0xbd1d7988	-0.03844598
77	0xbc704ede	-0.014667241
78	0xbbc513cd	-0.0060143233
79	0x3c8fa074	0.017532565
80	0x3df5217d	0.11969278
81	0xbc2f8a61	-0.010714144
82	0x3ccc1bae	0.024915542
83	0x3bb1e7e6	0.005429256
84	0xbd197df8	-0.03747365
85	0x3e02ba1f	0.12766312
86	0x3d7fb48e	0.06242805
87	0xbcb15d2b	-0.021650871
88	0x3bf2ae95	0.0074060657
89	0x3c81c9fe	0.015843388
90	0x3b82b704	0.0039891023
91	0xbc1544df	-0.009110658
92	0x3d8869e5	0.06660823
93	0x3c17fc2c	0.009276431
94	0x3d79ab84	0.060954586
95	0x3d29a6d5	0.04141887
96	0xbb8b40b4	-0.0042496566
97	0xbd063ae4	-0.032771006
98	0xbd102d73	-0.035199594
99	0x3a667160	0.0008790698
100	0xbce949a4	-0.028477497
101	0x3cc4e7c3	0.024036294
102	0x3d4c3726	0.04985728
103	0xbbc68a1d	-0.006058945
104	0x3d1d4b92	0.038402148
105	0xbc51852a	-0.012788096
106	0xbd310070	-0.043213308
107	0xbcb3fd78	-0.02197145
108	0xbc1647dc	-0.009172406
109	0xbbb5b06c	-0.0055447128
110	0x3c8b3607	0.016993536
111	0x3c61fc0b	0.013793002
112	0x3bc2eee8	0.00594889
113	0x3da9a471	0.08283318
114	0x3d5b19b2	0.0534913
115	0x3cd32f9f	0.025779543
116	0xbbc25e71	-0.0059316684
117	0xbcb6b602	-0.022303585
118	0x3d68dd74	0.05685182
119	0xbd029231	-0.0318777

fc2.weight f4 [84, 120]
0	0xbe2827e3	-0.16421466
1	0x3dfd5e9b	0.1237156
2	0xbbe013e9	-0.006838311
3	0x3e19f161	0.15033485
4	0x3cb22a4e	0.021748688
5	0xbdf334ba	-0.11875291
6	0x3c0f7fe9	0.0087585235
7	0xbe4a618f	-0.19763778
8	0x3c9bfede	0.019042429
9	0xbd55cf18	-0.052199453
10	0xbc9e162d	-0.019297684
11	0xbd0e2cd5	-0.034710724
12	0xbc954508	-0.018221393
13	0x3d29f00a	0.041488685
14	0xbdcb112a	-0.09915383
15	0x3cb46133	0.022019004
16	0xbd300cf3	-0.0429811
17	0x3e17ed18	0.14836538
18	0x3db7613e	0.08954094
19	0xbda03995	-0.07823483
20	0x3ca6a4ba	0.02034222
21	0xbc851c70	-0.016248912
22	0xbdd63cf1	-0.104608424
23	0xbdfaa78f	-0.122389905
24	0xbdbae6cd	-0.09126053
25	0x3d47650b	0.048680346
26	0x3d90a325	0.07062367
27	0x3e38fb5c	0.18064636
28	0xbcd206bb	-0.025637975
29	0xbd0fc63b	-0.035101157
30	0xbe15bbe5	-0.14622457
31	0x3cd7cbc2	0.026342276
32	0x3e0ce471	0.13759018
33	0x3c833454	0.016016163
34	0x3dae3eb2	0.08508052
35	0x3d07287e	0.0329976
36	0x3dbc9958	0.092089355
37	0x3d951261	0.07278896
38	0xbd3d5c2c	-0.04623048
39	0x3dd42113	0.10357871
40	0x3d65b44f	0.05608016
41	0xbb78a3cc	-0.0037939427
42	0xbd1ba017	-0.03799447
43	0xbcdae6f0	-0.026721448
44	0xbe03383f	-0.12814425
45	0x3cee51ae	0.029091682
46	0xbe1b22ab	-0.15149944
47	0xbdaea0f3	-0.085267924
48	0x3d7ea373	0.062167596
49	0x3da0967c	0.078412026
50	0xbdc814f5	-0.09769622
51	0xbd719dd6	-0.058988415
52	0x3c6b3911	0.014356867
53	0x3d439dcb	0.047757905
54	0x3e0a056d	0.13478632
55	0x3dd01f94	0.10162273
56	0x3d01d351	0.031695668
57	0x3caa78cc	0.020809554
58	0xbda85e74	-0.082211405
59	0x3dfa1d41	0.12212611
60	0x3d422f3c	0.047408327
61	0x3d86a6f5	0.06574813
62	0xbcd024f9	-0.025408255
63	0x3bebcba8	0.0071959086
64	0xbd924f48	-0.07144028
65	0x3b198930	0.0023427717
66	0x3df0c17a	0.11755653
67	0x3d4dc48b	0.050236266
68	0x3d15be00	0.03655815
69	0x3db60b1a	0.08888836
70	0x3db4fd66	0.088373944
71	0xbd3388f8	-0.043831795
72	0xbdcb5b04	-0.09929469
73	0xbce33c12	-0.027738605
74	0xbcc8a44a	-0.024492402
75	0x3d5e1eb6	0.054228507
76	0xbd09fbad	-0.033687282
77	0x3be43d9e	0.006965353
78	0xbe2d66d2	-0.16933754
79	0xbe57bf5a	-0.21069089
80	0x3c11d454	0.008900721
81	0x3d79dbe5	0.061000723
82	0xbd03ceb6	-0.032179557
83	0x3dbbfb1d	0.091787554
84	0x3db598c5	0.08867029
85	0xbddc33cb	-0.10752066
86	0x3d40503f	0.04695153
87	0x3de1c5b1	0.11024035
88	0x3cd2a1fb	0.025712004
89	0xbcb047ab	-0.021518549
90	0x3dbcd23f	0.09219789
91	0xbd127d8a	-0.035764255
92	0x3cbe6e16	0.023245852
93	0x3daaaaaa	0.08333333
94	0x3dcba9f6	0.09944527
95	0xbe13fa82	-0.1445103
96	0xbdb53237	-0.08847468
97	0x3e629642	0.22127631
98	0x3d1f56fe	0.03890132
99	0x3dc265bc	0.094920605
100	0xbd86a634	-0.065746695
101	0xbe0dc834	-0.13845903
102	0x3d795c13	0.060878824
103	0xbcf5097b	-0.029911747
104	0x3c845b35	0.016156772
105	0xbd1aebd1	-0.03782255
106	0x3d474484	0.048649326
107	0x3c9476e4	0.018123098
108	0xbd7c28f6	-0.0615625
109	0x3cac49f6	0.021031361
110	0xbc8f12a3	-0.017464941
111	0xbd368a41	-0.044565443
112	0xbda1687b	-0.07881256
113	0x3cf84323	0.03030545
114	0xbddfa693	-0.109204434
115	0x3c8da3ae	0.017289963
116	0x3a61a920	0.00086082704
117	0xbcad6469	-0.021166043
118	0xbd8d4b32	-0.06899108
119	0xbdc39715	-0.09550301
120	0x3e0b99d0	0.13632894
121	0xbe0d9b1d	-0.13828702
122	0x3d387777	0.045035806
123	0x3b1dfb7d	0.0024106198
124	0x3ba9c88b	0.0051813773
125	0x3bcaa1a9	0.006183822
126	0xbd99dc7d	-0.07512758
127	0x3d9a9cf7	0.0754947
128	0xbd271b8f	-0.040797766
129	0x3c96782c	0.01836785
130	0xbda27a57	-0.07933491
131	0x3d4d3d4b	0.05010728
132	0xbe116e01	-0.1420212
133	0xbe1659e7	-0.14682733
134	0xbc4f9ddf	-0.012671917
135	0x3d57cd53	0.052686047
136	0xbd8e3e62	-0.06945492
137	0xbd77a9c8	-0.06046465
138	0xbd9d653c	-0.076853245
139	0xbd95dfab	-0.07318052
140	0x3d03d51f	0.03218567
141	0xbc5f1524	-0.01361588
142	0x3ce735fb	0.028223982
143	0x3a682c50	0.0008856701
144	0x3d82d364	0.06387976
145	0x3d96be62	0.073605314
146	0x3b190ba5	0.0023352888
147	0xbdd97ed7	-0.10619896
148	0x3d64b16e	0.055833273
149	0x3d0cc84f	0.034370717
150	0x3de94d70	0.11391723
151	0xbbe1d7b8	-0.0068921708
152	0x3d4ad965	0.04952373
153	0x3e2a7d34	0.16649324
154	0xbd45fa76	-0.04833456
155	0x3d6e713c	0.058213457
156	0xbdb270e5	-0.08712939
157	0xbd349bf4	-0.04409404
158	0xbc8bb110	-0.017052203
159	0x3c98ead0	0.018666655
160	0x3db24378	0.08704275
161	0xbe108160	-0.14111853
162	0xbdce7075	-0.10080043
163	0x3e0ac946	0.13553342
164	0x3e4c64d2	0.19960335
165	0x3d7f6810	0.0623551
166	0xbc98c043	-0.018646365
167	0xbd4c40e1	-0.04986656
168	0xbd275d40	-0.040860415
169	0xbd009a10	-0.031396925
170	0x3d5a681d	0.053321946
171	0x3cc3d3cd	0.023904705
172	0xbbe761a2	-0.0070611993
173	0xbd69c75f	-0.0570749
174	0xbe272df4	-0.16326123
175	0xbe4a437d	-0.19752307
176	0x3b8f705e	0.004377409
177	0x3dc9006e	0.09814535
178	0xbdc5344a	-0.09629114
179	0xbc190b3f	-0.00934106
180	0xbc5be408	-0.013421066
181	0x3d359039	0.044326995
182	0xbd64bda8	-0.055844933
183	0x3db502ad	0.08838401
184	0x3e41e004	0.18933111
185	0x3dd07aab	0.10179647
186	0x3d53742a	0.051624455
187	0xbd3ec4aa	-0.046574272
188	0xbe77792f	-0.24167322
189	0x3d1b2e83	0.037886154
190	0xbdab22d7	-0.083562545
191	0xbcabb96c	-0.02096244
192	0x3c93dc26	0.01804931
193	0x3df1f33c	0.118139714
194	0x3e25cfef	0.16192602
195	0xbcdffbc2	-0.027341727
196	0xbd503615	-0.050832827
197	0xbdc78f0b	-0.0974408
198	0x3dd92591	0.10602868
199	0x3e2bddf4	0.16783887
200	0x3e210c00	0.15727234
201	0x3d435c6d	0.047695566
202	0x3d973a6d	0.07384191
203	0xbcb65a15	-0.022259751
204	0xbd593c73	-0.053036164
205	0x3cec3c70	0.028837413
206	0xbe5ebf6f	-0.21752714
207	0x3daa7f92	0.08325113
208	0xbd7e46ee	-0.062079363
209	0xbe093b3b	-0.13401501
210	0x3d67c619	0.056585405
211	0x3daa9b13	0.08330359
212	0x3e3266ef	0.17422079
213	0xbdd9fe64	-0.10644224
214	0xbd5b21f4	-0.053499177
215	0x3b68e3dd	0.0035536208
216	0x3d14f816	0.036369406
217	0xbda9c4fe	-0.082895264
218	0xbbd2c806	-0.006432536
219	0xbde3d8f0	-0.11125362
220	0xbbd0e7bd	-0.0063752816
221	0x3d9dce80	0.077054024
222	0x3bf28cee	0.007402054
223	0x3d866a7d	0.0656328
224	0xbca7942d	-0.020456398
225	0x3d2eeac0	0.042704344
226	0x3d0101dc	0.031495914
227	0x3daabd60	0.08336902
228	0xbdd73de0	-0.105098486
229	0x3c7e8802	0.0155353565
230	0x3d468334	0.04846497
231	0x3c88cd2a	0.016699392
232	0xbdec73d6	-0.115455315
233	0x3dc9aa97	0.098469906
234	0xbd9f5aa4	-0.0778096
235	0xbda09c6c	-0.07842335
236	0x3d906465	0.07050399
237	0x3ca492c8	0.020089522
238	0x3ca2528a	0.019814748
239	0xbdbd6370	-0.09247482
240	0xbe14be60	-0.14525747
241	0xbd8a6781	-0.06758023
242	0x3b7b30a0	0.0038328543
243	0x3ca8e2c6	0.020615947
244	0x3c2d2c49	0.01056964
245	0xbc254d43	-0.010089221
246	0xbb620942	-0.0034490381
247	0x3da0b1c6	0.078464076
248	0x3d14a223	0.036287438
249	0xbd85c8a5	-0.065324105
250	0xbda9c55b	-0.08289596
251	0x3d6553b5	0.055988032
252	0x3d32ddb9	0.043668482
253	0x3d67a99b	0.056558233
254	0xbd159b7e	-0.036525242
255	0xbc8128e9	-0.015766578

fc2.bias f4 [84]
0	0x3ce27824	0.027645178
1	0x3dc75ff3	0.09735098
2	0x3ccedd4a	0.025252003
3	0xbb646b7c	-0.0034854105
4	0x3dccdf58	0.10003537
5	0xbd5b0af5	-0.053477246
6	0xbd9ef7ab	-0.07762083
7	0x3d31b07a	0.04338119
8	0x3d9378ab	0.0720075
9	0x3e1c5a95	0.1526893
10	0xbd2cd70d	-0.042197276
11	0xbd574431	-0.052555267
12	0xbd54e448	-0.05197552
13	0x3cdbc9b3	0.026829576
14	0x3c790605	0.015199189
15	0xbd938797	-0.07203596
16	0x3dcec3be	0.100959286
17	0xbd312377	-0.043246713
18	0x3c8aa613	0.016924893
19	0x3e09bf1a	0.13451806
20	0xbd65270a	-0.055945434
21	0x3e95bd1a	0.29245836
22	0xbd05dc91	-0.03268105
23	0x3e584c83	0.21122937
24	0x3e2aade7	0.16667901
25	0x3e541481	0.20710947
26	0x3db139ff	0.0865364
27	0x3d451b6d	0.04812186
28	0x3db25fd1	0.08709682
29	0xbd6bfade	-0.057612292
30	0x3da25292	0.07925905
31	0xbd3f4e5e	-0.046705596
32	0xbd35a661	-0.044348124
33	0x3e0c235d	0.13685365
34	0x3d01efb2	0.031722732
35	0xbd3974a7	-0.045277264
36	0x3e8467b0	0.25860357
37	0xbb880391	-0.004150816
38	0x3ccb2460	0.024797618
39	0x3d2c164b	0.042013448
40	0xbd1ce5b3	-0.038304996
41	0x3cfe3eea	0.03103586
42	0x3d9dafd6	0.07699554
43	0xbd47a94c	-0.04874544
44	0x3d1f1f93	0.03884847
45	0xbd41e029	-0.047332916
46	0x3cdac628	0.026705816
47	0x3de3b35a	0.11118193
48	0xbd6d8ff5	-0.057998616
49	0x3e241bfe	0.16026303
50	0xbbbaa428	-0.0056958385
51	0x3c68909a	0.014194632
52	0xbd686e4a	-0.056745805
53	0x3cd443c5	0.025911221
54	0xbdc76951	-0.097368844
55	0xbd624b3c	-0.05524753
56	0x3c2e3977	0.010633818
57	0x3e4b7a57	0.19870888
58	0x3dd51d8c	0.10406026
59	0x3c25bbf2	0.01011561
60	0xbcba7901	-0.022762777
61	0x3d2db3ce	0.042407803
62	0x3dd1d466	0.1024559
63	0x3db603fb	0.08887478
64	0x3d866d15	0.065637745
65	0x3e6b8625	0.23000391
66	0x3d85e022	0.065368906
67	0xb9fc5028	-0.00048124907
68	0xbdbba5bf	-0.09162473
69	0x3db3849a	0.08765526
70	0x39757f61	0.00023412473
71	0x3c82deee	0.015975442
72	0xbd877458	-0.06613988
73	0x3d36ddf7	0.044645276
74	0xbdb122f9	-0.08649249
75	0x3dd2825e	0.10278772
76	0xbd6601dc	-0.056154117
77	0x3cc4632e	0.023973074
78	0x3da5e0e9	0.08099539
79	0xbd8e3a95	-0.069447674
80	0x3d9fed78	0.078089654
81	0xbd965083	-0.07339575
82	0x3e1237e3	0.14279132
83	0x3b2c375b	0.0026278112

fc3.weight f4 [19, 84]
0	0xbcdd1dd1	-0.026991757
1	0x3ea04215	0.31300417
2	0xbe5f1c68	-0.2178818
3	0xbbc78ab8	-0.0060895346
4	0xbe2ac763	-0.16677622
5	0xbc8a7f99	-0.016906546
6	0xbeb4c330	-0.35305166
7	0xbe90af47	-0.28258726
8	0xbd09b09b	-0.03361569
9	0xbda4cc10	-0.08046734
10	0xbe925c6b	-0.28586134
11	0x3e313439	0.17305078
12	0x3d441675	0.04787298
13	0x3e9cb23e	0.30604738
14	0x3bd2bb4a	0.006431018
15	0x3e96ef01	0.2947922
16	0xbe714058	-0.23559701
17	0x3dacd84b	0.08439692
18	0x3e050f2e	0.12994072
19	0xbcca41ef	-0.024689643
20	0x3d73c617	0.059515085
21	0xbde00e9d	-0.10940287
22	0x3e387bf8	0.1801604
23	0xbe03de69	-0.12877811
24	0xbd8484f6	-0.06470673
25	0xbe77d14c	-0.24200934
26	0xbe415f3a	-0.18883982
27	0x3e6d5b8e	0.23179457
28	0xbe0c2912	-0.13687542
29	0xbda78cd0	-0.08181155
30	0x3c40d4f8	0.011769526
31	0x3d24a44a	0.04019574
32	0xbc473826	-0.012159383
33	0xbde9486e	-0.11390768
34	0xbd83129a	-0.06400032
35	0x3dbde3bf	0.09271955
36	0xbe7a5c3e	-0.2444925
37	0xbcfed11e	-0.031105574
38	0xbd4fa1b1	-0.05069131
39	0x3e2560e4	0.16150242
40	0xbd93e4c4	-0.07221368
41	0xbde1fff8	-0.1103515
42	0xbe075f81	-0.13220026
43	0xbddd166e	-0.10795294
44	0x3e692ffa	0.22772208
45	0xbdde3993	-0.10850825
46	0xbec0f6ef	-0.37688395
47	0x3e63ed3c	0.22258466
48	0xbd580b45	-0.052745122
49	0xbcaafc86	-0.020872366
50	0x3e3ef0b4	0.18646508
51	0x3ee20e32	0.44151455
52	0xbe5aceb9	-0.21367921
53	0xbe1817b8	-0.14852798
54	0xbd9d49db	-0.076801024
55	0x3d1b0331	0.03784484
56	0x3e0b4356	0.13599905
57	0x3ea6ec52	0.32602173
58	0x3abfb16e	0.0014625022
59	0x3d959441	0.07303668
60	0x3dc36caf	0.09542214
61	0xbe8d5485	-0.27603546
62	0xbe364464	-0.17799526
63	0x3e4224ad	0.18959303
64	0x3ea1d0f6	0.31604737
65	0x3cd3d9b1	0.02586064
66	0x3ce9b796	0.028529923
67	0x3c3dd2f8	0.011585943
68	0x3d659005	0.05604555
69	0x3e223202	0.15839389
70	0x3be12375	0.006870682
71	0xbd21105b	-0.03932224
72	0x3c31d45b	0.010853852
73	0x3d2003c6	0.0390661
74	0x3d2a6247	0.04159763
75	0xbe8a1c33	-0.2697464
76	0xbc5bca3a	-0.013414914
77	0x3e974c5f	0.29550454
78	0x3bccb205	0.0062468075
79	0x3dda7e5c	0.106686324
80	0xbde82a5a	-0.11336203
81	0xbd33fbc3	-0.04394127
82	0xbd9454ca	-0.07242735
83	0x3e389d41	0.18028738
84	0xbdef4260	-0.11682582
85	0x3cf72504	0.030169018
86	0xbe268826	-0.16262874
87	0x3da20b3a	0.079122975
88	0xbe2fb6c8	-0.1715957
89	0x3de00af8	0.10939592
90	0xbd111f74	-0.035430387
91	0x3e0a6238	0.1351403
92	0x3b515b1d	0.0031945177
93	0xbe5a580d	-0.21322651
94	0x3e54f170	0.20795226
95	0x3da9c31d	0.08289168
96	0xbc403d3c	-0.011733349
97	0x3e9e2260	0.308856
98	0xbd8251b4	-0.0636324
99	0xbe954d2c	-0.2916044
100	0xbbabf4d9	-0.005247694
101	0xbda8b1b6	-0.08237021
102	0xbd815cb6	-0.06316511
103	0x3e23d670	0.1599977
104	0xbe36868e	-0.17824766
105	0xbea7426c	-0.32667863
106	0x3e835032	0.25647122
107	0xbe060617	-0.1308826
108	0xbdd321d5	-0.10309187
109	0xbe3eebee	-0.18644688
110	0x3e0a6530	0.13515162
111	0x3eda9be8	0.42697072
112	0xbe0421e6	-0.12903556
113	0xbd171b81	-0.036891464
114	0xbd1226d9	-0.03568158
115	0x3db825ec	0.08991608
116	0x3e0e40eb	0.13891952
117	0xbdaf7238	-0.085667074
118	0x3d84f18e	0.064913854
119	0x3d652feb	0.0559539
120	0xbeae4687	-0.34038183
121	0xbc68bc3a	-0.014205033
122	0xbd81fbbe	-0.06346844
123	0xbe5d2ea1	-0.21599819
124	0x3dc9560c	0.09830865
125	0xbe939253	-0.28822574
126	0xbe04e908	-0.1297952
127	0x3b92a8bd	0.0044756816
128	0x3ccb5bb4	0.024824
129	0xbda6acf0	-0.08138454
130	0x3e836cbe	0.256689
131	0xbdaec58c	-0.08533773
132	0xbd354d01	-0.04426289
133	0xbe401976	-0.18759713
134	0x3dd25c25	0.102714814
135	0x3e2395ee	0.15975162
136	0xbc738478	-0.014863126
137	0x3cf44f92	0.029823098
138	0x3a1966cc	0.0005851805
139	0xbd243c13	-0.040096354
140	0x3dc1c5eb	0.09461578
141	0x3e89a234	0.26881564
142	0x3ece430e	0.40285534
143	0x3d209859	0.03920779
144	0xbd65e39c	-0.05612527
145	0x3e70ff44	0.23534876
146	0x3e4656fd	0.19369121
147	0x3de192cd	0.11014328
148	0x3e36e724	0.1786161
149	0xbca7445a	-0.020418335
150	0xbe5685a1	-0.20949413
151	0xbe410ee5	-0.18853338
152	0xbe2461f5	-0.16052993
153	0xbe5e4efd	-0.21709819
154	0x3e652053	0.22375612
155	0xbc02343e	-0.007947026
156	0x3b3168fb	0.002707063
157	0xbe03fbeb	-0.12889068
158	0x3ca9a859	0.020710157
159	0xbdc3c9f3	-0.09560003
160	0xbd468b5e	-0.048472755
161	0x3e8df090	0.27722597
162	0xbcd891b6	-0.026436668
163	0x3c87d371	0.016580315
164	0xbe2a94fb	-0.16658394
165	0xbe1e723e	-0.15473267
166	0xbe0d8e90	-0.13823915
167	0xbe2f8298	-0.17139661
168	0xbdcf8d2b	-0.101343475
169	0x3e20df33	0.15710144
170	0x3dd777c9	0.10520894
171	0xbdd8c451	-0.105843194
172	0xbc9ec573	-0.01938126
173	0x3cec562c	0.028849684
174	0xbe161c80	-0.1465931
175	0x3eaaebf4	0.33383143
176	0xbe2f3080	-0.17108345
177	0xbd924f29	-0.07144005
178	0x3d9e4f52	0.07729973
179	0x3dc8b534	0.09800187
180	0xbde45dcf	-0.11150705
181	0x3d52c8aa	0.0514609
182	0xbdc2b2be	-0.095067486
183	0xbc61c538	-0.013779931
184	0xbc874be2	-0.016515676
185	0x3d06cf3d	0.03291248
186	0x3d3d5301	0.046221737
187	0xbca39109	-0.01996662
188	0xbe332d8a	-0.1749784
189	0xbe587a3c	-0.21140379
190	0xbd3acb32	-0.04560394
191	0xbd7563b9	-0.059909556
192	0xbd76aa0f	-0.060220774
193	0xbe2052fe	-0.15656659
194	0xbdc7dd8f	-0.09759056
195	0xbda879bd	-0.08226345
196	0xbe8dd2bb	-0.27699837
197	0x3dab08db	0.083512984
198	0x3ec222dc	0.3791722
199	0xbd4ffc56	-0.050777756
200	0x3c73a950	0.01487191
201	0xbe4795ab	-0.19490688
202	0xbddb7452	-0.10715546
203	0x3e87f71c	0.26555717
204	0xbe737222	-0.23774007
205	0xbddb31a3	-0.10702827
206	0xbd8ada6c	-0.06779942
207	0xbd071734	-0.032981113
208	0x3d9a0ad7	0.07521599
209	0xbe18960c	-0.14900988
210	0xbe091ff1	-0.13391091
211	0xbd566011	-0.05233771
212	0x3e29ce5b	0.16582625
213	0xbd541e90	-0.05178696
214	0x3de19b65	0.11015967
215	0x3e0da063	0.13830714
216	0x3d9a5d79	0.0753736
217	0x3b005363	0.0019580952
218	0x3d73526a	0.059404768
219	0xbbe93a94	-0.0071175788
220	0xbd506ed7	-0.050886955
221	0x3e30bf90	0.17260575
222	0x3d3b1fe6	0.045684718
223	0xbd02843e	-0.031864397
224	0x3e98b8ab	0.2982839
225	0x3e5cd318	0.21564901
226	0xbe4eee63	-0.20208125
227	0xbde20907	-0.11036878
228	0xbe0bbbfd	-0.1364593
229	0xbe1e5465	-0.15461881
230	0x3da00f75	0.07815448
231	0x3dc2c882	0.095109
232	0xbdad8b0e	-0.08473788
233	0xbe202838	-0.15640342
234	0xbe35fc6b	-0.17772071
235	0x3e102d87	0.14079867
236	0xbd92345c	-0.07138893
237	0xbe3b7b68	-0.18308794
238	0x3e1b9064	0.151918
239	0xbc73a52f	-0.014870926
240	0x3dbcdd54	0.092219025
241	0x3e8ea625	0.27861133
242	0xbd760086	-0.060059093
243	0xbde61839	-0.11235089
244	0xbd8d10cd	-0.0688797
245	0x3e49fe6a	0.19725958
246	0x3e1b38c5	0.15158375
247	0xbe4624e4	-0.1935001
248	0xbe558fc7	-0.20855628
249	0xbc1a0e03	-0.009402755
250	0x3d9705a9	0.073741265
251	0xbe4641ca	-0.19361034
252	0xbe0b1026	-0.13580379
253	0x3e73e76d	0.2381875
254	0xbaa913ac	-0.001289954
255	0xbd2045f6	-0.03912922

fc3.bias f4 [19]
0	0xbe973e44	-0.29539692
1	0xbdd9ad83	-0.10628798
2	0x3d32e9d3	0.043680023
3	0x3b33423d	0.0027352714
4	0xbe7349fb	-0.2375869
5	0x3e19dca0	0.15025568
6	0xbea39798	-0.31951594
7	0x3d08a8a2	0.033363946
8	0xbe8eb8a8	-0.27875257
9	0xbd9e782f	-0.07737767
10	0x3ea0ce36	0.31407326
11	0xbd8b21d1	-0.06793559
12	0x3e848982	0.2588616
13	0xbcb1a823	-0.02168662
14	0x3d9b7f25	0.0759261
15	0x3e3b006c	0.1826188
16	0x3bfadbe9	0.00765561
17	0x3e637365	0.22211988
18	0xbda7c750	-0.08192313
