python/CNN10.pth (torch_old, 252622 bytes, 10 tensors)

conv1.weight f4 [6, 3, 5, 5]
0	0x3ece6413	0.40310726
1	0x3f0548d4	0.5206425
2	0x3f0d5432	0.55206597
3	0x3ed2e4c1	0.4119015
4	0x3f0a2dae	0.5397595
5	0x3c91c9d9	0.017796444
6	0x3d8a5f90	0.06756508
7	0x3d5c51e0	0.05378902
8	0x3e8558c4	0.26044285
9	0x3e5c2281	0.21497537
10	0x3c82f463	0.015985673
11	0xbe4e0c1b	-0.20121805
12	0xbe407280	-0.18793678
13	0xbe4c7033	-0.19964676
14	0xbe12f3f6	-0.14350876
15	0x3e04aff4	0.12957746
16	0x3e04af0f	0.12957405
17	0xbb58400a	-0.0032997155
18	0x3cb76daa	0.02239116
19	0xbd1b1fc8	-0.037872106
20	0x3ea5ae4e	0.32359546
21	0x3f09b2ef	0.53788656
22	0x3e9c5b22	0.3053828
23	0x3e4c96e2	0.19979432
24	0xbde90a0d	-0.1137887
25	0xbd6513b3	-0.05592699
26	0x3dbb309a	0.091401294
27	0x3e615875	0.220064
28	0x3e970089	0.29492596
29	0x3ea8bf1e	0.3295831
30	0xbe46b2a6	-0.19404086
31	0xbe76da34	-0.24106675
32	0xbe23d1dd	-0.15998025
33	0x3cbc6066	0.022995185
34	0xbd03b845	-0.032158155
35	0xbe8e6a62	-0.2781554
36	0xbf0cb834	-0.5496857
37	0xbee5266e	-0.44755882
38	0xbf0e7b30	-0.5565672
39	0xbe8e027c	-0.2773627
40	0xbe0de33a	-0.13856211
41	0xbd4f4750	-0.05060512
42	0xbe69ed0e	-0.22844335
43	0xbebde177	-0.3708608
44	0xbe8c137e	-0.2735862
45	0x3e32912b	0.1743819
46	0x3e8f3f61	0.27978042
47	0x3e596dbe	0.2123327
48	0xbe3c1ef7	-0.18371187
49	0xbe9c35b5	-0.30509725
50	0x3b8ff4ef	0.004393212
51	0x3cf4a96c	0.029865943
52	0x3e9e86dc	0.30962265
53	0x3e914349	0.28371647
54	0x3e6d3561	0.23164894
55	0xbe0b147c	-0.13582033
56	0xbe3f6961	-0.18692543
57	0xbe15186c	-0.14560097
58	0x3d9c4bcc	0.076316446
59	0x3e029325	0.12751444
60	0xbe79a0eb	-0.24377792
61	0xbf01d87d	-0.5072096
62	0xbf14e72d	-0.58165246
63	0xbedfc0c5	-0.4370176
64	0xbead17ed	-0.33807316
65	0xbc42beb9	-0.011886292
66	0xbdfe5d61	-0.12420154
67	0xbe6b9620	-0.23006487
68	0xbe99a34f	-0.30007407
69	0xbe767fc0	-0.2407217
70	0x3ed9828b	0.4248241
71	0x3e9060e3	0.2819892
72	0x3da8ac36	0.08235972
73	0xbd571fe9	-0.052520666
74	0xbe7e5f4c	-0.2484104
75	0xbd40a166	-0.04702892
76	0x3bbf0bd8	0.0058302693
77	0xbd526bb3	-0.05137224
78	0x3b537a1c	0.0032268828
79	0x3cb35826	0.021892618
80	0x3e0e089c	0.13870472
81	0x3e2380ff	0.15967177
82	0x3e05e458	0.13075387
83	0x3e43e191	0.19129016
84	0x3e2cb043	0.16864114
85	0xbdcad059	-0.099030204
86	0x3e39557e	0.18099019
87	0x3e163575	0.1466883
88	0x3e62266d	0.22084971
89	0x3e97411e	0.29541868
90	0xbe473e54	-0.1945737
91	0xbe09c687	-0.13454638
92	0xbd830e50	-0.06399214
93	0x3c65e6f6	0.014032116
94	0x3e0cff86	0.1376935
95	0xbda7fe27	-0.082027726
96	0xbdb08776	-0.08619587
97	0xbea4b1ce	-0.32166904
98	0xbe1f1f50	-0.15539289
99	0xbe1ee2ca	-0.155162
100	0xbcada46e	-0.02119657
101	0xbd89c07c	-0.067261666
102	0xbcd1bb5f	-0.02560204
103	0xbd2ce1b1	-0.042207424
104	0xbcef4e43	-0.029212123
105	0x3d6465d7	0.055761185
106	0x3e8413a1	0.25796226
107	0x3e5ff949	0.21872438
108	0x3e8218ea	0.25409633
109	0x3e099446	0.13435468
110	0x3deade47	0.11468177
111	0x3e1d3161	0.15350868
112	0x3e6dd05c	0.23224014
113	0x3eae3628	0.34025693
114	0x3eb05b9d	0.34444895
115	0xbe17c046	-0.1481944
116	0xbe137dc9	-0.14403452
117	0xbe4f9246	-0.20270643
118	0xbd0b3497	-0.0339857
119	0x3d0a7c21	0.033809785
120	0xbb90ff81	-0.0044249897
121	0xbd8d09e6	-0.068866536
122	0xbe077fab	-0.13232295
123	0xbdbd53ec	-0.092445225
124	0xbdc1a7ce	-0.09455834
125	0xbe1560f6	-0.14587769
126	0xbd1b766c	-0.037954733
127	0xbe213674	-0.15743428
128	0x3c056bed	0.008143407
129	0xbd80bd9e	-0.062861666
130	0xbe1b2fb9	-0.15154923
131	0xbb613180	-0.003436178
132	0x3e0d6d62	0.13811257
133	0xbd23963e	-0.039938204
134	0x3c822182	0.015885118
135	0xbe1e0777	-0.15432535
136	0x3c4b87e2	0.012422534
137	0xbc41de7c	-0.01183283
138	0x3e483df1	0.19554879
139	0x3e5005a2	0.20314649
140	0xbe4fc584	-0.2029019
141	0xbe83ccbb	-0.25742134
142	0xbea3ecd2	-0.32016617
143	0xbe4c26e6	-0.19936714
144	0x3becb2c7	0.0072234604
145	0xbdf4c765	-0.11952094
146	0xbea4b798	-0.3217132
147	0xbe9b3c4c	-0.3031944
148	0xbec542d6	-0.38527554
149	0xbe51e443	-0.20497231
150	0x3e33c4cd	0.17555542
151	0x3e616afe	0.2201347
152	0x3dae4fd2	0.08511318
153	0xbd93f9d0	-0.07225382
154	0xbdb12a77	-0.08650678
155	0x3e511a07	0.20420085
156	0x3d6668a7	0.056252148
157	0xbe5c4569	-0.21510853
158	0xbe9445e0	-0.2895956
159	0xbe931f89	-0.28734997
160	0x3ea4cc64	0.32187188
161	0xbd18756f	-0.03722137
162	0xbea68df6	-0.32530183
163	0xbeedd6f4	-0.4645306
164	0xbe92f346	-0.28701228
165	0x3eb7df80	0.35912704
166	0x3e55b5a7	0.20870076
167	0xbeb89e6a	-0.3605836
168	0xbed134c2	-0.40860564
169	0xbe11359e	-0.1418061
170	0x3f2a6254	0.66556287
171	0x3ea9af8f	0.33141753
172	0xbbfab7a7	-0.0076512876
173	0xbe81223f	-0.2522144
174	0xbdb435d5	-0.0879933
175	0xbc8a29e5	-0.01686568
176	0x3e317843	0.17331032
177	0xbe059c4f	-0.13047908
178	0xbe97e78e	-0.2966885
179	0xbe214a9c	-0.15751117
180	0xbd5b435c	-0.053531036
181	0x3c3b6340	0.011437237
182	0xbeaa103d	-0.33215514
183	0xbeb38d52	-0.35068756
184	0xbec74a64	-0.38923943
185	0xbe122ed0	-0.1427567
186	0x3c029b27	0.0079715615
187	0xbeb0b81f	-0.34515473
188	0xbea29ccc	-0.31760252
189	0xbebac5ed	-0.3647913
190	0x3e327bce	0.1743004
191	0x3cce9ca6	0.02522118
192	0xbe7c09ff	-0.24613188
193	0xbef7f44a	-0.48428565
194	0xbe398bbd	-0.18119712
195	0x3e26f5c2	0.16304687
196	0x3d89a69c	0.06721231
197	0xbe635bf7	-0.2220305
198	0xbeda0d2c	-0.42588174
199	0xbe063d89	-0.13109411
200	0x3e7a27e5	0.24429281
201	0x3ecf65d1	0.40507367
202	0x3eb4a76b	0.3528398
203	0x3d81098d	0.0630065
204	0x3e099280	0.13434792
205	0x3d91caf8	0.07118791
206	0x3e34a08f	0.17639373
207	0x3e11b1fd	0.14228053
208	0x3c31675d	0.010827866
209	0x3dd7fbf4	0.10546103
210	0x3dbefa84	0.09325126
211	0x3e8259e4	0.25459206
212	0xbb902714	-0.0043991897
213	0xbdc68aa2	-0.09694411
214	0x3e404d42	0.18779472
215	0x3e8e6691	0.27812627
216	0x3e725329	0.23664536
217	0xbd7b2e5a	-0.0613235
218	0x3d895ed8	0.06707543
219	0x3ea62eb8	0.3245752
220	0x3ef89780	0.48553085
221	0x3e9e2872	0.30890232
222	0x3d7da9cf	0.06192952
223	0x3cc4a5ec	0.024004899
224	0x3e5c4c1c	0.21513408
225	0x3d1f449f	0.0388838
226	0x3dcf0461	0.10108257
227	0xbd93c809	-0.07215888
228	0x3e1387e8	0.14407313
229	0x3e47954d	0.19490547
230	0xbbb651ac	-0.0055639353
231	0x3d75c7e3	0.06000508
232	0x3e0a6127	0.13513623
233	0x3bf45206	0.007456067
234	0x3e7967f9	0.24356069
235	0xbde4a980	-0.11165142
236	0xbcb7a590	-0.022417814
237	0xbdecd5fc	-0.11564252
238	0xbd8d63c7	-0.06903797
239	0xb97981e8	-0.00023794884
240	0xbe26bd48	-0.16283143
241	0xbdacf2a0	-0.084447145
242	0xbc30bc1f	-0.010787039
243	0x3dd33978	0.10313696
244	0x3dda62e5	0.10663394
245	0xbe482c06	-0.19548044
246	0xbd4109be	-0.04712843
247	0xbda52372	-0.08063401
248	0xbc8a7d48	-0.016905442
249	0x3e0e8ca1	0.13920833
250	0xbe8a4041	-0.27002147
251	0xbe8f9746	-0.280451
252	0xbe78b4b2	-0.2428768
253	0xbe5f8d9d	-0.21831365
254	0xbacd7946	-0.0015676401
255	0xbde1fd18	-0.11034602

conv1.bias f4 [6]
0	0x3ea5e7f5	0.32403532
1	0x3d0b1478	0.033955067
2	0x3eaabf11	0.33348897
3	0xbef2cc55	-0.47421518
4	0xbe3def78	-0.18548381
5	0x3dad8233	0.08472099

conv2.weight f4 [16, 6, 5, 5]
0	0xbdf83183	-0.121188186
1	0xbdcbd673	-0.09953012
2	0x3c4cb294	0.012493748
3	0x3e1a8596	0.15090021
4	0x3e23b352	0.15986374
5	0xbdda646f	-0.106636874
6	0xbcdca0df	-0.026932178
7	0x3e27de38	0.16393363
8	0x3da8ad7e	0.08236216
9	0xbc515b78	-0.0127781555
10	0xbd1a46a8	-0.03766504
11	0xbd55211c	-0.05203353
12	0x3e233e93	0.15941839
13	0x3e792edd	0.24334283
14	0x3d005ca0	0.031338334
15	0xbde1f3ab	-0.11032804
16	0xbdcdbe26	-0.100460336
17	0xbdee9731	-0.11649931
18	0xbdec4eae	-0.115384445
19	0xbdaf5533	-0.08561172
20	0xbe1f1b11	-0.15537669
21	0x3d2be2ca	0.04196433
22	0x3d5f55aa	0.054525055
23	0xbde08b4d	-0.109640695
24	0xbe67d0c0	-0.22638226
25	0xbde616a8	-0.1123479
26	0x3cd14181	0.02554393
27	0x3dcaa45d	0.09894631
28	0xbd41d774	-0.047324613
29	0x3d1a3704	0.037650123
30	0xbcefd9bf	-0.029278634
31	0xbc9b02a6	-0.018922161
32	0x3e44084e	0.19143793
33	0x3ddc16bb	0.10746523
34	0x3e274fe2	0.16339067
35	0x3e0b7fba	0.13622943
36	0x3d1f9924	0.038964406
37	0x3dcfe0cc	0.101502985
38	0x3c26c20d	0.010178101
39	0xbce8c342	-0.028413419
40	0x3dddcc62	0.108299986
41	0x3e247c09	0.1606294
42	0x3e185e96	0.14879832
43	0x3d43bf3f	0.04778981
44	0xbd9f446c	-0.07776722
45	0x3db9d958	0.09074658
46	0xbd94fd3f	-0.07274865
47	0xbcd8cac0	-0.026463866
48	0xbcc06eab	-0.02349027
49	0xbdd09c88	-0.10186106
50	0x3ebceda6	0.3690006
51	0x3e38d47e	0.1804981
52	0x3e09410f	0.13403724
53	0x3c6fc4c6	0.014634317
54	0xbcc87d28	-0.024473742
55	0x3e47623e	0.1947107
56	0x3ded8f54	0.11599603
57	0x3d92a5bf	0.0716052
58	0xbe173b58	-0.14768732
59	0xbe0c6c11	-0.13713099
60	0x3d113557	0.03545126
61	0x3d43f0c4	0.047837034
62	0xbdf1cd0a	-0.11806686
63	0xbe06abdd	-0.13151498
64	0xbe41ef33	-0.18938904
65	0xbcd1a73b	-0.025592437
66	0xbe70d543	-0.23518853
67	0xbe8f61d2	-0.28004318
68	0xbe8e1389	-0.2774928
69	0xbe75e742	-0.24013999
70	0xbe21213a	-0.15735331
71	0xbe5f72f9	-0.21821202
72	0xbe1c0e14	-0.15239745
73	0xbe263db4	-0.16234475
74	0xbd6f7190	-0.05845791
75	0x3e8a5ccb	0.2702392
76	0x3e8c0e3c	0.2735461
77	0x3e1cd7df	0.15316723
78	0x3d9ebd7f	0.07750987
79	0x3e0c4835	0.1369942
80	0x3e85db63	0.2614394
81	0x3ea0f974	0.31440318
82	0x3e6808f9	0.22659673
83	0x3debe766	0.11518745
84	0x3b647103	0.00348574
85	0x3d95e223	0.07318523
86	0xbd9b6e9c	-0.075894564
87	0x3d91c15e	0.0711696
88	0xbe054ffc	-0.13018793
89	0xbcfdb100	-0.03096819
90	0xbd406029	-0.046966705
91	0xbe139990	-0.14414048
92	0xbd04b0c2	-0.032395132
93	0xbdb0c4e4	-0.08631304
94	0xbdb3ca5d	-0.08778832
95	0x3d1692d5	0.036761124
96	0xbe6c2e92	-0.2306464
97	0xbe2dc7de	-0.16970775
98	0xbe2a4689	-0.1662847
99	0xbe2e1b95	-0.17002709
100	0x3e10a854	0.14126712
101	0x3e3ea3e1	0.18617202
102	0x3dae5cd5	0.085138
103	0x3db1879a	0.08668442
104	0x3e1ada84	0.1512242
105	0x3e893819	0.26800612
106	0x3e416c71	0.18889023
107	0x3d1df247	0.03856113
108	0xbd7e6820	-0.06211102
109	0xbd763a1f	-0.060114022
110	0x3d99d0bf	0.07510518
111	0xbdc72467	-0.0972374
112	0xbd62d233	-0.055376243
113	0xbe047903	-0.12936787
114	0xbe327e24	-0.17430931
115	0xbd874dc0	-0.066066265
116	0xbe1f8824	-0.15579277
117	0xbe31c699	-0.17360915
118	0xbe0f5f65	-0.14001234
119	0xbe1fe6fd	-0.15615459
120	0xbd62aacd	-0.05533867
121	0xbd9d42b5	-0.07678739
122	0xbd89dab0	-0.067311645
123	0xbdb1cb05	-0.08681301
124	0xbdd1b08f	-0.10238754
125	0xbdbe536c	-0.09293255
126	0x3dfbd20c	0.12295923
127	0x3c6aaecd	0.014323902
128	0xbd172acb	-0.036906045
129	0x3db84fc9	0.08999593
130	0x3e1f3acf	0.15549777
131	0x3e2fe87c	0.1717853
132	0x3dbe3bde	0.092887625
133	0x3d82cb90	0.06386483
134	0x3b7eaf9f	0.0038862003
135	0x3dbdbb98	0.09264296
136	0x3df3dabb	0.11906954
137	0x3e581016	0.21099886
138	0x3cc6d88a	0.024273176
139	0xbcb1c6e2	-0.02170128
140	0x3dfa6c99	0.122277446
141	0xbd218320	-0.03943169
142	0xbca629b9	-0.020283567
143	0xbd9dad14	-0.07699028
144	0xbe357f6e	-0.17724392
145	0x3e0a5570	0.13509154
146	0x3d52419c	0.0513321
147	0xbdcad930	-0.099047065
148	0xbe16b6cf	-0.14718173
149	0xbd2049db	-0.039132934
150	0xbe1f24ab	-0.15541331
151	0xbd5f0946	-0.054452203
152	0x3d8dacbe	0.069177136
153	0x3df515bc	0.11967036
154	0x3ea09860	0.31366253
155	0xbc854d7e	-0.016272303
156	0xbd54b9ef	-0.051935133
157	0xbe2c5ec2	-0.16833022
158	0xbc9aabb3	-0.0188807
159	0xbd447aeb	-0.047968786
160	0x3e6d7838	0.23190391
161	0x3e0c67c2	0.13711455
162	0xbdb3dfe9	-0.08782942
163	0xbd1cdeb4	-0.038298324
164	0xbdcb4599	-0.09925384
165	0xbc9e693b	-0.019337287
166	0x3dfb330d	0.122655965
167	0x3d0cdc7c	0.034389958
168	0x3cee82bb	0.029115072
169	0xbd103c27	-0.035213616
170	0x3c561af3	0.013067949
171	0xbe40ce61	-0.18828727
172	0xbe3ba887	-0.18326007
173	0xbe170ba4	-0.14750534
174	0xbe0a132c	-0.13483876
175	0xbd84f5d4	-0.064922005
176	0xbdfed025	-0.12442044
177	0xbdd9301f	-0.106048815
178	0xbdb4aee4	-0.0882242
179	0x3d89c2b8	0.06726593
180	0x3dedfd85	0.11620621
181	0x3dd2a9fe	0.1028633
182	0xbdbea2f9	-0.09308428
183	0xbd445c1b	-0.0479394
184	0x3ddb1ea8	0.106992066
185	0x3d9802ea	0.07422431
186	0xbd062a18	-0.032754987
187	0x3db8f96b	0.09031948
188	0xbc153d8b	-0.009108911
189	0x3d55c905	0.05219366
190	0xbe075874	-0.13217336
191	0xbdf9b806	-0.12193303
192	0xbd924393	-0.07141795
193	0xbdda0045	-0.10644583
194	0x3d037c0d	0.032100726
195	0xb9a9faaa	-0.0003242095
196	0xbe07af43	-0.13250451
197	0xbddc9d0e	-0.10772143
198	0xbe11c632	-0.14235762
199	0x3da251fa	0.07925792
200	0xbd18201e	-0.037140004
201	0xbe9108df	-0.2832708
202	0xbd846ce2	-0.0646608
203	0x3e0cd10c	0.1375162
204	0xbe15c4af	-0.1462581
205	0xbe36400f	-0.17797874
206	0xbe3f4ab4	-0.1868084
207	0xbcd3aade	-0.025838312
208	0xbd1b9887	-0.03798726
209	0xbdfe6cfd	-0.124231316
210	0xbc165ea1	-0.009177835
211	0x3e2dd9de	0.16977641
212	0x3d179272	0.037004896
213	0xbd874d89	-0.066065855
214	0xbe3aa062	-0.18225244
215	0xbbde83e9	-0.0067906273
216	0x3e9bba7d	0.30415717
217	0x3e2b0375	0.16700538
218	0x3eb44393	0.35207805
219	0xbdc925af	-0.09821641
220	0x3d5b7b10	0.05358416
221	0x3e440497	0.19142376
222	0x3e4c00e3	0.19922213
223	0x3eb402f3	0.351585
224	0xbdf00356	-0.11719386
225	0xbe5b0043	-0.21386819
226	0xbe62bf4e	-0.2214329
227	0xbe9072c6	-0.28212565
228	0xbde9348b	-0.11386975
229	0xbd85174e	-0.06498586
230	0xbcfe79d4	-0.031063952
231	0xbcff7b0a	-0.0311866
232	0x3bb5020e	0.0055239266
233	0x3c995aa0	0.018719971
234	0x3c399e5a	0.011329258
235	0xbe053603	-0.13008885
236	0x3cdebac8	0.027188674
237	0x3ded9dca	0.116023615
238	0x3e01833a	0.12647715
239	0x3da86b30	0.082235694
240	0xbbe42b81	-0.006963194
241	0x3d0ee6ce	0.03488808
242	0x3e4e32ab	0.20136516
243	0x3e553de5	0.20824392
244	0x3e54b8fe	0.20773694
245	0x3e16b3d5	0.14717038
246	0x3e1d551b	0.15364496
247	0x3d8d10a9	0.06887943
248	0x3e147d6d	0.14500971
249	0x3e3efb5c	0.18650573
250	0xbe194712	-0.14968517
251	0xbe7f7284	-0.24946028
252	0xbe897f27	-0.26854822
253	0xbe0acca5	-0.13554628
254	0xbdb07f85	-0.086180724
255	0xbdaea9e3	-0.08528497

conv2.bias f4 [16]
0	0x3c8a03d4	0.016847529
1	0xbcd8c095	-0.026459018
2	0x3db499d7	0.08818405
3	0xbc8d3cf9	-0.017240988
4	0xbcee0498	-0.029054925
5	0x3e1ed089	0.15509237
6	0xbd0a99f7	-0.03383824
7	0x3dc0692f	0.09395062
8	0xbd8df524	-0.069315225
9	0x3c006edb	0.00783893
10	0x3d7c904d	0.061661053
11	0xbd0c58b6	-0.03426429
12	0xbd1801d6	-0.037111126
13	0xbd0bed86	-0.034162067
14	0x3c9f653b	0.01945745
15	0xbdcff56f	-0.101542346

fc1.weight f4 [120, 400]
0	0xbd96add7	-0.07357376
1	0xbc9349bb	-0.017979493
2	0x3c99b127	0.01876123
3	0xbdb97b25	-0.09056691
4	0xbd90c38b	-0.07068547
5	0xbd6b7680	-0.057486057
6	0x3c66cc5c	0.014086809
7	0x3c053727	0.008130825
8	0xbd35167a	-0.04421089
9	0xbd2aa8cf	-0.041664895
10	0xbd12d6fe	-0.035849564
11	0x3ce4b59f	0.027918635
12	0x3d62f5cc	0.05541019
13	0x3c8f21bd	0.017472142
14	0xbd88c2fb	-0.066778146
15	0xbd5db553	-0.054128002
16	0x3b347d6e	0.0027540582
17	0xbcbdf638	-0.023188695
18	0xbb0b30d3	-0.0021238818
19	0x3c604169	0.01368747
20	0xbd860f7e	-0.06545924
21	0xbc30d7e2	-0.010793658
22	0xbcb4891a	-0.022038031
23	0x3aee7ec2	0.0018195736
24	0xbd627967	-0.05529156
25	0x3c500183	0.012695673
26	0xbca7a446	-0.020464074
27	0xbd2ea399	-0.042636488
28	0xbcd32dbe	-0.025778648
29	0xbc8bcdd1	-0.017065914
30	0x3c8c1927	0.017101837
31	0x3b816600	0.003948927
32	0x3c2dd17c	0.010609027
33	0x3c649cd1	0.013953404
34	0xbcd1b75c	-0.025600128
35	0xbd432453	-0.047642063
36	0xbd7644a5	-0.06012406
37	0xbd375ebe	-0.044768088
38	0xbcb0ea54	-0.021596111
39	0xbcfcab7c	-0.030843489
40	0x3d958a93	0.073018216
41	0x3d83974f	0.06425344
42	0x3d33a41f	0.04385769
43	0x3d3b1eb6	0.045683585
44	0x3cb4f026	0.022087168
45	0xbaf44482	-0.001863614
46	0x3d961060	0.07327342
47	0x3b32509b	0.002720869
48	0x3e0caf7b	0.13738815
49	0x3d448090	0.04797417
50	0xbda120f9	-0.07867617
51	0xbd069ffd	-0.03286742
52	0xbd41de7a	-0.04733131
53	0xbd82ea1e	-0.063923106
54	0xbc4f0a7e	-0.012636779
55	0xbc98d11d	-0.0186544
56	0xbdfb9f45	-0.122862376
57	0xbd5ed9db	-0.054406982
58	0xbda31b30	-0.0796417
59	0xbdb999ec	-0.090625614
60	0xbd9252da	-0.07144709
61	0xbc8d2fe2	-0.017234746
62	0xbcbed3d3	-0.023294365
63	0xbd7bbb87	-0.061458137
64	0xbd8a9c50	-0.067680955
65	0x3c43d9d5	0.011953791
66	0xbd87d420	-0.066322565
67	0xbd9c6117	-0.07635706
68	0xbdcffb06	-0.10155301
69	0xbd6732d5	-0.05644496
70	0xbdcca845	-0.09993032
71	0xbdc292a9	-0.095006295
72	0x3c6feb34	0.014643479
73	0x3b4f7575	0.0031655703
74	0xbda2fdec	-0.07958588
75	0xbb1b26a2	-0.002367415
76	0x3ca0ad4b	0.019613883
77	0x3b869b55	0.0041078725
78	0xbc0d5eae	-0.00862853
79	0xbc473ffa	-0.012161249
80	0xbc1b865a	-0.009492481
81	0xbbb68a50	-0.0055706874
82	0x3ce256ef	0.027629344
83	0xbd28ce40	-0.04121232
84	0x3cf7eccf	0.030264286
85	0x3d2f4302	0.042788513
86	0x3d002fb1	0.031295482
87	0xbd2a57ff	-0.041587826
88	0x3c573a46	0.013136452
89	0xbc803709	-0.015651243
90	0x3d2e6a21	0.04258168
91	0x3d1dede7	0.03855696
92	0x3bb7d012	0.0056095207
93	0xbc9dd4cd	-0.01926651
94	0x3d0f6007	0.03500369
95	0xb87d20dd	-6.0350507e-05
96	0x3d049998	0.03237304
97	0x3c6fd993	0.014639276
98	0xbd380d48	-0.04493454
99	0x3d112665	0.035437007
100	0xbcfa6e3c	-0.030570142
101	0xbd5d795f	-0.054070827
102	0x3d073531	0.03300971
103	0x3d3a240e	0.04544454
104	0xbd1c4f6d	-0.038161684
105	0xbb3aae54	-0.0028485255
106	0x3c86dc68	0.01646252
107	0xbb00fc56	-0.0019681654
108	0x3d024e3b	0.031812888
109	0x3c5226e5	0.012826656
110	0x3d464891	0.04840905
111	0x3d2ffc5f	0.04296529
112	0xbc973cd3	-0.01846162
113	0xbce96240	-0.028489232
114	0x3c16c989	0.009203323
115	0xbd20227b	-0.039095383
116	0x3ccb5289	0.02481963
117	0x3c888755	0.016666094
118	0x3cd04e9c	0.025428109
119	0x3c6bb656	0.014386734
120	0x3d0289ef	0.031869825
121	0x3bb077b7	0.005385365
122	0x3d400e9e	0.04688894
123	0xbd785c58	-0.06063494
124	0x3d3c85b4	0.046025947
125	0x3d8faf6d	0.07015882
126	0xbb81baf9	-0.0039590565
127	0xba32587e	-0.00068033475
128	0x3d291dfa	0.041288354
129	0xbc75f5a1	-0.015012176
130	0x3c1fd803	0.009756091
131	0xbcd8e112	-0.02647451
132	0xbb1307cc	-0.0022435067
133	0xbc6a578e	-0.014303101
134	0xbc29caaa	-0.01036326
135	0x3c98f631	0.01867208
136	0x3cb26adf	0.021779476
137	0xbd3ee031	-0.046600524
138	0xbd39ab20	-0.045329213
139	0x3d541987	0.051782157
140	0x3d9aed39	0.07564778
141	0x3cc6b20d	0.024254823
142	0xbd1b6eaf	-0.037947353
143	0xbcdf83c5	-0.027284512
144	0x3ad74d84	0.00164263
145	0x3dff2f10	0.12460148
146	0xbccb75f4	-0.024836518
147	0x3b99f789	0.004698698
148	0x3db36522	0.08759524
149	0x3dff7b13	0.124746464
150	0x3ccc348b	0.024927398
151	0xbd303e9d	-0.043028463
152	0x3d154fd3	0.03645308
153	0x3ca97d7d	0.02068972
154	0x3c0e8ab4	0.008700062
155	0x3d5f79b0	0.05455941
156	0x3cc6a62a	0.024249155
157	0x3bddc60a	0.006767993
158	0xbc805420	-0.015665114
159	0xbb949b2b	-0.004535099
160	0x3d15d4c7	0.036579873
161	0xbb9551a9	-0.004556854
162	0xbc8fc263	-0.017548745
163	0x3d5a2feb	0.053268354
164	0xbd33a07d	-0.043854225
165	0xbb116456	-0.002218505
166	0x3bbaa534	0.0056959633
167	0x3d6ad380	0.05733061
168	0xbca11fd7	-0.019668503
169	0xbd868b2b	-0.06569513
170	0x3c37454a	0.011185953
171	0x3d00194f	0.031274136
172	0xbc314f66	-0.010822153
173	0x3c1a0c1f	0.009402304
174	0xbd161341	-0.036639456
175	0xbbaf37da	-0.005347234
176	0x3d053f4c	0.032531068
177	0x3ca63925	0.02029092
178	0xbc85f81b	-0.016353657
179	0x3c31d74a	0.010854552
180	0x3b13ff6a	0.0022582659
181	0xbd519b70	-0.051173627
182	0x3de40851	0.11134399
183	0x3c9266ca	0.01787128
184	0xbd3bf1bd	-0.045884836
185	0xbc233b43	-0.00996286
186	0xba638328	-0.00086789066
187	0xbc4e9578	-0.012608878
188	0xba749993	-0.00093307457
189	0x3d32339e	0.043506257
190	0x3b941600	0.004519224
191	0x3cd62a27	0.026143147
192	0x3caa861d	0.020815903
193	0xbd0a8aa7	-0.033823635
194	0x3d45fb84	0.048335567
195	0xbd1a5520	-0.037678838
196	0xbd006aa5	-0.031351704
197	0x3d4c3107	0.049851444
198	0x3cfcb49d	0.030847842
199	0x3d7bfa0e	0.061517768
200	0xbd0f90d4	-0.03505023
201	0xbd267569	-0.040639315
202	0xbc7efe73	-0.015563595
203	0xbc075dd6	-0.008262118
204	0x3cd69212	0.026192699
205	0xbd9a8549	-0.075449534
206	0xbd8a70fc	-0.06759831
207	0xbd8e5ec0	-0.06951666
208	0x3c9f06d3	0.019412434
209	0x3d636e0f	0.055524882
210	0xbd7d5df7	-0.06185719
211	0xbc5fd7c7	-0.013662285
212	0x3c09c44e	0.008408619
213	0xbcf5b734	-0.029994585
214	0xbbdcbbe5	-0.006736266
215	0x3cd8c79f	0.026462374
216	0xbd2dabd2	-0.04240019
217	0x3c873ce6	0.01650853
218	0x3d822051	0.0635382
219	0x3d6f8664	0.058477774
220	0xbb875d43	-0.0041309907
221	0xbd891e2c	-0.06695208
222	0xbc24c907	-0.010057694
223	0x3d535af5	0.051600415
224	0x3c6f4322	0.014603408
225	0x3da75f4e	0.08172475
226	0x3d4d9218	0.050188154
227	0xbd4cd4e6	-0.050007723
228	0xbca96532	-0.020678136
229	0x3d1c0d1b	0.038098436
230	0x3db17d74	0.086665064
231	0xbc0badeb	-0.008525352
232	0xbdcf136f	-0.101111285
233	0x3d16f0f4	0.036850885
234	0x3bf20eb1	0.0073870053
235	0x3bc6b971	0.006064587
236	0xbd2b6ff2	-0.041854806
237	0xbda273d9	-0.079322524
238	0xbc423cea	-0.011855343
239	0x3b375f87	0.0027980523
240	0x3d8a9048	0.06765801
241	0x3da9bf92	0.08288492
242	0xbcbc3738	-0.02297555
243	0xbc8681d8	-0.016419336
244	0x3c2b3141	0.010448755
245	0x3d6b949c	0.05751477
246	0x3d97b554	0.074076325
247	0xbdb9faa7	-0.09081011
248	0xbd277900	-0.04088688
249	0x3dc7ab3f	0.097494595
250	0x3ce74b5e	0.02823418
251	0xbcc5461b	-0.02408128
252	0x3c9ced33	0.019156074
253	0xbd0a68a5	-0.033791203
254	0x3c0d229f	0.008614211
255	0xbd41d615	-0.047323305

fc1.bias f4 [120]
0	0x3d67129b	0.056414228
1	0x3bf59c83	0.0074954643
2	0x3ce1deb4	0.027572013
3	0x3d8f54ed	0.0699862
4	0x3c6efdf5	0.014586915
5	0x3da8f6d1	0.082502015
6	0xbc8e787b	-0.017391434
7	0x3d9b6d2b	0.075891815
8	0xbd2cfde7	-0.042234328
9	0xbce3f8df	-0.027828632
10	0xbcb2d476	-0.021829825
11	0xbc656eee	-0.0140034985
12	0x3dc7d553	0.09757485
13	0xbb8005be	-0.0039069345
14	0xbd6ae9fe	-0.05735206
15	0x3c4f4c22	0.012652429
16	0x3d380235	0.04492398
17	0x3dc6a0a1	0.09698606
18	0xbd7b99e0	-0.061426044
19	0x3d3bd44e	0.045856766
20	0xbc81b31e	-0.01583248
21	0x3e369ddd	0.17833658
22	0xbccb1372	-0.024789546
23	0x3d16c8d4	0.03681262
24	0x3d6d6fb7	0.057967868
25	0xbc9d2600	-0.019183159
26	0x3d715822	0.05892194
27	0x3d43d688	0.047812015
28	0xbcd4bcc7	-0.025968922
29	0x3bae32bb	0.005316106
30	0x3d857739	0.065168805
31	0xbc4be38b	-0.012444387
32	0xbce119d4	-0.027478136
33	0x3e080afa	0.13285437
34	0x3d521d81	0.05129767
35	0xbd645f5f	-0.055755015
36	0xbca00439	-0.019533264
37	0xbd8d4cb3	-0.06899395
38	0xbcaafc95	-0.020872394
39	0x3c548911	0.012972132
40	0xbd50eb13	-0.051005434
41	0x3cb17fb8	0.021667346
42	0x3acabe31	0.0015468058
43	0x3ca1401a	0.019683886
44	0xbcae4af1	-0.02127597
45	0xbd21f1e5	-0.03953733
46	0x3dcf0ca4	0.10109833
47	0x3baae815	0.0052156546
48	0xbcef5ef7	-0.029220087
49	0x3c16dba3	0.009207639
50	0x3d74047e	0.059574597
51	0xbc71079c	-0.014711287
52	0xbd35b638	-0.04436323
53	0x3da2c42e	0.079475746
54	0xbb530f72	-0.003220525
55	0xbab19000	-0.0013546944
56	0xbcfb88ed	-0.03070494
57	0xbd66eeb8	-0.056380004
58	0x3c909290	0.017648011
59	0xbd691925	-0.056908745
60	0xbbf6eae8	-0.007535327
61	0x3d65a4e4	0.056065455
62	0x3d7f080c	0.062263533
63	0x3d08d8ab	0.033409756
64	0x3d5ddfc7	0.05416849
65	0x3c303d70	0.010756835
66	0x3c043be5	0.008070921
67	0x3c2f06eb	0.010682802
68	0xbcdedcdc	-0.027204923
69	0xbd29c531	-0.041447822
70	0x3d220a4d	0.039560605
71	0xbb343cdf	-0.0027502102
72	0xba691c8a	-0.0008892497
73	0xbd0d9218	-0.034563154
74	0x3d6e70f5	0.058213193
75	0xbca9bd6f	-0.020720212
76	0xbd1dee7d	-0.03855752
77	0xbc85ac03	-0.016317373
78	0xbbb37f07	-0.0054777893
79	0x3c7c8af2	0.0154139865
80	0x3decbba2	0.115592256
81	0xbc3006ae	-0.01074378
82	0x3cce8d8e	0.025213983
83	0x3b89b7ce	0.0042028194
84	0xbd12b869	-0.0358204
85	0x3dfdc50f	0.123911016
86	0x3d775e75	0.060392816
87	0xbcbc0287	-0.022950424
88	0x3c25e156	0.010124525
89	0x3c9017fd	0.017589564
90	0x3aad85e6	0.0013238757
91	0xbc19284d	-0.009347987
92	0x3d8a15a5	0.067424096
93	0x3c145bab	0.0090550585
94	0x3d7e6c08	0.062114745
95	0x3d24c908	0.04023078
96	0xbb8e3bb9	-0.0043406156
97	0xbcf7dbef	-0.03025624
98	0xbd14c492	-0.036320277
99	0x3ac32e4e	0.0014891119
100	0xbce8bc91	-0.028410228
101	0x3cb634a8	0.022241905
102	0x3d581a5a	0.052759506
103	0xbbc49751	-0.0059994836
104	0x3d1a7bf6	0.037715875
105	0xbc51a915	-0.01279666
106	0xbd342652	-0.043981858
107	0xbcb15353	-0.021646177
108	0xbc1b4517	-0.0094769215
109	0xbbb58b62	-0.0055402974
110	0x3c83ee8f	0.016104965
111	0x3c410dcf	0.011783077
112	0x3bb0764a	0.005385195
113	0x3da688d2	0.08131565
114	0x3d5b81d7	0.05359062
115	0x3cce0ac4	0.025151618
116	0xbbd79fe8	-0.0065803416
117	0xbca998b2	-0.020702694
118	0x3d636161	0.05551279
119	0xbcfebd57	-0.031096144

fc2.weight f4 [84, 120]
0	0xbe278fda	-0.16363469
1	0x3dfae6ef	0.12251078
2	0xbba9e08e	-0.0051842397
3	0x3e14fcf2	0.14549616
4	0x3ca5b3bc	0.020227306
5	0xbdd96897	-0.10615652
6	0x3b1f17cd	0.002427566
7	0xbe4ced71	-0.20012452
8	0x3c9d5841	0.019207122
9	0xbd5dec08	-0.054180175
10	0xbcb14cf0	-0.021643132
11	0xbd0e3790	-0.034720957
12	0xbc6fb1d7	-0.014629803
13	0x3d36f543	0.044667494
14	0xbddc158e	-0.10746299
15	0x3caa057a	0.020754565
16	0xbd0e47cd	-0.034736443
17	0x3e11744a	0.14204517
18	0x3db76d63	0.08956411
19	0xbd9fd774	-0.07804766
20	0x3ce35359	0.027749704
21	0xbc6ba830	-0.014383361
22	0xbdd4aabe	-0.10384129
23	0xbe003b16	-0.1252254
24	0xbdb6643e	-0.089058384
25	0x3d44a6fb	0.048010807
26	0x3d9ed4ae	0.07755409
27	0x3e3464ea	0.1761662
28	0xbccbf332	-0.024896238
29	0xbd0a3f03	-0.0337515
30	0xbe1243c9	-0.1428367
31	0x3cdb7eef	0.026793925
32	0x3e0cbb86	0.1374341
33	0x3cd6733e	0.026177999
34	0x3dacd6ff	0.08439445
35	0x3d09ab2c	0.033610508
36	0x3dc7614f	0.09735357
37	0x3d9ad17c	0.07559487
38	0xbd5105e0	-0.051030993
39	0x3dc138e6	0.09434681
40	0x3d5c5b74	0.053798154
41	0xbbb39d4a	-0.005481397
42	0xbd12a3d8	-0.035800785
43	0xbce989c8	-0.028508082
44	0xbe02cb4f	-0.12772869
45	0x3cd1652d	0.02556094
46	0xbe1c57e5	-0.15267904
47	0xbdaf6cbb	-0.085656606
48	0x3d58a97d	0.05289601
49	0x3d9c896c	0.07643399
50	0xbdc66ef3	-0.09689131
51	0xbd512442	-0.05105997
52	0x3c88399b	0.01662903
53	0x3d5f8725	0.054572243
54	0x3e0137be	0.1261892
55	0x3dce7389	0.1008063
56	0x3d1c5a8a	0.038172282
57	0x3c9f4262	0.019440833
58	0xbda151be	-0.07876919
59	0x3dfb61d4	0.122745186
60	0x3d3cace1	0.046063308
61	0x3d88f2df	0.06686949
62	0xbca2f780	-0.019893408
63	0x3c2028e6	0.009775376
64	0xbd9d1d71	-0.07671631
65	0x3b3721eb	0.00279438
66	0x3ddb1495	0.10697285
67	0x3d4ce1e3	0.05002011
68	0x3d01fbb0	0.03173417
69	0x3db421fa	0.08795543
70	0x3db39e2e	0.08770405
71	0xbd39df93	-0.045379233
72	0xbdc6e243	-0.09711125
73	0xbd0061d8	-0.03134331
74	0xbcd96278	-0.026536211
75	0x3d643fab	0.05572478
76	0xbd093f57	-0.03350767
77	0xb9714155	-0.00023007889
78	0xbe2a3b26	-0.16624126
79	0xbe53e1fc	-0.20691675
80	0x3c5a18fe	0.013311623
81	0x3d79dbe5	0.061000723
82	0xbd0df533	-0.03465767
83	0x3dc1a86b	0.09455951
84	0x3dbf9a39	0.093555875
85	0xbdd3ad0a	-0.10335739
86	0x3d391b1d	0.045191873
87	0x3ddda8bb	0.108231984
88	0x3ccbeaed	0.024892295
89	0xbc74b831	-0.014936493
90	0x3da925ba	0.08259149
91	0xbd20c827	-0.03925338
92	0x3cb7153f	0.022348998
93	0x3da95968	0.08269006
94	0x3dcad5c0	0.09904051
95	0xbe1257e0	-0.14291334
96	0xbdb11fd4	-0.08648649
97	0x3e5e0e57	0.21685158
98	0x3d1914a5	0.037373204
99	0x3dc8e6f5	0.098096766
100	0xbd8683b7	-0.06568091
101	0xbe0ffe47	-0.14061843
102	0x3d6faca5	0.058514256
103	0xbcf5097b	-0.029911747
104	0x3c8fe23c	0.017563932
105	0xbd1a9963	-0.037743937
106	0x3d491464	0.04909171
107	0x3c961ac3	0.018323308
108	0xbd7479b5	-0.05968638
109	0x3cb4d253	0.022072947
110	0xbc6e9f61	-0.014564366
111	0xbd2843c5	-0.041080255
112	0xbd9d6091	-0.07684434
113	0x3d0ccc15	0.034374315
114	0xbdec7660	-0.11546016
115	0x3c9bb0aa	0.019005138
116	0xbc2407e3	-0.010011646
117	0xbca08417	-0.019594235
118	0xbd896a1b	-0.06709691
119	0xbdc2c26c	-0.09509739
120	0x3e03d9f8	0.12876117
121	0xbe09916b	-0.13434379
122	0x3d1782ae	0.03698986
123	0x3b8a3d76	0.0042187525
124	0xbaf89957	-0.0018966597
125	0x3b6a7d9e	0.003578044
126	0xbd9ad1b1	-0.07559527
127	0x3d9276d9	0.07151575
128	0xbd29ed20	-0.041485906
129	0x3c73a200	0.014870167
130	0xbda02be4	-0.078208715
131	0x3d4cecb5	0.05003043
132	0xbe0f7006	-0.14007577
133	0xbe149969	-0.14511646
134	0xbc39170f	-0.0112970015
135	0x3d435a18	0.047693342
136	0xbd90dc38	-0.070732534
137	0xbd7b1bd2	-0.06130583
138	0xbd95b4db	-0.07309886
139	0xbd97dada	-0.074147895
140	0x3d0e6eef	0.034773763
141	0xbc8daf13	-0.017295396
142	0x3cfe7323	0.03106076
143	0xbb54abce	-0.0032451036
144	0x3d8220c3	0.06353905
145	0x3d8f545d	0.06998513
146	0x3b2f64df	0.0026763005
147	0xbdd4b3f3	-0.10385885
148	0x3d60cdae	0.05488365
149	0x3d05b158	0.03263983
150	0x3ddb94be	0.1072173
151	0xbc073b6b	-0.008253912
152	0x3d4b1b04	0.04958631
153	0x3e27040c	0.16310138
154	0xbd50ae44	-0.050947443
155	0x3d64d300	0.055865288
156	0xbdb58a4b	-0.08864268
157	0xbd26b1f3	-0.04069705
158	0xbc6bfea2	-0.014403971
159	0x3cba57cd	0.022746945
160	0x3da3e9ec	0.080036014
161	0xbe0e155e	-0.13875338
162	0xbdce36d7	-0.100690536
163	0x3e065cf7	0.13121401
164	0x3e4abf1d	0.19799466
165	0x3d5d64d6	0.054051243
166	0xbcd301b6	-0.025757652
167	0xbd41c200	-0.047304153
168	0xbd4111ca	-0.047136106
169	0xbd1646e6	-0.036688708
170	0x3d464ee8	0.048415095
171	0x3c910ca5	0.017706225
172	0xbc782e8d	-0.015147817
173	0xbd570a92	-0.052500315
174	0xbe255308	-0.16144955
175	0xbe485ec8	-0.19567406
176	0xbb988e21	-0.004655615
177	0x3dc58505	0.09644512
178	0xbdcf2a7c	-0.10115525
179	0xbbee5da4	-0.0072743464
180	0xbc892b95	-0.016744414
181	0x3d1e29fd	0.038614262
182	0xbd7fb54d	-0.06242876
183	0x3db5ca3c	0.08876464
184	0x3e3d9da8	0.18517172
185	0x3dd98180	0.10620403
186	0x3d331661	0.043722514
187	0xbd3ba1d1	-0.045808617
188	0xbe768920	-0.24075747
189	0x3d1e3ed1	0.038634125
190	0xbdad2f3f	-0.08456277
191	0xbcd717c2	-0.026256446
192	0x3a46de53	0.00075862295
193	0x3dea99fc	0.114551514
194	0x3e21007c	0.15722841
195	0xbcee58cb	-0.029095074
196	0xbd4c4069	-0.049866114
197	0xbdd03cf4	-0.10167876
198	0x3dc11d59	0.09429426
199	0x3e1ee9d5	0.15518887
200	0x3e19d118	0.15021169
201	0x3d4357e0	0.047691226
202	0x3d8e0ff6	0.06936638
203	0xbc57ff50	-0.01318343
204	0xbd7f67fd	-0.06235503
205	0x3cf744e8	0.030184224
206	0xbe5abab8	-0.2136029
207	0x3da10aba	0.07863374
208	0xbd842903	-0.06453135
209	0xbe0c15c7	-0.13680182
210	0x3d672b13	0.056437563
211	0x3da7fc58	0.082024276
212	0x3e2e18c3	0.17001633
213	0xbde0a816	-0.1096956
214	0xbd501024	-0.050796643
215	0xbb62705b	-0.0034551832
216	0x3d0517b2	0.0324933
217	0xbda9f448	-0.08298546
218	0xbbb82147	-0.0056192013
219	0xbdd9d34c	-0.10636005
220	0xbbd9fab6	-0.0066522015
221	0x3d87c737	0.06629794
222	0x3b8a2fef	0.00421714
223	0x3d866a7d	0.0656328
224	0xbc890397	-0.016725345
225	0x3d2e82b7	0.04260513
226	0x3cfd7a4d	0.030942107
227	0x3da733ed	0.08164201
228	0xbddc1330	-0.10745847
229	0x3c620d0f	0.013797059
230	0x3d4434fe	0.0479021
231	0x3c9bc0f9	0.019012915
232	0xbdec9213	-0.11551299
233	0x3dbb91aa	0.091586426
234	0xbda444f7	-0.080209665
235	0xbdacf800	-0.0844574
236	0x3d8edf1e	0.0697615
237	0x3cbcdbf6	0.023054104
238	0x3c45f37f	0.01208198
239	0xbdd8d09b	-0.10586663
240	0xbe13320a	-0.14374557
241	0xbd964747	-0.07337814
242	0xb9c3dea8	-0.0003735919
243	0x3c984fdf	0.018592773
244	0x3c2d1e0b	0.010566245
245	0xbb940716	-0.0045174463
246	0xbb75b2cc	-0.0037490604
247	0x3da529d4	0.08064619
248	0x3d134871	0.035957757
249	0xbd882629	-0.066479035
250	0xbda90524	-0.082529336
251	0x3d65605d	0.056000102
252	0x3d472c06	0.04862597
253	0x3d6580fb	0.05603121
254	0xbd1d89e0	-0.038461566
255	0xbc8ab46c	-0.016931735

fc2.bias f4 [84]
0	0x3ce19595	0.027537147
1	0x3dc1e62c	0.0946773
2	0x3cc48fb3	0.023994302
3	0xbb573ddd	-0.003284327
4	0x3dcb8b2c	0.09938654
5	0xbd53671c	-0.051612005
6	0xbd9ab54b	-0.0755411
7	0x3d355050	0.044266045
8	0x3d8b724f	0.06808912
9	0x3e19eaf4	0.15031034
10	0xbd3120b1	-0.043244068
11	0xbd59abf4	-0.053142503
12	0xbd4e4a6c	-0.050363943
13	0x3cdedcd9	0.027204918
14	0x3c5e64ee	0.013573868
15	0xbd952ec1	-0.07284308
16	0x3dcd24f8	0.10016817
17	0xbd2f490a	-0.042794265
18	0x3c8f0252	0.017457161
19	0x3e0a05f0	0.13478827
20	0xbd6d668c	-0.057959124
21	0x3e94386c	0.28949296
22	0xbd0787e0	-0.033088565
23	0x3e5589d3	0.20853357
24	0x3e2a628d	0.16639157
25	0x3e531627	0.20613919
26	0x3dafa8b3	0.08577099
27	0x3d3ed88a	0.046593226
28	0x3db365d0	0.087596536
29	0xbd6fb69e	-0.058523767
30	0x3d9e9089	0.07742412
31	0xbd401530	-0.046895206
32	0xbd3600bd	-0.044434298
33	0x3e0c62cd	0.13709565
34	0x3cfda32d	0.030961597
35	0xbd3acc17	-0.04560479
36	0x3e825f53	0.25463352
37	0xbb1b9b9c	-0.0023743873
38	0x3cc63621	0.024195733
39	0x3d2b8690	0.041876376
40	0xbd20fd10	-0.03930384
41	0x3d01c5d6	0.03168281
42	0x3d9870c1	0.07443381
43	0xbd48dbb7	-0.04903766
44	0x3d18fef8	0.037352532
45	0xbd443037	-0.047897544
46	0x3cc8d38c	0.024514936
47	0x3de08621	0.10963083
48	0xbd6f4c5b	-0.058422428
49	0x3e2375ea	0.1596295
50	0xbc06291d	-0.008188513
51	0x3c57b894	0.013166565
52	0xbd72d69d	-0.059286702
53	0x3ccb3b4e	0.024808552
54	0xbdc5c31d	-0.096563555
55	0xbd62dba9	-0.055385265
56	0x3c0dfa8e	0.008665694
57	0x3e4cb6f5	0.19991668
58	0x3dcde841	0.100540645
59	0x3c23a01e	0.009986905
60	0xbcba5494	-0.022745408
61	0x3d2d443a	0.042301394
62	0x3dd0ed4e	0.10201512
63	0x3db323fa	0.08747096
64	0x3d8850b3	0.06656017
65	0x3e677f2f	0.2260711
66	0x3d76fb0d	0.060298014
67	0xba957823	-0.0011403601
68	0xbdb786c7	-0.089612536
69	0x3daf29c0	0.08552885
70	0x3aa8c88b	0.0012877149
71	0x3c826280	0.01591611
72	0xbd85a218	-0.065250576
73	0x3d2c4b89	0.042064223
74	0xbdb199c8	-0.086719096
75	0x3dd6e7bf	0.10493421
76	0xbd651f33	-0.055937957
77	0x3cc83777	0.02444051
78	0x3da30dab	0.07961591
79	0xbd8f169f	-0.069867365
80	0x3da09b12	0.07842077
81	0xbd91cf82	-0.07119657
82	0x3e12c0fc	0.1433143
83	0x3b43ac59	0.0029857366

fc3.weight f4 [19, 84]
0	0xbcdbaafd	-0.026814932
1	0x3e96ca4c	0.29451215
2	0xbe5f45e9	-0.21804012
3	0xbbc7878c	-0.0060891565
4	0xbe30e046	-0.17273054
5	0xbca641c9	-0.02029504
6	0xbeb52031	-0.35376123
7	0xbe8deb29	-0.27718475
8	0xbd07db6d	-0.033168245
9	0xbda8b225	-0.082371034
10	0xbe8bb2f2	-0.27284962
11	0x3e2820a8	0.16418707
12	0x3d447227	0.047960427
13	0x3e96bc5b	0.2944058
14	0x3959c812	0.00020769265
15	0x3e948c44	0.29013264
16	0xbe703f5f	-0.23461674
17	0x3dac7507	0.08420759
18	0x3de2004d	0.110352136
19	0xbd212dc8	-0.0393503
20	0x3d636bf4	0.055522874
21	0xbde37852	-0.11106934
22	0x3e2e0fb9	0.16998185
23	0xbe01ee13	-0.12688474
24	0xbd711bfd	-0.058864582
25	0xbe776f28	-0.24163496
26	0xbe367cfa	-0.17821112
27	0x3e6113ca	0.21980205
28	0xbe0e319c	-0.13886112
29	0xbd9c4227	-0.07629805
30	0x3c1e0756	0.009645304
31	0x3d24a916	0.040200315
32	0xbc20603a	-0.009788567
33	0xbde47307	-0.11154752
34	0xbd8886cc	-0.066663355
35	0x3da5e897	0.081010036
36	0xbe78230a	-0.24232116
37	0xbd238f2f	-0.039931472
38	0xbd47bbef	-0.04876321
39	0x3e21ebd7	0.15812622
40	0xbd92992f	-0.07158124
41	0xbddbfa1b	-0.10741063
42	0xbe093dcb	-0.13402478
43	0xbdd5dd3a	-0.10442586
44	0x3e5b7cf2	0.21434382
45	0xbdde0c27	-0.108421616
46	0xbebc1527	-0.36734888
47	0x3e597d3f	0.21239184
48	0xbd3ad398	-0.045611948
49	0xbc9a98b6	-0.018871646
50	0x3e2d89a0	0.16947031
51	0x3ed2b1ea	0.41151363
52	0xbe5bfdff	-0.2148361
53	0xbe0fbd5f	-0.14037083
54	0xbd9d477f	-0.076796524
55	0x3d1b09ee	0.037851267
56	0x3dfa897a	0.12233253
57	0x3e96ba9b	0.29439244
58	0xbc1bb7ee	-0.0095043015
59	0x3d947531	0.07248915
60	0x3dbea99b	0.093096934
61	0xbe926124	-0.28589737
62	0xbe361a79	-0.17783536
63	0x3e3aca6e	0.18241283
64	0x3e95662a	0.29179507
65	0x3cb6e472	0.022325728
66	0x3c9b2c63	0.018942064
67	0x3c4495df	0.011998623
68	0x3d667b00	0.056269646
69	0x3e16f203	0.14740758
70	0xba2045e5	-0.0006113931
71	0xbd203bba	-0.03911946
72	0x3c3cfee4	0.01153538
73	0x3d0b512f	0.03401297
74	0x3d2ab936	0.041680537
75	0xbe88f90b	-0.26752505
76	0xbc6b13d1	-0.014347986
77	0x3e8e8281	0.27833942
78	0xbb9038a5	-0.004401284
79	0x3dcae60f	0.099071614
80	0xbdeedb22	-0.1166289
81	0xbd24ba6e	-0.040216856
82	0xbd972dab	-0.07381757
83	0x3e281700	0.16415024
84	0xbdef737e	-0.1169195
85	0x3cf3e5bf	0.029772637
86	0xbe1dbbe7	-0.1540371
87	0x3da20c51	0.079125054
88	0xbe255c0a	-0.16148391
89	0x3de8ed96	0.11373441
90	0xbd21780a	-0.03942112
91	0x3e07c267	0.13257752
92	0x3b90e4d1	0.0044218083
93	0xbe5530cf	-0.208194
94	0x3e4f9dd4	0.2027505
95	0x3da6c128	0.081423104
96	0xbc417c76	-0.011809459
97	0x3e9aac2d	0.30209485
98	0xbd73f94e	-0.059563927
99	0xbe941706	-0.28923815
100	0xbbe957f2	-0.0071210796
101	0xbda85a67	-0.08220368
102	0xbd684ec1	-0.05671573
103	0x3e2a8ebb	0.1665601
104	0xbe304c0c	-0.1721651
105	0xbea51fa5	-0.32250705
106	0x3e7fe892	0.24991062
107	0xbe035d6b	-0.12828605
108	0xbdcda5f6	-0.1004142
109	0xbe3e4b52	-0.1858342
110	0x3e088431	0.13331677
111	0x3ed452a8	0.41469312
112	0xbdff8e2d	-0.1247829
113	0xbd21359d	-0.03935777
114	0xbd1d6fbd	-0.03843664
115	0x3db80ecb	0.089871965
116	0x3e110d70	0.14165282
117	0xbdad370d	-0.08457766
118	0x3d889ee4	0.06670931
119	0x3d6f3d98	0.05840835
120	0xbea9f900	-0.33197784
121	0xbb5a2135	-0.0033283953
122	0xbd833a65	-0.06407622
123	0xbe5c853b	-0.21535198
124	0x3dc72c59	0.097252555
125	0xbe932be1	-0.28744414
126	0xbe0265a5	-0.12734087
127	0x3a58cb3e	0.00082700315
128	0x3ca26dfd	0.019827837
129	0xbda66b06	-0.08125882
130	0x3e7fc143	0.24976067
131	0xbdaca0cb	-0.08429106
132	0xbd348f5a	-0.044082023
133	0xbe3f517b	-0.18683426
134	0x3dd4fa79	0.10399336
135	0x3e21e8ff	0.15811537
136	0xbc030eed	-0.007999164
137	0x3cc3c993	0.023899829
138	0x3855cb51	5.097251e-05
139	0xbd23c82c	-0.03998582
140	0x3dc91404	0.09818271
141	0x3e8a573a	0.27019674
142	0x3ecb76c6	0.39739054
143	0x3d254627	0.040350106
144	0xbd530d7d	-0.051526535
145	0x3e769250	0.24079251
146	0x3e3bef2a	0.18352953
147	0x3dd9a2ef	0.1062678
148	0x3e3ae36d	0.18250819
149	0xbc99fa33	-0.018796062
150	0xbe4cd0ac	-0.20001477
151	0xbe41c308	-0.18922055
152	0xbe2151bf	-0.1575384
153	0xbe560c5b	-0.2090315
154	0x3e608d89	0.21928991
155	0xbc0ba714	-0.008523721
156	0x3b7b4714	0.0038341926
157	0xbe02e43b	-0.12782376
158	0x3cab3bd1	0.020902546
159	0xbdc9598e	-0.09831534
160	0xbd3e9355	-0.046527226
161	0x3e8dad5f	0.27671334
162	0xbccc9a6c	-0.024975978
163	0x3ca5b8e8	0.020229772
164	0xbe26cada	-0.16288319
165	0xbe1c7e9f	-0.15282677
166	0xbe0a4393	-0.1350234
167	0xbe299d95	-0.16564019
168	0xbdca61ac	-0.09881911
169	0x3e25af5e	0.16180179
170	0x3dd868b2	0.10566844
171	0xbdd8c2bd	-0.105840184
172	0xbd0bcedb	-0.03413282
173	0x3d07e5bb	0.033178072
174	0xbe207f5d	-0.15673585
175	0x3ea24a5e	0.31697363
176	0xbe2a9839	-0.16659631
177	0xbd8be8a9	-0.06831486
178	0x3d8affec	0.067870945
179	0x3dd054d4	0.1017243
180	0xbde4206f	-0.11138999
181	0x3d669f9e	0.056304567
182	0xbdc5388a	-0.096299246
183	0xbc80db3f	-0.015729545
184	0xbc151fb0	-0.009101793
185	0x3d06acb9	0.032879565
186	0x3d582be4	0.052776232
187	0xbc0d8a31	-0.008638904
188	0xbe33f8f3	-0.17575435
189	0xbe4c8009	-0.19970717
190	0xbd0e96a0	-0.034811616
191	0xbd748827	-0.059700157
192	0xbd6416fd	-0.055685986
193	0xbe1b9aa1	-0.15195705
194	0xbdd1c9cd	-0.102435686
195	0xbd9be1ba	-0.07611413
196	0xbe8b04af	-0.2715201
197	0x3da11275	0.078648485
198	0x3ec706ab	0.38872275
199	0xbd4ff43b	-0.050770026
200	0x3c81353f	0.01577246
201	0xbe48fac4	-0.1962691
202	0xbdd9fb9e	-0.10643695
203	0x3e8a2f6d	0.26989308
204	0xbe70e436	-0.23524556
205	0xbdcb1f19	-0.09918041
206	0xbd882bdb	-0.0664899
207	0xbd14e6ac	-0.0363528
208	0x3d94ee8f	0.07272064
209	0xbe0f2085	-0.13977249
210	0xbe0e12d4	-0.1387437
211	0xbd478c8e	-0.048718028
212	0x3e291bf1	0.16514565
213	0xbd539de2	-0.05166424
214	0x3de8f6bb	0.11375185
215	0x3e0fcf34	0.14043885
216	0x3d9f053c	0.0776467
217	0x3b595efd	0.003316819
218	0x3d61c302	0.055117615
219	0xbc0c46b5	-0.00856178
220	0xbd0df5cc	-0.03465824
221	0x3e314270	0.173105
222	0x3d5abe35	0.05340405
223	0xbd027d61	-0.031857852
224	0x3e9b6094	0.3034712
225	0x3e61a09f	0.22033928
226	0xbe4bfeac	-0.19921368
227	0xbde111f0	-0.109897494
228	0xbe0bb573	-0.13643436
229	0xbe16e96a	-0.14737478
230	0x3da9630e	0.08270846
231	0x3deca157	0.11554211
232	0xbd9faa1c	-0.07796118
233	0xbe1d6832	-0.15371779
234	0xbe393ffc	-0.18090814
235	0x3e144033	0.14477615
236	0xbd86f7a4	-0.065902025
237	0xbe399aa4	-0.18125397
238	0x3e15f5e1	0.14644577
239	0xbc733ea9	-0.014846482
240	0x3db893de	0.090125784
241	0x3e91bc62	0.28464037
242	0xbd74c4ef	-0.059758123
243	0xbde46e6d	-0.111538745
244	0xbd8c9b09	-0.06865508
245	0x3e546805	0.20742805
246	0x3e23b3ad	0.1598651
247	0xbe406a28	-0.18790495
248	0xbe559735	-0.20858462
249	0x3b44e2ac	0.0030042334
250	0x3d93728e	0.07199584
251	0xbe470dbb	-0.19438832
252	0xbe0a3b08	-0.13499081
253	0x3e7db784	0.24777037
254	0x3a5df9cc	0.00084677036
255	0xbd20311b	-0.03910933

fc3.bias f4 [19]
0	0xbe979e8b	-0.29613146
1	0xbdd8459b	-0.10560151
2	0x3d39f41a	0.04539881
3	0x3b40f5df	0.0029443426
4	0xbe717fcf	-0.23583911
5	0x3e19b015	0.15008576
6	0xbea30164	-0.31836998
7	0x3cfc40ac	0.030792557
8	0xbe8e5dc4	-0.27805912
9	0xbda691dc	-0.08133289
10	0x3e9fc581	0.3120537
11	0xbd88e5b3	-0.06684437
12	0x3e84a109	0.2590411
13	0xbcafaa30	-0.021443456
14	0x3da0d20d	0.07852564
15	0x3e3a07c8	0.18167031
16	0x3bf26fbd	0.007398574
17	0x3e656966	0.22403488
18	0xbdab00b3	-0.08349743
