python/CNN18.pth (torch_old, 252622 bytes, 10 tensors)

conv1.weight f4 [6, 3, 5, 5]
0.4564264 0.5782263 0.6097319 0.4569286 0.5796383 0.0061329063 0.05004619 0.048274897
0.26972693 0.22687583 3.100465e-05 -0.23993284 -0.22950168 -0.22617565 -0.16857156 0.15543947
0.13046803 -0.011011377 0.01215575 -0.054672208 0.37643936 0.5823823 0.331327 0.20280918
-0.11447332 -0.03099109 0.12064968 0.2543593 0.32085568 0.34532988 -0.22162662 -0.27949807
-0.18444441 0.0155903315 -0.03795565 -0.30599797 -0.5982652 -0.4980002 -0.5906335 -0.31223372
-0.125831 -0.0559142 -0.23950371 -0.3838489 -0.29426378 0.21078573 0.3106365 0.22833255
-0.18859434 -0.31278864 0.041111045 0.06647652 0.34710613 0.30909377 0.2505672 -0.15083402
-0.21677895 -0.16917817 0.06566427 0.11942269 -0.25970054 -0.5501376 -0.63133764 -0.47533467
-0.37556854 0.011978055 -0.12481932 -0.24075547 -0.3168228 -0.26465228 0.471339 0.32278967
0.10533232 -0.05280892 -0.2533414 -0.048162255 0.01608742 -0.029924225 0.009894651 0.010756311
0.14037536 0.18582702 0.18264301 0.23208494 0.19143693 -0.11956738 0.17870945 0.17509378
0.25256497 0.32066983 -0.23304361 -0.1733676 -0.08720229 0.00402831 0.13107614 -0.090227835
-0.107787244 -0.34767386 -0.17338979 -0.17625523 0.0020467136 -0.037623774 0.010933219 -0.020616915
-0.026116125 0.077684246 0.29934558 0.28539875 0.31158414 0.17265902 0.10816149 0.1608816
0.27105746 0.3866916 0.38735408 -0.17305285 -0.17399885 -0.21563819 -0.029888894 0.044438817
0.0064151445 -0.07812964 -0.14763904 -0.096488334 -0.10024019 -0.1339612 -0.022575043 -0.13671455
0.012674464 -0.07837224 -0.14799039 0.016724205 0.18148813 -0.00609765 0.030404402 -0.18040974
-0.0023142877 0.0020604457 0.2158162 0.21920343 -0.24770664 -0.30846462 -0.35484296 -0.21869352
-0.007318743 -0.12968346 -0.3521063 -0.3382742 -0.4098419 -0.23224002 0.22396487 0.27735624
0.10020736 -0.09113469 -0.047808867 0.22674817 0.075949974 -0.23405203 -0.32547304 -0.29655924
0.35189366 -0.033858232 -0.35496104 -0.5008449 -0.30418336 0.40757367 0.20542674 -0.41661403
-0.46899357 -0.1636743 0.72939456 0.35453424 -0.031786148 -0.283385 -0.08584803 0.0067698783
0.2101451 -0.13514397 -0.33434376 -0.13932471 -0.046523847 0.018795108 -0.36318654 -0.39574146
-0.4061718 -0.11601049 0.0059473193 -0.38456854 -0.36169153 -0.3896227 0.22173294 0.022881068
-0.3027494 -0.545287 -0.20673135 0.22768468 0.09589051 -0.24192756 -0.45591742 -0.13610564
0.24600579 0.43329787 0.3537088 0.03910469 0.168343 0.061856326 0.18434203 0.12873203
-0.008401024 0.10995097 0.10791299 0.26087368 -0.019280216 -0.10963673 0.19414976 0.31889004
0.24512398 -0.0911499 0.03670894 0.33023822 0.5382848 0.34628668 0.062611744 0.016798893
0.23274149 0.052077115 0.11016936 -0.05332287 0.17521638 0.23022498 0.010001881 0.062078103
0.13584635 0.007338725 0.2481468 -0.11832346 -0.03507462 -0.12971532 -0.0841941 -0.0016047593
-0.17561352 -0.09103065 -0.017029112 0.10484439 0.124431625 -0.20829749 -0.06199136 -0.08949318
-0.014605476 0.15832046 -0.2754198 -0.29247704 -0.24638134 -0.20598826 0.018420633 -0.1038171
00000000: b9b0 e93e a406 143f 6417 1c3f 8cf2 e93e
00000010: 2d63 143f 8cf6 c83b 3cfd 4c3d e6bb 453d
00000020: a619 8a3e 2352 683e fd0a 0238 f4b0 75be
00000030: 7d02 6bbe 979a 67be 069e 2cbe 862b 1f3e
00000040: 6999 053e 1069 34bc e928 473c f7ef 5fbd
00000050: a9bc c03e 0217 153f b1a3 a93e 36ad 4f3e
00000060: fd70 eabd 07e1 fdbc 2e17 f73d 623b 823e
00000070: 3247 a43e 14cf b03e 17f2 62be 5f1a 8fbe
00000080: ffde 3cbe 976e 7f3c 6277 1bbd c4ab 9cbe
00000090: e827 19bf e2f9 febe c233 17bf 19dd 9fbe
000000a0: d7d9 00be 4a06 65bd 7640 75be d887 c4be
000000b0: bea9 96be 37d8 573e bf0b 9f3e 02d0 693e
000000c0: e01e 41be d525 a0be 0e64 283d d724 883d
000000d0: e5b7 b13e 8a41 9e3e 584a 803e 3c74 1abe
000000e0: 4dfb 5dbe 0b3d 2dbe fd7a 863d e293 f43d
000000f0: 78f7 84be d1d5 0cbf 589f 21bf 115f f3be
00000100: 854a c0be 9b3f 443c 46a1 ffbd 9a88 76be
00000110: 9936 a2be 8180 87be 5853 f13e b044 a53e
00000120: 79b8 d73d 2b4e 58bd f7b5 81be c945 45bd
00000130: c4c9 833c a623 f5bc 2d1d 223c 3d3b 303c
00000140: 8fbe 0f3e 7049 3e3e c506 3b3e ada7 6d3e
00000150: 0b08 443e bedf f4bd 9cff 363e c94b 333e
00000160: 3250 813e d62e a43e fca2 6ebe 4787 31be
00000170: 1d97 b2bd eaff 833b d338 063e 5fc9 b8bd
00000180: 8fbf dcbd 4f02 b2be 188d 31be 407c 34be
00000190: 2822 063b 631b 1abd 3f21 333c cee4 a8bc
000001a0: 7cf1 d5bc eb18 9f3d d343 993e c91f 923e
000001b0: f587 9f3e 87cd 303e c583 dd3d 25be 243e
000001c0: 0bc8 8a3e 71fc c53e 4653 c63e c434 31be
000001d0: c12c 32be 42d0 5cbe 8ed9 f4bc 7a05 363d
000001e0: 2236 d23b 6f02 a0bd b02e 17be ad9b c5bd
000001f0: bb4a cdbd 202d 09be 4cef b8bc e6fe 0bbe
00000200: 8ea8 4f3c a081 a0bd cb8a 17be 3301 893c
00000210: 06d8 393e ccce c7bb a712 f93c 55bd 38be
00000220: 4eab 17bb 8b08 073b ecfe 5c3e dd76 603e
00000230: cfa6 7dbe 13ef 9dbe faad b5be 32f1 5fbe
00000240: 11d2 efbb becb 04be 4747 b4be 4732 adbe
00000250: ccd6 d1be 54d0 6dbe 0c57 653e a301 8e3e
00000260: 8439 cd3d d3a4 babd 3bd3 43bd ac30 683e
00000270: a98b 9b3d 56ab 6fbe 67a4 a6be 9dd6 97be
00000280: 682b b43e eeae 0abd 74bd b5be 5f37 00bf
00000290: ecbd 9bbe 7fad d03e 635b 523e 6f4e d5be
000002a0: ed1f f0be 3c9a 27be 9ab9 3a3f 8385 b53e
000002b0: 3132 02bd d717 91be 18d1 afbd dbd5 dd3b
000002c0: 4730 573e 2e63 0abe 1b2f abbe 23ab 0ebe
000002d0: ca8f 3ebd 33f8 993c 96f3 b9be a09e cabe
000002e0: c0f5 cfbe e896 edbd bbe1 c23b 2be6 c4be
000002f0: a22f b9be a07c c7be f60d 633e 1471 bb3c
00000300: f801 9bbe ee97 0bbf 62b1 53be 2c26 693e
00000310: 3e62 c43d dcbb 77be 026e e9be 475f 0bbe
00000320: f1e8 7b3e 38d9 dd3e 5219 b53e 3d2c 203d
00000330: 1b62 2c3e 0f5d 7d3d 28c4 3c3e 54d2 033e
00000340: 73a4 09bc f92d e13d 7c01 dd3d 3c91 853e
00000350: 8bf1 9dbc 3989 e0bd 32cf 463e 8e45 a33e
00000360: c801 7b3e ccac babd 1d5c 163d fc14 a93e
00000370: 08cd 093f 7d4c b13e 963a 803d d59d 893c
00000380: c953 6e3e d04e 553d 79a0 e13d 1569 5abd
00000390: ec6b 333e 19c0 6b3e eede 233c 9c45 7e3d
000003a0: 4e1b 0b3e b079 f03b 321a 7e3e 9253 f2bd
000003b0: 68aa 0fbd 18d4 04be f56d acbd c956 d2ba
000003c0: 08d4 33be 476e babd a380 8bbc a8b8 d63d
000003d0: 02d6 fe3d f04b 55be a7ea 7dbd 3348 b7bd
000003e0: ce4b 6fbc c21e 223e d303 8dbe 8dbf 95be
000003f0: 644b 7cbe 96ee 52be dee6 963c 0f9e d4bd

conv1.bias f4 [6]
0.31914693 -0.0007597284 0.37196985 -0.49221846 -0.20898503 0.080294736
00000000: 3a67 a33e 8328 47ba d572 be3e 0f04 fcbe
00000010: 2c00 56be 9171 a43d

conv2.weight f4 [16, 6, 5, 5]
-0.13791765 -0.08354091 0.03813706 0.15776344 0.18218026 -0.17482555 -0.055445302 0.17245743
0.04629295 -0.052410264 -0.07375944 -0.068002336 0.1881909 0.28326288 0.011493184 -0.10993294
-0.110421106 -0.15212543 -0.10251098 -0.0975538 -0.16326234 0.063613385 0.093948476 -0.12797217
-0.21906582 -0.13941589 -0.0024043978 0.09279143 -0.046865486 0.031818777 -0.045870725 -0.039818328
0.19062704 0.12428307 0.14843547 0.14308931 0.033649042 0.09573126 0.01302117 -0.038738057
0.12364388 0.18352367 0.15191047 0.028248817 -0.115825035 0.06339236 -0.09125033 -0.044758037
-0.040722653 -0.14690517 0.36567786 0.21237817 0.17386352 -0.0321981 -0.039196435 0.18126224
0.15502372 0.072922796 -0.20612806 -0.16603354 0.042726558 0.052685324 -0.112536885 -0.1761628
-0.21454874 -0.0055649974 -0.27818304 -0.30256176 -0.29955992 -0.25176734 -0.162654 -0.26081046
-0.19647618 -0.20436634 -0.06912565 0.31410375 0.31508723 0.19209035 0.12372974 0.1625717
0.2612342 0.3297985 0.24826673 0.13357587 0.020166757 0.062158316 -0.07018203 0.08264763
-0.11917722 -0.013941248 -0.034928247 -0.12318668 -0.022552926 -0.08307404 -0.08050624 0.066244
-0.2091048 -0.15995753 -0.1548192 -0.17411712 0.16335164 0.1941772 0.09705079 0.09226498
0.16868672 0.29290769 0.19564575 0.03790495 -0.09383661 -0.1064109 0.07261784 -0.12238282
-0.07275562 -0.16092087 -0.21495943 -0.07218421 -0.17719197 -0.2133847 -0.16741586 -0.18174465
-0.06327802 -0.08453155 -0.07648887 -0.114561856 -0.12764731 -0.08251584 0.097102895 0.032581452
-0.0058120284 0.14806618 0.14831454 0.15160592 0.08337639 0.05055244 -0.027506312 0.049428757
0.09869223 0.24590997 -0.0144849615 -0.105339795 0.08947497 -0.04463658 0.024417924 -0.06654988
-0.22645754 0.11926312 0.04198438 -0.10122074 -0.14811248 -0.053021096 -0.17017762 -0.10207992
0.058765806 0.124705024 0.32800832 -0.026514787 -0.056391764 -0.21033965 -0.03344653 -0.08618565
0.2560095 0.16311266 -0.09407175 0.0067089093 -0.06053366 -0.029458804 0.12225933 -0.018896172
-0.030430142 -0.071516104 -0.004303551 -0.19062233 -0.1821086 -0.15123637 -0.1848784 -0.08092593
-0.124726795 -0.14624104 -0.12206918 0.055424217 0.12712057 0.14063853 -0.08225066 -0.046566427
0.12374022 0.055691354 -0.026255976 0.08373663 -0.028617384 0.07011165 -0.16080989 -0.11510382
-0.04755624 -0.118028976 0.010856859 -0.01013129 -0.19829282 -0.16214563 -0.18577424 0.07174596
-0.06326783 -0.30172804 -0.004677785 0.17701393 -0.19147693 -0.19453761 -0.18046601 -0.0025926046
-0.04289721 -0.17871642 -0.0023676346 0.20490868 0.02505229 -0.04232183 -0.18626153 -0.011732065
0.33682287 0.1246954 0.38747427 -0.079999164 0.03809798 0.24084914 0.1670842 0.41356868
-0.1217357 -0.22293033 -0.25537285 -0.32298175 -0.124127954 -0.07897023 -0.014752924 -0.04054593
-0.008198509 0.014994675 0.009253309 -0.14616431 0.0022385328 0.118581295 0.13123877 0.094010435
-0.031300914 0.03896624 0.2290145 0.21812104 0.22604944 0.13487293 0.16827233 0.07323657
0.14281529 0.19642127 -0.18110023 -0.3198398 -0.29603878 -0.11829092 -0.08653271 -0.10288473
00000000: 493a 0dbe 7f17 abbd 9b35 1c3d bd8c 213e
00000010: 768d 3a3e 7805 33be 9d1a 63bd ae98 303e
00000020: ad9d 3d3d 25ac 56bd 300f 97bd cf44 8bbd
00000030: 1eb5 403e d507 913e e84d 3c3c 8524 e1bd
00000040: 7624 e2bd c5c6 1bbe 47f1 d1bd 49ca c7bd
00000050: 3e2e 27be bc47 823d 0f68 c03d 230b 03be
00000060: ca52 60be 0ac3 0ebe 1a93 1dbb 6f09 be3d
00000070: 06f6 3fbd 6854 023d f1e2 3bbd 8b18 23bd
00000080: bc33 433e 1f88 fe3d 78ff 173e 0186 123e
00000090: 94d3 093d c00e c43d bf56 553c ccab 1ebd
000000a0: 0139 fd3d a1ed 3b3e 6b8e 1b3e 106a e73c
000000b0: ad35 edbd dbd3 813d 74e1 babd 3454 37bd
000000c0: cccc 26bd 4f6e 16be 213a bb3e aa79 593e
000000d0: 4709 323e 28e2 03bd 718c 20bd cf9c 393e
000000e0: 8abe 1e3e 8c58 953d 3c13 53be b204 2abe
000000f0: 0b02 2f3d 91cc 573d bd79 e6bd 0564 34be
00000100: aab2 5bbe 955a b6bb 026e 8ebe 60e9 9abe
00000110: eb5f 99be a6e7 80be c58e 26be f388 85be
00000120: 0d31 49be 6945 51be c091 8dbd 35d2 a03e
00000130: 1d53 a13e 55b3 443e 0566 fd3d 3279 263e
00000140: 7dc0 853e 59db a83e a239 7e3e 1dc8 083e
00000150: c134 a53c b899 7e3d 99bb 8fbd 2943 a93d
00000160: 3013 f4bd d569 64bc ec10 0fbd 4c49 fcbd
00000170: eac0 b8bc b922 aabd 75e0 a4bd efaa 873d
00000180: 921f 56be e8cb 23be ed88 1ebe c24b 32be
00000190: a745 273e 63d6 463e 91c2 c63d 6cf5 bc3d
000001a0: 36bc 2c3e fff7 953e 5c57 483e 3942 1b3d
000001b0: 692d c0bd f5ed d9bd a9b8 943d d8a3 fabd
000001c0: e600 95bd 71c8 24be 531e 5cbe 51d5 93bd
000001d0: d071 35be 8581 5abe 106f 2bbe 451b 3abe
000001e0: e897 81bd e11e adbd 32a6 9cbd 689f eabd
000001f0: fab5 02be 11fe a8bd e2dd c63d 2174 053d
00000200: d472 bebb a99e 173e c4df 173e 953e 1b3e
00000210: 3ec1 aa3d 1310 4f3d eb54 e1bc cf75 4a3d
00000220: 271f ca3d d3cf 7b3e 5552 6dbc 64bc d7bd
00000230: a73e b73d d9d4 36bd 1908 c83c 4e4b 88bd
00000240: 7ce4 67be 3940 f43d d0f7 2b3d d24c cfbd
00000250: ccaa 17be a62c 59bd 0b43 2ebe 470f d1bd
00000260: 6ab4 703d 5965 ff3d b5f0 a73e 8a35 d9bc
00000270: 0dfb 66bd 4763 57be 3bff 08bd 1a82 b0bd
00000280: ad13 833e 0107 273e b1a8 c0bd 69d6 db3b
00000290: 25f2 77bd 9753 f1bc 1963 fa3d 25cc 9abc
000002a0: a248 f9bc 0977 92bd cd04 8dbb 8032 43be
000002b0: ad7a 3abe b5dd 1abe c350 3dbe 7ebc a5bd
000002c0: c370 ffbd 36c0 15be 68ff f9bd 8104 633d
000002d0: e52b 023e 8c03 103e 0973 a8bd 70bc 3ebd
000002e0: 836b fd3d 9e1c 643d c616 d7bc 1c7e ab3d
000002f0: 016f eabc b296 8f3d 59ab 24be 8dbb ebbd
00000300: 55ca 42bd 2db9 f1bd f8e0 313c b6fd 25bc
00000310: 460d 4bbe 8109 26be 9a3b 3ebe 8cef 923d
00000320: 9092 81bd 197c 9abe 1b48 99bb 2443 353e
00000330: 8712 44be de34 47be 15cc 38be b0e8 29bb
00000340: fcb4 2fbd 7001 37be 512a 1bbb 95d3 513e
00000350: 763a cd3c a859 2dbd 58bb 3ebe d937 40bc
00000360: 0c74 ac3e 4d60 ff3d 0763 c63e 9ad6 a3bd
00000370: a10c 1c3d 28a1 763e 1f18 2b3e 46bf d33e
00000380: 9150 f9bd d947 64be 3bc0 82be dd5d a5be
00000390: cc36 febd 25bb a1bd 40b6 71bc 7d13 26bd
000003a0: 0a53 06bc 3aac 753c 319b 173c 19ac 15be
000003b0: 59b4 123b c0da f23d 7563 063e 8b88 c03d
000003c0: 6335 00bd 109b 1f3d c782 6a3e 1f5b 5f3e
000003d0: 8179 673e 211c 0a3e 954f 2c3e 0efd 953d
000003e0: 2c3e 123e a822 493e 5772 39be 0bc2 a3be
000003f0: 6592 97be 8342 f2bd 1038 b1bd 3bb5 d2bd

conv2.bias f4 [16]
0.014879738 -0.036476754 0.108525485 -0.015095945 -0.02439974 0.14911312 -0.03999424 0.1001995
-0.06810749 0.021283366 0.06917082 -0.041169718 -0.031672396 -0.026513867 0.0386443 -0.109297976
00000000: 25ca 733c a668 15bd 9c42 de3d fc54 77bc
00000010: f7e1 c7bc 1cb1 183e 00d1 23bd 6535 cd3d
00000020: f17b 8bbd 745a ae3c 6ea9 8d3d 94a1 28bd
00000030: eaba 01bd 9c33 d9bc 7c49 1e3d 9ed7 dfbd

fc1.weight f4 [120, 400]
-0.07761601 -0.009787787 0.007048796 -0.10959572 -0.07272177 -0.055736776 0.008527391 -0.002696954
-0.055767544 -0.049247433 -0.031360086 0.03042195 0.059901256 0.021397645 -0.072947845 -0.065432996
0.0055865506 -0.019594356 -0.0015135416 0.006975413 -0.062456977 -0.0036942891 -0.022453476 -0.003849285
-0.07107866 0.018585116 -0.01613554 -0.032969948 -0.015846254 -0.021795774 0.010937873 0.024008332
0.01263242 0.0007079631 -0.019553665 -0.047933444 -0.060203314 -0.056087874 -0.009641516 -0.028303828
0.08184439 0.09417462 0.049632285 0.046701543 0.017204572 -0.01882845 0.07762144 0.010997277
0.15829127 0.050885383 -0.07915425 -0.030743707 -0.057968896 -0.06391119 0.0056141894 -0.0235742
-0.13033038 -0.060633067 -0.08532555 -0.101725556 -0.06095625 -0.018179536 -0.02643882 -0.067147054
-0.06233049 0.025392558 -0.07063379 -0.07403138 -0.1006089 -0.053823613 -0.096938185 -0.10498681
0.0070983437 0.00407037 -0.0798906 -0.0022618787 0.01707144 -0.0010687718 -0.012415805 -0.0155923115
-0.00910016 -0.0020796899 0.026792588 -0.041938446 0.028297558 0.041682847 0.031537756 -0.04186693
0.015173593 -0.016671667 0.04596166 0.041776996 0.0034217453 -0.01990563 0.034413323 0.0052248887
0.036316812 0.014225724 -0.046600796 0.038420938 -0.035220243 -0.051011905 0.032146048 0.037898917
-0.030352449 -0.0027009088 0.010288028 -0.005198285 0.024225088 0.018050838 0.04371796 0.04862148
-0.003504719 -0.02383607 0.021999406 -0.044726472 0.009653586 0.027792208 0.034887828 0.013094028
0.04237914 0.017081885 0.055740308 -0.07434047 0.05202867 0.07416514 -0.0028332365 0.00064995256
0.048786428 0.0018796215 0.010445951 -0.02848792 0.0013418159 -0.015638309 0.016622186 0.024401547
0.0276357 -0.04806456 -0.041627754 0.05795342 0.08956391 0.021289345 -0.039462868 -0.026518656
0.0034388206 0.14560929 -0.023877658 0.011640759 0.111590326 0.15453503 0.024114145 -0.044865377
0.041019466 0.022379888 0.00850908 0.03691669 0.026958672 0.0020697396 -0.014418192 -0.011398586
0.036034092 -0.001774589 -0.024887905 0.057424508 -0.040778223 -0.009898493 0.006564404 0.06289518
-0.013551964 -0.07413071 0.008335506 0.025413811 -0.0082027335 0.005694183 -0.039806318 -0.012037175
0.035605006 0.020020157 -0.037108503 -0.021480491 0.00024397967 -0.044355758 0.11329431 0.028662907
-0.049075708 -0.006030844 0.0018181158 -0.019746412 0.007091432 0.04692026 0.0073960614 0.029997103
0.023707096 -0.020700403 0.061264623 -0.032633107 -0.032473892 0.06263198 0.03583372 0.07490814
-0.039318226 -0.031103702 -0.012290909 0.0025259156 0.035657402 -0.07050984 -0.05197839 -0.07177998
0.03516023 0.070973806 -0.055011358 -0.008851558 0.024047835 -0.015597253 0.0111244405 0.03947594
-0.059086367 0.006934232 0.063000605 0.089025386 0.005606264 -0.054806247 -0.0027014883 0.050745748
0.0015426541 0.09821028 0.053216234 -0.053122237 -0.026119312 0.027561441 0.10263439 -0.00358678
-0.083894804 0.055235967 0.014701263 0.011600761 -0.039910275 -0.07808644 -0.012318385 0.01953876
0.085437484 0.1072745 -0.030577585 -0.018244289 0.006091669 0.0625706 0.093044996 -0.08532538
-0.03965458 0.11011301 0.04847883 -0.019914337 0.022197884 -0.054472152 -0.011432948 -0.036274575
00000000: 25f5 9ebd f45c 20bc 96f9 e63b b973 e0bd
00000010: 27ef 94bd 3f4c 64bd 78b6 0b3c 61bf 30bb
00000020: 826c 64bd adb7 49bd 6f73 00bd 7437 f93c
00000030: 055b 753d 1d4a af3c ae65 95bd bc01 86bd
00000040: 620f b73b 5884 a0bc 0762 c6ba 0192 e43b
00000050: e3d2 7fbd e31b 72bb 5af0 b7bc 4944 7cbb
00000060: b091 91bd d03f 983c ae2e 84bc 7f0b 07bd
00000070: 01d0 81bc 0d8d b2bc c434 333c 1fad c43c
00000080: 36f8 4e3c 9996 393a 022f a0bc dc55 44bd
00000090: c097 76bd 66bc 65bd 73f7 1dbc 6edd e7bc
000000a0: 089e a73d a0de c03d 394b 4b3d 1e4a 3f3d
000000b0: 9af0 8c3c 1f3e 9abc fdf7 9e3d ec2d 343c
000000c0: 1b17 223e 316d 503d a01b a2bd 3ada fbbc
000000d0: cb70 6dbd dfe3 82bd 3cf7 b73b ae1e c1bc
000000e0: 5475 05be 615a 78bd 29bf aebd 7d55 d0bd
000000f0: 43ad 79bd 40ed 94bc 3996 d8bc 6584 89bd
00000100: 424e 7fbd 0e04 d03c 73a8 90bd c49d 97bd
00000110: 0a0c cebd 2676 5cbd 8787 c6bd 5303 d7bd
00000120: 3999 e83b bd60 853b af9d a3bd 073c 14bb
00000130: 68d9 8b3c 0816 8cba a96b 4bbc e576 7fbc
00000140: d618 15bc 684b 08bb 217c db3c a6c7 2bbd
00000150: 48d0 e73c a2bb 2a3d bc2d 013d a87c 2bbd
00000160: a99a 783c 0593 88bc 4b42 3c3d 5b1e 2b3d
00000170: 5c3f 603b 2211 a3bc fcf4 0c3d 8b35 ab3b
00000180: f0c0 143d 0313 693c 7ae0 3ebd 465f 1d3d
00000190: 1a43 10bd dcf1 50bd 93ab 033d e53b 1b3d
000001a0: b3a5 f8bc bb01 31bb 1e8f 283c 6056 aabb
000001b0: b173 c63c 5adf 933c 9b11 333d 5127 473d
000001c0: 6daf 65bb dd43 c3bc 1938 b43c 1b33 37bd
000001d0: 132a 1e3c 7cac e33c 8ae6 0e3d 5688 563c
000001e0: c095 2d3d 4fef 8b3c f34f 643d d13f 98bd
000001f0: 041c 553d e5e3 973d d2ad 39bb 9461 2a3a
00000200: 47d4 473d a25d f63a 7e25 2b3c 805f e9bc
00000210: dfdf af3a e91b 80bc 402b 883c c1e5 c73c
00000220: 4364 e23c 58df 44bd dd81 2abd 9160 6d3d
00000230: 496d b73d fe66 ae3c d1a3 21bd a73d d9bc
00000240: d65d 613b 9a1a 153e 149b c3bc e2b8 3e3c
00000250: 7889 e43d 6e3e 1e3e 078b c53c c2c4 37bd
00000260: 0704 283d 0756 b73c ab69 0b3c f535 173d
00000270: 6fd8 dc3c 78a4 073b 483a 6cbc 23c1 3abc
00000280: 7c98 133d 5399 e8ba b8e1 cbbc f635 6b3d
00000290: 1107 27bd 4a2d 22bc 361a d73b 30cf 803d
000002a0: 0f09 5ebc d7d1 97bd a591 083c a030 d03c
000002b0: c264 06bc 4596 ba3b f30b 23bd 9237 45bc
000002c0: 8ed6 113d 5001 a43c 16ff 17bd dbf7 afbc
000002d0: cbd4 7f39 62ae 35bd d906 e83d 79ce ea3c
000002e0: 9c03 49bd 639e c5bb d84d ee3a 3ac3 a1bc
000002f0: 3e5f e83b 752f 403d a95a f23b 7cbc f53c
00000300: 6235 c23c e493 a9bc 9df0 7a3d 4baa 05bd
00000310: 5803 05bd 3245 803d 61c6 123d 7069 993d
00000320: 260c 21bd 31cd febc cf5f 49bc d589 253b
00000330: 7f0d 123d 7767 90bd 4be7 54bd 6201 93bd
00000340: 2c04 103d b75a 913d 9753 61bd 2006 11bc
00000350: f7ff c43c 9f8b 7fbc 4943 363c 86b1 213d
00000360: 8c04 72bd 8e38 e33b 7606 813d f152 b63d
00000370: c0b4 b73b 847c 60bd 740b 31bb c6da 4f3d
00000380: e232 ca3a 7922 c93d 44f9 593d b496 59bd
00000390: 2bf8 d5bc 88c8 e13c fb31 d23d 2f10 6bbb
000003a0: 0ad1 abbd 1c3f 623d 91dd 703c 1e11 3e3c
000003b0: f578 23bd c9eb 9fbd 0dd3 49bc c00f a03c
000003c0: d9f9 ae3d bcb2 db3d d87d fabc 0c75 95bc
000003d0: a09c c73b 0425 803d 608e be3d 13bf aebd
000003e0: d76c 22bd ee82 e13d bd91 463d 6423 a3bc
000003f0: 56d8 b53c 311e 5fbd 4251 3bbc a694 14bd

fc1.bias f4 [120]
0.062461052 -0.0008243599 0.029737668 0.06650268 0.016345074 0.083955735 -0.015553158 0.07930951
-0.04074215 -0.027226098 -0.018059554 -0.014248027 0.09151686 -0.0036591068 -0.060142953 0.006257601
0.05002167 0.099810265 -0.06578046 0.047809117 -0.013095128 0.19202493 -0.024702523 0.037978414
0.06530983 -0.018196704 0.060349956 0.050070662 -0.021687424 0.006992904 0.07785168 -0.011508704
-0.027053332 0.14826272 0.05950791 -0.046929955 -0.023675267 -0.076141015 -0.021776823 0.008165826
-0.043253087 0.035814513 0.0024211186 0.02149946 -0.02004731 -0.039654892 0.10971656 0.0066369483
-0.024624845 0.010481777 0.062123895 -0.015348723 -0.045854602 0.08077932 -0.012494855 -0.0021616116
-0.030986052 -0.058350977 0.019725503 -0.05515957 -0.0065385043 0.061687313 0.06892993 0.04610155
0.059885472 0.011201658 0.009972356 0.00981598 -0.0303318 -0.04125452 0.039011665 -0.0029976333
-0.0022788695 -0.031512387 0.06060062 -0.020223416 -0.043349933 -0.009950596 -0.005090007 0.010123333
0.117446095 -0.0108167725 0.024037138 0.0109708235 -0.041071076 0.13492195 0.06418611 -0.019449944
0.009423491 0.017892784 0.011596916 -0.010509565 0.068787165 0.019823363 0.0646315 0.041944023
-0.0061604306 -0.03345541 -0.035560094 0.0016845467 -0.028441178 0.021794137 0.043441296 -0.0062427637
0.04293841 -0.012791107 -0.04105813 -0.020849543 -0.0052003167 -0.0063303276 0.013845205 0.020471515
0.008193257 0.082069285 0.056950804 0.023283679 -0.0023221006 -0.022138083 0.057480432 -0.029310113
00000000: 29d7 7f3d db19 58ba 699c f33c 8f32 883d
00000010: 1be6 853c fcf0 ab3d acd2 7ebc 066d a23d
00000020: 3ee1 26bd 4409 dfbc a1f1 93bc 8e70 69bc
00000030: 316d bb3d a0cd 6fbb 7558 76bd 900c cd3b
00000040: 86e3 4c3d 5369 cc3d e8b7 86bd 7ed3 433d
00000050: f38c 56bc 2fa2 443e f25c cabc 418f 1b3d
00000060: 29c1 853d 4111 95bc 8431 773d e516 4d3d
00000070: d3a9 b1bc bb24 e53b b470 9f3d 018f 3cbc
00000080: f39e ddbc 2fd2 173e 91be 733d a039 40bd
00000090: a2f2 c1bc d2ef 9bbd 4f65 b2bc f5c9 053c
000000a0: 262a 31bd 3db2 123d a1ab 1e3b a31f b03c
000000b0: 423a a4bc 2b6d 22bd 13b3 e03d c27a d93b
000000c0: 0bba c9bc c2bb 2b3c a075 7e3d 3679 7bbc
000000d0: 09d2 3bbd a16f a53d 38b7 4cbc d3a9 0dbb
000000e0: 76d6 fdbc 6f01 6fbd 6197 a13c 00ef 61bd
000000f0: f340 d6bb d6ab 7c3d 232b 8d3d fbd4 3c3d
00000100: 784a 753d 2987 373c 1863 233c 34d3 203c
00000110: 657a f8bc 80fa 28bd b2ca 1f3d f173 44bb
00000120: 1659 15bb 2213 01bd 5b38 783d 94ab a5bc
00000130: b38f 31bd d307 23bc 13ca a6bb 56dc 253c
00000140: 9487 f03d d538 31bc 88e9 c43c f8be 333c
00000150: 253a 28bd fb28 0a3e 0274 833d 7d55 9fbc
00000160: fc64 1a3c e393 923c fe00 3e3c 4f30 2cbc
00000170: 49e0 8c3d 9b64 a23c 855d 843d 7fcd 2b3d
00000180: 70dd c9bb 8a08 09bd 76a7 11bd 02cc dc3a
00000190: 79fd e8bc 9e89 b23c 80ef 313d 1990 ccbb
000001a0: 30e0 2f3d cb91 51bc 922c 28bd a9cc aabc
000001b0: 6b67 aabb a36e cfbb 00d7 623c e1b3 a73c
000001c0: 033d 063c f113 a83d 3f45 693d 6abd be3c
000001d0: 622e 18bb ed5a b5bc 9a70 6b3d c31b f0bc

fc2.weight f4 [84, 120]
-0.17914742 0.13149102 -0.016160484 0.1445044 0.0007151746 -0.12224931 0.016474657 -0.20837377
0.02024291 -0.056287665 -0.031415693 -0.034658976 -0.02726234 0.03665021 -0.109835766 0.015306588
-0.045648172 0.14129953 0.113780916 -0.10034572 0.022972208 -0.02488156 -0.10590613 -0.12305339
-0.095065266 0.041903615 0.054085582 0.20898056 -0.032602604 -0.03521252 -0.16646236 0.029093973
0.14414623 -0.005117118 0.10086679 0.047375012 0.084122725 0.073050424 -0.040818386 0.11231746
0.06082664 -0.011587729 -0.02969462 -0.032651983 -0.14091095 0.04718392 -0.17050537 -0.08453541
0.04825352 0.09275712 -0.10326615 -0.056408726 0.014282615 0.036492698 0.13563408 0.086438656
0.04400561 0.027918307 -0.09595854 0.14215358 0.05152556 0.06519695 -0.03729905 0.0038798212
-0.06949069 -0.014700638 0.12189947 0.049358107 0.026342083 0.08378577 0.08452837 -0.054301288
-0.10089784 -0.037505873 -0.02649894 0.06023825 -0.052232455 0.016168185 -0.17633346 -0.22826703
0.0063969614 0.0609577 -0.040055748 0.08323246 0.07264362 -0.13139328 0.024752742 0.11910911
0.04110105 -0.023269357 0.0907209 -0.03306342 0.01564886 0.0772707 0.083241366 -0.15628879
-0.08434187 0.23366146 0.040931534 0.099955596 -0.066114224 -0.13764174 0.047826998 -0.029927693
0.008862292 -0.037850093 0.04557668 0.011731486 -0.06369819 0.020929972 -0.0023106588 -0.045659665
-0.1023886 0.0065490818 -0.1217269 0.02419926 0.010374628 -0.036808703 -0.06517883 -0.121946715
0.13797359 -0.14416306 0.048820168 0.031959064 -0.00763482 0.023253268 -0.08221223 0.08295286
-0.04116999 0.03337064 -0.087484665 0.050079618 -0.1556752 -0.15556893 -0.010663606 0.076352924
-0.08391904 -0.06387634 -0.0883797 -0.07585846 0.026750986 -0.03388946 0.025123594 0.008688744
0.061355345 0.085543096 0.0019650825 -0.11512179 0.05326081 0.03327734 0.13122167 -0.0014302196
0.047716334 0.15277143 -0.035534643 0.042770002 -0.09869904 -0.041338757 -0.027100466 0.01113134
0.09218236 -0.14523976 -0.123451985 0.14351328 0.20916425 0.06319056 -0.006323851 -0.058238085
-0.028378844 -0.025933104 0.055368863 0.03607622 0.004189194 -0.061677217 -0.16391246 -0.20382234
-0.010932587 0.098136716 -0.091417976 -0.015181932 -0.023378832 0.0424679 -0.051630724 0.09723594
0.18791516 0.09688519 0.057610873 -0.04792632 -0.2533468 0.056956153 -0.087057136 -0.01790737
0.036829606 0.11818127 0.16661069 -0.015712246 -0.06011694 -0.091129236 0.14064862 0.19507669
0.16886172 0.047801405 0.061883546 -0.028630473 -0.029462887 0.03159874 -0.24220766 0.09961497
-0.07201572 -0.13035524 0.06645762 0.09769433 0.18614765 -0.10228377 -0.040316455 0.026877338
0.039903685 -0.080976576 -0.01675034 -0.106990695 -0.0072527863 0.08854963 -0.0036401574 0.0656328
-0.026175149 0.042882774 0.030179521 0.09647897 -0.108975984 0.024307333 0.055097234 0.024642788
-0.1214262 0.107656255 -0.07027282 -0.08167057 0.044382855 0.031257585 0.012430979 -0.06649687
-0.16179712 -0.07193129 0.0117887575 0.017270483 0.0047075534 -0.008461302 -0.0030732136 0.086135805
0.036488947 -0.07027105 -0.07363904 0.055943593 0.047115527 0.05860796 -0.046271496 -0.008901159
00000000: 6c72 37be 95a5 063e fe62 84bc f6f8 133e
00000010: 8e7a 3b3a d95d fabd dcf5 863c ef5f 55be
00000020: 76d4 a53c e58d 66bd bead 00bd 92f6 0dbd
00000030: 4555 dfbc 881e 163d 93f1 e0bd 7cc8 7a3c
00000040: 94f9 3abd d3b0 103e f805 e93d 0f82 cdbd
00000050: 3630 bc3c 6ad4 cbbc 50e5 d8bd 6a03 fcbd
00000060: 94b1 c2bd 20a3 2b3d d888 5d3d 00ff 553e
00000070: 4f8a 05bd 013b 10bd 1c75 2abe 7c56 ee3c
00000080: 129b 133e 7fad a7bb 3f93 ce3d 4d0c 423d
00000090: 8948 ac3d 769b 953d 2e31 27bd b206 e63d
000000a0: 5b25 793d 75da 3dbc 2242 f3bc 16be 05bd
000000b0: f64a 10be ed43 413d f698 2ebe e720 adbd
000000c0: 7ca5 453d 72f7 bd3d 347d d3bd d60c 67bd
000000d0: a101 6a3c 5e79 153d a9e3 0a3e c006 b13d
000000e0: 3a3f 343d efb4 e43c e985 c4bd b590 113e
000000f0: 770c 533d fb85 853d e3c6 18bd 9944 7e3b
00000100: 2351 8ebd f2da 70bc 6ea6 f93d ba2b 4a3d
00000110: 5acb d73c e097 ab3d 361d ad3d 076b 5ebd
00000120: 87a3 cebd c29f 19bd 4e14 d9bc 62bc 763d
00000130: b3f1 55bd 2473 843c c290 34be d5be 69be
00000140: 9a9d d13b c8ae 793d 7f11 24bd c875 aa3d
00000150: 2ec6 943d f68b 06be 43c6 ca3c 7aef f33d
00000160: 9359 283d 619f bebc e1cb b93d 826d 07bd
00000170: 0a32 803c 1a40 9e3d 737a aa3d 2b0a 20be
00000180: 6ebb acbd f344 6f3e d3a7 273d 85b5 cc3d
00000190: e566 87bd f5f1 0cbe 3ee6 433d ec2a f5bc
000001a0: 2633 113c b308 1bbd 9dae 3a3d 6b35 403c
000001b0: 3274 82bd 5575 ab3c 6c6e 17bb a105 3bbd
000001c0: 1db1 d1bd ae99 d63b f44b f9bd 873d c63c
000001d0: 58fa 293c b9c4 16bd 7a7c 85bd 33bf f9bd
000001e0: f348 0d3e 7b9f 13be a8f7 473d 82e7 023d
000001f0: 832d fabb a37d be3c e35e a8bd 30e3 a93d
00000200: dda1 28bd a7af 083d 292b b3bd 4920 4d3d
00000210: 5269 1fbe 764d 1fbe 68b6 2ebc ec5e 9c3d
00000220: bfdd abbd 99d1 82bd 6b00 b5bd ae5b 9bbd
00000230: e224 db3c adcf 0abd ffcf cd3c 3c5b 0e3c
00000240: be4f 7b3d 3831 af3d 9dc8 003b f9c4 ebbd
00000250: 0228 5a3d d24d 083d f95e 063e 3576 bbba
00000260: 3472 433d 1d70 1c3e c68c 11bd 992f 2f3d
00000270: b922 cabd d452 29bd cc01 debc 3960 363c
00000280: 1bca bc3d bbb9 14be 65d4 fcbd 25f5 123e
00000290: 272f 563e 0d6a 813d 4f38 cfbb 0f8b 6ebd
000002a0: c07a e8bc a971 d4bc 76ca 623d a9c4 133d
000002b0: 8245 893b 40a1 7cbd abd8 27be ceb6 50be
000002c0: 981e 33bc e7fb c83d 5939 bbbd a3bd 78bc
000002d0: f784 bfbc d2f2 2d3d bd7a 53bd a323 c73d
000002e0: d56c 403e be6b c63d 61f9 6b3d 644e 44bd
000002f0: acb6 81be db4a 693d 034b b2bd 7ab2 92bc
00000300: a4da 163d 0609 f23d fe9b 2a3e f8b6 80bc
00000310: 2e3d 76bd f7a1 babd 3106 103e 2fc2 473e
00000320: 16ea 2c3e 68cb 433d 9a79 7d3d 748a eabc
00000330: 275c f1bc ae6d 013d 4905 78be ef02 cc3d
00000340: fa7c 93bd d87b 05be ef1a 883d f713 c83d
00000350: 7d9d 3e3e 277a d1bd de22 25bd dd2d dc3c
00000360: 0c72 233d 0cd7 a5bd 0238 89bc f01d dbbd
00000370: c8a8 edbb 8259 b53d b58f 6ebb 7d6a 863d
00000380: 446d d6bc d9a5 2f3d 0b3b f73c c496 c53d
00000390: cd2e dfbd 2c20 c73c a3ad 613d acdf c93c
000003a0: 4dae f8bd e27a dc3d 32eb 8fbd e642 a7bd
000003b0: ccca 353d f407 003d 4eab 4b3c 832f 88bd
000003c0: 25ae 25be b650 93bd a225 413c d47a 8d3c
000003d0: d241 9a3b 46a1 0abc f867 49bb f867 b03d
000003e0: 6f75 153d 45ea 8fbd 11d0 96bd 1c25 653d
000003f0: 36fc 403d e60e 703d 2e87 3dbd 2bd6 11bc

fc2.bias f4 [84]
0.027464444 0.09440837 0.030447103 -0.0036884223 0.10403549 -0.050924927 -0.07053211 0.045972
0.082150765 0.16226833 -0.037524365 -0.054804422 -0.05307488 0.024049021 0.017766388 -0.06882944
0.10621336 -0.04386586 0.0164829 0.1434869 -0.056462508 0.30672133 -0.028578827 0.21635582
0.17514056 0.21049564 0.09015117 0.047988012 0.08923756 -0.056341458 0.08835514 -0.044158876
-0.03976759 0.13552815 0.03675865 -0.044835813 0.26091456 -0.0056165177 0.030005323 0.036728106
-0.03927369 0.029358221 0.07371926 -0.047622174 0.038768515 -0.046706107 0.030290715 0.11506926
-0.05957055 0.15829265 -0.003881399 0.016670177 -0.053362675 0.034523867 -0.09704639 -0.056039743
0.014965153 0.20124225 0.1216697 0.012778063 -0.020512223 0.048470724 0.11519111 0.088981286
0.0638858 0.24249963 0.0624232 0.0031254904 -0.087229654 0.09210782 0.001492714 0.014385593
-0.073322475 0.05376989 -0.08834241 0.10474734 -0.057447415 0.01855462 0.080609046 -0.06575292
0.08378435 -0.0788979 0.13940424 0.0014954165
00000000: 1dfd e03c 2d59 c13d 346c f93c 75b9 71bb
00000010: 8f10 d53d a896 50bd 2473 90bd 234d 3c3d
00000020: a93e a83d ab29 263e 26b3 19bd 9a7a 60bd
00000030: 0c65 59bd 7402 c53c d18a 913c 73f6 8cbd
00000040: 6486 d93d b0ac 33bd 2607 873c 3bee 123e
00000050: 3b45 67bd 940a 9d3e 251e eabc 618c 5d3e
00000060: 0c58 333e 2b8c 573e 2da1 b83d 148f 443d
00000070: 2fc2 b63d 4dc6 66bd 8af3 b43d f0df 34bd
00000080: 57e3 22bd e4c7 0a3e 3d90 163d c2a5 37bd
00000090: 9896 853e c40a b8bb b9cd f53c 3670 163d
000000a0: 73dd 20bd a780 f03c 20fa 963d 780f 43bd
000000b0: bccb 1e3d e74e 3fbd 3c24 f83c 6fa9 eb3d
000000c0: 4000 74bd 7817 223e 125f 7ebb e58f 883c
000000d0: d292 5abd e668 0d3d 42c0 c6bd ee89 65bd
000000e0: 6730 753c 7312 4e3e f72d f93d 155b 513c
000000f0: 4009 a8bc 3d89 463d 51e9 eb3d d23b b63d
00000100: 8fd6 823d d351 783e 78af 7f3d 07d5 4c3b
00000110: 76a5 b2bd 06a3 bc3d 2ca7 c33a 8db1 6b3c
00000120: 182a 96bd d13d 5c3d deec b4bd c685 d63d
00000130: fb4d 6bbd dcff 973c 5b16 a53d 78a9 86bd
00000140: 2197 ab3d 3995 a1bd fcbf 0e3e da01 c43a

fc3.weight f4 [19, 84]
-0.028789178 0.314997 -0.24174172 -0.0060896017 -0.17270473 -0.04122682 -0.3832051 -0.31134638
-0.04620945 -0.07306366 -0.30426458 0.1889599 0.047975816 0.29362047 0.014494356 0.3129388
-0.24742208 0.07960955 0.12677878 -0.028511453 0.07388387 -0.1371507 0.1849267 -0.14133802
-0.09520961 -0.24533544 -0.21108006 0.22389708 -0.14101842 -0.10331717 -0.015462653 0.03988289
-0.025137924 -0.12343374 -0.06886559 0.08143386 -0.25980458 -0.03222303 -0.044769026 0.17080611
-0.07566287 -0.10968015 -0.13910674 -0.11258842 0.2296741 -0.10848246 -0.41367766 0.22847444
-0.05660245 -0.04005913 0.18755032 0.46953946 -0.23149534 -0.15476686 -0.084889516 0.0377473
0.13868417 0.33802372 -0.04366365 0.06989246 0.09988112 -0.29984057 -0.20044985 0.19830433
0.3279142 0.026596015 0.013274176 -0.023621293 0.06555801 0.16640192 -0.017171126 -0.041269887
0.0121431025 0.031742092 0.04144699 -0.2813876 -0.010646562 0.3027153 0.004485261 0.092286594
-0.121556975 -0.05068025 -0.07456542 0.18770066 -0.11721561 0.016685331 -0.1602647 0.079119824
-0.17640696 0.12404836 -0.046123456 0.14311986 0.0039388794 -0.2214664 0.2504743 0.102295585
-0.011159081 0.32453695 -0.08014166 -0.32092822 0.00971432 -0.08449024 -0.06837627 0.15765025
-0.19509171 -0.3720418 0.29702872 -0.1388172 -0.12915936 -0.18740098 0.15627433 0.50396585
-0.14060065 -0.043190278 -0.019729866 0.090154506 0.15514195 -0.09446132 0.06436164 0.041821357
-0.3484622 -0.038010806 -0.062477622 -0.22137947 0.10136705 -0.29479933 -0.13390343 0.004131282
0.051899962 -0.08224698 0.2925445 -0.10300761 -0.04566695 -0.19606985 0.10132803 0.18773863
-0.017579325 0.03834185 0.007793474 -0.039704148 0.08469753 0.30575672 0.40242055 0.037353624
-0.07150529 0.27524552 0.21376146 0.1359869 0.18795495 -0.015475864 -0.22766961 -0.21372594
-0.17845534 -0.24948348 0.27340108 -0.0071168225 0.0008827411 -0.12091022 0.020427942 -0.08859146
-0.05180154 0.3026401 -0.031887364 -0.004174282 -0.19660822 -0.17634623 -0.14098623 -0.20047846
-0.10856679 0.1759157 0.11541743 -0.10583561 -0.03421386 0.024881504 -0.15588605 0.3678322
-0.1622716 -0.0749811 0.066900864 0.11165736 -0.11184101 0.047262777 -0.1090806 -0.0102779465
-0.019953715 0.03373177 0.035130695 -0.05082544 -0.18183011 -0.2275989 -0.040279496 -0.06512183
-0.062361423 -0.16966887 -0.10350411 -0.07974993 -0.27634254 0.085327156 0.43411297 -0.050305113
0.004649483 -0.19723299 -0.10746309 0.29563615 -0.25200033 -0.1309284 -0.077680424 -0.034657277
0.07063631 -0.1576061 -0.13879898 -0.06677148 0.19503133 -0.05534373 0.12161178 0.1688913
0.0778607 -5.734948e-05 0.057196904 0.0030659388 -0.07212824 0.18587036 0.031079475 -0.031895358
0.33020595 0.2448556 -0.2064478 -0.113161586 -0.14532419 -0.16859545 0.065102495 0.089037366
-0.085862376 -0.17435785 -0.20413393 0.1588291 -0.0715084 -0.19412819 0.18747534 -0.015129485
0.09410547 0.30730084 -0.063251056 -0.0975747 -0.072951354 0.21349546 0.1655119 -0.21125013
-0.2288523 -0.0062879836 0.06751255 -0.20099312 -0.13215835 0.26917613 -0.0165266 -0.03914113
00000000: 48d7 ebbc 4947 a13e 248b 77be 488b c7bb
00000010: 82d9 30be 74dd 28bd 7533 c4be cb68 9fbe
00000020: 1f46 3dbd 66a2 95bd 91c8 9bbe b47e 413e
00000030: 4a82 443d 6c55 963e bc79 6d3c 8439 a03e
00000040: 375c 7dbe 550a a33d 4cd2 013e da90 e9bc
00000050: 6d50 973d 3c71 0cbe 6d5d 3d3e eaba 10be
00000060: 42fd c2bd 3739 7bbe 5f25 58be 4745 653e
00000070: 2267 10be f497 d3bd 1157 7dbc 3e5c 233d
00000080: 0cee cdbc d4ca fcbd 6709 8dbd ccc6 a63d
00000090: 1b05 85be 4cfc 03bd ba5f 37bd cce7 2e3e
000000a0: 23f5 9abd fd9f e0bd ff71 0ebe c294 e6bd
000000b0: b02f 6b3e 0d2c debd 8fcd d3be 34f5 693e
000000c0: f8d7 67bd 0b15 24bd 310d 403e 7a67 f03e
000000d0: 1d0d 6dbe 347b 1ebe 8eda adbd ea9c 1a3d
000000e0: 3903 0e3e 7211 ad3e a8d8 32bd c723 8f3d
000000f0: 798e cc3d b484 99be ba42 4dbe 4a10 4b3e
00000100: 5fe4 a73e e3df d93c ee7b 593c 7181 c1bc
00000110: 4743 863d 4465 2a3e 76aa 8cbc 9d0a 29bd
00000120: ddf3 463c ff03 023d 52c4 293d 0912 90be
00000130: eb6e 2ebc 80fd 9a3e 19f9 923b c100 bd3d
00000140: ddf2 f8bd 1896 4fbd c1b5 98bd 9a34 403e
00000150: bd0e f0bd adaf 883c 6e1c 24be 9309 a23d
00000160: 07a4 34be 110d fe3d f3eb 3cbd 038e 123e
00000170: b711 813b 17c8 62be 2b3e 803e 5980 d13d
00000180: 94d4 36bc b529 a63e 5021 a4bd b450 a4be
00000190: d028 1f3c 3809 adbd dc08 8cbd 116f 213e
000001a0: 1fc6 47be 437c bebe 2614 983e 1926 0ebe
000001b0: 5a42 04be 0be6 3fbe 6106 203e e803 013f
000001c0: 9ef9 0fbe 4ae8 30bd 87a0 a1bc eda2 b83d
000001d0: 88dd 1e3e f074 c1bd 09d0 833d df4c 2b3d
000001e0: a369 b2be 38b1 1bbd 89e8 7fbd 4db1 62be
000001f0: 8799 cf3d f0ef 96be fb1d 09be b55f 873b
00000200: 0e95 543d 1b71 a8bd 65c8 953e a7f5 d2bd
00000210: 450d 3bbd 89c6 48be 1285 cf3d 8e3e 403e
00000220: 8402 90bc 580c 1d3d 6660 ff3b d1a0 22bd
00000230: e675 ad3d 258c 9c3e 110a ce3e 1d00 193d
00000240: 5e71 92bd fbec 8c3e 49e4 5a3e 2640 0b3e
00000250: 4377 403e 7a8e 7dbc 3922 69be f9da 5abe
00000260: ffbc 36be 9978 7fbe 3afb 8b3e 3c34 e9bb
00000270: c167 673a c79f f7bd 8058 a73c 706f b5bd
00000280: da2d 54bd a5f3 9a3e 539c 02bd 6ac8 88bb
00000290: aa53 49be 1b94 34be b25e 10be 3a4a 4dbe
000002a0: 4458 debd 3f23 343e f95f ec3d 57c0 d8bd
000002b0: d523 0cbd 4cd4 cb3c 98a0 1fbe 8154 bc3e
000002c0: 872a 26be b18f 99bd 5203 893d 9dac e43d
000002d0: e60c e5bd 9d96 413d a665 dfbd d564 28bc
000002e0: f975 a3bc 532a 0a3d 34e5 0f3d 562e 50bd
000002f0: ac31 3abe b00f 69be 1dfc 24bd 985e 85bd
00000300: b16e 7fbd adbd 2dbe f6f9 d3bd ee53 a3bd
00000310: c57c 8dbe 01c0 ae3d 0e44 de3e bc0c 4ebd
00000320: b15a 983b 72f7 49be 9c15 dcbd 9f5d 973e
00000330: 3006 81be 1812 06be ea16 9fbd caf4 0dbd
00000340: c5a9 903d 7e63 21be 5221 0ebe 7cbf 88bd
00000350: 4bb6 473e 1bb0 62bd 990f f93d d7f1 2c3e
00000360: 6e75 9f3d 898a 70b8 4d47 6a3d ebed 483b
00000370: f8b7 93bd cd54 3e3e 629a fe3c b5a4 02bd
00000380: c110 a93e 6dbb 7a3e 0d67 53be 43c1 e7bd
00000390: ddcf 14be 49a4 2cbe 7554 853d 3959 b63d
000003a0: 9dd8 afbd dd8a 32be 7c08 51be 18a4 223e
000003b0: ff72 92bd 8ac9 46be 89f9 3f3e a9e1 77bc
000003c0: 5eba c03d 8956 9d3e c589 81bd 3fd5 c7bd
000003d0: 8567 95bd 8e9e 5a3e f47b 293e f451 58be
000003e0: 4258 6abe 6e0b cebb 0544 8a3d 24d1 4dbe
000003f0: 8554 07be 74d1 893e cb62 87bc 7352 20bd

fc3.bias f4 [19]
-0.31478623 -0.112166196 0.046057638 0.011319546 -0.2361641 0.14568429 -0.32817906 0.051008414
-0.2830039 -0.07729644 0.3212209 -0.070137374 0.26599023 -0.03814019 0.07708955 0.19983056
0.016046839 0.21148796 -0.0810332
00000000: a92b a1be 64b7 e5bd efa6 3c3d 9e75 393c
00000010: 00d5 71be 432e 153e 1607 a8be 33ee 503d
00000020: e3e5 90be 994d 9ebd 1177 a43e 2fa4 8fbd
00000030: df2f 883e e338 1cbd 20e1 9d3d 62a0 4c3e
00000040: a974 833c 4d90 583e bcf4 a5bd
