python/CNN15.pth (torch_old, 252622 bytes, 10 tensors)

conv1.weight f4 [6, 3, 5, 5]
00000000: 6d1f df3e 9f34 0f3f 1512 193f 5d16 ec3e
00000010: a423 123f 1a44 a53b d13e 5d3d 9552 563d
00000020: bc47 8c3e 00bd 633e d696 a2bb c55a 64be
00000030: dcf4 58be 6216 61be 0381 2cbe 26bf fa3d
00000040: 211e fb3d c3ec 0bbc 4b02 873c 9e78 60bd
00000050: 2ed4 a83e 381c 0d3f a674 a03e 3784 483e
00000060: a1a1 f5bd 44dc 6abd fba4 d23d 1b7b 7e3e
00000070: 0f30 ab3e 1f3f b33e 4ab4 6cbe 1733 90be
00000080: a944 39be 227d cc3c a617 0bbd efbe 9ebe
00000090: ad43 16bf da25 f9be f249 16bf 86f7 9ebe
000000a0: 0824 14be 1af1 79bd 8d8f 76be e62b c5be
000000b0: 4bd0 98be 1fef 403e f2a5 963e f064 5c3e
000000c0: 9523 49be 89e6 a3be d49f e33b f654 273d
000000d0: 11e1 ab3e 619b a33e 99d6 813e d2a6 2abe
000000e0: bf0d 67be 4790 2ebe 3fa3 943d 27b0 fb3d
000000f0: 03d8 88be 16c6 0abf 364b 1fbf 40e2 f1be
00000100: 2d43 bfbe b128 e6bb 9147 04be 90d9 75be
00000110: 8796 a1be 0834 88be ed5e e73e a704 9e3e
00000120: c894 c23d 354d 6ebd 5b38 84be ec40 21bd
00000130: 8f58 7d3c 78b3 34bd a275 533b fb05 753c
00000140: 6fe2 163e e358 3a3e c31f 243e f009 5b3e
00000150: df75 3b3e 47ba d9bd 384a 3c3e e51a 263e
00000160: e0b2 753e 441a a03e a189 5ebe 797c 23be
00000170: df92 acbd e405 b03a efcf 083e 4a08 b6bd
00000180: 1407 d0bd a0c5 afbe f77b 33be 0cb5 2fbe
00000190: 3d39 93bb 1678 47bd a49d 32bc 86c8 16bd
000001a0: 6bcb 06bd 25d0 933d bb8d 933e 11a6 833e
000001b0: 171d 923e f1cc 1d3e bad9 e33d b43d 233e
000001c0: 5994 813e 6e00 bc3e d664 bd3e af84 2bbe
000001d0: 46d0 2dbe 8322 62be 2324 28bd d7af 193d
000001e0: 91c5 0ebb ae3c a9bd 24cb 1dbe 2328 e0bd
000001f0: 12dc d7bd c6f7 07be 7b1b c1bc ff71 17be
00000200: 2829 ec3b b98e 97bd 466d 12be f645 983c
00000210: 3f0f 2b3e d5b9 97bc 6df1 d23c 4cc8 29be
00000220: 7674 203c 829d 59ba c53d 593e f488 5f3e
00000230: 7b9b 6abe 9a86 94be a526 b1be 282e 5cbe
00000240: 8db4 983a 6718 ffbd e467 afbe 50c1 a9be
00000250: 43cf d1be a2b8 65be c613 543e eaba 833e
00000260: 81a1 c23d 91d6 a5bd e110 8bbd aa16 5b3e
00000270: b993 903d 224d 6abe 4f12 9ebe 6851 95be
00000280: 096b ab3e 7c99 20bd c72a b4be 23bc fcbe
00000290: 2f3f 9abe ec07 c73e 87c6 4b3e 2ce3 cfbe
000002a0: 1627 e7be 7c14 1fbe dd8e 353f d153 ad3e
000002b0: f98a 0dbd 161a 8dbe 8701 aabd fcd0 8dbb
000002c0: cdc1 493e 4745 09be 4920 a4be 43ca 1fbe
000002d0: 46da 66bd 3863 913c 5fee b4be 785a c1be
000002e0: 3c07 cfbe 2ecc 09be f737 753a 72d7 c1be
000002f0: 6ac5 b4be a453 c6be d940 4e3e 80b1 6f3c
00000300: 5852 96be b695 07bf 9447 4bbe 8244 543e
00000310: d659 9e3d 3f4c 7dbe d370 e6be 45a5 06be
00000320: 5429 773e 4da3 d83e ff10 b53e c016 473d
00000330: 5f6e 163e 3918 723d 7020 3c3e 47af 073e
00000340: 5173 2939 40cc d53d 78de c63d 1403 823e
00000350: 5a72 bbbc 12a8 e7bd 46b0 3c3e 0ad6 9b3e
00000360: 2b91 6f3e ec6f babd 970c 2c3d 00bb a73e
00000370: adb9 063f 0969 a73e f3b8 513d 67e7 783c
00000380: 0acf 6b3e 20b0 3c3d 9776 c93d 3715 8fbd
00000390: 3a03 233e 32b1 5b3e a6d7 b53a 0d04 713d
000003a0: bf42 0a3e 6e5d 163c 23cb 803e dea2 f0bd
000003b0: 68f0 e8bc 3eab f7bd ab32 9bbd 82ce 473b
000003c0: f511 37be 35d0 bfbd 7305 bdbc 924c bc3d
000003d0: 5e34 db3d fe7a 5dbe 9260 8abd 3a2f d1bd
000003e0: c43c 13bd a8f1 0b3e 0bc3 8fbe 0a36 9bbe
000003f0: 648a 84be 6221 5ebe da7a 093c 0c0b e7bd
0.43578663 0.5593967 0.59793216 0.46110812 0.57085633 0.0050435187 0.054014985 0.05232485
0.2739848 0.22240067 -0.0049618287 -0.22300251 -0.21187156 -0.21981195 -0.16846089 0.1224349
0.12261606 -0.008540335 0.016480586 -0.05480253 0.3297438 0.55121183 0.31338996 0.19581686
-0.11993719 -0.057338968 0.10285374 0.24851649 0.33435103 0.35009095 -0.2311565 -0.28163978
-0.18092598 0.024962012 -0.0339581 -0.31005046 -0.58697015 -0.4866169 -0.5870658 -0.3104822
-0.1446687 -0.061020948 -0.24078198 -0.38510054 -0.29846415 0.18841217 0.2942348 0.2152288
-0.1964248 -0.32011822 0.006946543 0.04085251 0.3357015 0.31954482 0.25359038 -0.166652
-0.22563837 -0.17047225 0.07257699 0.12289458 -0.26727304 -0.54208505 -0.6222414 -0.47242928
-0.3735594 -0.0070238938 -0.12917925 -0.24008775 -0.31560156 -0.26602197 0.4518961 0.30862924
0.09501034 -0.0581791 -0.25824246 -0.039368555 0.015463009 -0.044116467 0.003226616 0.014955039
0.14734815 0.1819797 0.16027741 0.2139051 0.18306683 -0.10631233 0.18387687 0.16221197
0.23994017 0.3127004 -0.21732189 -0.15965451 -0.08426451 0.001342949 0.1336057 -0.088883
-0.101576 -0.34330463 -0.17527758 -0.17158908 -0.0044929073 -0.048698507 -0.010901842 -0.036812328
-0.03290884 0.07217435 0.2881907 0.25712636 0.2853782 0.1541021 0.111255124 0.15941507
0.25308493 0.36719078 0.36990994 -0.16749834 -0.16973981 -0.22083478 -0.041050088 0.03752121
-0.002178524 -0.08263527 -0.15409523 -0.109451555 -0.10540022 -0.13278112 -0.023572674 -0.1478958
0.0072070546 -0.07400269 -0.14299497 0.018588047 0.16705035 -0.018521229 0.025749886 -0.16580313
0.009793391 -0.00083013636 0.2121497 0.21829587 -0.22910874 -0.29008943 -0.34599796 -0.21501982
0.0011650488 -0.12455826 -0.3425895 -0.33155298 -0.4097844 -0.22433713 0.20710668 0.25728542
0.09503461 -0.08097566 -0.06790329 0.21395364 0.07059426 -0.22880986 -0.30873343 -0.2916367
0.334801 -0.039208874 -0.35188887 -0.49362287 -0.3012633 0.3887323 0.19899951 -0.40603006
-0.45147008 -0.15535158 0.7092112 0.3385301 -0.034556363 -0.27558964 -0.083010726 -0.0043278914
0.19702835 -0.13405333 -0.32055882 -0.156045 -0.056360506 0.017747506 -0.35338113 -0.37764335
-0.40435207 -0.13456795 0.0009354348 -0.37859684 -0.35306865 -0.38735688 0.20141925 0.014629722
-0.29359698 -0.52962816 -0.19851524 0.20729259 0.077319786 -0.24736117 -0.45007953 -0.13148983
0.24136859 0.4231209 0.3536453 0.04860568 0.1469054 0.05910513 0.18371749 0.13250457
0.00016160055 0.10439348 0.09710401 0.25392973 -0.022881676 -0.11311354 0.18426618 0.30436736
0.23395221 -0.09103379 0.042004194 0.32759857 0.5262707 0.32697323 0.051201772 0.015191889
0.23028198 0.046066403 0.09837072 -0.06986468 0.159192 0.21454313 0.0013873472 0.058841754
0.13502024 0.009177549 0.2515498 -0.117498145 -0.028434947 -0.12093209 -0.075780235 0.0030488078
-0.17877944 -0.09365884 -0.023073887 0.09194292 0.107033476 -0.21628949 -0.067567006 -0.10214086
-0.035946622 0.13666403 -0.28078493 -0.30314666 -0.25886834 -0.21692422 0.0083911065 -0.11281404

conv1.bias f4 [6]
00000000: bd4f a13e 1a60 bc3c 54b8 c73e b71e f2be
00000010: 57dd 4ebe 23bc dd3d
0.31506148 0.022995044 0.3900782 -0.4728906 -0.20201622 0.108269

conv2.weight f4 [16, 6, 5, 5]
00000000: 6def edbd d838 a4bd 2d04 ba3c 8cd6 0f3e
00000010: bbb9 273e ed55 0ebe 4959 dbbc d640 323e
00000020: 2248 6f3d bb52 13bd db01 87bd 2267 6bbd
00000030: f292 4a3e 7d9b 913e b659 773c dd32 e4bd
00000040: 652a e3bd ce5d 14be d374 c6bd f832 b6bd
00000050: b934 06be 7ce9 bc3d 60cd e43d 48c4 acbd
00000060: 2605 52be 715c ebbd 0cf3 da3c 752e d23d
00000070: bb72 4bbd ec5b 073d 32a0 06bd acb6 81bc
00000080: 91e9 553e bc65 fa3d 84a0 1a3e 2279 093e
00000090: 947f fc3c e492 b43d fa27 353b 6f76 10bd
000000a0: f8b5 083e 9008 443e 9ef0 293e 34e9 2f3d
000000b0: 2b1e b9bd 82e4 a73d d87b 90bd 00dc bbbc
000000c0: c4af debc 83e9 e9bd f138 bf3e 7d8a 3e3e
000000d0: ef60 083e 26e7 993b 708a 17bc fdb2 443e
000000e0: 4279 fd3d 6dff 3f3d 4ec0 26be 61d4 13be
000000f0: 5239 143d 22e6 ef3c 1a83 04be b3db 0fbe
00000100: 4c73 49be 7f83 ecbc ce4f 85be 8ec1 9cbe
00000110: 5ff5 8fbe b8c6 80be 5f3e 2cbe aaaa 75be
00000120: af44 3cbe ff9d 35be 7911 85bd 1a2b 9a3e
00000130: 0639 9f3e 7fad 353e 24a9 bb3d 1865 173e
00000140: 7086 843e 1b82 aa3e 338b 733e bd97 e83d
00000150: 2b46 293c 2842 823d 7151 8fbd cd33 943d
00000160: a48a 0bbe 1311 b8bc ff6f f4bc 7722 04be
00000170: b2b5 cabc 6cc8 adbd 41d7 97bd 8976 913d
00000180: fa3b 53be 2a7c 1ebe 1e35 1abe bc31 1fbe
00000190: 4f08 263e d2be 4b3e 4a8b a53d 5310 a93d
000001a0: e6b4 243e a34a 943e b65e 4e3e 3dcd d73c
000001b0: 4288 b8bd c8a5 adbd 59b9 a03d be24 dbbd
000001c0: a916 a5bd 18aa 1cbe e3e2 4abe 8336 8ebd
000001d0: cbb2 2ebe a26c 62be a0ee 2dbe 00ce 33be
000001e0: 7396 60bd 355a 99bd 28f0 97bd a929 ccbd
000001f0: 0d72 e6bd abe8 9ebd 4d67 f03d 8971 263d
00000200: 3c66 9cbc 9844 023e dba4 2c3e f325 2a3e
00000210: 5e24 a23d 7363 1c3d bfe8 88bb 9726 7e3d
00000220: 14a3 de3d 2104 5f3e 7874 15bc d5a0 8fbd
00000230: 00e7 bd3d 3c25 36bd 037f 55bc b5a6 9fbd
00000240: 5f4d 4fbe 68ab 023e a6cf 5e3d 3d2d dcbd
00000250: 2c2a 24be 9692 29bd 8b81 3abe 23b2 e7bd
00000260: 7976 653d a8a1 f33d 526b a73e 89f4 33bd
00000270: 17da 80bd b51c 4bbe 071d aebc bae7 82bd
00000280: d9dc 653e a76e 133e 71f0 b9bd 82ca 93bc
00000290: 0efe 92bd 8f59 4abc 0369 0e3e 703b 863c
000002a0: 49b8 773b e690 4cbd 784e a3bc 7d90 4fbe
000002b0: 2047 41be 593d 1abe 0cad 22be 5418 99bd
000002c0: 8816 f8bd 0d8c 03be 883a d1bd 81a4 833d
000002d0: cbdb e13d 9f07 fa3d 4acb a1bd 8fc9 30bd
000002e0: cb95 fb3d 1c81 a33d 4d3e a2bc 7bcc bf3d
000002f0: 221e 77bc 56c4 823d a113 17be 7c35 ffbd
00000300: 66df 7bbd 078e e0bd 649a ad3c 92c3 adbb
00000310: f266 30be d265 0cbe 9f06 2cbe 784d a93d
00000320: 9bba 58bd 074e 99be ab98 6ebd bcc4 133e
00000330: a01a 3cbe 1292 50be e5c9 4abe d7c6 2ebd
00000340: 753a 3dbd 7cc3 21be f168 d1bc 49ab 413e
00000350: 2efe 993c c3da 63bd 548f 40be 4b32 48bc
00000360: e398 b53e aefb 0a3e 5238 b93e f2f8 9fbd
00000370: f571 ed3c 437b 703e f852 323e b81b c13e
00000380: 5482 d0bd 4cb8 68be 1e5d 6ebe af10 96be
00000390: 368e ebbd cda5 82bd eb05 dfbc 6117 08bd
000003a0: 5cc3 083b a7c3 cd3c aec0 c33c 5ff3 0ebe
000003b0: b47b 603c 5841 013e 9323 0c3e a4e7 cc3d
000003c0: d3b0 a2bc 9a55 103d 1654 6d3e a3be 653e
000003d0: b94e 673e 71b9 143e 073c 263e 1a3b 9e3d
000003e0: 35f4 183e 4da1 543e 9b61 37be 56cc 97be
000003f0: 1aac 96be d2a7 11be 2786 cabd 1d77 dfbd
-0.116179325 -0.080186546 0.02270707 0.14046687 0.16379444 -0.13899966 -0.026775973 0.17407545
0.0584184 -0.03596757 -0.06592151 -0.057471402 0.19782618 0.2843894 0.015097072 -0.11142514
-0.110920705 -0.14488909 -0.09690251 -0.0889644 -0.1310605 0.09224221 0.11171985 -0.08435875
-0.20509776 -0.11492241 0.026727222 0.10262767 -0.049669962 0.033046648 -0.032867618 -0.015834175
0.2088988 0.122264355 0.15100294 0.13425115 0.030822553 0.0881708 0.0027642236 -0.035269197
0.13350666 0.19143891 0.16595694 0.04294701 -0.09038957 0.08197881 -0.07054871 -0.022932053
-0.027183421 -0.11421492 0.3734813 0.18607517 0.13318227 0.0046967445 -0.009249315 0.19208904
0.12376644 0.046874452 -0.16284296 -0.14436485 0.036187477 0.02928454 -0.12940636 -0.14048652
-0.19672889 -0.028871296 -0.2603745 -0.3061642 -0.2811689 -0.2515161 -0.16820668 -0.23990884
-0.18385576 -0.17736052 -0.06497473 0.3011101 0.31098193 0.17741965 0.091631204 0.14784658
0.25883818 0.33302388 0.23783569 0.11357067 0.010331671 0.063602746 -0.069979556 0.07236443
-0.13627106 -0.02246908 -0.02983856 -0.12903772 -0.024744842 -0.08485493 -0.07414103 0.07102687
-0.20628348 -0.15477052 -0.15059325 -0.15546316 0.16214107 0.19897011 0.08083208 0.08255067
0.16084632 0.28963193 0.20153317 0.026342982 -0.09010364 -0.08478886 0.07847852 -0.107003674
-0.08060963 -0.1529926 -0.19813113 -0.06943991 -0.17060392 -0.22111753 -0.1698556 -0.17559052
-0.05483098 -0.07487909 -0.07418853 -0.099688835 -0.11252222 -0.07759222 0.11738453 0.04063562
-0.019091718 0.12721479 0.16859762 0.16616039 0.07917093 0.03818078 -0.004178136 0.06204852
0.108709484 0.21778919 -0.009122007 -0.07013098 0.092725754 -0.044469103 -0.01303077 -0.07795469
-0.20244358 0.12760699 0.054397248 -0.10750816 -0.16031712 -0.04139956 -0.18213479 -0.11313274
0.056021187 0.11896068 0.32699066 -0.04393438 -0.06291597 -0.1983517 -0.021254076 -0.063918546
0.22447528 0.1439768 -0.09079064 -0.0180409 -0.07177363 -0.012350454 0.13907246 0.016385764
0.0037799051 -0.049942873 -0.019934878 -0.20269962 -0.18874788 -0.15062465 -0.15886325 -0.07475343
-0.121136725 -0.12846394 -0.10216242 0.06427861 0.1102825 0.12208485 -0.079001024 -0.04316097
0.1228443 0.0798361 -0.019805098 0.093651734 -0.015082868 0.06385104 -0.14753582 -0.12461373
-0.061492346 -0.109645896 0.021191783 -0.005302855 -0.1722677 -0.13710716 -0.16799401 0.08266729
-0.052912336 -0.29942343 -0.058251064 0.14430517 -0.18369532 -0.20368221 -0.19803579 -0.042670097
-0.046198327 -0.15797228 -0.025562735 0.18912996 0.01879796 -0.05562855 -0.18804675 -0.012219022
0.35468206 0.1357257 0.3617578 -0.078111544 0.028985003 0.2348452 0.17414463 0.3771646
-0.10181108 -0.22726554 -0.23277709 -0.29309604 -0.11501734 -0.0637928 -0.027224502 -0.03322542
0.0020868396 0.025117708 0.023895588 -0.13960026 0.013701368 0.12622583 0.13685445 0.100051194
-0.019859707 0.035237886 0.23176607 0.22436003 0.22588624 0.14523865 0.16233836 0.077261165
0.14936908 0.20764656 -0.17908327 -0.29648083 -0.29428178 -0.14224175 -0.09888869 -0.10911391

conv2.bias f4 [16]
00000000: e5c7 a13c 3383 00bd a921 d73d 0315 7abc
00000010: 7c1b 8ebc 4fbd 1b3e c6f2 15bd 795b d23d
00000020: 8123 91bd ffd5 9f3c b641 8d3d 884d 1bbd
00000030: c286 fcbc 8cd6 0cbd 4f6f 113d ca53 d7bd
0.019748637 -0.03137512 0.10504467 -0.015263799 -0.01734709 0.15208934 -0.03660848 0.10271353
-0.0708685 0.019511221 0.06897299 -0.037915736 -0.030825976 -0.034384295 0.035506543 -0.10514028

fc1.weight f4 [120, 400]
00000000: d4c6 a4bd 582c 85bc f48e ff3b 268c d9bd
00000010: f986 95bd f09b 63bd fca9 213c 45b5 c4bb
00000020: 6f26 68bd ede5 4cbd 39ef ffbc 342d d93c
00000030: 397b 503d b259 8a3c 0e2b 94bd 32bd 81bd
00000040: 967d 7dbb 6718 c2bc 584c 64b9 4e4f 143c
00000050: 7a9d 78bd 562d c1b9 bfbf 93bc 0348 e639
00000060: 5401 88bd 64ba 103d ca30 93bc 8d83 12bd
00000070: 5239 86bc f2db 81bc 66ff 5c3c 699f d43b
00000080: df8b 303c a298 2c3c 9efb d4bc 6546 50bd
00000090: 1845 99bd 79ec 66bd fc69 86bc fef4 0abd
000000a0: 769b ad3d 163b a63d d049 103d 38f9 173d
000000b0: 041c 363c 41dd 61bc e103 883d 2e92 0bbb
000000c0: c459 163e 4fc1 343d ed5c a2bd f649 03bd
000000d0: 44d5 6ebd 19ff 75bd b631 e63a cefc b3bc
000000e0: f978 06be c0b0 7cbd 406b b1bd 05e0 d1bd
000000f0: e778 86bd 76c0 94bc 3294 ecbc ba20 8cbd
00000100: 3f8e 94bd 86ac c43c 4b93 8ebd 98da 9dbd
00000110: 3d86 cfbd 89e1 6cbd 75ee c3bd 702b cdbd
00000120: 395c 183c 2ef7 3a3b 0878 abbd 2fab 1fbb
00000130: bd19 8a3c 1d65 84ba 70b7 54bc ac10 88bc
00000140: 03b3 24bc 1b65 9fbb 3e5b d93c 3e1f 2dbd
00000150: e98d e83c 61e5 2a3d e565 f93c 53da 2ebd
00000160: 4f2b 673c fbb5 8bbc ec49 343d c3ea 263d
00000170: 0bcf 423b 6610 aabc b684 083d de12 cc3a
00000180: 0715 083d 0c4d 553c b513 47bd e06c 103d
00000190: 9233 f3bc 9b03 44bd 5d56 e63c 3e99 1d3d
000001a0: 817d 0ebd 23b7 aa3a 7bef 703c 008f 33bc
000001b0: d6b7 c43c 885a 593c 2b86 4d3d 724b 303d
000001c0: 6f83 7abc 5408 ddbc 541b 553c 1b29 3abd
000001d0: bfdd 573c 4b7b ce3c c697 043d b51e 0f3c
000001e0: b44e 1f3d edf8 703c 9fe8 453d d00a 9cbd
000001f0: 6721 463d e21c 983d a100 28bb 519e d9b9
00000200: 40d3 343d 51fb 40bc 40a0 0a3c 87d9 b2bc
00000210: 68c2 d53a a10f 9fbc 86b3 bd3b b4b7 d43c
00000220: ca5e 073d 04e7 42bd e90b 2bbd e949 6a3d
00000230: c76d a93d 0cc6 cd3c 9250 1ebd d782 dfbc
00000240: 1c8c b23a c7bc 083e f6c9 d1bc 2959 073c
00000250: 4f27 d63d e1a9 163e 4757 f43c 235c 34bd
00000260: ba35 163d e797 ad3c 7b3b 1f3c 5865 4d3d
00000270: 1a1b c33c 8b42 9a3b bc74 48bc 2583 10bc
00000280: 0441 043d 24a4 00bc 4013 90bc c7c4 623d
00000290: 0338 2bbd 7be7 4abc 75b5 fe3b 9172 803d
000002a0: f49a 80bc 5fb9 8ebd 590b 4b3c 6ed5 033d
000002b0: 8607 e2bb c24c c63b fba5 19bd be79 48bc
000002c0: 0ba8 cc3c e754 9f3c fac8 e3bc 851b a2bb
000002d0: f4af c2bb 0b97 57bd bafe e63d 8810 ac3c
000002e0: 4faf 51bd c724 6ebc 6cd9 0cbb 3ec0 86bc
000002f0: 59ef 3c3b 86fe 3a3d 7a5d 213b 8f34 9e3c
00000300: 0174 2b3c 81b7 f7bc 991d 513d 1848 06bd
00000310: e4f9 0cbd ac3c 713d be50 163d 2ef3 903d
00000320: fea9 23bd b8f2 14bd 40ea 1cbc 4e19 5fbb
00000330: 95cc ee3c 48e9 a1bd 471e 6fbd a27e 8abd
00000340: d94f df3c 1c3d 843d f2f0 81bd e9f4 69bc
00000350: 0425 973c d657 aabc f89d ab3a 7305 0b3d
00000360: 9990 6dbd 742d 0b3c a517 8a3d 34b6 a13d
00000370: d2bf 3cbc 03de 8fbd b4bb 57bc 1653 3f3d
00000380: 42ca 843b 2e84 c03d 1610 523d e01a 5cbd
00000390: a386 d4bc e4af 163d ace3 c73d c4e7 6cbc
000003a0: ef72 b7bd 6680 523d 459f 333c 3c57 373c
000003b0: b6d3 35bd 6466 a9bd 892b 6bbc f738 5b3c
000003c0: 7664 a53d aa11 cc3d 81bd 05bd fe7c cdbc
000003d0: a66b 083b a91b 883d c4f5 a93d 7fbb c4bd
000003e0: 84fa 4ebd 0ebf c03d 86fb 2e3d 445c ebbc
000003f0: 1d67 9a3c d721 47bd 2fd5 6a3a fcdf 14bd
-0.08045736 -0.016256496 0.0077990238 -0.10622434 -0.073011346 -0.055568635 0.009867188 -0.0060030543
-0.056677278 -0.05002396 -0.031242 0.026510812 0.050898764 0.016888473 -0.072347745 -0.06334914
-0.0038679591 -0.023693277 -0.00021772215 0.009052111 -0.060697056 -0.00036845607 -0.018035768 0.00043922671
-0.06640878 0.035334006 -0.0179676 -0.035769988 -0.016384754 -0.015851948 0.013488626 0.0064887297
0.010775535 0.010534437 -0.025998887 -0.050848383 -0.07483882 -0.05637786 -0.01640796 -0.03392505
0.084769174 0.081167385 0.035226643 0.037102908 0.011115078 -0.013785661 0.06641365 -0.0021296847
0.1468268 0.044129666 -0.079278804 -0.032052957 -0.058308855 -0.060057733 0.0017562422 -0.021971133
-0.13132085 -0.061692 -0.086630344 -0.102478065 -0.06566029 -0.018158179 -0.028879259 -0.068421796
-0.07253694 0.024008047 -0.06961688 -0.07707709 -0.10133026 -0.057832275 -0.095669664 -0.10018051
0.009299331 0.0028528678 -0.083725035 -0.0024363508 0.016857976 -0.0010100935 -0.012983188 -0.016609512
-0.010052445 -0.0048643476 0.026532765 -0.042266123 0.02838798 0.04172266 0.030444095 -0.04268868
0.014109447 -0.017054548 0.04401581 0.04075123 0.0029725458 -0.020759773 0.033329688 0.0015569588
0.03322318 0.013018858 -0.04860278 0.03526008 -0.029687677 -0.047855 0.028117353 0.03847622
-0.03478766 0.001302455 0.014705534 -0.010959387 0.024013441 0.013266213 0.05017678 0.0430407
-0.015290125 -0.02698151 0.013007004 -0.045449357 0.013175427 0.025205275 0.032371305 0.0087353485
0.038893417 0.014707786 0.048317548 -0.0761925 0.0483717 0.07427384 -0.002563514 -0.0004150742
0.044146776 -0.0117786685 0.008461058 -0.02183224 0.0016308548 -0.019416632 0.005789223 0.025966503
0.033049382 -0.047583595 -0.041759405 0.057199392 0.082728915 0.02511885 -0.038651057 -0.027284069
0.0013622078 0.13353263 -0.025608998 0.0082610035 0.10456716 0.14713241 0.029826773 -0.04403318
0.03667233 0.021190597 0.009718771 0.050145477 0.023816634 0.0047076396 -0.012234863 -0.00882033
0.032288566 -0.007851634 -0.017587304 0.055363443 -0.041801464 -0.012384291 0.007773096 0.06271852
-0.015698887 -0.069689505 0.012392842 0.032185964 -0.0068978695 0.0060516307 -0.037511807 -0.012236057
0.024982473 0.019449664 -0.027805794 -0.0049471282 -0.0059413854 -0.05263428 0.11279054 0.021003976
-0.051192578 -0.014535136 -0.0021491898 -0.01644909 0.0028829186 0.04565289 0.0024622367 0.019312171
0.010464669 -0.030238869 0.051053617 -0.032783598 -0.034418 0.05889575 0.036698096 0.07077633
-0.03995704 -0.036364287 -0.009577334 -0.0034042182 0.029150287 -0.07905823 -0.058378484 -0.067624345
0.027259754 0.06456968 -0.06344785 -0.014279583 0.018450268 -0.020793837 0.0013093343 0.033940744
-0.057999227 0.008494724 0.06742791 0.078960806 -0.011520343 -0.07024767 -0.0131673105 0.046710096
0.0040524313 0.09400211 0.051284872 -0.053736567 -0.025943106 0.036788836 0.09760222 -0.014459554
-0.08957469 0.05139198 0.010963266 0.011190232 -0.044391356 -0.082714826 -0.014353641 0.013380281
0.08075802 0.09964307 -0.032651428 -0.025084015 0.0020816117 0.06645901 0.08298829 -0.096060745
-0.05053188 0.09411441 0.04272034 -0.02873052 0.018847996 -0.048616257 0.00089581584 -0.03634642

fc1.bias f4 [120]
00000000: ffa7 783d d69b 1f3b 1b9d ee3c d5ef 8a3d
00000010: e17d 6b3c fe20 ae3d a853 87bc 8d36 9e3d
00000020: 1749 29bd cc77 e6bc fa12 97bc 7832 67bc
00000030: 9445 bf3d 2b0f 82bb ae65 77bd 51a8 0a3c
00000040: 9132 413d 81a6 c73d 5208 80bd 28a5 4a3d
00000050: 63bc 62bc 9545 3f3e 5218 c8bc ed5e 0d3d
00000060: c485 823d 131d 92bc 3556 793d 4480 4c3d
00000070: df1e c0bc 8a9f db3b 6a20 973d 98ed 49bc
00000080: 92e6 dfbc b33e 113e 336e 6e3d e167 46bd
00000090: bb8a bfbc 80d8 96bd d788 bbbc c01e 1a3c
000000a0: af98 38bd 4022 fc3c fc6d 363b dcc7 b03c
000000b0: 5e41 a9bc eb31 23bd d2b9 d93d ca8b cf3b
000000c0: 7504 d7bc 3f70 433c 29e1 773d f95a 67bc
000000d0: 60a7 3dbd 02ab 9f3d 9ae7 0cbc 9e29 1dbb
000000e0: fda5 eabc 695c 69bd 8d3d 8d3c 7995 5bbd
000000f0: a814 d4bb 1851 733d cc0d 893d b3bc 2f3d
00000100: b898 6d3d 8fcd 233c e4d1 1d3c c4dc 233c
00000110: 192d efbc 3311 28bd 2e2b 1f3d 6323 91bb
00000120: b638 08bb 8573 07bd 39cd 763d 4081 b2bc
00000130: cbc9 2abd fff5 46bc e662 c4bb a05f 253c
00000140: 8a3f f73d 22a8 2fbc 28c5 c83c 08bd 023c
00000150: faa6 23bd 45fe 063e 6cf8 853d 7e2e adbc
00000160: 96d5 3a3c fd18 9d3c 8d6f 2e3c bd19 24bc
00000170: 1d21 8d3d fcb9 883c 7940 803d 2c33 303d
00000180: 8351 97bb f500 04bd a68c 15bd 4810 7b3b
00000190: c2ca e7bc dd75 c13c d4a6 433d 7d96 cabb
000001a0: b0bf 243d 61eb 52bc f9ec 2abd 8784 aebc
000001b0: ab69 e8bb 8896 dabb a240 773c 9df9 943c
000001c0: ffeb 053c e86b a53d 535f 633d fcda bf3c
000001d0: 7816 2ebb 4e43 a8bc 5964 623d b3f2 00bd
0.06070709 0.002435436 0.029127648 0.067840256 0.014373274 0.085023865 -0.016519383 0.077252485
-0.04132947 -0.028133295 -0.018441666 -0.014111154 0.09339443 -0.0039690933 -0.060399704 0.008462981
0.047167365 0.09748555 -0.06251587 0.04947391 -0.01383886 0.18678887 -0.02442566 0.034514356
0.0637317 -0.01783613 0.06087323 0.04992701 -0.02345222 0.006702368 0.07379229 -0.012324713
-0.027331624 0.14184074 0.058210563 -0.04843891 -0.023381582 -0.07365513 -0.022892399 0.009406745
-0.045067485 0.03077805 0.0027836552 0.021579675 -0.020661052 -0.039842527 0.106311455 0.006333803
-0.026247242 0.011928617 0.060517464 -0.014120811 -0.0463022 0.07796289 -0.00860014 -0.0023981105
-0.028643603 -0.056972895 0.017241264 -0.053609345 -0.006472189 0.05940351 0.06692085 0.042904567
0.058006972 0.009997739 0.009632561 0.010001365 -0.029196309 -0.041032027 0.03885954 -0.0044292673
-0.0020785755 -0.033069152 0.06025431 -0.021790147 -0.04169635 -0.012143611 -0.005993235 0.0100936
0.12072666 -0.010721238 0.024508074 0.007979639 -0.039954163 0.13182934 0.06541523 -0.021140333
0.011403462 0.019176954 0.010646713 -0.010015902 0.068910815 0.016690247 0.06262297 0.04301755
-0.0046178713 -0.032227475 -0.036511086 0.0038309265 -0.028294925 0.023615772 0.04776652 -0.0061824904
0.04022187 -0.0128735015 -0.0417299 -0.021303428 -0.0070926747 -0.0066707768 0.015091093 0.018185431
0.008173942 0.08077222 0.05551083 0.02341985 -0.0026563685 -0.020539906 0.05527148 -0.031481456

fc2.weight f4 [84, 120]
00000000: c165 2ebe d95a f63d fd77 2ebc d616 243e
00000010: 4dc7 363c 83ea fcbd 9488 613c 33b6 4dbe
00000020: b9d8 a23c dac8 46bd 3e07 dabc 6608 0ebd
00000030: d6b2 21bd 88ed 213d 180a d0bd b099 443c
00000040: 624a 81bd 2224 083e cbad b23d 7562 b7bd
00000050: fa2a bc3c 4451 05bc 25af dbbd af2a ecbd
00000060: e36c cdbd 0159 583d f7f9 2d3d 8ee7 4b3e
00000070: 1749 dbbc 28e1 10bd 65f9 22be 5bfd f83c
00000080: 3769 083e b0e7 533c 2e2c bc3d b628 493d
00000090: 0117 cb3d 43ee 9f3d 0127 fcbc f892 df3d
000000a0: e3a3 743d 9d69 86bb 008a fcbc f844 94bb
000000b0: 8d52 07be 7d80 1f3d cbe5 21be 4135 aebd
000000c0: a6b2 603d 3a6f af3d 09d6 cfbd 4c6b 6bbd
000000d0: 8433 733c e109 333d 2f7c 0d3e 2a3a b83d
000000e0: 9e8f 2e3d 37bb af3c cf11 babd 1d7a 083e
000000f0: 175c 503d da24 a13d 4ac3 1bbd 2ee4 c03b
00000100: 75f1 90bd a0f8 3bba dee3 083e 303d 483d
00000110: bfd3 d73c 14e5 ae3d 6f3c af3d 4300 49bd
00000120: d088 bdbd bed6 16bd 11a6 72bc ba09 6f3d
00000130: cb65 46bd b2fd 3d3c 2972 36be b218 60be
00000140: 4bb2 9d3c 5ed0 793d fe3e 0ebd aafa af3d
00000150: 1b02 c83d c631 f7bd c3b8 fe3c c9e2 fe3d
00000160: ed47 273d 2fa9 b2bc 0e78 bd3d e5a3 09bd
00000170: 2e05 cb3c cc71 b93d ffd3 c33d 4a64 1bbe
00000180: 1ea2 b8bd de3a 683e 1ea9 313d fa1e dc3d
00000190: 5dce 86bd 3a9f 08be 29a6 9b3d 7b09 f5bc
000001a0: 2b5e 283c 8df1 1abd 078d 563d 3bca 883c
000001b0: 308f 8fbd 6c32 b53c f1f2 1ebc 3a30 3dbd
000001c0: 65b1 b7bd bfbe b43c 3b2f dcbd 02f7 b73c
000001d0: 0230 b63c c805 10bd 802e 97bd ccea d5bd
000001e0: b499 153e 3a77 12be c142 4c3d 18e7 a83c
000001f0: a6c3 19ba 7b70 bd3c 37d7 a7bd b462 b63d
00000200: f5d8 25bd d928 ac3c 9bd6 afbd ef40 4d3d
00000210: ec63 18be 3556 1bbe dc4a 72bc 23be 863d
00000220: dc2b 9fbd 636c 8abd fa94 a7bd 2b40 99bd
00000230: 915f d53c 03bd ebbc bbda fd3c 1f75 673b
00000240: bec6 913d 3c65 913d ba20 213c 7090 ebbd
00000250: 7ccd 5e3d 951c eb3c a908 043e 3d88 acbb
00000260: cc4e 543d 2cb6 213e 54f7 29bd c380 533d
00000270: 36a9 c8bd 3022 3abd 0219 8ebc 785c 953c
00000280: a4c6 b03d ca84 10be 9d0b eabd 78ce 033e
00000290: 4d68 4e3e 9358 913d 2763 93bc 863f 64bd
000002a0: 8e97 1cbd 4ce0 dcbc 4272 6c3d 6c29 033d
000002b0: 79dd e43b d465 6bbd 442d 29be ed8c 4abe
000002c0: 711d 6cbb b4f7 d03d 58e9 bebd e8a6 6bbc
000002d0: b414 89bc b286 293d 2947 66bd ca12 c03d
000002e0: 79a9 403e 83ec b43d 763f 3f3d fbab 45bd
000002f0: 9a7c 75be 538f 383d b4a3 b1bd 643e c7bc
00000300: 2cde f03c 80c6 ef3d aebe 283e 9f4a b8bc
00000310: 43eb 68bd 3f9e c1bd cb2b 113e d64d 443e
00000320: eb55 373e f49f 433d 2f93 853d c2b4 ccbc
00000330: 8e86 48bd be6b e93c e9da 6fbe 59b9 c13d
00000340: e00b 78bd a537 0abe 7afb 833d f170 ba3d
00000350: 559a 423e 8d3c debd 279c 4abd f47a d83c
00000360: ca87 1f3d 8825 acbd 49e3 27bc ba70 f0bd
00000370: 9a98 d7bb 2b51 ad3d 33f9 eb3b 7d6a 863d
00000380: 1688 91bc 7363 2f3d 21a6 f53c 764c ba3d
00000390: dd17 e3bd a857 bd3c 6907 563d 7aa9 953c
000003a0: 51fa febd dc4a ed3d 4088 9fbd 2d8b 99bd
000003b0: 5935 593d e043 d83c 6cbb 503c 8540 9ebd
000003c0: 4f71 23be 96c5 83bd d98c 123c 53c6 fe3c
000003d0: 169c b93b 36f5 2ebc 9d0b 303b 75f5 a53d
000003e0: 0b0e 143d 8075 7dbd afcd 8ebd 3d48 653d
000003f0: 5be0 473d 5d8f 6c3d 06c4 31bd ce0b 15bc
-0.17031004 0.120290466 -0.010648725 0.16024336 0.011155915 -0.12349417 0.013765473 -0.20089035
0.019878732 -0.04853139 -0.026614781 -0.034675978 -0.039477192 0.039533168 -0.10158175 0.011999533
-0.063130155 0.13295034 0.08724555 -0.08954326 0.022969712 -0.008137051 -0.107267655 -0.11531579
-0.10030534 0.052819256 0.042474713 0.1991255 -0.02676825 -0.035370976 -0.15915449 0.030394247
0.13321386 0.012933657 0.09188114 0.04911109 0.09916497 0.07809117 -0.030780317 0.10916704
0.059726607 -0.0041019456 -0.030827522 -0.0045248233 -0.13215084 0.038940895 -0.15810315 -0.08506251
0.054857872 0.08566137 -0.10148246 -0.057475373 0.014843825 0.043710593 0.13816904 0.08995469
0.042617433 0.021451576 -0.09085428 0.13327833 0.050869074 0.07868357 -0.03802804 0.005886576
-0.07077304 -0.0007170532 0.13368174 0.048886478 0.026346086 0.08539787 0.08556449 -0.049072515
-0.092546105 -0.036825888 -0.014810101 0.058358885 -0.04843692 0.01159613 -0.17816986 -0.2188442
0.019250056 0.06098973 -0.034728043 0.08592732 0.097660266 -0.120700404 0.03109396 0.124455996
0.04084008 -0.021809189 0.09251414 -0.033603568 0.024782743 0.09054908 0.095619194 -0.15174976
-0.090152964 0.22678706 0.043374173 0.10748096 -0.065823294 -0.1334199 0.07600052 -0.029911747
0.010276358 -0.037828017 0.052380588 0.016697994 -0.07009733 0.02211877 -0.009701476 -0.04618857
-0.08969382 0.022063611 -0.10751196 0.02245665 0.022239689 -0.035161763 -0.07381916 -0.104451746
0.14609414 -0.14303294 0.04986835 0.020618007 -0.00058656407 0.023124924 -0.08195346 0.08905545
-0.04049011 0.021015571 -0.085858546 0.050110754 -0.14881867 -0.15169604 -0.014788356 0.065792345
-0.077720374 -0.067589544 -0.08182712 -0.07482942 0.026046546 -0.028776651 0.030988088 0.0035317612
0.07117985 0.07099387 0.009834463 -0.11502159 0.054395184 0.028700152 0.12893929 -0.0052652643
0.05183296 0.1579215 -0.041495636 0.05163647 -0.097978994 -0.04544276 -0.017345909 0.01823257
0.08631638 -0.14113155 -0.11427996 0.1287173 0.20156975 0.07096972 -0.017991615 -0.055724643
-0.03823047 -0.026962422 0.057726152 0.032021925 0.0069844094 -0.057470158 -0.16521174 -0.19780321
-0.003602829 0.102034956 -0.093218505 -0.014383055 -0.016733505 0.04138822 -0.056220207 0.09378584
0.18814649 0.088341735 0.04669138 -0.048259716 -0.23973313 0.04505856 -0.08673802 -0.024321742
0.029402815 0.11707783 0.16478989 -0.02249652 -0.056864988 -0.09454011 0.14176862 0.19170317
0.17903869 0.047759965 0.06522214 -0.024988536 -0.048956446 0.028493758 -0.23423351 0.094591804
-0.0605582 -0.13497789 0.0644445 0.09103573 0.19004185 -0.10851393 -0.049465325 0.026425816
0.038947858 -0.08405596 -0.01024706 -0.11740251 -0.006579471 0.08462747 0.0072013377 0.0656328
-0.017765086 0.04281945 0.029986443 0.09096615 -0.11088536 0.023113087 0.05225316 0.01826929
-0.12450088 0.11586544 -0.077896595 -0.07497249 0.053029392 0.026399553 0.012739997 -0.0772715
-0.15961193 -0.06434171 0.0089447135 0.031100428 0.005664359 -0.01067858 0.002686239 0.08103458
0.036146205 -0.061879635 -0.06972825 0.055977095 0.048797946 0.05775391 -0.043399833 -0.009097053

fc2.bias f4 [84]
00000000: 2573 ee3c d5f5 c43d 3b5b f23c e812 70bb
00000010: 3cbd d23d 4dbd 54bd 580a 98bd c8bf 373d
00000020: 22de 9d3d c92a 253e ee94 22bd 94d6 5dbd
00000030: 5bd7 56bd 682b d93c 57df 8e3c d9c4 8dbd
00000040: 9a71 d53d 2d66 2ebd bf64 a23c 8e21 0f3e
00000050: b07c 65bd c792 993e 4374 04bd ffa1 5a3e
00000060: 3b9e 2f3e 2813 543e 5704 b33d d2d2 423d
00000070: 51d5 b53d 3a2a 6cbd 0a06 ab3d 11aa 37bd
00000080: 9aff 29bd c4cb 083e 9967 113d cbdd 36bd
00000090: c4e6 843e 8831 80bb 7a75 d13c 7dab 173d
000000a0: 38b3 18bd 817f 033d d537 9a3d 5be3 48bd
000000b0: 9aaf 1e3d d629 41bd 3e97 ec3c f5e4 e83d
000000c0: db0d 71bd e843 223e 2cf7 6cbb 6397 923c
000000d0: 221e 5abd ee28 f23c bc14 c8bd 8784 65bd
000000e0: f536 553c 9e5c 4e3e 1c24 ec3d a4f4 3e3c
000000f0: 6c49 afbc 8a1e 513d 26ab e73d a743 b93d
00000100: 59dc 803d 4483 723e 024f 7e3d 0f91 7b3a
00000110: 40fb b1bd 1fba b93d 3e7f dc3a d5b5 663c
00000120: 6db7 8dbd 189a 463d 1555 b4bd 8e72 d33d
00000130: d133 6bbd 55a5 b83c 0a67 a63d 8fad 88bd
00000140: 7a63 a73d 38a0 9dbd 4e02 113e 9d83 b33a
0.02910764 0.09617201 0.029584518 -0.0036632363 0.1029 -0.051938344 -0.07423848 0.04486063
0.07708384 0.16129602 -0.03969281 -0.054159716 -0.052451473 0.026509956 0.017440481 -0.06922311
0.104220584 -0.04257791 0.01982343 0.13977644 -0.056027114 0.29994795 -0.03233744 0.21350859
0.17150204 0.20710433 0.08741062 0.047564335 0.088785775 -0.057657458 0.08350761 -0.044839922
-0.041503526 0.1335898 0.03549919 -0.044645112 0.2595731 -0.0039121546 0.025568713 0.03702878
-0.03728029 0.03210402 0.0753018 -0.049044948 0.038741685 -0.04715904 0.028880712 0.11371795
-0.058851104 0.15846217 -0.0036158068 0.017894452 -0.053251393 0.029560532 -0.0976958 -0.05603459
0.013013591 0.20152518 0.11530325 0.011655007 -0.021397315 0.051054515 0.11311941 0.09046107
0.06292028 0.23682886 0.062087066 0.00095965056 -0.086905 0.09068703 0.0016822589 0.014081438
-0.06919751 0.0484868 -0.088052906 0.10324584 -0.057422463 0.022539774 0.08125122 -0.06673729
0.081732705 -0.07696575 0.14161035 0.001369584

fc3.weight f4 [19, 84]
00000000: bc96 e4bc ef8e 9c3e a70e 71be bb8a c7bb
00000010: 4c3b 2fbe 0346 14bd b09c bfbe aa14 9dbe
00000020: 8ab3 2abd c01e 90bd dfd3 96be efe9 3d3e
00000030: 603e 433d d36a 993e dae1 343c 29fe a23e
00000040: bbc8 76be 5a39 a63d 2640 eb3d e540 cebc
00000050: 04aa 8c3d b1ae 06be 3bc2 3e3e ca39 09be
00000060: d4cb a5bd eae2 79be d1d4 4dbe 7fd0 6f3e
00000070: 0b4b 0bbe bf9d bebd 5656 99bc c86c 283d
00000080: 6ddd a0bc 3e40 00be 6ca5 88bd b8bd a93d
00000090: 385d 85be d8a1 efbc b133 37bd 4f22 2d3e
000000a0: 2b9f 96bd 631f e3bd ca6d 08be 49f8 dabd
000000b0: 2925 6d3e 8e77 dabd 4f2e cabe 685b 613e
000000c0: 3c14 60bd 1ae9 18bd b604 433e 16c6 f03e
000000d0: 61e3 69be 331b 25be 6249 9fbd edad 1a3d
000000e0: 0d52 043e 49a7 a43e 01fb fdbc a5b0 913d
000000f0: 32fd d53d 3b93 93be 4aaa 44be fd57 403e
00000100: 4321 a83e cc23 f73c 61a1 a13c 3ff4 3ebc
00000110: ae3c 633d 658d 2c3e 0df0 9dbb ad25 25bd
00000120: 2d7c 163c e46a f73c 82ea 293d 07f7 8ebe
00000130: 2901 45bc 8174 983e 5248 85bb 24dc c03d
00000140: 72ed fabd 87cf 40bd 5e48 9dbd 3eaa 3c3e
00000150: abe2 f1bd 9c61 c13c 4609 25be f90a a23d
00000160: 92fd 2ebe f902 f93d a2fa 18bd b699 173e
00000170: 368b 103b d360 63be 0b6d 773e 9450 c13d
00000180: 2a7d 33bc 667c a53e bc8a 9cbd dade 9fbe
00000190: 0774 cc3b 62e3 acbd 3259 92bd daa8 263e
000001a0: 9382 43be 3d30 b6be b947 953e 1e0f 0abe
000001b0: a112 f4bd ba41 3cbe 95d8 1e3e b3c7 f43e
000001c0: 0c6d 0dbe 427b 26bd 554e babc 9b24 b93d
000001d0: d573 1b3e 781d b9bd eb2f 853d 8113 563d
000001e0: 9920 b0be 2e20 c5bc a5b0 75bd 5c0c 5fbe
000001f0: c562 cd3d 7b9d 95be 3440 0abe 17f7 b43b
00000200: 8651 383d 4a9f a6bd 46f7 923e f226 c2bd
00000210: 97dd 37bd 926b 42be 3367 cd3d c279 2f3e
00000220: 9cc4 fbbb 35e4 283d b00d 653c b380 24bd
00000230: 09d0 c73d ea8c 973e 34e8 cc3e 62f5 1b3d
00000240: c2f9 7abd 5c77 863e b762 5e3e b875 fc3d
00000250: a15e 3d3e 766e 9dbc d822 5fbe 220a 4cbe
00000260: 0a2e 2dbe 6474 6fbe cda3 853e 9e36 dcbb
00000270: 63d1 b63a 4d59 f4bd 52a9 a83c 3a83 b4bd
00000280: 7663 4abd 9217 993e 7781 eebc 474f 063c
00000290: 2166 3abe c593 23be 5742 11be e818 44be
000002a0: 8de9 d1bd 5927 2d3e 92a6 e73d 82bf d8bd
000002b0: 7ac8 0bbd 6624 be3c 11e0 21be b63a bb3e
000002c0: 15e1 26be 161d 8abd 93b8 883d ba9c dd3d
000002d0: 06dd e4bd ff8c 523d 5121 d6bd 803d bbbb
000002e0: 2713 60bc 5c45 063d 5613 313d 2314 23bd
000002f0: 5b99 35be 6751 64be 1612 2bbd 4190 82bd
00000300: ccc8 74bd 7999 2abe 2ce2 d0bd 8283 abbd
00000310: 6393 8ebe c726 aa3d edcb d53e 08fc 4fbd
00000320: 75b4 f13b 02a9 49be ffa4 dabd a108 8f3e
00000330: c4e8 7abe 7064 fbbd baa1 96bd 259f 0bbd
00000340: 6d01 983d f31a 19be a4e1 0abe 9fb7 83bd
00000350: cbc9 3d3e 128a 61bd 88bf e33d 2eb3 243e
00000360: b2b9 a13d f34c 043a de6d 673d 5682 fd3a
00000370: ad07 54bd cfad 3e3e 91a4 233d 219a 02bd
00000380: 270f a03e 6ce5 753e 861d 52be 0297 e4bd
00000390: daa7 11be 9887 25be 8257 923d 3caa d23d
000003a0: 3194 aabd 0397 2bbe d789 47be fdb7 283e
000003b0: 1abf 89bd 0360 39be 7aa4 333e d7f3 75bc
000003c0: e4c7 c03d 01a1 9c3e 3879 7bbd 1bc7 d4bd
000003d0: 7ab5 92bd 6667 513e d1a5 253e 0cec 50be
000003e0: 58e3 65be 8d83 ecbb 9f22 8f3d dba3 45be
000003f0: b842 07be afed 8a3e e6c0 b1bb 1b4b 20bd
-0.027903907 0.305778 -0.23540746 -0.006089536 -0.17112464 -0.03619958 -0.3742423 -0.30679828
-0.041675128 -0.07037115 -0.2945852 0.1854627 0.047666907 0.29964313 0.011040175 0.31834534
-0.2410001 0.08116408 0.11486845 -0.025177428 0.068683654 -0.13152577 0.1862878 -0.13400951
-0.08095518 -0.24402967 -0.20100714 0.23419379 -0.13602845 -0.093074314 -0.018717926 0.041119367
-0.019636834 -0.12524506 -0.06672177 0.08288139 -0.26047683 -0.029251978 -0.04472703 0.16907619
-0.07354578 -0.11089971 -0.13323131 -0.10691888 0.23158707 -0.106673345 -0.39488456 0.22007525
-0.054706797 -0.037331678 0.19044766 0.47026128 -0.22840644 -0.16123657 -0.077776685 0.037763525
0.12921925 0.32158878 -0.031003477 0.071137704 0.10448684 -0.28823265 -0.19205585 0.18783565
0.32837877 0.030168436 0.019730272 -0.0116549125 0.05547779 0.16850813 -0.004819876 -0.040319134
0.009184879 0.030202337 0.04148341 -0.27922842 -0.012024202 0.29776385 -0.004067459 0.094169885
-0.1225232 -0.047072913 -0.076798186 0.18424317 -0.118108116 0.023606114 -0.16116819 0.07912249
-0.17088917 0.1215877 -0.037348397 0.1480473 0.0022055632 -0.22204904 0.2416269 0.09439197
-0.010955134 0.3232147 -0.07643649 -0.3122471 0.0062394175 -0.08441807 -0.07145919 0.1627535
-0.19092779 -0.35583678 0.29156283 -0.13482329 -0.11917616 -0.18384448 0.15512307 0.47808608
-0.1381113 -0.04064489 -0.02274243 0.09040185 0.15180905 -0.09038824 0.0650328 0.052264694
-0.3439987 -0.024063196 -0.059982914 -0.21782058 0.100286044 -0.2922171 -0.13501054 0.0055226195
0.04499962 -0.08135851 0.2870428 -0.094800845 -0.04488906 -0.18986347 0.10029449 0.1713629
-0.00768335 0.04123326 0.013980314 -0.0401618 0.097564764 0.29599696 0.40020907 0.038075812
-0.061273344 0.2626294 0.21717344 0.123271406 0.1849313 -0.019217711 -0.21790636 -0.1992574
-0.16912094 -0.23384243 0.26101533 -0.006720378 0.00139479 -0.11931095 0.02058855 -0.08814092
-0.04941126 0.29900795 -0.029114468 0.008197612 -0.18203022 -0.15974338 -0.14185463 -0.19150126
-0.102496244 0.16909541 0.11311068 -0.10583402 -0.034126736 0.023210716 -0.15808131 0.3656823
-0.162968 -0.06743829 0.0667583 0.10820909 -0.111749694 0.051403996 -0.10455573 -0.0057141185
-0.013676441 0.03278099 0.04323133 -0.039814126 -0.17734282 -0.22296678 -0.041765295 -0.063751705
-0.059761807 -0.16660108 -0.10199389 -0.083746925 -0.27846822 0.083081774 0.41757146 -0.050777465
0.0073762485 -0.19693378 -0.10676002 0.2793627 -0.24502856 -0.12275016 -0.07355066 -0.03408732
0.07422147 -0.14951687 -0.13562638 -0.06431507 0.18534009 -0.055063315 0.11120516 0.16083977
0.07896747 0.0005046867 0.056501262 0.0019341211 -0.051765133 0.1862099 0.039951865 -0.03188527
0.3126156 0.24013299 -0.20519075 -0.11161615 -0.14224187 -0.16165006 0.07145597 0.10286376
-0.083290465 -0.16756825 -0.19486175 0.16476436 -0.06725903 -0.18103032 0.17543212 -0.015011749
0.09413126 0.30591586 -0.0613949 -0.10389539 -0.0716352 0.204496 0.16176535 -0.20402545
-0.22450006 -0.0072178305 0.06989025 -0.19300787 -0.13209045 0.27134463 -0.0054246066 -0.039134126

fc3.bias f4 [19]
00000000: d757 9ebe 91ef dcbd d2ad 3a3d 8002 2f3c
00000010: 78c1 73be 8517 1a3e b1a0 a6be c966 3e3d
00000020: ae60 8fbe ef45 a0bd e952 a23e 6a6f 90bd
00000030: 5ee2 853e 90ff 01bd 8a06 993d 7602 493e
00000040: 1830 4b3c 3979 583e bdfc a4bd
-0.3092639 -0.10787881 0.045575924 0.010681748 -0.23804271 0.15048034 -0.32544473 0.046484742
-0.28003448 -0.07825839 0.3170388 -0.070525005 0.26149267 -0.031737864 0.0747195 0.19629845
0.012401603 0.21139993 -0.080560185
