python/CNN14.pth (torch_old, 252622 bytes, 10 tensors)

conv1.weight f4 [6, 3, 5, 5]
00000000: 2f9b e03e 3b2e 0f3f d741 193f fbc6 ee3e
00000010: 4ef4 143f 56b3 a13c 17c6 843d f6e3 773d
00000020: b3d5 903e 6721 703e 6a6b eb3b bc91 58be
00000030: c7a4 50be a6f7 59be 2ab2 21be a58d fe3d
00000040: 4b4b 023e 897e bcbb 7ea9 9b3c ad21 43bd
00000050: 9ca2 a63e 2937 0c3f b15a 9f3e 941a 4b3e
00000060: cbd9 e9bd 98ab 65bd 923c d23d fe4e 7e3e
00000070: 9362 ac3e a938 b73e b475 5fbe b587 89be
00000080: 1406 2ebe ca78 103d 4b97 b5bc a98a 9abe
00000090: 2315 13bf 2e15 f3be 2d88 13bf 4cad 98be
000000a0: 7ddd 17be f3dd 6fbd a04e 72be 9dcf c1be
000000b0: eff1 92be 46ee 363e 58c3 923e f304 593e
000000c0: 1a70 43be cf7e 9ebe 1354 ca3b 7c47 1f3d
000000d0: aff4 aa3e a7ba a33e f2e9 833e e38f 1ebe
000000e0: 7ffc 5abe d3fb 23be d5b4 a73d 0f0a 083e
000000f0: d1bd 83be 364e 07bf 6622 1cbf ab51 ecbe
00000100: 399a b9be 7735 c6bb 5daf fbbd 32d0 6ebe
00000110: 094a 9dbe 4c58 82be ba04 e53e 634a 9c3e
00000120: 4321 c23d 8533 4fbd bf31 7dbe 6dbb 16bd
00000130: 6436 a63c c136 18bd fc79 3e3c f9ee b23c
00000140: bb45 173e d9f7 383e 9981 243e 22d3 5d3e
00000150: 9ce3 3d3e 1cf2 d6bd ea7a 3b3e 67cb 253e
00000160: aee2 773e bb92 a13e 329b 59be 7efa 1dbe
00000170: 13ae a0bd 2c9b f63b dad8 0d3e 705b b4bd
00000180: e820 cbbd 7189 adbe 609d 2dbe b083 2bbe
00000190: ccec 99bb 69ff 3bbd 70dd b3bb b15f f3bc
000001a0: 8891 dcbc 5eda 8f3d d912 923e 7516 833e
000001b0: e2ba 923e 515f 1f3e db84 e33d b2fd 213e
000001c0: 0c31 813e b2ac bc3e 4e96 be3e 7ec2 27be
000001d0: 8cc4 27be a594 5bbe b926 0dbd 9051 2f3d
000001e0: a341 30bb 2693 a2bd 7979 17be 6863 d0bd
000001f0: 4b53 ccbd 7d71 0cbe 5d0e c9bc a779 15be
00000200: 1f51 303c 7e7c 91bd 9d47 17be ad88 593c
00000210: 427d 273e bddd a0bc c632 d13c 5a74 2bbe
00000220: 4431 eb3b 9f4f 45bb 94e9 583e bda3 603e
00000230: c4a4 67be 77e5 91be 1a73 aebe 24c2 56be
00000240: fba8 b73b c5ab ffbd b3bd adbe 29ee a6be
00000250: 5a56 cebe 6f8e 60be 686f 5b3e 755e 863e
00000260: 5c8e d23d c448 91bd 96d3 7ebd 3a06 673e
00000270: 0b98 9f3d 4307 61be 298b 98be cde5 90be
00000280: ce7e b03e d9c4 f6bc 73f2 afbe 36c7 f7be
00000290: 9542 95be a1b5 c93e 951a 553e 4d9e cabe
000002a0: 69e0 e1be a5a2 14be cd70 363f 89ea b13e
000002b0: 02fe c5bc 15d4 88be 103d 9ebd 490e 173b
000002c0: 390f 4b3e 5ac0 07be b6c7 a2be 07a8 20be
000002d0: f1bf 41bd 6191 a03c d2f3 b3be 3e13 c0be
000002e0: d678 cebe 2432 05be 06df 523b b50c c1be
000002f0: 1695 b3be b5e4 c4be 5a4e 4d3e 81aa 823c
00000300: dacd 94be 17cb 06bf f2cb 47be 9091 503e
00000310: fd0d 9f3d 15ef 7abe 90aa e5be 9863 06be
00000320: 3cf8 803e f0ea d93e 01a2 b53e dc1c 4e3d
00000330: 83a6 143e 6416 8b3d 0d1c 3c3e 615a 073e
00000340: 01aa 103a 567e d43d 231e cb3d 1f9f 813e
00000350: 3f6b c2bc 2958 e6bd 43dc 3d3e ea81 993e
00000360: d055 6d3e 2c96 b9bd 2029 353d 0516 a93e
00000370: b7f1 043f 21c5 a53e 5c8e 533d 17fa 8a3c
00000380: 7ad8 6c3e 0e3c 2f3d 4471 c73d 25a4 8abd
00000390: 1171 273e 147c 633e ba8a 4c3b ad0c 833d
000003a0: 8e9a 113e d3b3 9d3c 96dd 863e 0ced e8bd
000003b0: c8e8 b3bc bcc2 e8bd fd64 86bd 49ae 6c3c
000003c0: d567 35be e94d b8bd 1c2c 94bc a94a cb3d
000003d0: b12e eb3d 740e 60be ef05 88bd 93a6 cabd
000003e0: 4d33 ffbc 9441 103e ee4e 92be a878 9dbe
000003f0: 8d19 86be 4f1c 5fbe 05e6 2d3c 3f0f e3bd
0.43868396 0.5592992 0.5986609 0.46636185 0.5818528 0.019738834 0.06483095 0.060520135
0.2828804 0.23450242 0.0071844356 -0.21149343 -0.20375358 -0.21285877 -0.1579062 0.1242936
0.12724034 -0.005752389 0.019001719 -0.047639538 0.32545936 0.5477167 0.3112388 0.19834358
-0.11418494 -0.056071848 0.10265459 0.2483482 0.33668956 0.35785416 -0.21822244 -0.2686135
-0.16994506 0.035271443 -0.022166869 -0.30183914 -0.5745413 -0.47477096 -0.5762966 -0.29819715
-0.14830585 -0.058561277 -0.23662806 -0.3785371 -0.28700206 0.17864332 0.2866466 0.21193294
-0.19085732 -0.30956122 0.006174573 0.038886532 0.33389804 0.31978342 0.25764424 -0.15484576
-0.21385382 -0.16014032 0.08188788 0.13285087 -0.25730756 -0.52853715 -0.6098999 -0.46156058
-0.36250475 -0.006048854 -0.12289307 -0.23321608 -0.30720547 -0.2545799 0.4473017 0.30525503
0.094790004 -0.050586242 -0.24726008 -0.036799837 0.020289607 -0.037161592 0.011625763 0.021842467
0.14772694 0.18063296 0.16065063 0.21662572 0.18543857 -0.104953974 0.18308607 0.16190873
0.24207565 0.3155726 -0.21250609 -0.15427586 -0.07845702 0.007525822 0.13852254 -0.08806503
-0.09918386 -0.33893922 -0.16954565 -0.16749454 -0.004697418 -0.045897875 -0.005489044 -0.029708715
-0.026924863 0.07024072 0.28530005 0.2560307 0.28658205 0.15563704 0.111093245 0.15819433
0.25232732 0.36850506 0.37224048 -0.16382787 -0.1638357 -0.21443422 -0.034460757 0.042802393
-0.0026894591 -0.079382226 -0.14792432 -0.1017521 -0.099768244 -0.13715167 -0.024542982 -0.14597188
0.010761528 -0.07103823 -0.14773412 0.013277215 0.16356376 -0.019636983 0.025536906 -0.16743603
0.007177504 -0.0030107272 0.21182853 0.21937461 -0.22621447 -0.2849538 -0.3407219 -0.20972496
0.005604861 -0.12483934 -0.33933792 -0.32603577 -0.40300256 -0.21929334 0.21429217 0.2624394
0.10281059 -0.07093957 -0.062213503 0.22560969 0.07792672 -0.21975426 -0.2979367 -0.28300324
0.34471744 -0.030123161 -0.34364662 -0.48394173 -0.2915236 0.39396384 0.20810921 -0.395739
-0.44116524 -0.14515169 0.7126587 0.3474925 -0.024168972 -0.26724306 -0.077264905 0.0023049286
0.19830026 -0.1325697 -0.31792992 -0.15689097 -0.04730219 0.019600572 -0.35146958 -0.3751468
-0.40326566 -0.13007408 0.003217639 -0.37705007 -0.3507468 -0.3845574 0.2004942 0.015950443
-0.29063302 -0.5265364 -0.19511393 0.20368028 0.0776634 -0.24505265 -0.4485669 -0.1312393
0.25189388 0.42562056 0.35475162 0.05032049 0.14516644 0.0679138 0.18370076 0.1321807
0.00055184966 0.10375659 0.099178575 0.25316712 -0.02373278 -0.11247284 0.18541054 0.2998193
0.23177266 -0.09061846 0.044228673 0.33024612 0.5193133 0.3237696 0.051649436 0.016964955
0.23129454 0.042781882 0.097384006 -0.06769589 0.16351725 0.22215301 0.0031210617 0.06398902
0.14219114 0.019250786 0.26340932 -0.11373338 -0.021961585 -0.11365268 -0.06562231 0.01444585
-0.1771539 -0.08999235 -0.01808744 0.0992635 0.11483515 -0.21880513 -0.06641757 -0.09895053
-0.031152392 0.14087516 -0.28575844 -0.30756116 -0.2619137 -0.21788143 0.010613923 -0.11086892

conv1.bias f4 [6]
00000000: 51cc 9c3e ac18 073d 1d71 c53e 023e f0be
00000010: 98ba 45be 5148 ba3d
0.3062463 0.032982513 0.3856286 -0.46922308 -0.19309461 0.090958245

conv2.weight f4 [16, 6, 5, 5]
00000000: c9d5 ecbd cf58 9fbd 9708 033d 8b39 243e
00000010: 1ccd 3e3e 200c ffbd 4858 7cbc 860b 383e
00000020: 5dbb 863d 3418 e5bc 3d52 5fbd 4f88 51bd
00000030: 8ca1 433e 152e 883e b622 45bb 47c0 d7bd
00000040: 4146 dabd 7a10 0bbe b43f cbbd 68d0 b4bd
00000050: 591e febd aabb ca3d 6345 e33d e50c a8bd
00000060: 84f8 52be 8f3e e0bd 68a4 fe3c 9e8f db3d
00000070: 2fb2 35bd 1f9c 183d 3fb6 edbc 0239 81bc
00000080: b291 513e 5b1e e63d 794d 113e ce66 0d3e
00000090: a6bc 083d 8a72 bb3d 5240 313b 4108 0dbd
000000a0: 43b6 0a3e 7d76 443e 87e5 2a3e 04b7 313d
000000b0: e229 b3bd d7fa b83d a85e 87bd aac2 a5bc
000000c0: 2289 d2bc c1a4 e1bd 3ea2 b53e e747 373e
000000d0: 4e9c 093e 5c36 a7ba 9c00 65bc 1c92 3c3e
000000e0: 9623 fa3d d1cd 593d 4a44 29be ec4c 11be
000000f0: d856 173d 1a01 1e3d d83b 03be 453c 18be
00000100: f85c 4abe 2c2d e4bc 6711 83be 7f1e 9cbe
00000110: a18b 91be 4e30 78be 7a68 2dbe 0971 76be
00000120: e16b 3fbe 1d81 33be 10c6 69bd 5213 9d3e
00000130: c07d a13e 948d 393e e2f6 c83d 01dd 1a3e
00000140: aa94 883e 54fe ac3e 5ec1 783e 79a0 f73d
00000150: f239 653c 22c8 903d a54e 89bd 7ab8 9c3d
00000160: 6353 06be 84f7 a7bc 1d3f d9bc 90e3 04be
00000170: e23b bbbc d2de a3bd d1d3 93bd d52a 903d
00000180: af95 55be c76c 1ebe df75 1cbe b2e1 20be
00000190: 4eb1 223e 6a79 463e 6227 a43d 9361 a13d
000001a0: 03ae 1e3e 00c8 933e 477b 4d3e f502 163d
000001b0: 10db a7bd c02a a3bd cd1b 9d3d e0b2 d5bd
000001c0: d74e 91bd 1697 19be b790 4bbe 3887 90bd
000001d0: c3a6 2bbe 65a7 56be cd97 26be d4ee 30be
000001e0: 4a32 5fbd 0b0a 96bd d18b 90bd eb4b c9bd
000001f0: 7a04 e1bd 3c34 9fbd dbfd da3d a80e 003d
00000200: 963d f4bc 1c34 f03d a6a2 2e3e 9f79 233e
00000210: e940 ae3d c7db 3f3d 03ae c43b 9d27 8e3d
00000220: 7c8e e73d f83f 6c3e 1837 02bb ba29 88bd
00000230: eb83 cb3d 6429 12bd 90bb 98ba fd2f 93bd
00000240: b5e5 49be ef47 043e 059d 773d ac2b c1bd
00000250: af29 1abe 027c 0fbd 6c0c 31be 0af5 e4bd
00000260: 723b 373d 941e de3d 76ce a33e d0b7 febc
00000270: ab92 71bd 65ea 52be 39df 32bd d90c a7bd
00000280: 923c 643e 1554 163e e91b b0bd ddc7 87bc
00000290: bf9e a0bd 97cf efbc 88f9 023e 7ed9 be3c
000002a0: cad7 9b3c 2910 23bd 41a4 b4bc 31b3 57be
000002b0: ef18 45be 6227 1cbe e9b0 22be 1f9a 94bd
000002c0: 7edb fdbd cdec 07be a244 e9bd 29a8 4e3d
000002d0: 8506 d23d 5a40 f23d b303 a6bd ee00 38bd
000002e0: 9536 e53d aa33 8a3d 076c e8bc 8cc5 bc3d
000002f0: 3c36 09bc c38c 893d c44e 17be ff2c 04be
00000300: be6f 8cbd 8445 e8bd a18c 8e3c e695 19bc
00000310: dedc 2abe b782 09be f372 2abe ce8e a53d
00000320: 6a61 5dbd 77bf 97be 5d79 63bd f8db 1d3e
00000330: 1008 2bbe 1359 46be b0df 47be 614d 2fbd
00000340: f729 4fbd 10c9 1cbe 0f89 98bc b352 453e
00000350: ae00 6d3c ef9f 8ebd 39e8 44be 36ab 3ebc
00000360: dc00 b13e b7b8 043e 7b10 b43e 4a7d c0bd
00000370: 9e60 e03c 7357 5f3e d193 2b3e 3c3d bc3e
00000380: 03ad ecbd 44c9 66be 8c1e 6cbe 6aef 94be
00000390: 9124 e9bd 5413 82bd 06b1 12bd 845e 01bd
000003a0: 42bc b93b ed94 b23c 0c10 853c b87d 16be
000003b0: 5423 713c 74e2 ff3d 9ebb 073e 5d4e b83d
000003c0: 4a6a a7bc 0920 093d bba8 643e 52ef 5b3e
000003d0: a53f 5b3e 64bc 183e bc10 243e 7e51 923d
000003e0: ed48 133e b37f 4a3e 2ecc 31be 787d 93be
000003f0: 1141 94be dea9 0abe 9b0d b3bd 1c65 d3bd
-0.11564214 -0.07780611 0.031990614 0.16037576 0.1863293 -0.124534845 -0.015401907 0.17973146
0.065787055 -0.027965643 -0.054521788 -0.051155385 0.19104594 0.26597658 -0.0030080504 -0.10534721
-0.10657931 -0.13580504 -0.0992426 -0.08828813 -0.12408132 0.09899075 0.11097219 -0.082055844
-0.20602614 -0.10949432 0.031084254 0.10720752 -0.044359382 0.037258264 -0.029017566 -0.015774254
0.20465735 0.112362586 0.1418971 0.13808748 0.033383034 0.09152706 0.0027046395 -0.0344317
0.1354609 0.19185825 0.1668912 0.043387428 -0.08748223 0.09032219 -0.06609851 -0.020234425
-0.025700156 -0.110177524 0.35475343 0.17898522 0.13438532 -0.0012757289 -0.013977196 0.18415111
0.12213819 0.053174797 -0.16529956 -0.141895 0.036948055 0.03857527 -0.12815797 -0.14866741
-0.19762027 -0.02785357 -0.25599214 -0.30492017 -0.2842684 -0.24237177 -0.16934386 -0.24066557
-0.18693496 -0.17529722 -0.057073653 0.30678803 0.31541252 0.18120414 0.09812714 0.15123369
0.26675922 0.33787787 0.24292514 0.120911546 0.013990866 0.07069422 -0.067044534 0.076523736
-0.13117747 -0.020503767 -0.026519353 -0.12977433 -0.022855703 -0.08001484 -0.07218135 0.070394196
-0.20857881 -0.15471183 -0.15279339 -0.15711096 0.15887949 0.19382253 0.08015324 0.07879939
0.15496068 0.28863525 0.20066558 0.036623914 -0.0819608 -0.07967138 0.07671318 -0.10434508
-0.07095116 -0.14999041 -0.19879423 -0.07057041 -0.16762833 -0.20962293 -0.16268845 -0.17278606
-0.05449132 -0.07326134 -0.07057918 -0.09828933 -0.10987182 -0.07773635 0.1069295 0.031263977
-0.029814523 0.11728689 0.17054233 0.15964364 0.085084744 0.046840455 0.006002189 0.069411494
0.113064736 0.23071277 -0.0019869264 -0.06648584 0.09937271 -0.035684004 -0.0011652578 -0.071868874
-0.19716533 0.12918065 0.06045248 -0.09432158 -0.15054964 -0.035030372 -0.17289895 -0.1117955
0.044734426 0.10845676 0.31993455 -0.031093508 -0.058977764 -0.20597227 -0.043669913 -0.08156747
0.2228873 0.14680512 -0.085990734 -0.016574794 -0.078427784 -0.029273791 0.12790501 0.023297068
0.019023795 -0.039810333 -0.022050979 -0.2106445 -0.19247793 -0.15249398 -0.15887798 -0.07255959
-0.123953804 -0.13273926 -0.11390044 0.05045334 0.1025515 0.1182868 -0.08106174 -0.04492276
0.11192051 0.067481354 -0.028371824 0.092173666 -0.008374747 0.06716301 -0.1477614 -0.1290779
-0.06857251 -0.11341384 0.017401041 -0.0093741175 -0.16685817 -0.1342877 -0.16645412 0.080838785
-0.05404798 -0.29638264 -0.055535663 0.15415943 -0.16702294 -0.19369917 -0.19518924 -0.042798404
-0.05057713 -0.15311074 -0.018620042 0.19269828 0.014465494 -0.06964099 -0.19229211 -0.0116375
0.34570968 0.12961088 0.35168824 -0.09398897 0.02738982 0.21810703 0.16755606 0.36765468
-0.11556437 -0.22537714 -0.23058528 -0.29088908 -0.113839276 -0.06351343 -0.035813354 -0.031584278
0.005668194 0.021799529 0.016243003 -0.14696395 0.014717896 0.124943644 0.13255164 0.089993216
-0.020436425 0.033477817 0.2232999 0.21478012 0.21410997 0.14915615 0.16022009 0.0714445
0.14383288 0.19775276 -0.17363045 -0.28806663 -0.28955892 -0.13541362 -0.087428294 -0.103220195

conv2.bias f4 [16]
00000000: a49f b63c c0ec 00bd 88df ca3d 2d95 70bc
00000010: 55f2 c3bc ecaf 1e3e 1337 15bd 1b48 c33d
00000020: e9c6 89bd 08a0 c93c bc7d 893d 0f07 1cbd
00000030: fe4a 05bd a739 0cbd 3c1f 043d 3ba0 d0bd
0.02229292 -0.031475782 0.099059165 -0.014684004 -0.023919264 0.15496796 -0.036429476 0.095352374
-0.06727392 0.024612442 0.06713435 -0.03809267 -0.03254222 -0.03423467 0.03225635 -0.101868115

fc1.weight f4 [120, 400]
00000000: 41e8 a3bd a555 82bc 178f 0c3c 17b0 d4bd
00000010: caae 91bd e903 64bd e4f2 223c 56e8 79bb
00000020: 0dcb 59bd dd98 3dbd 2719 02bd 3a74 f53c
00000030: c901 623d 7298 963c 8d54 92bd b39d 78bd
00000040: af1d 0e3a ceb6 aebc 8d66 0239 c0a2 2f3c
00000050: 6331 7ebd d828 9bb6 67c8 92bc 4498 9f35
00000060: f91d 8abd b475 093d 6f5e 72bc f629 06bd
00000070: d6f7 45bc 1fe4 7abc bfc2 a73c 82d9 5b3c
00000080: 80f6 333c 882d 343c 02ec bdbc c147 3abd
00000090: b895 8fbd 79b8 5bbd e285 97bc 1df9 11bd
000000a0: 6d91 ab3d 02a0 9a3d 9bfc 233d d5ff 313d
000000b0: 92c1 6b3c 9faf 45bc 2d36 8f3d 0e7d d93b
000000c0: afa1 1a3e 5377 493d 85d2 9ebd 02a0 f7bc
000000d0: 6ec5 64bd 627a 80bd a24a b4bb 040c 9ebc
000000e0: 8b47 03be 73a3 75bd 5b24 b1bd c55b d2bd
000000f0: 0966 87bd edd0 96bc cfc9 dfbc 76d8 8bbd
00000100: fc53 94bd 345c bb3c e30c 8ebd d9e6 9dbd
00000110: 9489 ccbd 6488 6ebd dbb5 bfbd d761 cbbd
00000120: 5897 1b3c a9c6 443b d9b2 a9bd 465d 57bb
00000130: 4e6f 903c f474 b3b8 2c62 3abc 36ee 76bc
00000140: 1449 2ebc 4824 adbb 9530 da3c a2bd 2dbd
00000150: 9ac0 f13c b8ec 273d 15d1 f03c 5db7 2ebd
00000160: 7935 653c 5141 8bbc 3d9d 323d 9763 243d
00000170: 6759 493b 5596 9ebc a392 0a3d 0695 493a
00000180: bdbb 073d b0ad 5f3c 47d3 41bd 6f9e 133d
00000190: 92a1 00bd 941a 4bbd 161e 033d 7712 2f3d
000001a0: 41ed 07bd cad2 023a 3b39 893c 0879 c4bb
000001b0: ee9a f23c fec6 713c d6b7 473d ce6e 403d
000001c0: f763 7fbc 10d2 ddbc 7176 5d3c 7c9c 39bd
000001d0: 17d5 863c 9368 af3c a8ea fd3c 9331 443c
000001e0: 1208 163d 8ed8 3e3c 99ea 403d d5ca 93bd
000001f0: 1062 403d f50c 963d 7082 08bb 79f3 9fba
00000200: 993f 373d d988 4dbc a78d 423c 5d2c b4bc
00000210: 9105 8b3a 628c 92bc c249 e13a 69d4 d93c
00000220: 2a37 ff3c 1c2d 47bd e4e8 2ebd f974 5f3d
00000230: cbcb a43d 8b5e d33c 94cb 20bd 8b60 dbbc
00000240: 7d03 ab3a ca0a 043e b7f5 dabc e001 123c
00000250: 7388 d13d acec 113e 766f 043d ebb0 29bd
00000260: db22 1d3d 31f3 ba3c b7f7 183c d6d9 543d
00000270: d068 e53c d24f b43b b03f 49bc 8900 01bc
00000280: 7c06 0e3d f46e 9abb aecf 83bc 43f5 5d3d
00000290: d79d 22bd f896 09bc 0d5b fa3b 258f 7e3d
000002a0: 5663 8abc cb7e 89bd 3b55 603c 10fa fb3c
000002b0: 67b3 01bc 1243 e43b 7e2c 19bd c641 9138
000002c0: 470b e23c 9fa1 9b3c f1a9 e2bc 884b cdba
000002d0: 5ac3 053a 3551 47bd 6dfc e53d 0dc9 b13c
000002e0: 90e6 4fbd d368 1ebc 1573 7eb9 0e8c 81bc
000002f0: ce5f db3a 0d84 433d 9ff9 d53b e742 c83c
00000300: 78eb 8e3c 0b0a f0bc cc72 563d 10df f6bc
00000310: 4d3f fabc 3811 7b3d 4aea 133d 9a46 8a3d
00000320: a469 11bd 9d22 13bd ee86 24bc 4873 36bb
00000330: b715 dc3c 8448 93bd 5d7b 68bd f687 89bd
00000340: 7c09 d53c 6b89 873d a478 75bd d7a0 3abc
00000350: c7a7 983c e088 bebc 537b 52b9 8b1e 163d
00000360: 1268 5ebd 4ade 433c f923 893d 0bd1 943d
00000370: efc2 b0bb 4f6f 86bd 14a6 0cbc 51c9 443d
00000380: 0d9f d53b 6c32 b43d 4b01 423d 6e25 5fbd
00000390: dd03 ccbc e79c 073d fc27 be3d 9bcc 50bc
000003a0: 0d7c bbbd 9276 413d 5475 0b3c 52c8 283c
000003b0: 566e 37bd 8ecf a4bd c9a0 36bc f1d7 113c
000003c0: 10fb 9d3d e389 bf3d ad95 02bd eaf7 aabc
000003d0: 2bbe 253b 8111 743d 48ed a63d 1094 babd
000003e0: 353b 3bbd 1d27 bf3d d444 1a3d 6566 07bd
000003f0: 324f 5d3c 5485 53bd 57ce c4ba c8cc 1dbd
-0.08003283 -0.01590998 0.008579037 -0.10385149 -0.071134165 -0.05566779 0.009945605 -0.0038132868
-0.05317216 -0.04628836 -0.03176227 0.029962648 0.055177484 0.018383238 -0.07145033 -0.06069727
0.00054212933 -0.021327402 0.00012435969 0.010719955 -0.062058818 -4.624115e-06 -0.017917825 1.1890738e-06
-0.06743998 0.033559516 -0.014793023 -0.03275486 -0.0120830145 -0.015313177 0.020478604 0.013418557
0.010984063 0.010997184 -0.023183826 -0.045478586 -0.070109785 -0.053642724 -0.018496457 -0.035637964
0.08377347 0.0755005 0.040035825 0.04345687 0.0143894125 -0.012065797 0.06992755 0.006637222
0.1510074 0.049186062 -0.07754997 -0.030227665 -0.055852346 -0.06273343 -0.005502061 -0.019292839
-0.1282026 -0.05997033 -0.086495124 -0.1027141 -0.066112585 -0.01841017 -0.02731791 -0.06828396
-0.07242581 0.022871114 -0.06936052 -0.07710046 -0.099871784 -0.05823554 -0.09360858 -0.09930771
0.009496532 0.0030025637 -0.082860656 -0.0032861992 0.0176312 -8.557169e-05 -0.011375945 -0.015071442
-0.01063754 -0.005283866 0.026634494 -0.042417176 0.029510785 0.040997237 0.029396573 -0.042655338
0.0139898 -0.016998919 0.043606985 0.04013404 0.0030723454 -0.019358793 0.03383125 0.0007689748
0.033138026 0.01365225 -0.04732063 0.036039766 -0.031404085 -0.049585894 0.032011114 0.04274222
-0.033185247 0.00049905165 0.016750922 -0.0059958734 0.029614892 0.014756916 0.048759304 0.04698067
-0.015587798 -0.027077705 0.013517008 -0.04531525 0.016459031 0.02141217 0.030995682 0.01197471
0.03662879 0.01164831 0.04709873 -0.072164215 0.04696852 0.0732669 -0.00208297 -0.0012203298
0.044738386 -0.012544834 0.011874593 -0.02199381 0.0010606517 -0.017889205 0.0017188119 0.026590543
0.031154234 -0.048627004 -0.04270257 0.054554913 0.08046683 0.025801918 -0.039256647 -0.026779434
0.0013047304 0.1289474 -0.026728494 0.00891158 0.10231104 0.1425044 0.03233286 -0.041428488
0.03836332 0.02282104 0.009336404 0.051965557 0.02800408 0.0055026794 -0.012283251 -0.007873663
0.034674153 -0.0047129337 -0.01609024 0.054188978 -0.03970131 -0.00839781 0.0076402486 0.062148232
-0.01689307 -0.06713637 0.0136921955 0.030758888 -0.007916308 0.006966003 -0.037395947 6.92639e-05
0.027593268 0.018997965 -0.027668925 -0.0015662769 0.0005102657 -0.04866143 0.11229787 0.021702314
-0.05075699 -0.009668547 -0.00024266199 -0.015813854 0.0016736926 0.047733355 0.0065300013 0.024445964
0.017446265 -0.029301664 0.052355573 -0.030135661 -0.030547762 0.061295718 0.036112107 0.067517474
-0.035501137 -0.03592168 -0.010041935 -0.002783971 0.026865823 -0.07191566 -0.056758273 -0.067153856
0.026005499 0.06618007 -0.059929505 -0.011390886 0.01863469 -0.023258626 -0.00020073102 0.03665022
-0.054298468 0.011954853 0.06696314 0.07266434 -0.0053943316 -0.06564199 -0.008584518 0.048043553
0.0065192045 0.0879868 0.047364514 -0.054479055 -0.024904186 0.033108618 0.0928497 -0.012744094
-0.0915452 0.047232218 0.00851186 0.010301666 -0.04478296 -0.080474004 -0.011146733 0.008901582
0.07713902 0.09352472 -0.031881023 -0.020870168 0.002529035 0.059587006 0.081507266 -0.09110272
-0.04571076 0.09333632 0.037663296 -0.033056635 0.013507651 -0.051640823 -0.0015015107 -0.038525373

fc1.bias f4 [120]
00000000: 0b08 793d f541 383b ea7f ed3c 1409 8f3d
00000010: 1375 6e3c ca19 ac3d ebfd 84bc 3ff3 a13d
00000020: ec51 2bbd 4b5a e1bc bf7b 96bc 1d33 67bc
00000030: 16d0 c03d f60f 49bb ea97 72bd b792 2b3c
00000040: 91ce 3e3d 11ce c73d 44c4 7fbd 510a 423d
00000050: f50d 86bc 1b1e 3d3e cb71 cabc ecfc 153d
00000060: 1923 823d 0698 91bc 3c36 723d f942 4b3d
00000070: 9714 bbbc cbfc b83b da16 953d 1cf7 3ebc
00000080: 4427 e1bc 5aa0 103e 13cb 6d3d 8c7c 55bd
00000090: 3df5 b0bc 0329 97bd d752 b3bc 7c72 3d3c
000000a0: 092c 3cbd 7681 ed3c 5527 c13a 7c8e 953c
000000b0: 4685 b3bc 700c 1fbd 3538 d73d 1545 c63b
000000c0: a7ef dcbc bdfb 423c 1f3b 7a3d 7407 62bc
000000d0: 33cc 3bbd 9160 a03d 017a eabb 5fcf 0ebb
000000e0: 5021 fabc 836e 6cbd 620e a23c d137 63bd
000000f0: 55dd debb f75b 763d e2df 893d b6ee 2b3d
00000100: b29b 6c3d 2e9e 2c3c 1d7c 193c a334 293c
00000110: b96a e9bc a103 28bd 6f0f 1f3d a59f 84bb
00000120: 6282 ffba 1f5c 01bd fc16 713d dfbc a6bc
00000130: ddcb 25bd 2046 4abc f3ad 80bb a3b2 673c
00000140: e376 f53d 3789 2fbc e31f ca3c 701c 193c
00000150: fdc7 24bd d260 073e a7ee 823d 2848 b4bc
00000160: 0038 1f3c 194a a03c 8e4c 163c 95bf 20bc
00000170: 2d13 8a3d ca4d 6d3c d3c0 7d3d c620 2d3d
00000180: 8ba9 9dbb 13d6 fcbc c335 13bd 90dc 673b
00000190: 5e8f e9bc 8897 c33c 1225 403d 0091 cabb
000001a0: 54bf 233d 5c26 52bc 325f 2bbd b284 aebc
000001b0: 9969 eabb 6031 b5bb 3544 733c 6971 9f3c
000001c0: 24f0 e43b 0f65 a73d c0f4 613d eaee c23c
000001d0: 7c69 42bb 2f40 a7bc 713c 663d 9497 ffbc
0.060798686 0.0028115485 0.028991658 0.069841534 0.01455428 0.084033564 -0.016234359 0.07907724
-0.041826174 -0.027508875 -0.018369554 -0.014111307 0.09414689 -0.003067968 -0.059226908 0.010471991
0.046583716 0.09756101 -0.062443033 0.04737312 -0.016364077 0.18468516 -0.024712464 0.03661816
0.063543506 -0.017772686 0.059133753 0.049624417 -0.022836966 0.0056453696 0.07279749 -0.011655595
-0.027484544 0.1412367 0.058054995 -0.05212073 -0.021601314 -0.07380869 -0.021890087 0.01156294
-0.045940433 0.028992396 0.0014736453 0.018256418 -0.021914136 -0.03883022 0.105087675 0.0060507157
-0.026969744 0.011900839 0.06109154 -0.013795722 -0.045849036 0.078309186 -0.0071556573 -0.0021791083
-0.030533463 -0.05772258 0.019782249 -0.055473153 -0.006801287 0.0601463 0.067321554 0.0419757
0.05776567 0.01053576 0.00936797 0.010327491 -0.028493272 -0.041019086 0.038833078 -0.0040473514
-0.0019493813 -0.031581994 0.05885981 -0.020353733 -0.040477622 -0.012345821 -0.0039269864 0.014141711
0.119855665 -0.010713867 0.024673408 0.009345159 -0.040229786 0.13220528 0.063931756 -0.022007063
0.009717941 0.019566583 0.0091735255 -0.009811302 0.06741939 0.014483878 0.06195147 0.042267583
-0.004811471 -0.030863797 -0.035939943 0.0035379268 -0.028510746 0.023875967 0.046910353 -0.006181836
0.039977387 -0.012826528 -0.041838832 -0.021303508 -0.0071537015 -0.0055295676 0.014847805 0.019463258
0.006986635 0.08173572 0.055165052 0.023795564 -0.0029664924 -0.020416347 0.056209985 -0.031200208

fc2.weight f4 [84, 120]
00000000: 2e3e 2dbe 425a 003e 81aa 1cbc 6c9f 263e
00000010: 59fc 4a3c e38b 00be bd6b e53b e3b4 4cbe
00000020: 1d1b a33c 66ff 52bd 524a c9bc 8408 0ebd
00000030: 279a 27bd f4d7 303d 56eb d0bd dcda 2a3c
00000040: a417 67bd e2b6 0e3e 0751 b23d 3a89 b4bd
00000050: cc0d ad3c 5cb8 7cbc d422 d8bd 623d edbd
00000060: cfa3 c1bd 80f4 5e3d f4ec 393d 816a 503e
00000070: ef0c febc 04f6 13bd e716 19be 718a f43c
00000080: 37cb 0c3e 8cb5 413c e671 c03d 6269 253d
00000090: 218f cb3d 78d8 a23d 10b8 0bbd 9ec1 e03d
000000a0: a4ea 6e3d 59c4 98bb 374d 04bd 3eb0 71bc
000000b0: 0ed7 05be 4252 2e3d 5017 1dbe 0f16 aebd
000000c0: b77b 6d3d 5b8c b23d cabc d5bd 1a67 6fbd
000000d0: 5663 743c 30b8 4d3d afff 083e cf73 c03d
000000e0: fb1f 2c3d 72d9 be3c f20b bebd 33a6 033e
000000f0: a6a4 553d 9d4e 953d 2c55 19bd f1f0 203b
00000100: 0da1 8abd 7b79 ab3a ffca 063e ec65 473d
00000110: 18d1 0c3d 334d af3d 9dd0 b23d 0959 41bd
00000120: 7e7f c2bd b555 17bd 1d44 41bc f5c1 643d
00000130: 7214 3abd 88e6 e83b 444c 37be ca2b 60be
00000140: abe5 783c 5ed0 793d 4a05 0bbd 93ea ab3d
00000150: 6e0d c53d ef0d f3bd 30e6 ef3c 2b3c ff3d
00000160: e9f3 153d 84db a3bc de92 bc3d a177 e8bc
00000170: 4165 ad3c 49dc b93d 3f07 be3d 9346 19be
00000180: 3db3 b8bd d4a3 663e db3c 363d 0536 cd3d
00000190: f1f2 86bd a237 0bbe 9c05 8f3d 7b09 f5bc
000001a0: 0507 523c 69e9 1abd b775 5b3d 56ea 8b3c
000001b0: 20d8 8abd 3ad2 b93c b37f 2fbc 20a1 3abd
000001c0: 4d31 b1bd bd0b b63c 082c d6bd 9266 c73c
000001d0: 833b 543c 95db 08bd 8fe1 85bd a27e d2bd
000001e0: 8e32 113e 2a6b 0fbe 8258 593d 75d8 813c
000001f0: 2268 eaba 8272 bd3c 9091 a0bd d40d af3d
00000200: f755 26bd d2b3 a13c 514d b1bd 7139 4d3d
00000210: 4a39 14be ef89 18be 496c 20bc b00e 7f3d
00000220: e8fd 9fbd 3183 8fbd 033b a2bd 2829 97bd
00000230: 83ac d63c 7c3b e7bc ea9b ee3c 0da9 3d3b
00000240: ec1e 983d c006 953d 9776 143c e723 ebbd
00000250: 8acf 673d 2b15 013d 6b1f fb3d bbae afbb
00000260: d82f 573d 084f 233e a9de 21bd 3fd0 5b3d
00000270: 13e5 c8bd 46b2 31bd 2004 7cbc 4a22 893c
00000280: b718 bd3d 3966 0fbe 80bd e5bd 9a66 053e
00000290: d6fa 523e cf9a 8b3d a9c1 aebc 4a4e 59bd
000002a0: 136e 30bd 6d0b 02bd 6588 633d e648 043d
000002b0: 1edd ea38 a2d8 7dbd 6158 27be 59a7 4cbe
000002c0: 071d 2fbb 9a91 d03d ec06 bcbd 6504 3ebc
000002d0: ab06 85bc d21e 173d 5046 4ebd 233d c13d
000002e0: cf78 433e 8ce3 ba3d 5b6b 453d 32d5 42bd
000002f0: 7a27 76be 34ac 2f3d bb2b b0bd f535 e1bc
00000300: 21d1 e53c 4f2e ec3d 3f0c 263e a05f b3bc
00000310: 1d4b 6bbd 8dcb c1bd 14ac 0b3e 5724 453e
00000320: 2dd3 2a3e fb83 433d 0136 893d 0357 cabc
00000330: 08eb 53bd ce12 ee3c 6f07 6bbe 68fa af3d
00000340: 4fcd 7ebd 2182 07be 972c 803d 7de8 b53d
00000350: 64cc 3d3e 7cd9 e6bd 2272 49bd 4947 b93c
00000360: 2186 213d f80d a6bd 7cf0 29bc 3749 debd
00000370: 4fae dabb 3c5e a33d e3f9 c73b 7d6a 863d
00000380: dffb 9dbc 491f 2f3d f729 de3c 70cb b53d
00000390: 781a e4bd 0dfa 9a3c 5d55 4e3d f47a c13c
000003a0: 46e1 01be b2ff d53d 01e0 98bd 19fe 9dbd
000003b0: 1ccd 663d 5d29 d63c 4825 5b3c 0d9f b0bd
000003c0: 725d 1bbe 3db4 7bbd 5c15 e23b 3555 133d
000003d0: baeb 133c fbf2 95bb a923 b83b f40f a83d
000003e0: 272a 133d 15f8 81bd 57b4 93bd 4a48 653d
000003f0: 5808 643d 7388 783d c15e 1ebd 56d4 80bc
-0.16918251 0.1253443 -0.009562136 0.16271752 0.012389266 -0.12553363 0.007001369 -0.19990878
0.01991039 -0.0515131 -0.024571571 -0.03467609 -0.040918496 0.0431747 -0.10201137 0.010428157
-0.05641903 0.13936952 0.08706861 -0.088152364 0.021124743 -0.015424814 -0.10553518 -0.115839735
-0.09455072 0.054432392 0.04539199 0.20353128 -0.031012027 -0.03612329 -0.14950143 0.02985117
0.13749395 0.011823069 0.093967244 0.040383704 0.09939409 0.079514444 -0.034111083 0.109744295
0.05832924 -0.0046620783 -0.0323002 -0.014751492 -0.13070318 0.042558916 -0.15340924 -0.08500301
0.05797931 0.08718177 -0.10436399 -0.058447935 0.014916262 0.050224483 0.13378786 0.09397089
0.042022686 0.023297045 -0.09279622 0.12856369 0.052158974 0.07290385 -0.03743474 0.0024557675
-0.06768999 0.0013082469 0.13163374 0.048681185 0.034379095 0.085596465 0.08731196 -0.04720405
-0.094969735 -0.03694697 -0.011796025 0.055849034 -0.045429654 0.0071075596 -0.17900187 -0.21891704
0.015191476 0.06098973 -0.03394059 0.08394351 0.09621702 -0.11867892 0.029284567 0.12462648
0.036609564 -0.020002134 0.092077 -0.028377356 0.021166446 0.09075219 0.09278726 -0.14968328
-0.09018562 0.22523433 0.04449163 0.10020069 -0.06589306 -0.13595441 0.06983492 -0.029911747
0.012819056 -0.037820254 0.05357906 0.017079514 -0.06779504 0.022683252 -0.010711598 -0.045563817
-0.086519815 0.022222394 -0.10457617 0.024340902 0.012953642 -0.033412535 -0.065371625 -0.102780595
0.14179441 -0.14005724 0.053062923 0.015850285 -0.0017883817 0.02312589 -0.07840264 0.085475594
-0.040609326 0.019739065 -0.08657325 0.05010361 -0.14474979 -0.14896367 -0.009791442 0.062269866
-0.07812101 -0.07007445 -0.07921412 -0.07380897 0.026205307 -0.028226607 0.02912708 0.0028939873
0.07427773 0.07276678 0.009061477 -0.11481457 0.05659441 0.031514328 0.12261852 -0.0053614057
0.05253586 0.15948117 -0.039518986 0.053665396 -0.098093174 -0.043382905 -0.015381843 0.016739983
0.092332296 -0.14003839 -0.11217785 0.1302742 0.20603499 0.06816637 -0.021332579 -0.053053178
-0.043073725 -0.031749178 0.055549998 0.032296084 0.00011199176 -0.061974175 -0.16342308 -0.19985713
-0.0026720183 0.10184021 -0.09181008 -0.011597727 -0.016238531 0.036894627 -0.050360024 0.09435489
0.19089054 0.09125432 0.048198085 -0.0475666 -0.24038497 0.042888835 -0.08602091 -0.027491549
0.028053822 0.1153227 0.16215609 -0.021896183 -0.05744468 -0.09462652 0.13639861 0.19252144
0.1668212 0.04773329 0.066997536 -0.024699694 -0.051737815 0.029061701 -0.22952054 0.08592683
-0.062207516 -0.13233234 0.06258505 0.08882234 0.18535 -0.112719506 -0.04918111 0.022617
0.039434556 -0.08108133 -0.010372277 -0.108538084 -0.0066736112 0.07976958 0.006102787 0.0656328
-0.01928514 0.042754445 0.02711962 0.08876693 -0.11137861 0.018918062 0.050374378 0.023618199
-0.12683591 0.10449161 -0.074646 -0.07714481 0.05634795 0.02614277 0.013375588 -0.086240865
-0.15172365 -0.061451185 0.006899519 0.03596993 0.00902837 -0.0045760847 0.0056194854 0.08206168
0.03592887 -0.06346146 -0.072121315 0.055977143 0.05567202 0.060677003 -0.038664583 -0.01572625

fc2.bias f4 [84]
00000000: 3bc4 f33c b0d0 c53d 00c0 ed3c 398f 6fbb
00000010: fe68 cc3d ffe5 52bd 8598 9abd a9a0 413d
00000020: 5912 9e3d d2be 243e f1f5 22bd c78a 5fbd
00000030: a9f5 56bd 770f d83c 3849 8a3c eced 8fbd
00000040: c336 d63d 09c3 30bd 84be a93c a781 0e3e
00000050: 44ee 65bd 7529 983e 5841 fabc 2abd 593e
00000060: 3d59 323e e4a3 553e 5b11 b13d b4b4 453d
00000070: ff2b b43d 43a4 6bbd 132a a93d 77a0 3bbd
00000080: 8c0b 27bd 892a 093e d39e 0b3d 1340 3dbd
00000090: db62 853e f91d 75bb bb7e dd3c b0ea 1a3d
000000a0: af5f 1cbd e681 f63c f968 9d3d 48d7 44bd
000000b0: 2511 1e3d d389 3ebd 7e62 f13c 66a2 e73d
000000c0: a5fd 72bd 15c0 223e 63fe 93bb 389b 943c
000000d0: 6fa3 54bd 6830 ee3c e726 c8bd d279 65bd
000000e0: e66c 4b3c c936 4e3e f1e8 e53d 72a3 3a3c
000000f0: 568b adbc 176f 463d 96b1 e13d f6cf bb3d
00000100: d8e7 823d 046e 713e a1c0 7f3d d274 9639
00000110: 382f b5bd 99f4 bb3d c094 373b 2c88 763c
00000120: 2437 8bbd 93e9 4b3d cd75 b4bd c227 d03d
00000130: c038 6abd b531 c33c 7f73 a83d 9865 8bbd
00000140: fce5 a43d e4a2 9fbd ff19 123e 5ff5 193b
0.029756656 0.096589446 0.029022217 -0.0036553873 0.09980963 -0.051488873 -0.07548622 0.047272358
0.07718343 0.16088417 -0.03978533 -0.054575708 -0.052480374 0.026374562 0.016880617 -0.07027802
0.10459664 -0.04315475 0.020720728 0.13916646 -0.05613543 0.2971913 -0.030548736 0.21263567
0.17416854 0.208633 0.086458884 0.048268035 0.08797454 -0.0575297 0.08259978 -0.045807328
-0.040782496 0.13395132 0.034087013 -0.046203684 0.26051983 -0.0037401898 0.027037969 0.03782147
-0.03817719 0.030091237 0.076860376 -0.04805687 0.03859057 -0.04651816 0.02946591 0.11310272
-0.059323926 0.15893586 -0.0045164092 0.01814042 -0.051913675 0.029075816 -0.09773045 -0.05602438
0.0124161 0.20138086 0.11226071 0.011391507 -0.021184605 0.048445787 0.110202 0.09170525
0.06391877 0.23577124 0.062439565 0.00028697267 -0.08846897 0.09177513 0.0028012246 0.015047114
-0.067976266 0.0497833 -0.08811531 0.10163833 -0.057183027 0.023827413 0.08225154 -0.06806487
0.080516785 -0.07794741 0.14267729 0.00234922

fc3.weight f4 [19, 84]
00000000: 5427 e4bc 9438 9b3e a5a6 6ebe bb8a c7bb
00000010: 94b5 30be 121a 04bd 77cd bebe 5e24 98be
00000020: 2168 22bd 1b1c a0bd 0892 97be 8494 373e
00000030: b546 433d df31 993e ebc9 383c 2838 9d3e
00000040: 6f68 7abe 1e96 a73d 74b7 f03d 49e8 02bd
00000050: 996f 8a3d ca5e 04be 54cd 333e 38fc 07be
00000060: 37bd a7bd bf87 79be 0d14 4dbe fb75 663e
00000070: 7d7d 0fbe 0547 bbbd d8a1 abbc 5273 243d
00000080: b36f a9bc 978f 00be fbe2 83bd 983d a73d
00000090: ed67 84be 55d9 ddbc fd02 3bbd 3891 293e
000000a0: 8170 96bd ec1e e5bd f7de 0cbe 0884 dfbd
000000b0: d318 663e 5a2a dfbd e6ae ccbe d882 623e
000000c0: c559 6ebd 36ef 10bd a198 3e3e a5a9 eb3e
000000d0: c983 67be 2ee1 24be b1ef a6bd 7ce6 1a3d
000000e0: 3cdd 033e 6cc5 a13e 21d4 d1bc 2dc4 913d
000000f0: 5ae2 cf3d 1e9d 95be c83d 45be 9ebd 3b3e
00000100: 3802 a13e 89a4 d13c d4f5 893c 8a44 e6bb
00000110: 8f11 653d bc2e 2a3e 0785 0e3a 0c7a 23bd
00000120: 4264 143c 468d eb3c 2104 2a3d 00a4 8cbe
00000130: 380c 4bbc f5a3 973e d084 b2b9 7a6b ca3d
00000140: f184 ffbd db1b 40bd 9851 9dbd ce89 3d3e
00000150: c260 f1bd 9ceb af3c 1ace 25be f90a a23d
00000160: fc64 32be 0ca0 ee3d df0c 2bbd 8b6f 163e
00000170: 4e5d d7b9 44d2 5fbe 236a 6e3e abca bd3d
00000180: 3b0f 2ebc 9d1d a13e e44e 9bbd 5c06 9ebe
00000190: ff24 c43b ca4f acbd ace6 8bbd 05e8 273e
000001a0: 9d94 40be e1e6 b2be 6ce9 8e3e 979c 09be
000001b0: bcdc e7bd 0ecd 3bbe cf2b 1b3e 1e84 eb3e
000001c0: cb68 0abe f9ce 22bd e504 ddbc d185 b83d
000001d0: e059 1a3e 558a b7bd 6517 863d 4f49 503d
000001e0: cf2b afbe 7d4d f7bc ae7d 78bd f36f 64be
000001f0: 2a21 cc3d 809a 94be d80b 0bbe fd1a cd3b
00000200: ab50 143d 1cb5 a5bd 0bb0 8e3e 7e91 c2bd
00000210: 8228 32bd 380f 40be 6c73 d03d 3985 243e
00000220: 6b3c dcbb 0eb1 283d a643 0b3c 2496 23bd
00000230: b8a1 c13d 66f5 933e 01e6 c93e d488 193d
00000240: 6c65 7ebd 9dc0 7b3e f239 5e3e 4607 fc3d
00000250: 1a35 353e 17c0 87bc 2bb9 68be ee38 4bbe
00000260: e672 2abe 3ee7 68be e37c 823e 1342 e1bb
00000270: 13fc c13a ff3e 01be 27ae a83c 060f b4bd
00000280: f0b3 49bd 6b7e 963e d1a9 edbc 4c66 3c3c
00000290: f0b0 3dbe 23b8 25be 1f9b 0fbe 24f8 3cbe
000002a0: 189e d2bd bd78 2f3e 352d d83d 82bf d8bd
000002b0: 982a 07bd d812 c53c 9e28 20be 9669 af3e
000002c0: 2338 26be d9d5 88bd d83e 903d faf1 d73d
000002d0: feba e4bd 3585 5f3d cd0d d1bd bf2f 1cbc
000002e0: 2a15 afbc 6f18 093d b868 363d 9c6b 0bbd
000002f0: bed5 34be 84d4 61be f647 26bd 6f48 81bd
00000300: a4d2 7dbd 71f7 28be 7dd2 d0bd 8763 a4bd
00000310: abb4 8dbe 4c5e aa3d 9ae8 d03e 88c2 4fbd
00000320: 72c1 3d3c ba69 4abe e2c8 dabd bbe6 8d3e
00000330: 1431 7abe 98c7 f1bd 1e3c 93bd 7c2a 09bd
00000340: b00d 983d 9b23 1cbe 6859 08be 9550 86bd
00000350: b822 363e 9168 61bd c822 ea3d 4651 1c3e
00000360: 8d08 a33d be57 733a 7c4a 6e3d 2c8b 95bb
00000370: f06a 6dbd fda5 363e ab4b 203d 5b95 02bd
00000380: 0f07 a03e 89e8 6d3e 094b 50be cbd7 e3bd
00000390: c1e9 10be f947 23be 7960 823d 4a8d d53d
000003a0: b6c6 a6bd fd0e 29be 057e 42be acb6 193e
000003b0: ed9f 8ebd 986b 3ebe 0bb0 233e f355 75bc
000003c0: 6030 c23d f3a5 983e 332c 78bd 6ed7 e5bd
000003d0: 0a09 8fbd fd16 523e 64b3 203e 407d 4cbe
000003e0: af47 63be a39d dcbb 0b4b 923d 9f0d 49be
000003f0: 403b 07be 4183 8a3e 3e57 c0bb 1b4b 20bd
-0.027850784 0.30316603 -0.23305757 -0.006089536 -0.17256767 -0.032251425 -0.37266132 -0.29715246
-0.039650086 -0.07817861 -0.296036 0.17927748 0.047674853 0.2992086 0.01127861 0.30706906
-0.24453901 0.081829295 0.11753741 -0.031959806 0.06759567 -0.12926784 0.17558795 -0.13279808
-0.08190387 -0.2436819 -0.2002718 0.22505943 -0.14012714 -0.09144405 -0.020951197 0.04014904
-0.020683145 -0.12554775 -0.064397775 0.08166045 -0.2586054 -0.027081171 -0.045657147 0.16559303
-0.07345677 -0.111875385 -0.1375693 -0.10913855 0.22470407 -0.1089675 -0.39977187 0.22120225
-0.05819108 -0.03538438 0.18612911 0.46027866 -0.22608866 -0.16101524 -0.08151186 0.037817463
0.12877363 0.31595933 -0.025613846 0.07117496 0.10150595 -0.29221433 -0.19261849 0.18334052
0.31447005 0.025591152 0.016840853 -0.0070272135 0.05592495 0.1661939 0.0005436693 -0.039911315
0.009057106 0.028753888 0.041507844 -0.27468872 -0.01239305 0.29617277 -0.0003404976 0.09883781
-0.124765284 -0.046901565 -0.076815784 0.185096 -0.11786033 0.021474652 -0.16191903 0.07912249
-0.17421335 0.1165162 -0.04176032 0.14690988 -0.00041077513 -0.21857554 0.23282675 0.092671715
-0.010623748 0.31467906 -0.075834066 -0.30864227 0.0059858556 -0.08413656 -0.068311065 0.16397102
-0.18806691 -0.34941772 0.27912462 -0.1343864 -0.113213986 -0.18339941 0.1515343 0.45999235
-0.13516538 -0.039748166 -0.026979873 0.090098985 0.15073347 -0.089619316 0.06547431 0.050851163
-0.3421311 -0.030188316 -0.060666732 -0.2230833 0.09967263 -0.29024124 -0.13578737 0.006259321
0.036209743 -0.080911845 0.27868685 -0.09500407 -0.043495663 -0.18755805 0.10178265 0.16066445
-0.0067210696 0.041184478 0.008500015 -0.039938107 0.094546735 0.28898162 0.39433292 0.037484005
-0.062108442 0.24585195 0.21701792 0.12306075 0.17696038 -0.016571088 -0.22726886 -0.19845936
-0.16645393 -0.22744462 0.25485906 -0.0068743317 0.0014799855 -0.12621687 0.020590855 -0.08791928
-0.049243867 0.29393324 -0.029011639 0.011498999 -0.18524528 -0.16183524 -0.14024018 -0.18454033
-0.1028406 0.17135902 0.105554976 -0.10583402 -0.032999605 0.024056837 -0.15640494 0.34260243
-0.16232352 -0.06681413 0.070432365 0.105442 -0.111684784 0.054570395 -0.102077104 -0.009532868
-0.021372396 0.033470567 0.04453346 -0.03403817 -0.17659661 -0.22053725 -0.04059597 -0.06312644
-0.06196846 -0.16500641 -0.101963975 -0.08026796 -0.276769 0.08318767 0.4080246 -0.05072263
0.0115817655 -0.19766894 -0.106828466 0.27715096 -0.24432784 -0.118056476 -0.07189201 -0.033487782
0.07424486 -0.15247957 -0.13315356 -0.065583386 0.17786682 -0.055031363 0.11432415 0.15265378
0.07960615 0.0009282789 0.058176503 -0.0045637097 -0.05796331 0.17836757 0.039134663 -0.031880718
0.31255385 0.23233236 -0.20341124 -0.111251436 -0.1415167 -0.15945424 0.06366057 0.104273394
-0.0814337 -0.16509624 -0.18993385 0.1501109 -0.06964097 -0.18595731 0.15985124 -0.014974105
0.09481883 0.2981411 -0.060589027 -0.112227306 -0.06984146 0.20516582 0.15693432 -0.19969654
-0.22195314 -0.006732659 0.071432196 -0.19634102 -0.13206196 0.27053264 -0.005869775 -0.039134126

fc3.bias f4 [19]
00000000: bee8 9cbe 23c8 dabd 202e 343d 985e 0c3c
00000010: 6346 71be e925 1a3e e722 a6be a02b 383d
00000020: 5bc3 8fbe eff3 a3bd 5337 a23e 8c04 8dbd
00000030: 7bc8 853e a813 fcbc 2ff3 963d e10b 4a3e
00000040: f6d8 463c a308 573e e223 a5bd
-0.30646318 -0.10682704 0.0439893 0.008567475 -0.23562007 0.15053524 -0.32448503 0.04496348
-0.28078732 -0.08005511 0.31682834 -0.06885633 0.26129517 -0.030771092 0.07370602 0.19731094
0.012136688 0.20999388 -0.08063485
