python/CNN13.pth (torch_old, 252622 bytes, 10 tensors)

conv1.weight f4 [6, 3, 5, 5]
000000 e4 aa dc 3e 72 5a 0c 3f 5b aa 16 3f 13 1f e9 3e
       0.4309913 0.5482551 0.5885369 0.4553152
000010 71 70 13 3f 1d b2 81 3c 10 62 6f 3d c2 76 65 3d
       0.57593447 0.015832001 0.05844313 0.05602146
000020 f9 ac 8e 3e 75 59 6f 3e 41 3c ed 3b fb 8f 5b be
       0.27866343 0.23373969 0.007239849 -0.21441643
000030 1a 59 51 be 46 64 57 be 57 ca 1d be 9f d4 03 3e
       -0.20444146 -0.21034345 -0.15409218 0.12874077
000040 1b 5c 02 3e c6 a8 cc bb 5e e6 b7 3c 25 b6 33 bd
       0.12730448 -0.0062457053 0.022448715 -0.04387488
000050 6e 25 a9 3e 35 b7 0b 3f 8e 01 9d 3e 28 82 48 3e
       0.3303637 0.54576427 0.3066525 0.195809
000060 78 90 ee bd 64 36 6b bd 65 92 c0 3d c8 6f 71 3e
       -0.11648649 -0.057424918 0.094029225 0.23577797
000070 0f 72 a3 3e 94 7b b0 3e 7d 7e 5d be d1 c5 8a be
       0.31922957 0.34469283 -0.21630283 -0.27104047
000080 13 0e 33 be ac 54 d0 3c 95 46 fe bc 09 24 99 be
       -0.17485838 0.025431 -0.031039516 -0.29910305
000090 96 13 13 bf 89 ff f2 be 4c d2 13 bf be 51 9a be
       -0.5745176 -0.47460583 -0.5774276 -0.3014049
0000a0 a5 0f 14 be 2c 93 6d bd 8b f0 71 be 0b c0 c0 be
       -0.14459093 -0.058001682 -0.23626916 -0.37646517
0000b0 23 67 93 be 01 ef 3a 3e 9a 43 92 3e 33 3d 56 3e
       -0.28789625 0.18255235 0.285672 0.20921783
0000c0 d7 3f 45 be 96 a3 a0 be cd 3a d6 3b 18 08 06 3d
       -0.19262634 -0.31374806 0.0065377713 0.032722563
0000d0 7b 9f a6 3e 6e 92 9d 3e a9 25 7f 3e 40 21 1c be
       0.3254355 0.3077578 0.2491671 -0.15247059
0000e0 45 d7 5b be 51 b8 25 be a1 1e 9c 3d 12 2f 03 3e
       -0.21468838 -0.16183592 0.076230295 0.12810925
0000f0 7c 8d 82 be 94 13 07 bf 13 be 1b bf 21 b0 eb be
       -0.2549857 -0.5276425 -0.60836905 -0.46032813
000100 05 c3 b9 be 7c 40 87 bb 86 4f fb bd a6 4e 6e be
       -0.362816 -0.00412756 -0.12271027 -0.2327219
000110 fc bc 9b be a6 04 82 be 90 79 e5 3e 72 91 9a 3e
       -0.3041762 -0.2539417 0.44819307 0.3018909
000120 72 c7 b9 3d 11 27 58 bd f1 6c 80 be 71 6a 20 bd
       0.09071244 -0.05277163 -0.25083116 -0.03916401
000130 5f 2a 84 3c 00 d6 23 bd fd bc 26 3c 7d 80 c3 3c
       0.016133485 -0.03999901 0.010176894 0.023864979
000140 81 79 15 3e 42 c0 33 3e 7d 17 1f 3e 6b 5f 59 3e
       0.14597131 0.1755381 0.15536304 0.21227805
000150 27 fa 3c 3e 5b 5c d1 bd 6a f0 3b 3e b9 2f 25 3e
       0.184548 -0.102226935 0.1835343 0.16131486
000160 77 c9 75 3e 65 ad a1 3e 30 b3 52 be b1 fa 17 be
       0.24002634 0.31577602 -0.20576167 -0.14841725
000170 ec c6 96 bd 17 e5 2c 3c 33 0f 11 3e 6b 3f ac bd
       -0.0736216 0.010552666 0.14165954 -0.084105335
000180 d2 6e c2 bd e2 1b ab be a8 ef 28 be ae cb 26 be
       -0.094937935 -0.3341971 -0.16497672 -0.16288635
000190 f4 40 f4 bb 74 b3 55 bd 15 23 31 bc ad 98 0a bd
       -0.007454032 -0.052173093 -0.010811587 -0.03383701
0001a0 3f 61 e6 bc 26 83 8d 3d c9 9c 8e 3e fa b3 7d 3e
       -0.028122542 0.0690978 0.27853993 0.24775687
0001b0 7b bd 8e 3e 1d be 1a 3e 97 30 ec 3d 4a 61 22 3e
       0.27878937 0.15111585 0.11532705 0.15857425
0001c0 92 e9 7f 3e 63 27 ba 3e f9 01 bd 3e 1b ba 1f be
       0.24991444 0.36358175 0.36915568 -0.15598337
0001d0 ff 8e 20 be c7 32 57 be ff 47 09 bd ff e8 30 3d
       -0.15679549 -0.21015464 -0.033515926 0.043190952
0001e0 46 1c 0c 3a 2c 78 99 bd f1 df 12 be 6e f8 ca bd
       0.0005344789 -0.07493624 -0.1434324 -0.099106655
0001f0 30 13 c9 bd 68 b5 0c be 1f a7 e5 bc c8 aa 17 be
       -0.09818113 -0.13741076 -0.028033791 -0.14811242
000200 8a a9 2b 3c 92 85 8a bd c7 33 15 be 5f 39 26 3c
       0.010477433 -0.06763758 -0.14570533 0.010145514
000210 08 0d 23 3e 7b 81 bd bc 04 60 d3 3c 80 38 24 be
       0.1592294 -0.02313303 0.02580262 -0.16037178
000220 2f a9 2d 3c a7 f9 f3 ba 78 ee 57 3e 8e dd 61 3e
       0.010599419 -0.0018613831 0.21087062 0.22057173
000230 b1 74 5d be a6 4d 8d be 83 20 ab be 74 c8 52 be
       -0.21626545 -0.27598304 -0.33423242 -0.2058428
000240 54 d0 1c 3c d6 74 f4 bd 1f 7f aa be 85 b3 a3 be
       0.009571154 -0.11936347 -0.3330011 -0.319729
000250 91 c8 cb be 16 c4 5b be c7 b6 50 3e df e8 7b 3e
       -0.39801458 -0.2146152 0.20382224 0.24600552
000260 7a d7 aa 3d 08 25 b3 bd 56 e4 9a bd 7e 92 63 3e
       0.0834188 -0.087472975 -0.07563083 0.22223851
000270 be 7e 92 3d 27 85 6a be fd 09 9f be e6 f2 96 be
       0.071530804 -0.22902356 -0.31062308 -0.29482192
000280 19 87 ad 3e f9 e5 11 bd a3 04 b2 be 69 d0 fb be
       0.33892134 -0.03561971 -0.34769163 -0.49182442
000290 fe f4 99 be 50 f3 c3 3e 86 52 4c 3e ab ea cb be
       -0.30069727 0.3827157 0.19953355 -0.39827475
0002a0 e6 26 e3 be 48 e3 1b be fe 33 34 3f 74 46 ae 3e
       -0.44365615 -0.1522342 0.70391834 0.34038126
0002b0 0f a7 dc bc b9 0b 89 be bb 1b aa bd 55 a4 9a 3b
       -0.026935128 -0.26766756 -0.083060704 0.004719297
0002c0 4e 19 4a 3e ca 28 0a be 84 8f a2 be 23 b4 1f be
       0.19736215 -0.13492122 -0.3175012 -0.1559606
0002d0 26 b6 1c bd d9 57 eb 3c 48 cf af be 4c 21 bd be
       -0.038259648 0.028728412 -0.3433783 -0.36939466
0002e0 fb a2 cb be 05 60 ff bd 9b 05 54 3c e1 2c ba be
       -0.39772782 -0.12469486 0.01294079 -0.36362365
0002f0 b9 bc ad be fa eb bf be af 33 4c 3e e2 ad a6 3c
       -0.33933046 -0.37484723 0.1994159 0.020346586
000300 ac 8f 8e be 1e 26 03 bf 0c e9 3c be 1c dc 51 3e
       -0.27843988 -0.5123004 -0.18448275 0.20494121
000310 5b 82 a8 3d 29 84 70 be ae 48 de be a9 c1 f6 bd
       0.08227988 -0.23487915 -0.43414825 -0.120486565
000320 3c 00 82 3e ee 7f d8 3e b0 13 b3 3e e7 d8 41 3d
       0.25390804 0.42285103 0.34975958 0.047325995
000330 af 58 10 3e d2 72 9a 3d a7 35 43 3e 07 92 0c 3e
       0.1409633 0.075414315 0.19063435 0.1372758
000340 96 0b 34 3b 51 43 d6 3d 5c ad d0 3d 6c 2b 85 3e
       0.0027472726 0.10462058 0.10189316 0.2600969
000350 74 f2 58 bc bf 44 d7 bd 0c 33 42 3e 5c 54 97 3e
       -0.013241399 -0.10511159 0.18964785 0.2955655
000360 4c d4 6e 3e 62 1b a8 bd e9 b0 5e 3d 36 ea ab 3e
       0.23323172 -0.08208348 0.054367933 0.33577126
000370 30 76 04 3f a6 3a a6 3e b7 df 6d 3d 7d 4a e2 3c
       0.5174284 0.3246662 0.05807468 0.02762341
000380 8c 88 73 3e 86 6e 3e 3d 17 39 cf 3d 8f 74 88 bd
       0.23782557 0.046492122 0.10118311 -0.06662857
000390 36 0e 26 3e 9d bf 64 3e 51 6c d1 3b 16 c4 8a 3d
       0.16216359 0.2233872 0.006391086 0.06775682
0003a0 89 84 13 3e 42 c1 a3 3c ad a3 88 3e d4 1f da bd
       0.14406027 0.019989613 0.26687375 -0.10650602
0003b0 e3 e5 8b bc a6 d3 df bd 6a 48 7f bd 8c 0f 99 3c
       -0.017077392 -0.109290406 -0.06232492 0.018684171
0003c0 74 59 2c be f5 04 ad bd 98 b2 68 bc 35 38 d1 3d
       -0.16830999 -0.08448211 -0.014202736 0.10215799
0003d0 98 15 f0 3d 19 20 58 be 88 90 75 bd 7f 0c c3 bd
       0.11722869 -0.21105994 -0.05995229 -0.09523868
0003e0 af 05 f1 bc e7 06 12 3e b8 3a 8e be bd 08 9a be
       -0.029421655 0.14260446 -0.27779174 -0.30084792
0003f0 d2 90 84 be bb 06 60 be c5 f8 3b 3c 8e ed d5 bd
       -0.2589174 -0.21877567 0.0114728855 -0.104457006

conv1.bias f4 [6]
000000 3b fb 9c 3e 96 e1 d5 3c 19 a1 ba 3e 38 fc f2 be
       0.30660424 0.026108544 0.36451033 -0.47458053
000010 f3 e9 46 be 78 82 af 3d
       -0.19425182 0.08569807

conv2.weight f4 [16, 6, 5, 5]
000000 ed 0d df bd a2 e0 88 bd 21 6d 42 3d e7 de 34 3e
       -0.10891328 -0.0668347 0.047467355 0.17663155
000010 97 72 49 3e 8b 9e 0a be 4a 63 d3 bc 88 23 37 3e
       0.19672619 -0.13537042 -0.02580418 0.17884648
000020 6c d7 a9 3d 7e 13 39 bb a6 1d 72 bd 42 49 6f bd
       0.082930416 -0.0028240378 -0.059110306 -0.058419473
000030 60 c8 3b 3e 26 ca 8b 3e d0 7e cd 3c 98 0a e7 bd
       0.18338156 0.27302665 0.025084883 -0.112813175
000040 ab e8 ed bd c1 ca 09 be a4 af c4 bd 26 b4 a2 bd
       -0.116166435 -0.1345625 -0.09603813 -0.07944517
000050 4a 1a 04 be 1b b6 a0 3d d3 76 b6 3d 90 d1 b0 bd
       -0.12900653 0.07847234 0.08909383 -0.08633721
000060 fc c1 4f be 3f 86 ef bd 81 1d d6 3c 0b e3 d9 3d
       -0.20288843 -0.11695527 0.026137115 0.10639008
000070 bf 1b 29 bd 5d 4b 3f 3d 55 97 f2 bc 54 92 a1 bc
       -0.041286226 0.04670273 -0.029613176 -0.019723095
000080 bd ce 49 3e f8 d7 e5 3d 08 e1 1a 3e 23 ca 0d 3e
       0.1970777 0.112228334 0.15124905 0.1384664
000090 72 75 06 3d 18 ae b9 3d 45 2b 10 3b 63 3e 06 bd
       0.03282685 0.09066409 0.0021998447 -0.03277434
0000a0 3e ad 04 3e 34 2f 3a 3e b2 ee 1d 3e ea cc 23 3d
       0.12956712 0.18182069 0.15423086 0.039990343
0000b0 67 75 b0 bd 5c 5f ce 3d c6 f0 6c bd 49 36 b0 bc
       -0.08616143 0.10076782 -0.057846807 -0.02151026
0000c0 6c c2 db bc 8e 66 dc bd c1 69 bf 3e 4d a2 53 3e
       -0.026826106 -0.10761748 0.3738537 0.20667382
0000d0 d2 0f 19 3e 49 60 b4 3b a3 92 89 bc 26 15 42 3e
       0.14947441 0.005504642 -0.016793555 0.1895338
0000e0 c8 fd 07 3e 5c 91 81 3d 97 f6 21 be 64 52 08 be
       0.13280404 0.06326553 -0.15816723 -0.1331268
0000f0 97 d9 00 3d ac 6f 2e 3d 96 4a f4 bd 45 5f 0d be
       0.03145751 0.042586967 -0.11928289 -0.13805874
000100 53 de 3a be 89 10 ff bc 12 e8 82 be fb c8 97 be
       -0.18248872 -0.031135814 -0.2556768 -0.29645523
000110 2a fd 8c be a8 f9 6c be fb 8c 2e be 45 6f 7c be
       -0.275369 -0.23142111 -0.17045967 -0.24651821
000120 a1 10 3e be e5 b5 2d be db 9b 56 bd ec 7f 96 3e
       -0.18561031 -0.16963919 -0.05239473 0.29394472
000130 5c 3c 9b 3e c1 55 33 3e 64 00 c4 3d aa af 17 3e
       0.30319488 0.17513181 0.09570387 0.14813104
000140 6a f1 83 3e cd 78 a7 3e e1 9a 72 3e 5b 28 f2 3d
       0.25770122 0.3270935 0.23691894 0.118241034
000150 72 3e 5f 3c e4 70 92 3d ca e9 90 bd 4a 12 96 3d
       0.013625728 0.071504384 -0.07075842 0.07327707
000160 0a fd 07 be 64 9c bb bc 3d 3a cf bc d0 6a 06 be
       -0.1328012 -0.022901721 -0.025296325 -0.13126683
000170 ff 46 dc bc 64 f4 a6 bd 82 97 96 bd 7b c1 8e 3d
       -0.026889322 -0.081520826 -0.073531166 0.06970497
000180 69 4b 57 be 0c 23 24 be 62 5b 22 be fa 35 24 be
       -0.2102486 -0.16028994 -0.15855172 -0.16036215
000190 59 a6 20 3e e7 5b 4f 3e 64 8d b5 3d 42 80 b6 3d
       0.15688457 0.20249902 0.08864859 0.08911182
0001a0 49 96 20 3e 14 9d 8e 3e 9a 14 4d 3e 28 db 20 3d
       0.15682329 0.27854216 0.2002739 0.039271504
0001b0 11 d5 96 bd 9f 99 91 bd 1a 83 92 3d 81 4f d7 bd
       -0.07364858 -0.07109379 0.07153912 -0.10513211
0001c0 7f e3 8f bd ff c2 15 be c0 3d 46 be 7e 7c 95 bd
       -0.07025813 -0.14625166 -0.19359493 -0.072991356
0001d0 b1 51 2b be 91 f6 50 be 87 f4 21 be 6c 3f 2e be
       -0.16730382 -0.20406558 -0.15815936 -0.17016381
0001e0 17 d7 6b bd 35 8a 9d bd a7 05 9a bd e7 44 c9 bd
       -0.057578173 -0.076923765 -0.07520609 -0.09827595
0001f0 3e 12 e1 bd 5e d4 8e bd 88 5e ff 3d 9d f1 1f 3d
       -0.109898075 -0.069740996 0.12469202 0.03904878
000200 78 67 a8 bc 9b 72 ec 3d e2 71 2d 3e e9 40 31 3e
       -0.02055715 0.11545297 0.16937974 0.17309918
000210 f4 9b c9 3d 42 fa 69 3d 94 c8 c0 3a 80 cb 84 3d
       0.09844199 0.05712343 0.0014708214 0.06484127
000220 80 83 e1 3d b0 cd 67 3e 71 2a a0 3b bd 79 6d bd
       0.1101141 0.22637057 0.004887872 -0.057977427
000230 b3 fd d0 3d 37 59 f1 bc 58 15 0c ba 84 03 93 bd
       0.10204639 -0.029461486 -0.00053437566 -0.07178405
000240 ac 31 44 be 31 1d 09 3e 10 62 78 3d 9f e4 c2 bd
       -0.19159573 0.13390042 0.060640395 -0.09516262
000250 51 7f 19 be 5c d5 15 bd 67 44 29 be fe 57 b3 bd
       -0.14989974 -0.03658043 -0.1653 -0.087570176
000260 60 5c 87 3d b2 05 01 3e 0c ea a2 3e d7 e1 08 bd
       0.06609416 0.12599829 0.3181919 -0.033418503
000270 5f ca 58 bd c1 9f 41 be 04 a5 de bc 85 44 8f bd
       -0.05292737 -0.18908598 -0.027178295 -0.06995491
000280 5f bb 58 3e a5 97 0b 3e 15 42 b7 bd e3 8b 67 bc
       0.21165226 0.13632067 -0.08948151 -0.014132473
000290 8c 32 98 bd 4b 0e 0b bd 0d 67 ee 3d 07 41 78 3c
       -0.07431516 -0.033949178 0.11640749 0.0151522225
0002a0 f2 34 96 3c 09 c9 0e bd e6 af b2 bc 43 67 55 be
       0.018335793 -0.03485969 -0.02181239 -0.20840172
0002b0 f0 3c 41 be c9 9c 1c be 51 6f 1e be 23 1a 95 bd
       -0.18870902 -0.15294184 -0.15472151 -0.07280376
0002c0 26 ae fd bd 7f 1a fb bd be 0a d3 bd be 58 73 3d
       -0.12386732 -0.12260913 -0.10304783 0.059410803
0002d0 07 68 c7 3d 08 94 dc 3d c6 1a b5 bd 7e 84 47 bd
       0.097366385 0.10770422 -0.08842997 -0.04871034
0002e0 5d 8d e7 3d ab ce 80 3d 96 6b 22 bd c6 81 a8 3d
       0.1130626 0.06289419 -0.039653383 0.08227877
0002f0 84 be 41 bc a1 32 8e 3d ca 26 14 be a9 07 06 be
       -0.011825208 0.069432504 -0.14467922 -0.1308886
000300 a9 14 90 bd 1d 97 ee bd dd c1 8e 3c ef a5 e0 bb
       -0.070351906 -0.11649916 0.017426426 -0.0068557183
000310 71 2d 29 be 4f fb 03 be 55 bc 29 be ce e8 9d 3d
       -0.16521241 -0.12888835 -0.16575749 0.077104196
000320 e9 83 3c bd 3b a2 94 be 42 2d 49 bd 1b c3 22 3e
       -0.046024237 -0.29030022 -0.049115427 0.1589474
000330 3b 26 27 be 85 ac 41 be ef 17 39 be 3b 4e ce bc
       -0.16323178 -0.18913467 -0.18075536 -0.025183788
000340 4b 9f 20 bd 2f 67 17 be 63 2b 9e bc 47 b3 4c 3e
       -0.039214414 -0.14785455 -0.019307798 0.19990264
000350 1c 22 fb 3c b3 c9 81 bd 5f d7 3e be fb 2e 3e bc
       0.030655913 -0.06337299 -0.18636845 -0.011607881
000360 c0 18 b3 3e da 5e 11 3e d7 3e b7 3e 41 12 b6 bd
       0.3497982 0.14196339 0.3579013 -0.088902004
000370 a1 8a f0 3c a0 9e 62 3e 05 8c 39 3e 89 6f c0 3e
       0.029362978 0.22130823 0.1811982 0.37585095
000380 43 e0 d8 bd 69 1a 66 be 05 0c 6a be 13 97 93 be
       -0.105896495 -0.22471012 -0.22856148 -0.28826198
000390 ac 11 e7 bd 5c 15 7c bd 1f c6 27 bd 1f 31 08 bd
       -0.112826675 -0.061543807 -0.040960427 -0.03324997
0003a0 3e b3 f2 3b ec 2c bf 3c 61 5f 8b 3c 0e e0 18 be
       0.0074066212 0.02333685 0.017013254 -0.1492922
0003b0 bc 6f 6c 3c 20 df fc 3d 6e 9d 09 3e 86 47 bf 3d
       0.014430936 0.12347245 0.13438961 0.09339814
0003c0 54 8a bd bc 30 7a e5 3c 1b 6d 5f 3e 55 d3 5b 3e
       -0.023137249 0.028012365 0.21818964 0.21467336
0003d0 62 5d 5f 3e 87 9a 17 3e bc 88 20 3e ce 6b 93 3d
       0.21812966 0.14805041 0.1567716 0.071982965
0003e0 da 7f 16 3e 27 11 4e 3e 1d fb 29 be be 14 8e be
       0.14697209 0.2012373 -0.16599698 -0.277502
0003f0 b1 73 91 be 1e 0d 07 be 02 65 a9 bd d6 36 c7 bd
       -0.28408578 -0.13188598 -0.08271219 -0.09727256

conv2.bias f4 [16]
000000 2a 0d d5 3c 69 a2 f8 bc 11 b9 cc 3d 08 af 68 bc
       0.026007254 -0.03035088 0.09996236 -0.014201887
000010 82 9d b8 bc aa e3 1f 3e 11 4d 08 bd d9 7d c8 3d
       -0.022536043 0.1561419 -0.03327662 0.097896285
000020 c7 29 87 bd 6b 46 a1 3c 3c b8 81 3d 91 a5 1e bd
       -0.06599765 0.019686898 0.06333968 -0.038732115
000030 01 0b 08 bd ae 7d 08 bd e2 38 00 3d 0f 00 d3 bd
       -0.03321362 -0.033322982 0.031304248 -0.103027456

fc1.weight f4 [120, 400]
000000 55 57 a0 bd e0 b3 7a bc 7a 1d 3b 3c f9 51 d0 bd
       -0.07829157 -0.015301675 0.011420602 -0.10171885
000010 dc 90 94 bd 30 2b 69 bd 88 ca 3d 3c f5 eb 91 bb
       -0.07254192 -0.056925952 0.011583932 -0.004453177
000020 0e 29 55 bd d3 d0 3e bd 1f 3d fd bc bc 93 e7 3c
       -0.052041106 -0.04658587 -0.030912934 0.028268687
000030 93 81 57 3d 61 e4 8e 3c a4 34 92 bd 77 a1 6c bd
       0.052613806 0.017442884 -0.07138947 -0.057771172
000040 6c 95 83 3a 8d cb a3 bc fa 0e 80 3a b2 7d 34 3c
       0.0010039038 -0.019994522 0.0009770088 0.011016296
000050 49 53 82 bd 78 1d e0 ba dd 2a 9a bc b3 1f 2d ba
       -0.06363542 -0.0017098626 -0.018819267 -0.000660415
000060 1f 96 89 bd 28 8f 05 3d f0 da 6b bc d5 a5 03 bd
       -0.067180865 0.032607228 -0.0143954605 -0.03214057
000070 ca ff 4f bc 93 6c 7a bc 9c c8 be 3c 5c a5 55 3c
       -0.012695262 -0.015284675 0.023289017 0.013039913
000080 4f e2 41 3c 46 b3 4a 3c 80 d5 bc bc 8f 38 36 bd
       0.011833741 0.012371844 -0.023051023 -0.044487532
000090 dd 5c 8b bd 96 70 5e bd b1 6b 90 bc 02 0b 12 bd
       -0.06804822 -0.05430659 -0.017629476 -0.03565503
0000a0 2a 88 a9 3d 6f 1f 95 3d d6 f9 22 3d a2 41 3f 3d
       0.08277924 0.07281386 0.039789043 0.04669345
0000b0 68 f9 3e 3c 7e 0b 21 bc f6 45 93 3d f8 2f c9 3b
       0.011656143 -0.0098294 0.07191078 0.0061397515
0000c0 e4 27 18 3e 8d 77 48 3d 1f 2e a0 bd 8e a7 00 bd
       0.14858967 0.048942138 -0.07821297 -0.031409793
0000d0 62 cb 65 bd 8f 65 87 bd b3 c6 3a bc f7 fc 9c bc
       -0.056102164 -0.06611168 -0.011399913 -0.019163592
0000e0 88 9c 03 be fa 35 78 bd c2 7e b4 bd 56 f8 d4 bd
       -0.1285268 -0.06059835 -0.0881324 -0.10398929
0000f0 ea e7 89 bd 36 16 9f bc d1 9f ee bc 08 09 8c bd
       -0.06733687 -0.01941977 -0.02912894 -0.0683766
000100 4c 64 95 bd ed ec a4 3c 3d 99 8f bd db 42 a1 bd
       -0.07294521 0.020132506 -0.0701165 -0.0787408
000110 aa 1d d0 bd 0d 4e 71 bd 32 8f c5 bd ab fa cc bd
       -0.10161908 -0.058912326 -0.09646453 -0.100087486
000120 78 43 0e 3c f5 20 1b 3b d7 50 a8 bd 17 12 4d bb
       0.008683078 0.0023670767 -0.08218544 -0.00312913
000130 f9 a1 93 3c 0c bf 3d 3a 38 ea 35 bc 1b 40 78 bc
       0.01802157 0.0007238246 -0.011103205 -0.015152003
000140 1a 51 31 bc 14 30 b7 bb 86 72 da 3c 9b bb 2c bd
       -0.010822559 -0.005590448 0.026665937 -0.042171102
000150 a4 72 f0 3c 60 05 27 3d a5 ec f2 3c 52 33 2f bd
       0.02935154 0.04077661 0.029653857 -0.042773552
000160 14 d0 65 3c 0f 64 87 bc 75 6b 30 3d e5 59 21 3d
       0.0140266605 -0.016527204 0.04307123 0.03939237
000170 13 92 3d 3b de 56 a3 bc 85 1e 09 3d 04 a3 3e 3a
       0.0028926178 -0.019938882 0.03347637 0.0007272216
000180 81 5a 06 3d 1c f1 5b 3c 55 f9 41 bd c0 07 12 3d
       0.032801155 0.013424184 -0.047356922 0.035651922
000190 63 3a 00 bd 09 c3 45 bd 17 df ff 3c f4 13 33 3d
       -0.031305682 -0.048281703 0.031234307 0.0437202
0001a0 2c 17 0c bd 6b 9e 3a ba 15 33 8d 3c dc a7 d0 bb
       -0.034201786 -0.0007118943 0.017236272 -0.0063676666
0001b0 53 c9 fd 3c ed a6 67 3c 31 e0 42 3d 99 c5 3c 3d
       0.030979788 0.014138919 0.047577087 0.04608688
0001c0 fc a8 69 bc b0 0b cb bc 1e 87 77 3c ec a5 38 bd
       -0.01426148 -0.024785846 0.015107898 -0.04508011
0001d0 7d 10 8b 3c d0 1b ad 3c e6 ab f1 3c 93 96 60 3c
       0.016975636 0.021131426 0.029500913 0.013707775
0001e0 11 6f 16 3d 64 b4 58 3c f6 e9 49 3d 03 2b 8e bd
       0.036727015 0.013226602 0.04929539 -0.069417976
0001f0 41 16 45 3d e5 f0 99 3d 9c 44 67 ba 3c 85 74 b9
       0.048116926 0.0751665 -0.0008822174 -0.00023319287
000200 04 d0 3c 3d c9 9b 5f bc 1f 15 44 3c e1 41 b0 bc
       0.046096817 -0.013647982 0.011967926 -0.021515789
000210 1a be b5 38 f1 f2 7a bc 6e 4a 5f 3b f2 76 ca 3c
       8.666162e-05 -0.015316711 0.0034071463 0.02471492
000220 b9 61 f1 3c 4d 4b 3d bd f9 0d 2f bd 7b 51 5d 3d
       0.029465543 -0.04621439 -0.042737935 0.054032784
000230 fd 86 a5 3d 8c 77 c8 3c 4f e0 1c bd b4 e3 d4 bc
       0.080823876 0.024471067 -0.038299855 -0.025987484
000240 6a 37 25 3b cd d8 04 3e d8 99 d7 bc 58 58 15 3c
       0.0025210031 0.12973328 -0.026318476 0.009115301
000250 72 c8 cc 3d 7d fc 11 3e dd c9 09 3d f6 a5 27 bd
       0.099991694 0.14256473 0.033639777 -0.040929757
000260 be fc 19 3d 23 1b c0 3c ee 6f 37 3c c1 e2 5c 3d
       0.03759455 0.02345044 0.01119612 0.053927187
000270 79 55 d1 3c bb 87 c3 3b df d6 58 bc 47 95 fd bb
       0.025553452 0.005967108 -0.013234823 -0.0077387425
000280 88 21 13 3d 11 9e 97 bb ef 01 85 bc ec c2 60 3d
       0.03592065 -0.0046269973 -0.016236274 0.054873392
000290 c1 c9 2c bd 6c 01 06 bc b2 24 de 3b 1b 37 7a 3d
       -0.042184595 -0.00817905 0.0067792768 0.06108771
0002a0 d3 77 86 bc 05 56 8d bd 9f 4e 5d 3c 67 62 02 3d
       -0.016414559 -0.069011725 0.013507514 0.031832125
0002b0 a1 92 18 bc 06 64 08 3c 3e 84 21 bd 10 53 f3 b9
       -0.009312303 0.008324629 -0.039432757 -0.00046410458
0002c0 04 b3 cd 3c 09 61 9a 3c d7 4a de bc d7 9d 5a ba
       0.025109775 0.018845098 -0.027135296 -0.000833956
0002d0 df 91 87 3a 07 ac 45 bd fe 7a e9 3d d3 56 b2 3c
       0.0010343156 -0.04825976 0.11400412 0.021769917
0002e0 62 70 4d bd 77 01 18 bc 2f 94 d3 ba af 0f 6e bc
       -0.050156005 -0.009277693 -0.0016142185 -0.014530106
0002f0 f8 da 20 b9 85 04 3a 3d 7d ae df 3b bf 83 cd 3c
       -0.00015340361 0.045414466 0.0068262205 0.025087235
000300 23 b2 9a 3c f8 ad eb bc 16 a1 59 3d 01 d1 fb bc
       0.01888377 -0.028769478 0.05313214 -0.03073931
000310 82 02 ff bc 32 15 77 3d 03 cf 0b 3d 5c 1f 89 3d
       -0.031129126 0.060322948 0.03413297 0.066954345
000320 7c a1 0f bd ad 28 13 bd 9d 7d 0c bc 35 19 5e bb
       -0.035066113 -0.035927463 -0.00857487 -0.0033889536
000330 46 cd e5 3c 57 e5 93 bd e1 fb 6c bd b4 2b 86 bd
       0.028051984 -0.072214775 -0.057857398 -0.065513045
000340 cf e5 ce 3c 02 df 88 3d bf f6 71 bd be 8e 18 bc
       0.025256066 0.0668316 -0.059073206 -0.009311376
000350 26 bf a5 3c 5a 7f b2 bc 67 bb 54 3a d1 3e 18 3d
       0.020232748 -0.021789242 0.00081150833 0.03716928
000360 b4 c1 55 bd ed b5 5c 3c af 10 87 3d b1 e6 95 3d
       -0.052186683 0.013471109 0.06594979 0.073193915
000370 0b 3a 50 bb 24 97 82 bd 73 58 04 bc 8b f0 4d 3d
       -0.0031772878 -0.06376484 -0.008077729 0.050278228
000380 8d b2 27 3c 03 d4 b2 3d f5 48 41 3d 4c f6 5d bd
       0.010235441 0.08731844 0.047188718 -0.054189965
000390 48 75 b2 bc af 4c 10 3d 54 60 bf 3d 84 41 31 bc
       -0.02178444 0.03522938 0.09344545 -0.010818843
0003a0 44 75 b8 bd 51 a8 54 3d 34 21 2d 3c ea 78 6a 3c
       -0.09006742 0.05191833 0.010566998 0.014311055
0003b0 9b 4b 2b bd a0 bb 9f bd ce 69 05 bc c1 35 19 3c
       -0.04182015 -0.077994585 -0.008142902 0.009351195
0003c0 6c 9f 9c 3d 78 2a c0 3d 56 59 ef bc 51 41 9e bc
       0.07647595 0.093831 -0.029217403 -0.019318255
0003d0 bb bc 80 3b 98 0a 7b 3d b4 64 aa 3d 06 49 b5 bd
       0.0039287484 0.0612894 0.08319989 -0.08851819
0003e0 0a f3 32 bd 10 70 c3 3d 97 68 16 3d 3c e1 07 bd
       -0.04368881 0.095428586 0.03672084 -0.033173785
0003f0 15 86 73 3c 83 71 48 bd 69 c0 8b 3b 40 3a 22 bd
       0.014863511 -0.04893638 0.0042648804 -0.039606333

fc1.bias f4 [120]
000000 d4 31 78 3d d5 8f 19 3b da 0e ee 3c de d4 8d 3d
       0.060594395 0.0023431678 0.029059816 0.06925367
000010 92 66 74 3c f6 9c ab 3d 92 fa 83 bc 94 7c a0 3d
       0.014917033 0.08379547 -0.016110692 0.078362614
000020 c6 fd 2a bd 17 09 e4 bc 02 60 9f bc cb f0 66 bc
       -0.041745923 -0.027836366 -0.01945496 -0.014095495
000030 99 cd c2 3d 0e f4 59 bb 24 7a 6c bd e1 af 3c 3c
       0.09511871 -0.003325704 -0.05773367 0.011516542
000040 e8 91 3c 3d b3 07 c6 3d 5e 6a 82 bd da c1 40 3d
       0.046037585 0.09669437 -0.06367944 0.04705987
000050 02 f0 81 bc 8b 4f 3c 3e 82 85 ca bc 5b b1 14 3d
       -0.015861515 0.18389718 -0.024721865 0.03630195
000060 8c 58 80 3d 13 dd 96 bc 6b c2 72 3d 03 e3 47 3d
       0.06266889 -0.018415963 0.059267443 0.04880048
000070 ea dc c1 bc 42 6f a0 3b 08 ca 91 3d 35 28 4a bc
       -0.02366491 0.0048960755 0.071186125 -0.012338688
000080 44 85 de bc 33 d9 0e 3e e1 5c 62 3d 9f 5a 56 bd
       -0.027163155 0.13950042 0.055264357 -0.052332517
000090 bf b7 ab bc 6c 86 97 bd 86 0f c4 bc f0 89 31 3c
       -0.02096164 -0.07398686 -0.023933183 0.0108361095
0000a0 05 26 3e bd 11 b4 dc 3c 8a c1 07 3b 3e b7 9d 3c
       -0.046422977 0.026941331 0.0020714724 0.019252416
0000b0 24 be b2 bc ab cf 1c bd 59 37 d9 3d 0b 02 cb 3b
       -0.021819182 -0.038283985 0.1060626 0.006195312
0000c0 e6 7c dc bc a7 44 44 3c c0 59 79 3d d6 2b 73 bc
       -0.026915025 0.011979259 0.060876608 -0.014841994
0000d0 53 f3 3e bd e1 6a a2 3d b0 1c dc bb 66 27 19 bb
       -0.04661877 0.07930542 -0.006717287 -0.002336943
0000e0 95 85 f0 bc 9b 6d 6f bd 0e 70 a1 3c 38 56 63 bd
       -0.029360572 -0.058454137 0.019706752 -0.055502146
0000f0 b9 0e ff bb 32 78 73 3d 3d 9c 87 3d 70 b5 24 3d
       -0.0077837375 0.0594408 0.06621597 0.040212095
000100 a0 e6 6a 3d 9c 93 36 3c c9 bb 15 3c 7f d8 2d 3c
       0.057348847 0.011143591 0.00913901 0.010610699
000110 6d e6 e5 bc 8e 9e 29 bd 97 7e 20 3d 35 48 4c bb
       -0.028063977 -0.041410975 0.039183225 -0.0031170968
000120 a3 ec 32 ba 5c 20 06 bd 95 f5 72 3d 3e 7c ab bc
       -0.0006825423 -0.032745704 0.059316237 -0.020933267
000130 b8 54 24 bd 5b 51 60 bc 4c 14 d6 bb 9a a4 85 3c
       -0.040119857 -0.013691272 -0.0065331813 0.01631384
000140 be 10 f5 3d 95 9b 2f bc ce c8 cb 3c 7b e6 f6 3b
       0.11966084 -0.010718246 0.024876025 0.0075347996
000150 3e 42 23 bd d3 c5 05 3e f3 a5 82 3d ea 35 b3 bc
       -0.039858095 0.13063745 0.063793086 -0.021876294
000160 f1 27 0d 3c 80 20 9e 3c 2c 25 05 3c cf f7 0a bc
       0.00861548 0.019302607 0.008126538 -0.008481934
000170 76 91 8a 3d 08 5b 5e 3c bc 1b 80 3d 94 43 30 3d
       0.06766026 0.013571508 0.0625529 0.043033198
000180 50 a6 90 bb 71 4b 01 bd af a2 13 bd 5e 05 15 3b
       -0.0044143572 -0.031566087 -0.03604382 0.0022738795
000190 69 4e e9 bc fb ba c4 3c b0 72 44 3d 95 ca c8 bb
       -0.028479772 0.02401494 0.047960937 -0.0061276653
0001a0 80 54 27 3d 82 41 52 bc 96 a6 2d bd 1c 24 b1 bc
       0.04085207 -0.012833001 -0.042395197 -0.021623664
0001b0 aa 50 f6 bb 64 a6 bf bb fe e9 7a 3c bb b2 93 3c
       -0.00751694 -0.0058486927 0.015314577 0.018029561
0001c0 a3 ac e4 3b 91 e0 a8 3d 69 7a 5f 3d 84 6b c6 3c
       0.0069785877 0.08245958 0.0545601 0.02422119
0001d0 bf 44 5c bb 08 1e ae bc 86 62 62 3d a4 45 05 bd
       -0.0033610312 -0.021254554 0.05526974 -0.032537118

fc2.weight f4 [84, 120]
000000 53 a6 2a be de 49 04 3e f2 0d 38 bc 2d 2f 26 3e
       -0.1666501 0.12918803 -0.011233794 0.16228934
000010 f4 03 58 3c 1d 22 fa bd 5e 19 0e 3c 14 65 4e be
       0.013184536 -0.12213538 0.00867304 -0.20155746
000020 64 d9 9e 3c 5a 14 4b bd 82 03 72 bc 90 09 0e bd
       0.01939077 -0.049579956 -0.014771344 -0.03467709
000030 2d 61 17 bd ba ba 2a 3d 04 a2 d2 bd 39 8d 1f 3c
       -0.03695791 0.041681983 -0.10284808 0.00973826
000040 2f 72 5c bd 1d 7d 17 3e 34 e1 bc 3d 11 62 ae bd
       -0.05381983 0.1479382 0.092226416 -0.085147984
000050 5d 0e ba 3c 36 61 85 bc d8 2d d7 bd 0c 92 f5 bd
       0.022711927 -0.016281705 -0.10506791 -0.11990747
000060 4a 9b bd bd 37 c5 5f 3d 5c 1f 62 3d 4b fc 49 3e
       -0.09258135 0.054631438 0.055205688 0.19725148
000070 e5 31 ff bc f7 d6 15 bd c7 34 18 be 8d ee ea 3c
       -0.031151721 -0.03658196 -0.14863883 0.028678203
000080 4f 84 0d 3e ff a1 96 3c 16 e0 ba 3d 6a f4 1f 3d
       0.13820003 0.018387793 0.09124772 0.03905145
000090 95 47 c6 3d 8b 0a 9e 3d f7 8c 13 bd 6e f8 dc 3d
       0.09681622 0.07716855 -0.036023106 0.10789572
0000a0 c8 55 78 3d cd 87 85 bb 5e 75 0c bd 7d bc 94 bc
       0.060628682 -0.0040750266 -0.034291618 -0.018156284
0000b0 ba e4 04 be c3 56 16 3d ca ce 1d be bd be af bd
       -0.12977877 0.036703836 -0.15410915 -0.08581302
0000c0 c4 e7 5e 3d 70 5f ac 3d 8a e1 d1 bd 23 8d 6b bd
       0.054420248 0.08416641 -0.10248096 -0.057507645
0000d0 85 23 62 3c fa 29 45 3d fd 70 0d 3e 51 63 c5 3d
       0.013802414 0.048135735 0.13812633 0.09638084
0000e0 3f 1a 24 3d be c5 b4 3c 0e ea b3 bd 23 6c 01 3e
       0.040064093 0.022066947 -0.08784877 0.12638907
0000f0 f2 c8 50 3d 76 87 8b 3d 7d 4a 07 bd 1a f4 24 3b
       0.050972886 0.068129465 -0.033030022 0.002516991
000100 f4 08 8a bd 99 39 8e ba 54 ef 02 3e f5 a1 48 3d
       -0.06739989 -0.0010850906 0.12786609 0.04898258
000110 20 6d 0a 3d 66 43 b6 3d 2c 76 b3 3d 24 8a 3f bd
       0.033795476 0.08899574 0.08762774 -0.0467626
000120 d5 80 cf bd 91 a1 02 bd f0 ac a4 bc 68 42 5b 3d
       -0.10131995 -0.031892363 -0.020101994 0.053530127
000130 12 04 31 bd f9 c7 e0 3b c9 00 3f be 0e 4e 5e be
       -0.043216772 0.006859776 -0.18652643 -0.21709463
000140 d9 a0 8d 3c ba d3 79 3d bb 6b 0c bd 2f 6a b2 3d
       0.017288612 0.060992934 -0.034282427 0.08711659
000150 32 e6 bc 3d 64 41 e7 bd 0e fd f6 3c 7c 77 fb 3d
       0.09223594 -0.11291769 0.030149963 0.12278649
000160 3a f6 db 3c 41 91 a9 bc df eb c1 3d 46 ca 01 bd
       0.026850808 -0.020699145 0.09468817 -0.031687044
000170 a1 66 93 3c 83 3e ab 3d 2b ad bb 3d b8 5e 18 be
       0.017993273 0.083615325 0.091638885 -0.14879882
000180 4e fc b7 bd 78 48 5f 3e 86 be 28 3d 22 31 cc 3d
       -0.0898367 0.21804988 0.041197322 0.09970309
000190 ff ec 86 bd b0 e7 0c be 2d b2 85 3d 7b 09 f5 bc
       -0.06588172 -0.13760257 0.06528125 -0.029911747
0001a0 66 5c 6f 3c d4 e8 1a bd 39 87 5a 3d 8b ad 93 3c
       0.014609432 -0.0378197 0.053351615 0.018027088
0001b0 48 c1 84 bd ce 46 b6 3c 82 5c 4d bc 83 aa 3d bd
       -0.06482178 0.02225056 -0.012534263 -0.04630519
0001c0 c1 5c ac bd 6d 05 c7 3c 5e c3 df bd 35 d6 aa 3c
       -0.08416129 0.02429458 -0.10925935 0.020854095
0001d0 90 28 31 3c f7 c3 fb bc 10 83 85 bd e4 6a d1 bd
       0.0108128935 -0.030733092 -0.06519139 -0.10225466
0001e0 5a b7 10 3e ac e4 0d be 88 a8 50 3d 94 75 64 3c
       0.14132443 -0.13856763 0.050941974 0.013944048
0001f0 c7 50 3e 3b 7c 10 a3 3c 02 cb a5 bd 4c 9e a7 3d
       0.0029039846 0.019905321 -0.08095361 0.081844896
000200 f2 34 23 bd 6e a7 91 3c ac 2a b5 bd 2a 43 4d 3d
       -0.039845414 0.017780032 -0.0884603 0.05011288
000210 6f c6 11 be 39 11 18 be 56 e4 21 bc e9 d8 75 3d
       -0.14235853 -0.1485032 -0.0098811 0.060021315
000220 15 10 9c bd 37 d9 88 bd 2b 7e 99 bd 93 5e 94 bd
       -0.07620255 -0.066820554 -0.07494768 -0.07244601
000230 a7 9f e1 3c 05 ab bc bc 65 95 ed 3c 55 cc 3f 3b
       0.027541948 -0.023030767 0.0290019 0.0029266078
000240 b1 96 8f 3d 4a 29 95 3d 20 2d 02 3c c5 73 e2 bd
       0.07011164 0.07283266 0.007945329 -0.110572375
000250 d6 9c 61 3d 80 d2 fa 3c 41 b2 f4 3d 50 92 a3 bb
       0.05508121 0.030617952 0.11948062 -0.004991807
000260 8f 22 54 3d 87 e9 25 3e 55 b6 3b bd 32 de 64 3d
       0.05179077 0.16202365 -0.045828182 0.055875964
000270 41 63 c0 bd bb 4a 24 bd 0c ae 72 bc 8c b4 8f 3c
       -0.09393931 -0.04011033 -0.014812004 0.017542146
000280 03 52 b9 3d 87 f2 0b be 76 45 de bd 97 04 03 3e
       0.090488456 -0.13666736 -0.10853092 0.1279472
000290 7e 73 50 3e 58 59 8d 3d 08 03 be bc 21 a5 57 bd
       0.20356557 0.069018066 -0.023194805 -0.052647714
0002a0 c7 c1 31 bd 67 9f 00 bd 46 9d 62 3d 52 98 f1 3c
       -0.04339769 -0.031402018 0.05532577 0.029491577
0002b0 28 4a 30 bb 51 58 72 bd 86 31 27 be cc 37 47 be
       -0.002689967 -0.059166256 -0.16327485 -0.19454879
0002c0 7d cf 88 ba da 9c cd 3d 3b d0 bd bd 92 1c 61 bc
       -0.0010437813 0.10039683 -0.092682324 -0.013739722
0002d0 78 0e 83 bc d4 6a 31 3d 5c c8 5d bd ff dd b9 3d
       -0.01599811 0.04331477 -0.054146156 0.090755455
0002e0 e6 5c 44 3e 6a 29 c6 3d 50 2a 40 3d 2e e0 42 bd
       0.19176063 0.09675868 0.046915352 -0.047577076
0002f0 a9 46 72 be 9c e2 25 3d 1b 97 af bd 6f a4 c9 bc
       -0.23659767 0.040499315 -0.08573743 -0.02461454
000300 90 aa e7 3c 11 16 f8 3d f9 2f 28 3e 37 fc cd bc
       0.028279573 0.12113584 0.1642455 -0.02514468
000310 4b 67 62 bd c9 62 ca bd 26 5b 03 3e 94 a2 3f 3e
       -0.05527429 -0.09882123 0.12827739 0.18714362
000320 24 70 2a 3e 06 81 43 3d b3 f5 8d 3d 9f f9 d1 bc
       0.16644341 0.04773047 0.06931629 -0.025631724
000330 12 e8 49 bd 5b 25 ef 3c 1c fe 66 be e8 2b ae 3d
       -0.049293585 0.029192617 -0.22557873 0.08504468
000340 f9 60 72 bd 63 46 08 be 30 92 6e 3d 0b a4 b0 3d
       -0.05917451 -0.133081 0.058244884 0.08625039
000350 07 4a 3a 3e ca af e3 bd f6 77 4f bd 3c 77 88 3c
       0.18192302 -0.111175135 -0.050651513 0.016658418
000360 71 98 22 3d 78 25 ac bd 76 44 0f bc d1 81 e5 bd
       0.03969616 -0.08405584 -0.00874435 -0.11206401
000370 4e 5d ea bb 6a 8d 9c 3d fd b6 bf 3b 7d 6a 86 3d
       -0.007152236 0.0764416 0.0058506713 0.0656328
000380 a4 4c a0 bc 96 10 2f 3d bb 72 db 3c 97 5d b0 3d
       -0.019567795 0.042740427 0.026788106 0.08611601
000390 b4 02 e0 bd 64 d0 8c 3c 83 2f 4d 3d 3d 02 bb 3c
       -0.109380156 0.017189212 0.05009414 0.022828216
0003a0 44 ec fc bd c6 c2 cd 3d 6a 2e 9a bd 05 0a a0 bd
       -0.123497516 0.10046916 -0.07528384 -0.07814411
0003b0 77 1f 64 3d 88 c4 cb 3c cd a9 8e 3c 02 8b b5 bd
       0.05569407 0.024873987 0.017414952 -0.08864404
0003c0 ac da 1b be 15 f7 81 bd 31 02 c6 3b 68 64 eb 3c
       -0.15220135 -0.06345955 0.0060427417 0.0287344
0003d0 65 b5 3b 3c f8 31 38 bb bb 59 6b ba 29 b5 a2 3d
       0.011456822 -0.0028105956 -0.00089779095 0.0794471
0003e0 96 ac 15 3d 68 a8 8a bd da d6 9c bd be 3e 65 3d
       0.036541544 -0.06770402 -0.07658167 0.05596804
0003f0 52 65 51 3d 39 bd 6d 3d 26 c8 2b bd f4 a0 7e bc
       0.051122017 0.058041785 -0.041938923 -0.015541304

fc2.bias f4 [84]
000000 4f 62 ea 3c 67 89 c6 3d c9 ac e4 3c d2 33 69 bb
       0.02861133 0.09694176 0.027914422 -0.0035583866
000010 05 3b cc 3d ee bf 4f bd 07 d7 9c bd d4 d9 41 3d
       0.099721946 -0.050720148 -0.07658201 0.047326878
000020 05 2a 9a 3d 70 6a 22 3e 01 3f 22 bd f7 83 5b bd
       0.07527546 0.15860915 -0.039610866 -0.05359265
000030 ec 08 55 bd 46 f8 e5 3c c7 a6 85 3c eb 8c 91 bd
       -0.05201046 0.028072488 0.016314877 -0.07106956
000040 e0 b6 d4 3d bb d8 30 bd 16 4b a3 3c 58 fa 0b 3e
       0.10386443 -0.04317544 0.019933265 0.13669717
000050 3c f8 65 bd d9 f4 97 3e 09 8e 06 bd aa 6d 58 3e
       -0.056144938 0.2967899 -0.0328503 0.21135584
000060 cf 83 30 3e 28 ae 51 3e 71 cf b1 3d 13 bf 4a 3d
       0.17237781 0.20476592 0.086821444 0.04949863
000070 ac 27 b6 3d d0 4a 6a bd e1 6d a5 3d 15 f3 3c bd
       0.088942856 -0.057200253 0.08077598 -0.04613026
000080 83 2b 28 bd b0 0d 0a 3e 88 01 0c 3d a8 15 39 bd
       -0.04105712 0.13481784 0.034181148 -0.04518667
000090 05 5b 85 3e 32 2f 99 bb 7d 75 d5 3c 3f 5f 26 3d
       0.26046005 -0.0046748156 0.026057 0.040618178
0000a0 14 77 1d bd 55 12 fa 3c df 1d a1 3d 82 60 42 bd
       -0.03844364 0.03052632 0.078670256 -0.04745532
0000b0 fb 40 1e 3d 2c 9c 3e bd 91 60 f3 3c 55 20 e4 3d
       0.03863619 -0.046535656 0.029709132 0.11138979
0000c0 e1 67 6f bd cb 78 23 3e ca 47 55 bb 5a 42 8a 3c
       -0.058448676 0.15964048 -0.003254401 0.016877342
0000d0 53 57 54 bd 15 2f de 3c fd ad c9 bd 46 7e 64 bd
       -0.05184109 0.02712206 -0.09847639 -0.055784486
0000e0 50 76 40 3c 01 3a 4e 3e 90 53 e2 3d 06 81 33 3c
       0.011746958 0.20139314 0.110510945 0.010956055
0000f0 cf 9e b3 bc 70 fb 3f 3d 8a 2a dd 3d 4c db bc 3d
       -0.021926312 0.04687065 0.10799129 0.09221515
000100 be 6a 84 3d 6e 2a 70 3e 9e 6b 81 3d 74 ff 83 3a
       0.06465672 0.23453686 0.063193545 0.0010070638
000110 53 a8 b6 bd d1 01 b9 3d 94 1e c9 3a 1b 96 81 3c
       -0.08918824 0.090335496 0.0015344196 0.015818646
000120 91 86 89 bd ff b4 4c 3d 48 40 b2 bd 07 da ce 3d
       -0.0671512 0.0499773 -0.08703667 0.10100179
000130 89 cc 68 bd 19 7d b8 3c 4a 86 a5 3d ab 62 8a bd
       -0.056835685 0.022520589 0.08082254 -0.06757101
000140 18 4d a6 3d 7b 01 9c bd df ab 10 3e d7 07 16 3b
       0.08120173 -0.0761747 0.14128064 0.0022892857

fc3.weight f4 [19, 84]
000000 47 a3 e2 bc 9a 6b a2 3e fa b5 6d be bb 8a c7 bb
       -0.027665747 0.31722718 -0.2321395 -0.006089536
000010 28 40 2f be 32 8b fe bc e3 0b b9 be 7d f7 97 be
       -0.17114317 -0.031072233 -0.3614188 -0.29681006
000020 3a e0 1a bd 60 05 9b bd 36 05 95 be 1b 85 34 3e
       -0.037811495 -0.075693846 -0.29105538 0.176289
000030 29 57 43 3d 07 6c 9c 3e 08 cd 42 3c e3 ac 99 3e
       0.047690544 0.30551168 0.011889704 0.30014715
000040 42 f0 79 be 11 c5 a9 3d 46 e1 06 3e 81 67 d5 bc
       -0.24408057 0.082895406 0.13171872 -0.026050331
000050 68 ad 84 3d 36 a6 f2 bd 6d 12 3c 3e 2b ce 06 be
       0.06478387 -0.118481085 0.18366404 -0.13164584
000060 07 5b 93 bd bd 2c 79 be 67 62 45 be 28 63 68 3e
       -0.071950965 -0.24333473 -0.19275819 0.22694075
000070 8c 9a 0d be 12 17 b3 bd 78 5f 9c bb a2 82 24 3d
       -0.13828486 -0.08744635 -0.004772123 0.040163644
000080 00 fb 8c bc 35 fa f6 bd 77 0b 83 bd a6 dc ac 3d
       -0.01720953 -0.12059442 -0.06398671 0.08440523
000090 97 40 82 be e2 2a e6 bc 3f 8e 41 bd 23 be 2b 3e
       -0.25439903 -0.02809662 -0.047254797 0.1677175
0000a0 0b 7d 95 bd 1f 43 e2 bd 70 5e 05 be dd 7e dc bd
       -0.07299241 -0.110479586 -0.13024306 -0.10766385
0000b0 0c d3 64 3e 1c 65 df bd b8 16 cb be d5 fc 65 3e
       0.22346133 -0.10907957 -0.3966577 0.22459729
0000c0 02 ae 73 bd ee 17 ff bc 1e 34 42 3e f4 51 e9 3e
       -0.05949212 -0.03113934 0.18965194 0.45570338
0000d0 ac 5d 64 be 73 1a 1c be 2e f2 aa bd 32 ef 1a 3d
       -0.22301358 -0.15244465 -0.08346973 0.03782577
0000e0 0f 7b 05 3e 3c ac a2 3e a2 f6 88 bc b0 70 94 3d
       0.13035224 0.3177203 -0.016719166 0.07248056
0000f0 41 5b d0 3d ac af 92 be 4d 4f 41 be 74 f9 42 3e
       0.10173655 -0.28649652 -0.18877907 0.19040471
000100 2a ff a3 3e e6 99 fe 3c 56 67 d9 3c 11 1c f9 ba
       0.32030612 0.031079244 0.026538532 -0.0019005557
000110 1e e3 79 3d 29 16 2c 3e d7 3c 16 bb 01 b4 22 bd
       0.06100761 0.16805328 -0.0022924447 -0.039722446
000120 a1 77 17 3c 8a d7 e0 3c 91 38 2a 3d 44 49 8c be
       0.00924483 0.027446527 0.041557852 -0.27399647
000130 5c f6 5a bc 00 72 9a 3e 8d d9 ed 3b 07 fa dd 3d
       -0.013364401 0.301651 0.0072586 0.108387046
000140 48 5e ea bd 06 64 40 bd 82 04 9d bd f4 a4 45 3e
       -0.11443764 -0.04697039 -0.076668754 0.19301206
000150 d0 ec f0 bd 8c a1 d8 3c 31 02 23 be 14 0b a2 3d
       -0.117639184 0.026444219 -0.15918805 0.07912269
000160 a2 c8 30 be 9f e4 ec 3d 65 12 28 bd 00 be 18 3e
       -0.17264035 0.115670435 -0.041033167 0.14916229
000170 91 1b 38 bb 77 1a 5e be 6c d9 66 3e 93 e6 bf 3d
       -0.0028092603 -0.21689783 0.22543877 0.093701504
000180 01 72 43 bc 4d 26 a2 3e 68 a6 97 bd 23 e7 9b be
       -0.011929036 0.31669846 -0.07404786 -0.3044978
000190 65 2c ce 3b 89 f5 aa bd 20 74 89 bd 72 10 2a 3e
       0.0062919133 -0.08347613 -0.06711602 0.16607836
0001a0 de 4f 3d be e9 09 b1 be 36 b8 8f 3e 21 05 09 be
       -0.18487498 -0.34577873 0.2807023 -0.13380863
0001b0 12 13 dd bd a0 cb 3b be 9f 42 15 3e 28 16 e7 3e
       -0.10794653 -0.18339396 0.14576195 0.4513409
0001c0 5b 4c 08 be 1c 7a 1f bd d6 5d cc bc 81 80 b8 3d
       -0.13310377 -0.038934812 -0.024947088 0.09008885
0001d0 a1 6b 1b 3e cc d7 b5 bd 0a c8 86 3d 18 1f 64 3d
       0.15177776 -0.088790506 0.06581123 0.055693716
0001e0 f2 3b af be fe 2b ca bc f7 9b 78 bd 6e ea 61 be
       -0.34225422 -0.02467918 -0.060695615 -0.22062084
0001f0 1c e7 ca 3d 41 e6 93 be 82 4c 0c be 1a a2 0e 3c
       0.09907362 -0.28886607 -0.1370106 0.00870564
000200 b4 ce 0b 3d f1 84 a5 bd 1b 66 8c 3e 87 7b ba bd
       0.034132674 -0.08081997 0.2742165 -0.09105592
000210 02 f8 32 bd cd 32 3e be b7 2a d3 3d 8f f8 24 3e
       -0.04369355 -0.18574066 0.103108816 0.16110443
000220 a3 d8 d9 ba 87 43 27 3d 80 3e 0a 3c 27 64 23 bd
       -0.0016620349 0.040835883 0.008437753 -0.039890435
000230 cc 5b cc 3d 33 0d 94 3e b4 f0 c8 3e cb 7b 1c 3d
       0.09978446 0.2891632 0.39246142 0.038203996
000240 d3 88 74 bd ca de 7a 3e 4f 7b 5d 3e 96 a7 fb 3d
       -0.0597008 0.2449905 0.2162907 0.12287824
000250 9b a1 34 3e c1 00 8e bc 62 19 62 be 2b bc 43 be
       0.17639773 -0.017334344 -0.22079995 -0.19114749
000260 34 f7 25 be 3d 2b 64 be 03 24 82 3e 5b 55 e4 bb
       -0.16207582 -0.22282119 0.254181 -0.006968183
000270 85 29 c1 3a 95 2b f4 bd 70 17 a9 3c 54 f4 b2 bd
       0.0014737105 -0.11922375 0.020641059 -0.08738008
000280 15 da 48 bd b6 1f 97 3e d1 15 e3 bc e6 a8 76 3c
       -0.049036104 0.2951638 -0.027720364 0.015054917
000290 eb fb 36 be 19 38 24 be 03 f4 0c be b9 83 34 be
       -0.17869537 -0.16037025 -0.13764958 -0.17628373
0002a0 ed 36 d2 bd b1 67 2d 3e 1a 2f e5 3d c2 c2 d8 bd
       -0.102643825 0.16934086 0.111906245 -0.10584022
0002b0 63 56 01 bd 59 67 d9 3c bf e2 1d be 9b c9 b0 3e
       -0.031576525 0.026538538 -0.15418528 0.34528813
0002c0 86 8e 28 be 86 77 8b bd be af 95 3d 64 27 d9 3d
       -0.16460618 -0.06809907 0.07308911 0.10603216
0002d0 b2 b1 e4 bd 8e 2b 76 3d c3 53 cc bd dd 4a d2 bb
       -0.11166705 0.06010013 -0.09976914 -0.006417616
0002e0 72 97 90 bc 55 de 08 3d 82 f8 35 3d fa ff 04 bd
       -0.01765034 0.033415157 0.04442645 -0.03247068
0002f0 37 96 33 be 40 1e 60 be dd 6e 23 bd cf 7a 80 bd
       -0.17537771 -0.2188654 -0.03990065 -0.06273424
000300 96 12 81 bd 14 ed 27 be 5e 36 cf bd c1 20 9c bd
       -0.06302373 -0.16399032 -0.101177916 -0.07623435
000310 1a 6d 8d be c8 81 a9 3d c3 b3 d1 3e 75 f4 4f bd
       -0.276223 0.08276707 0.4095746 -0.05077024
000320 fd 1a 2c 3c 35 2f 4a be 5e 51 db bd d5 5b 8f 3e
       0.010504481 -0.1974457 -0.10708879 0.2799975
000330 3f 57 79 be be 2e ea bd 54 d8 91 bd 6d 73 06 bd
       -0.24349688 -0.114346966 -0.071213394 -0.032824922
000340 7d 08 98 3d 78 af 1c be 4c af 07 be 05 2f 80 bd
       0.07423494 -0.15301311 -0.13250464 -0.06258968
000350 0d 30 3b 3e 26 91 60 bd 8b 87 e8 3d ce 85 1d 3e
       0.18280049 -0.054825924 0.11353978 0.15383074
000360 29 e6 a2 3d 80 c1 04 3a 44 36 7c 3d 62 64 d7 3a
       0.07954056 0.0005064234 0.06157519 0.0016433115
000370 81 df 47 bd 47 46 38 3e 52 47 27 3d 84 90 02 bd
       -0.048797134 0.17995559 0.0408395 -0.031876102
000380 05 41 a0 3e da 7b 70 3e 35 e1 4f be f9 41 e3 bd
       0.31299606 0.23484746 -0.20300753 -0.11096568
000390 d8 57 0f be a1 11 20 be 1a a7 86 3d 0b d8 de 3d
       -0.13998353 -0.15631725 0.06574841 0.10881051
0003a0 0a b9 a0 bd ce fe 26 be 43 36 41 be 2b 89 1a 3e
       -0.078477934 -0.16308138 -0.18868355 0.15091388
0003b0 f1 1e 91 bd a8 5e 3c be 1d e5 28 3e 31 d1 74 bc
       -0.0708598 -0.18395483 0.1649365 -0.014942453
0003c0 ea fd c1 3d bf 51 98 3e fc 35 78 bd 0a 80 de bd
       0.094722584 0.29749867 -0.06059836 -0.10864265
0003d0 96 89 8c bd 8b 14 55 3e 76 f1 1d 3e 1b 08 4b be
       -0.0686218 0.20808618 0.15424141 -0.1982731
0003e0 aa 43 61 be fc 97 0d bc 3c 01 91 3d 7e a4 45 be
       -0.21998468 -0.008642193 0.070803136 -0.1930103
0003f0 19 a9 06 be 55 93 80 3e e9 1f 75 bb 43 49 20 bd
       -0.13150443 0.25112405 -0.0037403053 -0.039132368

fc3.bias f4 [19]
000000 88 c5 9b be 35 38 d9 bd 9b 45 34 3d 35 04 f4 3b
       -0.30424142 -0.10606424 0.044011693 0.0074467906
000010 0e 93 71 be 20 f9 1b 3e b1 64 a5 be 08 e4 25 3d
       -0.23591253 0.15231752 -0.32303384 0.04050067
000020 91 41 8f be 75 1f a2 bd 72 ca a0 3e f5 a8 8d bd
       -0.2797971 -0.07916156 0.31404454 -0.069169916
000030 2d 24 84 3e cc ff d9 bc 80 47 9c 3d 53 dd 48 3e
       0.2580885 -0.026611231 0.07630825 0.19615678
000040 1c bb 31 3c f4 18 57 3e 07 cf a5 bd
       0.010847833 0.21005613 -0.08096128
