python/CNN16.pth (torch_old, 252622 bytes, 10 tensors)

conv1.weight f4 [6, 3, 5, 5]
0.4516393 0.57619935 0.61280346 0.47142398 0.5766997 0.01273204 0.062391564 0.062212765
0.2823576 0.22899683 0.0046069548 -0.2172361 -0.20694938 -0.21233122 -0.16040958 0.13686031
0.13409746 -0.0022883015 0.021715844 -0.047149967 0.34106454 0.5644212 0.32143953 0.19873698
-0.11458172 -0.055676375 0.106502675 0.25311095 0.33655146 0.34847197 -0.23849909 -0.2866877
-0.1825774 0.023221582 -0.03567118 -0.3159506 -0.5939824 -0.49261665 -0.5894154 -0.31131744
-0.14441645 -0.062040932 -0.24446046 -0.3876677 -0.29816547 0.18764508 0.29602274 0.21364373
-0.20089088 -0.32047752 0.0079916 0.04414913 0.34001306 0.32125002 0.25178176 -0.17410205
-0.23086667 -0.17227964 0.07070125 0.121616185 -0.273396 -0.54950094 -0.6280219 -0.4742253
-0.37272966 -0.008391816 -0.13108698 -0.2438112 -0.31701693 -0.26337227 0.4470552 0.3078338
0.09266686 -0.061365224 -0.25594133 -0.039963186 0.015156704 -0.04418359 0.0023769776 0.015221121
0.14540924 0.1819294 0.16222468 0.21514325 0.18393128 -0.11118216 0.18183762 0.16409774
0.24158873 0.31437963 -0.22409643 -0.16577463 -0.087224275 -0.00025722326 0.13142735 -0.0940255
-0.10722102 -0.34865624 -0.17891659 -0.17409343 -0.006957088 -0.05131964 -0.0129658235 -0.03945959
-0.03483653 0.06747049 0.28501698 0.25673103 0.2848751 0.1527489 0.102482446 0.15341988
0.25175664 0.36617112 0.3692359 -0.17803165 -0.179645 -0.22712994 -0.045976322 0.032547895
-0.009984888 -0.091020375 -0.16192581 -0.11572907 -0.110508166 -0.1358001 -0.026914207 -0.15013227
0.0045252936 -0.07661288 -0.14929573 0.013622767 0.16509387 -0.020431446 0.02261424 -0.17610224
0.002012142 -0.0040019774 0.20937613 0.21557526 -0.24132557 -0.30171886 -0.3538627 -0.22146976
-0.005532669 -0.1343994 -0.35295525 -0.3408186 -0.41717723 -0.23059376 0.23226097 0.2836403
0.114092685 -0.07379485 -0.06163822 0.24092442 0.09309587 -0.21734758 -0.30854636 -0.29282302
0.35685682 -0.022653457 -0.34485307 -0.49639186 -0.3079573 0.41215083 0.21543401 -0.40068755
-0.45412046 -0.16232 0.7312443 0.35608053 -0.026609497 -0.27328902 -0.08422142 0.014505377
0.21843979 -0.11852383 -0.3167928 -0.15371217 -0.03577143 0.03499811 -0.34617803 -0.38054237
-0.40753514 -0.119302295 0.01132679 -0.37669596 -0.3594281 -0.39587817 0.21729456 0.023424692
-0.2942133 -0.53568923 -0.20705085 0.22103198 0.08559899 -0.24702182 -0.45268372 -0.13566484
0.24811684 0.43405047 0.36184198 0.048121817 0.14555755 0.06663785 0.19126622 0.13456988
-0.0046677156 0.09858325 0.10062202 0.2577164 -0.023132611 -0.11912162 0.17652155 0.31014824
0.23790327 -0.09199203 0.037153337 0.32036918 0.5289706 0.3295867 0.05020892 0.012798355
0.2264222 0.059097197 0.10982646 -0.060398456 0.1658622 0.22037399 0.015278024 0.07183537
0.14636822 0.017250748 0.25694838 -0.10569508 -0.017426455 -0.11151637 -0.06800038 0.011937861
-0.16294824 -0.08025362 -0.010301122 0.10528923 0.122656085 -0.20280935 -0.054086387 -0.08837115
-0.021864012 0.15308478 -0.27324283 -0.29914823 -0.25788814 -0.21833359 0.007417109 -0.106216654
00000000: 443d e73e cd81 133f b0e0 1c3f 7c5e f13e
00000010: 97a2 133f 0c9a 503c 4c8e 7f3d d0d2 7e3d
00000020: 2d91 903e 257e 6a3e f0f5 963b 2473 5ebe
00000030: 8aea 53be 5b6d 59be 6942 24be 1c25 0c3e
00000040: d850 093e 54f7 15bb 6de5 b13c 5320 41bd
00000050: 03a0 ae3e e87d 103f b993 a43e b581 4b3e
00000060: d2a9 eabd e90c 64bd 131e da3d c297 813e
00000070: 7950 ac3e eb6a b23e 1b39 74be bbc8 92be
00000080: 92f5 3abe 303b be3c f11b 12bd 47c4 a1be
00000090: 3b0f 18bf 4038 fcbe ede3 16bf 0065 9fbe
000000a0: e8e1 13be a21e 7ebd d853 7abe 617c c6be
000000b0: 25a9 98be 0826 403e 4b90 973e 6cc5 5a3e
000000c0: 57b6 4dbe a115 a4be 33ef 023c b8d5 343d
000000d0: 3116 ae3e e27a a43e 8ae9 803e cf47 32be
000000e0: 5068 6cbe 136a 30be d1cb 903d e811 f93d
000000f0: 8ffa 8bbe 18ac 0cbf 0bc6 20bf a9cd f2be
00000100: 6cd6 bebe d47d 09bc aa3b 06be a5a9 79be
00000110: 0b50 a2be bbd8 86be 6be4 e43e 649c 9d3e
00000120: 1fc8 bd3d 1a5a 7bbd be0a 83be 70b0 23bd
00000130: d353 783c daf9 34bd 11c7 1b3b 0262 793c
00000140: 29e6 143e b34b 3a3e 3a1e 263e 834e 5c3e
00000150: 7b58 3c3e 79b3 e3bd a433 3a3e 3d09 283e
00000160: 0963 773e 5ef6 a03e 8979 65be d3c0 29be
00000170: a4a2 b2bd ecdb 86b9 e494 063e 7190 c0bd
00000180: b296 dbbd 1283 b2be e935 37be 8c45 32be
00000190: 49f8 e3bb 8b34 52bd 9b6e 54bc 61a0 21bd
000001a0: c0b0 0ebd f82d 8a3d bfed 913e 4072 833e
000001b0: 26db 913e 356a 1c3e 51e2 d13d 1a1a 1d3e
000001c0: 3fe6 803e c87a bb3e 7d0c bd3e ee4d 36be
000001d0: dcf4 37be c094 68be ab51 3cbd f150 053d
000001e0: a897 23bc e468 babd e1cf 25be 5d03 edbd
000001f0: 1b52 e2bd 2e0f 0bbe 2f7b dcbc 46bc 19be
00000200: ea48 943b 37e7 9cbd fbe0 18be 0732 5f3c
00000210: 5e0e 293e d95f a7bc 8041 b93c 2554 34be
00000220: 24de 033b 0523 83bb b266 563e c3bf 5c3e
00000230: 0d1e 77be e57a 9abe 7e2d b5be f8c8 62be
00000240: 644b b5bb ff9f 09be 8db6 b4be c77f aebe
00000250: 4198 d5be c520 6cbe d2d5 6d3e 4d39 913e
00000260: 6da9 e93d c121 97bd 5c78 7cbd e4b4 763e
00000270: 0ca9 be3d 5d90 5ebe caf9 9dbe e6ec 95be
00000280: f0b5 b63e be93 b9bc 9590 b0be 1327 febe
00000290: 94ac 9dbe 6f05 d33e bc9a 5c3e eb26 cdbe
000002a0: 7a82 e8be 3737 26be d432 3b3f 3050 b63e
000002b0: 29fc d9bc 8aec 8bbe 487c acbd f6a7 6d3c
000002c0: aeae 5f3e 9fbc f2bd aa32 a2be b966 1dbe
000002d0: 1085 12bd 2e5a 0f3d 3f3e b1be 73d6 c2be
000002e0: 72a8 d0be c354 f4bd 0094 393c 4bde c0be
000002f0: f606 b8be 8bb0 cabe 7782 5e3e 24e5 bf3c
00000300: 20a3 96be ee22 09bf 2305 54be 3556 623e
00000310: 864e af3d 4af3 7cbe 29c6 e7be b9eb 0abe
00000320: 5712 7e3e dd3b de3e 5a43 b93e 621b 453d
00000330: 0a0d 153e 6d79 883d 4bdb 433e b0cc 093e
00000340: a3f3 98bb 04e6 c93d eb12 ce3d 67f3 833e
00000350: 9a80 bdbc 09f6 f3bd 11c2 343e c0cb 9e3e
00000360: ea9c 733e 5166 bcbd 192e 183d 6e07 a43e
00000370: 9e6a 073f 97bf a83e dea7 4d3d 31b0 513c
00000380: 39db 673e e70f 723d b2ec e03d 5f64 77bd
00000390: c8d7 293e b8a9 613e ad50 7a3c 6c1e 933d
000003a0: 8de1 153e 7151 8d3c bd8e 833e a976 d8bd
000003b0: edc1 8ebc b262 e4bd c943 8bbd 0597 433c
000003c0: e7db 26be 035c a4bd 0ac6 28bc e1a1 d73d
000003d0: 1d33 fb3d 41ad 4fbe b089 5dbd effb b4bd
000003e0: 281c b3bc 42c2 1c3e 7ce6 8bbe f529 99be
000003f0: ea09 84be d792 5fbe 380b f33b 1e88 d9bd

conv1.bias f4 [6]
0.32866728 0.03276893 0.3900908 -0.47783914 -0.2122433 0.07470664
00000000: 1447 a83e b738 063d fbb9 c73e 55a7 f4be
00000010: 4f56 59be cbff 983d

conv2.weight f4 [16, 6, 5, 5]
-0.11219328 -0.08449401 0.014100234 0.13626122 0.16189109 -0.12949115 -0.0154610155 0.18695173
0.065147534 -0.033269744 -0.069317035 -0.059725277 0.19711433 0.27811006 0.006611327 -0.109688476
-0.10919452 -0.154458 -0.10335193 -0.09929333 -0.13351884 0.09137674 0.10723176 -0.09786741
-0.21297303 -0.11341791 0.030810123 0.10724289 -0.050165482 0.027101316 -0.040739723 -0.02012863
0.20620762 0.11837977 0.14533493 0.13043107 0.02922469 0.085860245 -0.00076450716 -0.0425608
0.1315403 0.19190589 0.16574131 0.037232302 -0.099264845 0.07232877 -0.074773446 -0.026713127
-0.033174276 -0.11907442 0.38738504 0.19807819 0.13312867 0.001933578 -0.0042472114 0.21078548
0.13557796 0.04590066 -0.1638059 -0.14259012 0.047144275 0.032607764 -0.13506657 -0.14757873
-0.20645246 -0.022062238 -0.25846216 -0.31303027 -0.29041335 -0.25627097 -0.16692568 -0.23317459
-0.1918499 -0.18489505 -0.06139768 0.29959285 0.31113803 0.17686301 0.08923291 0.14712188
0.25665337 0.33463556 0.23930606 0.11244721 0.009507265 0.056132693 -0.07187382 0.07080715
-0.13877155 -0.024409777 -0.037847657 -0.13336283 -0.028091194 -0.090945385 -0.08150299 0.06401647
-0.21175718 -0.1586388 -0.1572314 -0.16666937 0.15635838 0.19756193 0.07552283 0.07626095
0.15746664 0.2881884 0.20645505 0.026233971 -0.096772656 -0.09423535 0.070112534 -0.10727949
-0.08504973 -0.16230382 -0.20990212 -0.07856562 -0.1756988 -0.22828554 -0.17647238 -0.18155013
-0.063546404 -0.07683688 -0.075694256 -0.1051192 -0.117598504 -0.094776 0.111292884 0.03702879
-0.02396028 0.13083543 0.1643335 0.17508237 0.085658364 0.04917313 0.0035488894 0.060943518
0.120592125 0.22749375 -0.0026504705 -0.0699259 0.08812695 -0.038437605 -0.007609541 -0.07527874
-0.20347962 0.12659961 0.054446556 -0.112386174 -0.15703638 -0.039791014 -0.17468746 -0.10675051
0.06892638 0.13228582 0.33310795 -0.049438257 -0.06614081 -0.19955821 -0.01925702 -0.0531332
0.21744116 0.14915876 -0.07655118 -0.008464761 -0.06520592 -0.011784188 0.13588974 0.019560764
0.012353323 -0.040967632 -0.01443372 -0.20319189 -0.19827268 -0.15993124 -0.1622414 -0.08102749
-0.12547679 -0.12849548 -0.09766079 0.074681565 0.10352684 0.12335379 -0.07325313 -0.03736859
0.1258318 0.07590585 -0.023410423 0.096571475 -0.0074050836 0.07207969 -0.14764234 -0.1272148
-0.06603297 -0.11206033 0.023687862 -0.0052423715 -0.17318976 -0.13827781 -0.1736408 0.076699875
-0.050316174 -0.2907131 -0.037237026 0.13628769 -0.19082348 -0.20715739 -0.1879458 -0.033417042
-0.056231085 -0.16774635 -0.032406885 0.2033766 0.028003737 -0.06871 -0.20246208 -0.016102193
0.35905188 0.13977057 0.3591228 -0.089094624 0.024457702 0.23519485 0.1681815 0.37619245
-0.10811975 -0.21646754 -0.22880036 -0.28796628 -0.10719895 -0.06295925 -0.022030724 -0.032920316
0.0095835 0.033958055 0.028932875 -0.13658673 0.0135923335 0.13490157 0.14811842 0.1054824
-0.016036486 0.03838375 0.23601018 0.22896464 0.23100166 0.15166701 0.16472062 0.07628489
0.14754464 0.2056415 -0.16715822 -0.28651282 -0.27655834 -0.12980205 -0.09617721 -0.10534574
00000000: 97c5 e5bd 320b adbd ab04 673c 1088 0b3e
00000010: c7c6 253e 5499 04be 3350 7dbc 4670 3f3e
00000020: 126c 853d db45 08bd 17f6 8dbd 7ea2 74bd
00000030: 57d8 493e 7164 8e3e d5a3 d83b 5aa4 e0bd
00000040: 60a1 dfbd 3d2a 1ebe 2daa d3bd 4d5a cbbd
00000050: 2ab9 08be ba23 bb3d 539c db3d b56e c8bd
00000060: 9a15 5abe a647 e8bd 8365 fc3c 29a2 db3d
00000070: 527a 4dbd 9403 de3c b2de 26bd cce4 a4bc
00000080: 1728 533e 1871 f23d aed2 143e b98f 053e
00000090: 9e68 ef3c 7fd7 af3d 3569 48ba 3c54 2ebd
000000a0: 80b2 063e fa82 443e 17b8 293e e680 183d
000000b0: 5e4b cbbd 1b21 943d d222 99bd 7dd5 dabc
000000c0: c0e1 07bd 4add f3bd 5557 c63e 02d5 4a3e
000000d0: e252 083e 1d70 fd3a 312c 8bbb 26d8 573e
000000e0: f3d4 0a3e 5502 3c3d bcbc 27be 2503 12be
000000f0: 5b1a 413d b88f 053d e44e 0abe e11e 17be
00000100: 4668 53be debb b4bc 2755 84be 8145 a0be
00000110: 0fb1 94be f335 83be 91ee 2abe 52c5 6ebe
00000120: 4d74 44be 2155 3dbe 227c 7bbd 3c64 993e
00000130: 7c4d 9f3e 941b 353e bebf b63d 1ea7 163e
00000140: 1268 833e 5a55 ab3e a60c 753e b94a e63d
00000150: 5cc4 1b3c 65eb 653d 9532 93bd 5703 913d
00000160: 211a 0ebe 03f7 c7bc 2506 1bbd 4490 08be
00000170: 811f e6bc 9341 babd 0aeb a6bd 111b 833d
00000180: e0d6 58be 3672 22be 4501 21be 60ab 2abe
00000190: 691c 203e ad4d 4a3e b7ab 9a3d b32e 9c3d
000001a0: ef3e 213e 6e8d 933e f468 533e a0e8 d63c
000001b0: be30 c6bd 77fe c0bd 2997 8f3d 59b5 dbbd
000001c0: 8e2e aebd f932 26be 95f0 56be 03e7 a0bd
000001d0: 63ea 33be afc3 69be 2db5 34be 47e8 39be
000001e0: 9e24 82bd a75c 9dbd 9705 9bbd bc48 d7bd
000001f0: 7cd7 f0bd eb19 c2bd 86ed e33d 80ab 173d
00000200: 5948 c4bc b9f9 053e 0b47 283e cb48 333e
00000210: a76d af3d c469 493d 7c94 683b e99f 793d
00000220: 01f9 f63d 1ff4 683e 84b3 2dbb 4f35 8fbd
00000230: e77b b43d c070 1dbd 7559 f9bb bd2b 9abd
00000240: f65c 50be 54a3 013e 5a03 5f3d b92a e6bd
00000250: 25ce 20be e7fb 22bd 45e1 32be 03a0 dabd
00000260: 4629 8d3d ef75 073e 208d aa3e c57f 4abd
00000270: d574 87bd fd58 4cbe e6c0 9dbc 33a2 59bd
00000280: e5a8 5e3e 13bd 183e ddc6 9cbd c8af 0abc
00000290: ae8a 85bd 7812 41bc ae26 0b3e e53d a03c
000002a0: 9865 4a3c adcd 27bd 697b 6cbc 8911 50be
000002b0: fe07 4bbe 04c5 23be 9c22 26be bef1 a5bd
000002c0: fd7c 00be 5294 03be 6102 c8bd a6f2 983d
000002d0: e105 d43d e9a0 fc3d bd05 96bd ce0f 19bd
000002e0: 0dda 003e 8774 9b3d 37c7 bfbc 44c7 c53d
000002f0: 58a6 f2bb 849e 933d 8e2f 17be 9944 02be
00000300: 4b3c 87bd e37f e5bd 0c0d c23c 33c8 abbb
00000310: a858 31be b398 0dbe e5ce 31be d314 9d3d
00000320: 5518 4ebd 59d8 94be da85 18bd 008f 0b3e
00000330: 3b67 43be 1121 54be dd74 40be 4fe0 08bd
00000340: 9152 66bd b3c5 2bbe 15bd 04bd f541 503e
00000350: 1868 e53c d4b7 8cbd 3852 4fbe bfe8 83bc
00000360: a6d5 b73e 0420 0f3e f2de b73e 3e77 b6bd
00000370: 855b c83c ebd6 703e c537 2c3e 4c9c c03e
00000380: e36d ddbd aba9 5dbe a44a 6abe 5170 93be
00000390: 208b dbbd c7f0 80bd c779 b4bc 74d7 06bd
000003a0: 1d04 1d3c 9a17 0b3d a304 ed3c 64dd 0bbe
000003b0: 61b2 5e3c a323 0a3e 5bac 173e 2807 d83d
000003c0: f35e 83bc 4738 1d3d a7ac 713e b575 6a3e
000003d0: b38b 6c3e 994e 1b3e 86ac 283e 413b 9c3d
000003e0: f115 173e af93 523e 862b 2bbe cfb1 92be
000003f0: 0e99 8dbe d4ea 04be 8ff8 c4bd 82bf d7bd

conv2.bias f4 [16]
0.018905727 -0.032592863 0.10805479 -0.014925673 -0.0154513465 0.14905344 -0.03479027 0.1040619
-0.06897298 0.02242923 0.07159291 -0.038487185 -0.03139837 -0.030326298 0.03930815 -0.10258359
00000000: 2fe0 9a3c 1880 05bd d44b dd3d cf8a 74bc
00000010: a527 7dbc 77a1 183e 3e80 0ebd 681e d53d
00000020: b541 8dbd 81bd b73c 4e9f 923d bda4 1dbd
00000030: 949b 00bd db6e f8bc 9501 213d 5817 d2bd

fc1.weight f4 [120, 400]
-0.0779594 -0.014303565 0.0069043688 -0.10664587 -0.072237 -0.05632583 0.009300954 -0.009261637
-0.055314954 -0.05103303 -0.035277527 0.025380606 0.048518974 0.016949357 -0.07379088 -0.066448875
-0.0015430119 -0.021438338 -0.00067006744 0.005701062 -0.05866154 0.002297674 -0.018232118 -0.001745113
-0.06818681 0.01758172 -0.018988613 -0.03479658 -0.01890789 -0.025916353 0.009821845 0.015497735
0.012239554 0.011633901 -0.021559153 -0.050311167 -0.0671983 -0.0507906 -0.011083058 -0.035283048
0.08434693 0.08848012 0.042237755 0.039513797 0.0105273565 -0.01657804 0.07224185 0.0032743288
0.14944066 0.04603402 -0.0796713 -0.031198435 -0.057339344 -0.062196374 0.0032759388 -0.021086242
-0.12890461 -0.05949386 -0.08690096 -0.101921566 -0.06294244 -0.016455 -0.025058959 -0.0661595
-0.06937791 0.027711743 -0.07056632 -0.07682526 -0.100534275 -0.055005915 -0.09448004 -0.099980555
0.008716982 0.00433202 -0.08054329 -0.0019414328 0.017340694 -0.0010535247 -0.012958424 -0.01730453
-0.0093891835 -0.0029693895 0.026381798 -0.04102861 0.028384477 0.04132618 0.030991469 -0.042777557
0.014501343 -0.016349526 0.045066778 0.041303176 0.0036367634 -0.019945638 0.033980414 0.0036060864
0.03453957 0.013883834 -0.047789626 0.03729694 -0.03129048 -0.047127638 0.029295374 0.038519178
-0.032902304 -0.004344984 0.01389124 -0.012510405 0.019515518 0.011490552 0.047860585 0.045575436
-0.012947756 -0.028280497 0.015418671 -0.044392914 0.010933678 0.026192777 0.032342274 0.0092558125
0.042154755 0.016519727 0.051384285 -0.07659045 0.047398213 0.07626312 -0.0035939552 -0.00055795
0.045655753 -0.008515263 0.011710405 -0.023704978 0.0050952532 -0.01796158 0.011467802 0.026558738
0.034838386 -0.05019871 -0.04129862 0.05998189 0.07994737 0.026836414 -0.038042404 -0.031196076
0.0011789278 0.13011742 -0.029307071 0.008973324 0.10565337 0.14574853 0.026997345 -0.04429943
0.039565284 0.021783886 0.009253987 0.046344783 0.025943413 0.0022567555 -0.0149560515 -0.01075098
0.035856612 -0.006624617 -0.019639155 0.056125037 -0.04144781 -0.011161201 0.0061541675 0.062594086
-0.018459018 -0.07345061 0.011291643 0.031205006 -0.008509358 0.005159937 -0.04233198 -0.015187357
0.028117714 0.018875344 -0.03168945 -0.011809797 -0.0030611476 -0.049019884 0.1158837 0.020319061
-0.05283424 -0.01077741 -0.0022424038 -0.016475717 0.00046797923 0.042685807 0.0051360996 0.02296769
0.01640994 -0.028446874 0.049546096 -0.029737562 -0.031307433 0.05991406 0.03800137 0.071876444
-0.040867448 -0.038765073 -0.007754317 -0.0042204983 0.028586414 -0.077444784 -0.061088644 -0.068060406
0.029373527 0.06406007 -0.06505811 -0.015186316 0.019960212 -0.023865368 0.0005807857 0.032143563
-0.05901519 0.008948508 0.06581025 0.07825331 -0.009844929 -0.06840374 -0.0095345285 0.05077785
0.004691594 0.09254079 0.050169922 -0.057998553 -0.026572233 0.033276655 0.09759262 -0.011029391
-0.08820778 0.057625514 0.011235551 0.01344815 -0.042031225 -0.08046925 -0.012237778 0.01802032
0.079802126 0.100502916 -0.029935308 -0.02138017 0.004576255 0.06328684 0.08649915 -0.092585035
-0.05134865 0.10179325 0.044580624 -0.027283914 0.02478441 -0.055929538 -0.0022781736 -0.039020978
00000000: 2ea9 9fbd 8059 6abc 0b3e e23b 2669 dabd
00000010: fef0 93bd eab5 66bd 0763 183c 1fbe 17bc
00000020: ef91 62bd 0308 51bd 2b7f 10bd fdea cf3c
00000030: d5bb 463d 61d9 8a3c ac1f 97bd 5916 88bd
00000040: e33e caba 749f afbc 77a7 2fba f9cf ba3b
00000050: 1547 70bd 9394 163b 865b 95bc 47bc e4ba
00000060: 87a5 8bbd 8a07 903c 028e 9bbc dc86 0ebd
00000070: b8e4 9abc 884e d4bc ceeb 203c 36ea 7d3c
00000080: 6988 483c 1e9c 3e3c d29c b0bc 1513 4ebd
00000090: 439f 89bd ce09 50bd b795 35bc f584 10bd
000000a0: 15be ac3d 1135 b53d 7f01 2d3d 38d9 213d
000000b0: ef7a 2c3c abce 87bc 89f3 933d 1f96 563b
000000c0: f906 193e 2b8e 3c3d b52a a3bd dc93 ffbc
000000d0: a9dc 6abd a0c1 7ebd 22b1 563b 0ebd acbc
000000e0: 92ff 03be d5af 73bd 21f9 b1bd 41bc d0bd
000000f0: f7e7 80bd a3cc 86bc 7248 cdbc a27e 87bd
00000100: 0116 8ebd bd03 e33c 1385 90bd 9056 9dbd
00000110: eae4 cdbd e24d 61bd c07e c1bd 9bc2 ccbd
00000120: acd1 0e3c 9ef3 8d3b e1f3 a4bd ad77 feba
00000130: 120e 8e3c 6c16 8aba 924f 54bc 3bc2 8dbc
00000140: 17d5 19bc 179a 42bb a41e d83c 9e0d 28bd
00000150: 9086 e83c a445 293d d2e1 fd3c 8537 2fbd
00000160: 0a97 6d3c 71ef 85bc f197 383d 852d 293d
00000170: c456 6e3b 0965 a3bc 0c2f 0b3d 1754 6c3b
00000180: 5d79 0d3d 0579 633c 0ebf 43bd adc4 183d
00000190: 722a 00bd e908 41bd dafc ef3c 49c6 1d3d
000001a0: 91c4 06bd 5e60 8ebb 1598 633c 71f8 4cbc
000001b0: 02df 9f3c de42 3c3c 7609 443d 4fad 3a3d
000001c0: d322 54bc 80ac e7bc 989e 7c3c 58d5 35bd
000001d0: 2b23 333c 3c92 d63c 5579 043d b1a5 173c
000001e0: 77aa 2c3d 6154 873c 5478 523d 74db 9cbd
000001f0: a124 423d d72f 9c3d 9088 6bbb 6443 12ba
00000200: 8701 3b3d 9a83 0bbc 00dd 3f3c f130 c2bc
00000210: 15f6 a63b 2a24 93bc 73e3 3b3c b691 d93c
00000220: b2b2 0e3d 2a9d 4dbd be28 29bd 92af 753d
00000230: 72bb a33d 0ad8 db3c 5ad2 1bbd ea8e ffbc
00000240: 4186 9a3a 803d 053e 6215 f0bc d904 133c
00000250: cb60 d83d 1a3f 153e 8929 dd3c 5273 35bd
00000260: 350f 223d 1f74 b23c 099e 173c 07d4 3d3d
00000270: 4887 d43c 13e6 133b 3a0a 75bc e124 30bc
00000280: 62de 123d 5113 d9bb 4be2 a0bc 5ee3 653d
00000290: 2ec5 29bd 78dd 36bc e6a8 c93b 5431 803d
000002a0: 5e37 97bc 466d 96bd 9500 393c a4a1 ff3c
000002b0: d66a 0bbc b014 a93b 4c64 2dbd 64d4 78bc
000002c0: 1f57 e63c 77a0 9a3c cccc 01bd e17d 41bc
000002d0: 899d 48bb 13c9 48bd 6f54 ed3d 2974 a63c
000002e0: b768 58bd bc93 30bc 4bf5 12bb 15f8 86bc
000002f0: 1c5b f539 50d7 2e3d ba4c a83b bd26 bc3c
00000300: 236e 863c 6b09 e9bc d9f0 4a3d 309c f3bc
00000310: 393c 00bd 7268 753d 53a7 1b3d f533 933d
00000320: a064 27bd 20c8 1ebd ed17 febb 1b4c 8abb
00000330: 0e2e ea3c 5f9b 9ebd 1638 7abd 4163 8bbd
00000340: c0a0 f03c ed31 833d 303d 85bd 07d0 78bc
00000350: 9983 a33c 4e81 c3bc de3f 183a f8a8 033d
00000360: e9b9 71bd c39c 123c 86c7 863d 4543 a03d
00000370: a04c 21bc 4317 8cbd b636 1cbc 6ffc 4f3d
00000380: f1bb 993b 0786 bd3d fa7e 4d3d e48f 6dbd
00000390: 03ae d9bc 1a4d 083d a4de c73d 9eb4 34bc
000003a0: 48a6 b4bd bb08 6c3d 5115 383c a155 5c3c
000003b0: ef28 2cbd 10cd a4bd f680 48bc 5a9f 933c
000003c0: 4c6f a33d 79d4 cd3d e43a f5bc 7725 afbc
000003d0: 69f4 953b 889c 813d 7726 b13d 399d bdbd
000003e0: f652 52bd fb78 d03d 2c9a 363d 8482 dfbc
000003f0: ad08 cb3c 5f16 65bd 694d 15bb 76d4 1fbd

fc1.bias f4 [120]
0.061066493 0.0012548255 0.029495487 0.068872936 0.016455313 0.08459537 -0.015239303 0.077831015
-0.04094538 -0.028301245 -0.020340318 -0.014119832 0.091665104 -0.0037477482 -0.060015444 0.008995234
0.04890787 0.09743834 -0.06394506 0.048811518 -0.01477689 0.18778066 -0.024007931 0.037134264
0.0640082 -0.018408928 0.059862234 0.048891935 -0.022541894 0.006337225 0.0745884 -0.012234984
-0.027784524 0.14410754 0.058184307 -0.048390333 -0.023878643 -0.07522624 -0.021179866 0.009604927
-0.04517495 0.032160625 0.0025002433 0.022125961 -0.021288283 -0.03993558 0.1071677 0.0066039953
-0.027841214 0.0118864095 0.06002322 -0.014670394 -0.04513525 0.07923773 -0.011883994 -0.0027826882
-0.027083261 -0.05813633 0.019698877 -0.05583089 -0.0068749133 0.06064496 0.06754182 0.044583287
0.058976207 0.010518961 0.008847447 0.009646924 -0.028941859 -0.04072712 0.03884035 -0.0032869044
-0.0022248626 -0.03271725 0.060550783 -0.020347485 -0.04246581 -0.011640343 -0.006748496 0.009945419
0.119244576 -0.01071552 0.023735516 0.008137152 -0.04018077 0.13405713 0.06458737 -0.02095256
0.007221575 0.018443039 0.010970059 -0.010258885 0.069264814 0.017977083 0.06306953 0.04306449
-0.004756586 -0.033309225 -0.036166266 0.0023357866 -0.028370313 0.022496955 0.047019113 -0.0062117158
0.039994866 -0.012872169 -0.04162869 -0.021731652 -0.0060412735 -0.005741199 0.015865397 0.020342704
0.0082920855 0.082201995 0.056640413 0.024664648 -0.0028612574 -0.021735754 0.05580372 -0.031618513
00000000: dc20 7a3d f578 a43a 85a0 f13c 410d 8d3d
00000010: 4bcd 863c 5640 ad3d 45ae 79bc de65 9f3d
00000020: 58b6 27bd 03d8 e7bc bda0 a6bc de56 67bc
00000030: eaba bb3d c89c 75bb c1d2 75bd bf60 133c
00000040: 9e53 483d c18d c73d a1f5 82bd 96ee 473d
00000050: c51a 72bc 9349 403e 48ac c4bc 191a 183d
00000060: bb16 833d 52ce 96bc 1a32 753d e942 483d
00000070: c7a9 b8bc 7fa8 cf3b cec1 983d 3e75 48bc
00000080: 5f9c e3bc ed90 133e ab52 6e3d f134 46bd
00000090: 259d c3bc 3710 9abd 6681 adbc fc5d 1d3c
000000a0: 5e09 39bd dcba 033d 1fdb 233b 8141 b53c
000000b0: c464 aebc 7e93 23bd bd7a db3d 5466 d83b
000000c0: 4213 e4bc 37bf 423c e8da 753d 185c 70bc
000000d0: bddf 38bd 6447 a23d 15b5 42bc c35d 36bb
000000e0: b7dd ddbc 5c20 6ebd 8a5f a13c eeae 64bd
000000f0: f446 e1bb d966 783d 5e53 8a3d f79c 363d
00000100: 0991 713d b857 2c3c e2f4 103c 220e 1e3c
00000110: 7a17 edbc 7bd1 26bd 0f17 1f3d 1b69 57bb
00000120: 00cf 11bb 8602 06bd 1904 783d c5af a6bc
00000130: a1f0 2dbd 23b7 3ebc 7d22 ddbb 1cf2 223c
00000140: 8036 f43d 2690 2fbc fc70 c23c b051 053c
00000150: 9794 24bd 4646 093e 6246 843d b4a4 abbc
00000160: f6a2 ec3b db15 973c c3bb 333c e214 28bc
00000170: b6da 8d3d ad44 933c 992a 813d 6464 303d
00000180: 23dd 9bbb 416f 08bd 1423 14bd ff13 193b
00000190: dc68 e8bc 894b b83c 1d97 403d a68b cbbb
000001a0: a8d1 233d cae5 52bc d882 2abd 9406 b2bc
000001b0: e0f5 c5bb ab20 bcbb 26f8 813c bea5 a63c
000001c0: 87db 073c 8559 a83d c7ff 673d 840d ca3c
000001d0: ef83 3bbb 2e0f b2bc 7192 643d 6a82 01bd

fc2.weight f4 [84, 120]
-0.17186378 0.116582155 -0.012204801 0.16246508 0.0017215847 -0.12522177 0.009842917 -0.19946632
0.01986275 -0.047931246 -0.0301241 -0.03467333 -0.04315651 0.044319887 -0.10116761 0.011694271
-0.061879806 0.13565436 0.07725905 -0.09825318 0.02075993 -0.014281988 -0.10907798 -0.113765426
-0.09946325 0.053751916 0.038263425 0.19946276 -0.028332088 -0.036575504 -0.16149208 0.029877052
0.13081247 0.005520027 0.095445216 0.04817213 0.094942525 0.0764002 -0.033720404 0.11250062
0.054657713 -0.008474485 -0.033528063 -0.015142113 -0.13233666 0.040857922 -0.15805659 -0.08467777
0.05782409 0.08587902 -0.10167333 -0.05670213 0.018753625 0.048937123 0.13887914 0.08314538
0.04051379 0.021236073 -0.09586596 0.12973616 0.053598482 0.07465226 -0.03958015 0.010853376
-0.069913164 -0.0059649856 0.13359727 0.049073294 0.02132926 0.084409654 0.085392654 -0.04989715
-0.09513815 -0.040456694 -0.014376306 0.060815092 -0.049530115 0.016445594 -0.18343692 -0.23470889
0.015417964 0.06098362 -0.03773003 0.0900967 0.094203934 -0.12183177 0.0223534 0.12684703
0.034362618 -0.024449097 0.1021777 -0.032500826 0.025629772 0.08319043 0.09263467 -0.1512155
-0.08938633 0.220818 0.043204304 0.102256335 -0.06588541 -0.13370243 0.06876133 -0.029911747
0.00029304507 -0.03782681 0.052887604 0.015745008 -0.06917718 0.023164907 -0.00670352 -0.046701837
-0.09248682 0.019196438 -0.11077516 0.020370482 0.029344976 -0.03932833 -0.072864346 -0.10591631
0.14204507 -0.14302249 0.047323518 0.023687284 -0.003624426 0.025730258 -0.08200631 0.08669765
-0.040508054 0.022409232 -0.08830996 0.050111353 -0.15018044 -0.15571621 -0.012560477 0.065796204
-0.078513734 -0.06838065 -0.08373843 -0.07423663 0.026573507 -0.032571428 0.031076724 0.0042818934
0.0700753 0.07275533 0.007445923 -0.11416497 0.053512964 0.028939715 0.12882797 -0.004295412
0.05309307 0.15617682 -0.037848208 0.049551144 -0.09983307 -0.050192203 -0.021209346 0.0151359495
0.08884261 -0.14508519 -0.11679169 0.12436139 0.19968618 0.07026023 -0.020514568 -0.0567445
-0.044130202 -0.028996797 0.056875873 0.033641428 0.0075644767 -0.06094586 -0.16474944 -0.19854885
-0.00307481 0.10262857 -0.09723026 -0.016132947 -0.018184546 0.039955214 -0.056937158 0.09153027
0.19064018 0.08769961 0.04448709 -0.048247624 -0.24058805 0.046862382 -0.08677624 -0.02820401
0.026783388 0.115934655 0.16925925 -0.02206176 -0.057825897 -0.091668256 0.14608113 0.19744273
0.17980176 0.047765065 0.061792564 -0.030764287 -0.056427084 0.027462067 -0.24147421 0.099615544
-0.065069325 -0.1382278 0.054900505 0.0914527 0.19372037 -0.10813659 -0.047449794 0.02021779
0.03920683 -0.08213916 -0.009960185 -0.11727552 -0.006508542 0.08284919 0.0052262256 0.0656328
-0.019362276 0.042821925 0.029037446 0.092360474 -0.111050546 0.021231474 0.051192895 0.019292979
-0.12534589 0.11596008 -0.074514516 -0.07184258 0.04459845 0.026984265 0.013070522 -0.07735396
-0.16122137 -0.064165294 0.010843683 0.02694719 0.011145119 -0.008278195 0.0046322965 0.08018149
0.036244977 -0.06345236 -0.06984523 0.05596644 0.051196255 0.05766317 -0.0447396 -0.009535743
00000000: 0ffd 2fbe a0c2 ee3d a5f6 47bc 3f5d 263e
00000010: cca6 e13a 233a 00be 3044 213c e640 4cbe
00000020: 35b7 a23c 8e53 44bd d1c6 f6bc 9f05 0ebd
00000030: e1c4 30bd c588 353d f730 cfbd 5499 3f3c
00000040: ae75 7dbd fae8 0a3e fe39 9e3d f738 c9bd
00000050: bb10 aa3c 00ff 69bc 4764 dfbd d9fd e8bd
00000060: 63b3 cbbd f82a 5c3d 1cba 1c3d f73f 4c3e
00000070: b218 e8bc 32d0 15bd 2e5e 25be b8c0 f43c
00000080: b4f3 053e 58e1 b43b c878 c33d 2450 453d
00000090: 3a71 c23d b577 9c3d 681e 0abd ba66 e63d
000000a0: c4e0 5f3d 91d8 0abc b954 09bd a016 78bc
000000b0: 4383 07be a35a 273d 96d9 21be 8a6b adbd
000000c0: f4d8 6c3d 57e1 af3d 1b3a d0bd 7e40 68bd
000000d0: 34a1 993c 4b72 483d 5536 0e3e 2048 aa3d
000000e0: caf1 253d 46f7 ad3c 5f55 c4bd 8ed9 043e
000000f0: 158a 5b3d 49e3 983d cc1e 22bd 5cd2 313c
00000100: a22e 8fbd ed75 c3bb b9cd 083e 1401 493d
00000110: b3ba ae3c f8de ac3d 58e2 ae3d f460 4cbd
00000120: cad7 c2bd ebb5 25bd 998a 6bbc 3f19 793d
00000130: 17e0 4abd e9b8 863c e3d6 3bbe 8757 70be
00000140: a19b 7c3c f6c9 793d ce8a 1abd 9e84 b83d
00000150: feed c03d ef82 f9bd 7a1e b73c 30e4 013e
00000160: d1bf 0c3d 7949 c8bc 8b42 d13d 961f 05bd
00000170: 87f5 d13c bf5f aa3d 3fb7 bd3d 3cd8 1abe
00000180: 2e10 b7bd 1d1e 623e fff6 303d c56b d13d
00000190: eeee 86bd 4ae9 08be bdd2 8c3d 7b09 f5bc
000001a0: d8a3 9939 49f0 1abd aca0 583d adfb 803c
000001b0: c4ac 8dbd 55c4 bd3c 34a9 dbbb 6d4a 3fbd
000001c0: bb69 bdbd d941 9d3c 16de e2bd ffdf a63c
000001d0: e064 f03c be16 21bd e739 95bd a6ea d8bd
000001e0: 4374 113e 7d74 12be 4ed6 413d d60b c23c
000001f0: c787 6dbb 43c8 d23c edf2 a7bd 8a8e b13d
00000200: c6eb 25bd 9193 b73c dadb b4bd 9041 4d3d
00000210: e7c8 19be 1274 1fbe 75ca 4dbc 29c0 863d
00000220: cfcb a0bd 270b 8cbd 0e7f abbd 6009 98bd
00000230: afb0 d93c 9e69 05bd 9d94 fe3c 204f 8c3b
00000240: a483 8f3d bf00 953d eefc f33b 53cf e9bd
00000250: 6930 5b3d fb12 ed3c 7beb 033e 87c0 8cbb
00000260: 1e78 593d d1ec 1f3e b906 1bbd 24f6 4a3d
00000270: 4875 ccbd 5796 4dbd 39bf adbc c6fc 773c
00000280: 1df3 b53d 3691 14be 7b30 efbd 2fb1 fe3d
00000290: 897a 4c3e 98e4 8f3d 2b0e a8bc ec6c 68bd
000002a0: dfc1 34bd b18a edbc adf6 683d 98cb 093d
000002b0: 6edf f73b 5ea2 79bd 14b4 28be 6450 4bbe
000002c0: c082 49bb ed2e d23d a920 c7bd 3e29 84bc
000002d0: c2f7 94bc 14a8 233d f036 69bd 3974 bb3d
000002e0: 2e37 433e da9b b33d 1838 363d 4d9f 45bd
000002f0: b75c 76be c5f2 3f3d beb7 b1bd 190c e7bc
00000300: d668 db3c 266f ed3d 4c52 2d3e ddba b4bc
00000310: d9da 6cbd 91bc bbbd 4b96 153e 6d2e 4a3e
00000320: f41d 383e 4da5 433d 331a 7d3d 6305 fcbc
00000330: 1620 67bd 21f8 e03c 0445 77be 3c03 cc3d
00000340: 1143 85bd 978b 0dbe 5adf 603d 8e4b bb3d
00000350: a25e 463e b776 ddbd b75a 42bd c79f a53c
00000360: 5797 203d 9338 a8bd 0b30 23bc 262e f0bd
00000370: 9c45 d5bb d6ac a93d c240 ab3b 7d6a 863d
00000380: a39d 9ebc 0b66 2f3d f0df ed3c 7d27 bd3d
00000390: 786e e3bd a1ed ad3c a4af 513d 4f0c 9e3c
000003a0: ac5a 00be 7a7c ed3d 119b 98bd 3422 93bd
000003b0: ddac 363d 1b0e dd3c be25 563c c16b 9ebd
000003c0: 3717 25be 1869 83bd b4a9 313c 5ac0 dc3c
000003d0: 049a 363c 44a1 07bc 85ca 973b 3136 a43d
000003e0: 9d75 143d 50f3 81bd 040b 8fbd 113d 653d
000003f0: 2ab3 513d 3730 6c3d df40 37bd ce3b 1cbc

fc2.bias f4 [84]
0.027647063 0.09410634 0.031791236 -0.003676015 0.10562145 -0.051333044 -0.07329583 0.046233237
0.08036301 0.16166037 -0.03978979 -0.054829203 -0.051598 0.025448583 0.01808488 -0.0696383
0.10486156 -0.043280557 0.018372023 0.14329652 -0.05452532 0.3014238 -0.030695632 0.21388985
0.1723004 0.2089129 0.09062679 0.04804601 0.09006003 -0.057773504 0.08343661 -0.04470168
-0.041050173 0.13327937 0.036760285 -0.04647088 0.26053652 -0.0035758594 0.02775596 0.03954794
-0.038395677 0.02984087 0.07428178 -0.04814798 0.03906785 -0.047118247 0.028364323 0.11429721
-0.060177024 0.15969038 -0.002552337 0.016282484 -0.053125743 0.031044265 -0.09753769 -0.056025226
0.013165605 0.20104228 0.11876469 0.011848221 -0.020523638 0.052093226 0.11537995 0.08954106
0.06306461 0.23695633 0.061845243 0.0022744804 -0.086343795 0.091772094 0.0016299236 0.013755689
-0.072230205 0.050911315 -0.08857998 0.10363972 -0.05700553 0.021753043 0.08162859 -0.06444485
0.08195529 -0.07700552 0.14016145 0.0015583478
00000000: 187c e23c d3ba c03d 8737 023d 4ce9 70bb
00000010: 0f50 d83d 9942 52bd 201c 96bd 105f 3d3d
00000020: 5d95 a43d 4c8a 253e 9efa 22bd 9694 60bd
00000030: 6d58 53bd 8c79 d03c be26 943c 869e 8ebd
00000040: a8c1 d63d f446 31bd ed80 963c 53bc 123e
00000050: f155 5fbd 3854 9a3e 6875 fbbc f105 5b3e
00000060: 846f 303e 43ed 553e 8a9a b93d e5cb 443d
00000070: 6571 b83d e9a3 6cbd d0e0 aa3d 1c19 37bd
00000080: 3a24 28bd 637a 083e f491 163d 4058 3ebd
00000090: 0b65 853e f758 6abb 7860 e33c 05fd 213d
000000a0: c944 1dbd d774 f43c 0c21 983d d136 45bd
000000b0: 9c05 203d 10ff 40bd 4c5c e83c a814 ea3d
000000c0: 2f7c 76bd e085 233e 1c45 27bb d862 853c
000000d0: 619a 59bd 8b50 fe3c d7c1 c7bd b57a 65bd
000000e0: 8db4 573c 07de 4d3e e73a f33d 0a1f 423c
000000f0: 3021 a8bc b55f 553d 534c ec3d 4e61 b73d
00000100: 0528 813d aea4 723e 7051 7d3d 730f 153b
00000110: 04d5 b0bd 02f3 bb3d 29a3 d53a 8b5f 613c
00000120: 6eed 93bd 6288 503d 6c69 b5bd 1041 d43d
00000130: a17e 69bd 7033 b23c e42c a73d a9fb 83bd
00000140: 2dd8 a73d 12b5 9dbd 7c86 0f3e 7a41 cc3a

fc3.weight f4 [19, 84]
-0.028089644 0.32340127 -0.23846632 -0.006089536 -0.17586304 -0.039410193 -0.37673706 -0.30718824
-0.043167427 -0.07178953 -0.29856828 0.18497476 0.048007887 0.30039343 0.01167967 0.30491498
-0.24350023 0.08061462 0.12600738 -0.024507593 0.070303924 -0.12541565 0.19323754 -0.13522421
-0.085312344 -0.24408951 -0.2034665 0.22450526 -0.1360225 -0.09611963 -0.003769067 0.039988577
-0.024157168 -0.1256343 -0.067301184 0.08481086 -0.256516 -0.033557978 -0.044784628 0.16670777
-0.07424372 -0.11257664 -0.13713774 -0.10887361 0.2206903 -0.10880781 -0.40245503 0.2269739
-0.056186642 -0.036066685 0.19335806 0.4561334 -0.2297965 -0.16157266 -0.086162396 0.03786154
0.13351458 0.32511726 -0.029574255 0.070815444 0.099066556 -0.29556423 -0.19586572 0.19449924
0.32880378 0.031384617 0.017612036 -0.013736855 0.060200214 0.16425097 -0.013468917 -0.04073407
0.0095079215 0.03857583 0.04146488 -0.27947038 -0.01143429 0.3024224 0.0031882697 0.09645958
-0.12012132 -0.049620036 -0.07709199 0.18664488 -0.11683306 0.020757861 -0.16715233 0.079122454
-0.1669525 0.11873631 -0.042776212 0.14195342 -0.0018194944 -0.22245936 0.24593252 0.100720055
-0.011729795 0.32307935 -0.075950146 -0.31326798 0.010286225 -0.084474735 -0.06570896 0.16227521
-0.18880223 -0.359224 0.28489554 -0.13556397 -0.12144652 -0.1854252 0.15816821 0.48059052
-0.13603215 -0.04040087 -0.0338638 0.09054962 0.15506713 -0.09127696 0.06567753 0.04818141
-0.34592134 -0.023644827 -0.059714265 -0.22075434 0.10203877 -0.29387608 -0.13290147 0.001402501
0.04584688 -0.08179037 0.28777614 -0.100846514 -0.044877604 -0.19351956 0.10559888 0.18055221
-0.013075543 0.040456943 0.010917329 -0.039848473 0.092582956 0.29801652 0.40147853 0.03816554
-0.0642996 0.25878543 0.2213988 0.12273008 0.18350463 -0.013726144 -0.22102447 -0.20673335
-0.17192867 -0.23618035 0.25627366 -0.0066780043 0.0013564744 -0.13288605 0.020481415 -0.08961641
-0.05020262 0.30294436 -0.03045004 0.00304216 -0.18862993 -0.17036511 -0.1440793 -0.19276538
-0.10294321 0.16688962 0.12146769 -0.1058341 -0.035782307 0.030478122 -0.15543118 0.36734426
-0.16126424 -0.07183864 0.06890737 0.10871178 -0.111809105 0.044845942 -0.10636514 -0.004730544
-0.013070444 0.03361361 0.03791679 -0.044333037 -0.1811902 -0.22465037 -0.0408206 -0.06393538
-0.062539004 -0.16673301 -0.102522306 -0.074558765 -0.2808786 0.0847269 0.42563212 -0.050699946
0.0068307943 -0.1950375 -0.107703604 0.28135866 -0.24889854 -0.12514047 -0.074249 -0.03371178
0.07420948 -0.15040328 -0.13636765 -0.060051907 0.19518496 -0.054942705 0.120581694 0.16171376
0.07926841 0.0001987095 0.0524689 0.0023915712 -0.049313303 0.18451984 0.04107434 -0.031899024
0.31626752 0.24047616 -0.20529859 -0.112433836 -0.14348696 -0.16370453 0.06564304 0.10680899
-0.08641361 -0.17192198 -0.19721444 0.1667531 -0.07036133 -0.19004455 0.18958516 -0.015075645
0.09404046 0.31895715 -0.06155066 -0.10077689 -0.07092843 0.20394072 0.1633893 -0.21017712
-0.22543539 -0.005065753 0.072043106 -0.19847026 -0.13295782 0.2601426 -0.008386078 -0.039134126
00000000: 411c e6bc da94 a53e 8430 74be bb8a c7bb
00000010: 7115 34be 956c 21bd aee3 c0be c747 9dbe
00000020: 54d0 30bd 6406 93bd f1dd 98be 066a 3d3e
00000030: eba3 443d 2bcd 993e 165c 3f3c d11d 9c3e
00000040: 2058 79be 4719 a53d 1408 013e 26c4 c8bc
00000050: 81fb 8f3d f66c 00be 10e0 453e 3778 0abe
00000060: 3db8 aebd 9af2 79be 8659 50be b5e4 653e
00000070: 7b49 0bbe 5eda c4bd 7402 77bb 10cb 233d
00000080: 41e5 c5bc 47a6 00be 34d5 89bd 51b1 ad3d
00000090: 1156 83be 1774 09bd 1670 37bd 71b5 2a3e
000000a0: 170d 98bd 958e e6bd d66d 0cbe 21f9 debd
000000b0: a3fc 613e a1d6 debd 960e cebe d96b 683e
000000c0: f723 66bd a9ba 13bd a8ff 453e 518a e93e
000000d0: c64f 6bbe 4e73 25be e975 b0bd b414 1b3d
000000e0: 0cb8 083e c575 a63e b545 f2bc b007 913d
000000f0: 68e3 ca3d 3254 97be 0691 48be cf2a 473e
00000100: f858 a83e 288d 003d 1e47 903c 8c10 61bc
00000110: 8094 763d 6831 283e bcac 5cbc c5d8 26bd
00000120: 1dc7 1b3c b101 1e3d 14d7 293d be16 8fbe
00000130: e356 3bbc 1cd7 9a3e 4af2 503b 9a8c c53d
00000140: 2b02 f6bd 613e 4bbd 68e2 9dbd d61f 3f3e
00000150: 2c46 efbd 640c aa3c fb29 2bbe f40a a23d
00000160: 99f5 2abe 062c f33d 1c36 2fbd 3d5c 113e
00000170: 1a7c eeba 63cc 63be bcd5 7b3e 5146 ce3d
00000180: 532e 40bc a86a a53e c08b 9bbd a964 a0be
00000190: 8e87 283c 1701 adbd 6b92 86bd 792b 263e
000001a0: 5f55 41be 35ec b7be d4dd 913e 48d1 0abe
000001b0: f4b8 f8bd 1be0 3dbe d9f6 213e f60f f63e
000001c0: 034c 0bbe 627b 25bd c5b4 0abd 1472 b93d
000001d0: ebc9 1e3e 6aef babd f181 863d df59 453d
000001e0: 9a1c b1be ccb2 c1bc f296 74bd 6d0d 62be
000001f0: b4f9 d03d ed76 96be 5317 08be 20d4 b73a
00000200: f0c9 3b3d b681 a7bd 6557 933e 9e88 cebd
00000210: 94d1 37bd fe29 46be 3a44 d83d aee2 383e
00000220: cd3a 56bc 2eb6 253d 99de 323c 2738 23bd
00000230: 229c bd3d 9f95 983e 988e cd3e 7853 1c3d
00000240: 82af 83bd 867f 843e 5eb6 623e e859 fb3d
00000250: a3e8 3b3e 9fe3 60bc 3d54 62be e8b1 53be
00000260: 120e 30be 43d9 71be 4d36 833e 29d3 dabb
00000270: bacb b13a 4813 08be a4c8 a73c cf88 b7bd
00000280: 43a1 4dbd 861b 9b3e 5d72 f9bc fa5e 473b
00000290: 3428 41be 3174 2ebe 8689 13be 4a64 45be
000002a0: e4d3 d2bd 1de5 2a3e 0dc4 f83d 8cbf d8bd
000002b0: 7890 12bd 41ad f93c 5a29 1fbe 8c14 bc3e
000002c0: 7422 25be 2320 93bd 4f1f 8d3d 48a4 de3d
000002d0: 2cfc e4bd 61b0 373d f7d5 d9bd ae02 9bbb
000002e0: 6a25 56bc 6dae 093d a34e 1b3d 8f96 35bd
000002f0: ec89 39be bf0a 66be 8033 27bd 8df0 82bd
00000300: 7314 80bd 0fbc 2abe 37f7 d1bd 44b2 98bd
00000310: 52cf 8fbe 4c85 ad3d 74ec d93e bfaa 4fbd
00000320: dbd4 df3b e9b7 47be b593 dcbd 3e0e 903e
00000330: 42df 7ebe d324 00be dc0f 98bd 5d15 0abd
00000340: 24fb 973d 5103 1abe f6a3 0bbe fdf8 75bd
00000350: 91de 473e 9a0b 61bd 89f3 f63d 4b98 253e
00000360: 7a57 a23d ad5c 5039 a1e9 563d e8bb 1c3b
00000370: bffc 49bd c5f2 3c3e 913d 283d 8da8 02bd
00000380: d1ed a13e 623f 763e cb39 52be b643 e6bd
00000390: 3fee 12be 29a2 27be dc6f 863d acbe da3d
000003a0: 9ef9 b0bd 510c 30be 95f2 49be 53c1 2a3e
000003b0: 9a19 90bd 0a9b 42be 9d22 423e d7ff 76bc
000003c0: 4998 c03d 5a4e a33e 8b1c 7cbd 1d64 cebd
000003d0: ed42 91bd d6d5 503e 864f 273e ac38 57be
000003e0: 89d8 66be 9efe a5bb 568b 933d ca3b 4bbe
000003f0: 1826 08be 6931 853e c365 09bc 1b4b 20bd

fc3.bias f4 [19]
-0.3113605 -0.10952272 0.04566776 0.011949756 -0.23638533 0.14451046 -0.32687423 0.04850576
-0.28080806 -0.077255175 0.31726724 -0.07033003 0.2625568 -0.0336236 0.0742498 0.19785103
0.015556601 0.21390788 -0.08103456
00000000: a56a 9fbe 734d e0bd 1e0e 3b3d e9c8 433c
00000010: ff0e 72be 8dfa 133e 0f5c a7be faad 463d
00000020: 13c6 8fbe f637 9ebd da70 a23e 3109 90bd
00000030: d86d 863e e6b8 09bd 4710 983d 7699 4a3e
00000040: 1de1 7e3c ab0a 5b3e 73f5 a5bd
