python/CNN12.pth (torch_old, 252622 bytes, 10 tensors)

conv1.weight f4 [6, 3, 5, 5]
000000 dc 4b d9 3e d8 e0 0a 3f 6c 7b 14 3f ed 6b e4 3e
       0.4244069 0.54249334 0.58000827 0.4461359
000010 85 28 11 3f d9 5d 9c 3c c5 3d 87 3d 2e 7a 7c 3d
       0.5670245 0.019087719 0.066035785 0.061639957
000020 ab d4 8f 3e 1f 00 70 3e 4a a2 40 3c 43 c5 51 be
       0.2809194 0.23437546 0.011757443 -0.20485406
000030 11 bf 46 be 61 d9 4d be d9 73 14 be 05 21 05 3e
       -0.19408824 -0.20102455 -0.14497317 0.13000877
000040 89 16 08 3e c1 de cb ba dd 19 da 3c 36 18 18 bd
       0.13289846 -0.0015554057 0.02662366 -0.037132464
000050 55 eb a7 3e 89 b1 0b 3f 9f e9 9c 3e 79 04 4a 3e
       0.32796732 0.5456777 0.3064699 0.19728269
000060 52 26 eb bd 6b 04 74 bd bd d0 b4 3d 23 5d 64 3e
       -0.114819184 -0.059574526 0.08828876 0.22301154
000070 f8 66 9b 3e 33 eb a8 3e 8e 5e 55 be f3 31 86 be
       0.30351996 0.32991943 -0.20836851 -0.26209983
000080 02 94 30 be e2 73 b5 3c b0 08 12 bd fb 2a 94 be
       -0.1724396 0.022149984 -0.035652816 -0.28939041
000090 c2 de 0f bf 3f be ed be 5e e9 11 bf d4 fb 96 be
       -0.56199276 -0.4643421 -0.56996715 -0.29489005
0000a0 86 8c 0e be 5d a2 49 bd f8 41 6b be 3b 37 be be
       -0.13920793 -0.049227107 -0.22974384 -0.37151513
0000b0 47 ef 8f be 5d 82 39 3e 94 bb 92 3e 17 a0 56 3e
       -0.28112242 0.18116136 0.28658736 0.20959507
0000c0 64 4a 43 be 06 8e 9f be 03 9d 0d 3b 75 6c d1 3c
       -0.19071347 -0.31163043 0.002160848 0.025564412
0000d0 51 b4 9f 3e 9d 7e 95 3e 9d ec 6f 3e 3c 17 19 be
       0.31192258 0.2919816 0.23430105 -0.1495027
0000e0 4a 39 57 be 8b 31 26 be 58 8c 91 3d 07 57 fa 3d
       -0.21017948 -0.16229837 0.071068466 0.122236304
0000f0 94 4f 81 be 15 6e 05 bf 3c 65 1a bf 53 de e9 be
       -0.25256026 -0.52121097 -0.6031072 -0.45677432
000100 33 e7 b7 be fc fa e7 bb 41 37 f9 bd 0f b1 6e be
       -0.35918579 -0.00707948 -0.12168742 -0.2330973
000110 84 f5 9b be 0a fa 80 be f3 67 e0 3e 59 70 96 3e
       -0.3046075 -0.25190765 0.43829307 0.2938259
000120 d0 71 a8 3d 38 b4 6f bd 30 ae 82 be c4 88 29 bd
       0.08224833 -0.05852148 -0.2552352 -0.041390195
000130 95 51 6a 3c c1 43 2a bd aa 47 fe 3b 82 a7 b4 3c
       0.014301677 -0.04156852 0.007760008 0.02205253
000140 77 b3 12 3e 56 de 2f 3e fd e0 1b 3e a1 de 55 3e
       0.14326273 0.17174658 0.15222545 0.20885707
000150 c7 c5 39 3e 51 02 ce bd 95 e8 3b 3e c2 ba 23 3e
       0.18141852 -0.100590356 0.18350442 0.15989211
000160 01 f1 72 3e bf f8 9f 3e 91 9b 4d be 8b e1 12 be
       0.23724748 0.31244466 -0.20078875 -0.1434385
000170 7e 1c 8f bd c5 c3 5f 3c d0 98 12 3e f7 67 a1 bd
       -0.06987856 0.013657515 0.14316106 -0.07881158
000180 cc 04 b6 bd 7c 8b a8 be ca 27 24 be 8b 7e 22 be
       -0.08887634 -0.32918918 -0.16030803 -0.15868585
000190 19 17 02 bc f1 c7 57 bd 78 3b 40 bc ac 43 13 bd
       -0.007940077 -0.052680913 -0.011732928 -0.03595321
0001a0 8d e0 f1 bc c5 04 8d 3d 9e a3 8d 3e cc fd 7a 3e
       -0.02952602 0.06885675 0.27663893 0.24510878
0001b0 bd 98 8c 3e a1 69 16 3e 69 9f f7 3d 81 e6 25 3e
       0.2746028 0.14688732 0.12090952 0.16201212
0001c0 ff 29 80 3e ac aa b8 3e 27 77 ba 3e 13 ee 15 be
       0.2503204 0.36067712 0.3641903 -0.146416
0001d0 49 a8 16 be e3 ca 4f be f1 8b eb bc 61 7c 35 3d
       -0.14712633 -0.20292239 -0.028753253 0.04430807
0001e0 e3 9c 19 3c b7 c9 84 bd 62 79 09 be 42 ce ba bd
       0.009375784 -0.064837866 -0.1342521 -0.09121372
0001f0 e0 8f bc bd 8a ca 0c be 46 c0 e3 bc fb 9e 17 be
       -0.092071295 -0.13749138 -0.027801644 -0.1480674
000200 ea 0d 1b 3c 9e aa 8b bd b3 66 14 be 52 f1 1b 3c
       0.009463767 -0.06819652 -0.14492302 0.009517984
000210 67 f9 21 3e 11 0d d3 bc d1 36 bb 3c 79 9c 1e be
       0.15817796 -0.025763066 0.022853287 -0.15489377
000220 d1 71 66 3c 4e 2b 91 ba fd 6c 55 3e db 90 5d 3e
       0.014065222 -0.0011075528 0.20842357 0.21637289
000230 05 eb 54 be eb ed 88 be ad ef a7 be 2d ac 4e be
       -0.20792778 -0.26744017 -0.32800046 -0.20182867
000240 b1 73 2f 3c bd 29 e6 bd 9b 32 a6 be 0b f3 9f be
       0.010708735 -0.1123843 -0.32460484 -0.31240115
000250 95 8c c8 be 11 41 56 be ef f6 43 3e f3 76 70 3e
       -0.39169756 -0.20923258 0.19137166 0.23482876
000260 74 95 9c 3d ab 31 b8 bd 29 c8 9e bd 3d a5 5b 3e
       0.076456934 -0.089938484 -0.07753021 0.21449752
000270 b2 a7 8a 3d da 04 67 be 80 1b 9c be 4e a3 94 be
       0.067702666 -0.22560444 -0.3048973 -0.29030842
000280 32 0a a9 3e 6b d9 12 bd 97 d9 ad be 4d 38 f5 be
       0.3301559 -0.035851877 -0.3395507 -0.47894517
000290 41 87 93 be 3a f9 bc 3e b2 8f 49 3e 01 fb c8 be
       -0.28814128 0.36908895 0.19683722 -0.39254
0002a0 82 08 df be 54 f4 12 be 4a f9 2f 3f 15 c5 a9 3e
       -0.43561178 -0.14351016 0.6873976 0.33158174
0002b0 17 4c 04 bd fe 54 8b be d7 db a7 bd 7a 8a 05 bc
       -0.032299127 -0.2721328 -0.08196228 -0.008150691
0002c0 88 88 3c 3e bb ea 13 be 40 26 a5 be e2 48 24 be
       0.18411458 -0.14445011 -0.32255745 -0.16043428
0002d0 5f 7e 3f bd 59 18 b5 3c 2a e1 af be 7f 64 bc be
       -0.046751376 0.022106336 -0.34351474 -0.36795422
0002e0 96 6b cb be a8 14 0a be 4d 5a 26 3c 79 87 b7 be
       -0.3973052 -0.13484442 0.010153365 -0.35845545
0002f0 b7 32 a9 be ec 86 bb be d4 d6 3c 3e ee c9 77 3c
       -0.33046505 -0.36626375 0.18441325 0.015123827
000300 74 1e 8d be 5d 44 02 bf da 1d 39 be 6b 11 3f 3e
       -0.27562296 -0.50885564 -0.18077794 0.18658988
000310 0c 89 8f 3d ce 42 7a be 8e 2e e3 be c9 cd ff bd
       0.070085615 -0.24439546 -0.44371456 -0.12490422
000320 d2 34 7d 3e 46 7d d4 3e 4f 96 af 3e d2 55 30 3d
       0.2472718 0.41501826 0.34294364 0.043050595
000330 44 3c 0b 3e c4 f6 93 3d 94 32 40 3e 43 b5 0c 3e
       0.13597208 0.07224801 0.18769294 0.13741021
000340 62 f1 2f 3b cc 37 d4 3d 00 ec c3 3d 75 6d 84 3e
       0.0026846756 0.10362205 0.09566498 0.2586476
000350 63 41 21 bc 7f fb ca bd 43 49 47 3e fe 24 91 3e
       -0.00984225 -0.0991125 0.19461541 0.28348535
000360 96 82 6a 3e 0d 79 a6 bd cf 31 5f 3d 5f 7b ab 3e
       0.22901377 -0.08128557 0.05449086 0.33492562
000370 56 db 00 3f ea 36 a1 3e d0 8f 46 3d 91 10 87 3c
       0.5033468 0.3148721 0.048476994 0.016487392
000380 69 6b 6b 3e c5 72 2b 3d c1 f0 c7 3d b7 d9 91 bd
       0.22990192 0.0418575 0.09762717 -0.07121604
000390 d0 21 1f 3e c6 62 5d 3e 8f fe df 3a 89 b0 81 3d
       0.15540242 0.2161971 0.0017089414 0.063324995
0003a0 df 3e 0e 3e 77 00 55 3c b0 d2 83 3e 56 f8 dd bd
       0.13891171 0.013000599 0.2574668 -0.10838382
0003b0 89 e8 91 bc 94 c2 e7 bd 0b 58 8f bd e4 18 d8 3b
       -0.017811077 -0.1131641 -0.06999215 0.006594764
0003c0 de 52 2e be 1a 38 b1 bd 58 b3 93 bc 6b 5f c1 3d
       -0.17023799 -0.08653279 -0.018029854 0.09442028
0003d0 d4 88 d8 3d 94 fa 5d be 9c 19 84 bd 37 e0 cd bd
       0.10572973 -0.21677619 -0.06450197 -0.10052531
0003e0 84 fe 10 bd d6 4c 08 3e cf b3 8f be 0d 81 9a be
       -0.035398975 0.1331056 -0.2806687 -0.30176583
0003f0 78 2b 85 be 67 38 63 be b3 f0 05 3c 3b 29 db bd
       -0.26009727 -0.22189485 0.008175063 -0.107012235

conv1.bias f4 [6]
000000 d4 66 9d 3e 4d b8 a3 3c 94 44 b6 3e d4 07 f3 be
       0.30742514 0.019985342 0.35599196 -0.4746691
000010 84 ef 43 be d9 d5 bd 3d
       -0.19134337 0.09269304

conv2.weight f4 [16, 6, 5, 5]
000000 79 d0 f7 bd 80 4c 9a bd 39 58 3f 3d 14 06 35 3e
       -0.1210031 -0.075341225 0.046714995 0.176781
000010 e9 3f 3d 3e 12 24 06 be 60 b1 d3 bc 41 5b 3a 3e
       0.18481411 -0.13099697 -0.025841415 0.18198873
000020 51 c1 c9 3d 94 7d 33 3a a3 1e 76 bd a4 44 83 bd
       0.09851325 0.00068470207 -0.06008781 -0.064095765
000030 f6 30 35 3e 12 2d 89 3e d3 aa 03 3d d1 69 00 be
       0.17694458 0.26792198 0.032145333 -0.12540366
000040 da 3d 0a be 70 bd 12 be 29 c5 cf bd 32 f0 a5 bd
       -0.13500157 -0.14330077 -0.10145027 -0.08102454
000050 1d 21 13 be 71 1b 4d 3d f2 95 67 3d 62 cd d7 bd
       -0.143681 0.050075 0.056539483 -0.105372205
000060 23 fc 60 be 08 50 ee bd ed a4 d8 3c 90 53 da 3d
       -0.21971183 -0.116363585 0.02644583 0.106604695
000070 cf 3d 10 bd 43 9b 56 3d c8 a8 dd bc 7e 68 ae bc
       -0.035215195 0.052394163 -0.02705802 -0.02129006
000080 fb 83 45 3e 14 7e e7 3d 20 66 25 3e a1 54 09 3e
       0.19288628 0.11303344 0.16152239 0.1341119
000090 a1 e1 d6 3c ff 2f b5 3d fd 59 ee 3a 2f 16 f3 bc
       0.026230635 0.08847045 0.0018184778 -0.029673664
0000a0 3b 55 f4 3d d4 e8 2e 3e 02 7c 11 3e f6 92 11 3d
       0.11930319 0.17081004 0.14207461 0.035540543
0000b0 fc 72 b0 bd 76 6e c6 3d bb 18 87 bd 8d 8b 0e bd
       -0.086156815 0.096890375 -0.06596514 -0.034801055
0000c0 50 ae 30 bd 9c 49 eb bd f7 e9 b5 3e 90 87 44 3e
       -0.043134987 -0.11488649 0.35530064 0.19192338
0000d0 dc 10 15 3e 9d 14 2b bb e9 8b 25 bd eb c0 38 3e
       0.14557213 -0.0026104816 -0.04041663 0.18042342
0000e0 28 40 04 3e 35 96 84 3d d6 65 21 be 23 17 18 be
       0.12915099 0.06473962 -0.15761504 -0.14852576
0000f0 22 4b 01 3d 55 8f 23 3d 01 fb f5 bd 49 50 0c be
       0.031565793 0.039931614 -0.12010766 -0.13702501
000100 ab fc 43 be 45 26 0a bd 31 62 85 be fe 60 95 be
       -0.19139354 -0.033727903 -0.26051477 -0.29175562
000110 f3 12 89 be 6a 62 74 be eb fa 27 be 91 97 7a be
       -0.2677227 -0.23865667 -0.16404311 -0.2447188
000120 77 50 38 be fa e8 25 be 36 bd 63 bd 5a 0c 90 3e
       -0.17999445 -0.16202155 -0.055600367 0.28134423
000130 c7 5b 94 3e 18 52 29 3e c7 3d ba 3d 7d b6 11 3e
       0.2897627 0.16535223 0.09093814 0.1422977
000140 99 04 80 3e 95 5d a2 3e 3a 62 6c 3e c3 ef f0 3d
       0.25003508 0.31712022 0.23084345 0.11764481
000150 ce 71 47 3c a4 5e 84 3d b2 09 a5 bd dc 85 8a 3d
       0.012173129 0.06463364 -0.0805849 0.06763813
000160 48 6d 06 be d3 e2 b4 bc 20 fd 23 bd 67 da 14 be
       -0.13127625 -0.022080814 -0.04003632 -0.14536439
000170 be 33 1c bd 56 81 b2 bd 5e fa 9c bd f6 cb 4a 3d
       -0.038135283 -0.08716075 -0.07664941 0.04951092
000180 4e 19 6e be 4c b4 39 be 7b 09 34 be 2d 1e 31 be
       -0.2325184 -0.18135184 -0.17581742 -0.17296667
000190 e3 7b 1b 3e 43 9d 48 3e 5f 30 b1 3d 64 1e b6 3d
       0.15183978 0.1959124 0.08651804 0.08892515
0001a0 d0 c3 1a 3e 9a 3f 8d 3e bd d2 49 3e d0 60 25 3d
       0.15113759 0.27587587 0.19709297 0.04037553
0001b0 d2 3c 8a bd 5c 02 89 bd 48 ee 99 3d f7 d8 cf bd
       -0.06749882 -0.06689903 0.07516152 -0.10148805
0001c0 c1 fe 85 bd af e6 0e be 0e e3 3c be 2e 5e 8b bd
       -0.06542731 -0.13955186 -0.1844599 -0.06805073
0001d0 e8 b8 29 be b7 a5 4a be 29 0f 17 be ba a5 20 be
       -0.16574442 -0.19789778 -0.14751877 -0.1568822
0001e0 9d f8 62 bd 18 97 a2 bd a4 a5 9e bd 93 89 c4 bd
       -0.055412877 -0.07938975 -0.07746437 -0.09596553
0001f0 ef ef d4 bd 82 90 91 bd 3a 7a ed 3d 53 14 c2 3c
       -0.10397326 -0.07107641 0.115955785 0.023691332
000200 6e 81 f7 bc c7 51 cf 3d 36 de 2a 3e 0c 50 2c 3e
       -0.030213084 0.1012302 0.16686329 0.1682741
000210 7d b8 c3 3d 10 17 63 3d d4 11 ab bb f3 4a a0 3d
       0.09556673 0.055441916 -0.005220631 0.078267954
000220 a2 5b eb 3d f1 fd 63 3e 7c 41 ac 3b f4 ef 52 bd
       0.11492087 0.2226484 0.00525683 -0.05149837
000230 17 5d e6 3d 21 7e cd bc f8 bb 76 bb 43 44 90 bd
       0.11248224 -0.025084557 -0.003764866 -0.0704427
000240 65 af 34 be 86 29 14 3e 74 3f 84 3d 79 0a bd bd
       -0.17645033 0.14468965 0.06457415 -0.09230513
000250 08 68 10 be 38 f1 9f bc 78 a6 21 be ea d5 90 bd
       -0.14102185 -0.019524202 -0.15786159 -0.07072051
000260 d6 ff a0 3d c3 52 ff 3d 19 4d 9b 3e fa bd 86 bc
       0.07861297 0.124669574 0.30332258 -0.01644801
000270 3c 3c 35 bd b0 37 3b be 64 f0 bf bc 42 3e 8c bd
       -0.044246897 -0.18282962 -0.023430057 -0.06847812
000280 5b 61 68 3e b1 29 14 3e 06 c7 ac bd fb ec 02 bc
       0.22693388 0.14469029 -0.08436398 -0.007991071
000290 1b ce 85 bd 49 76 0a bd 5b ac ee 3d 65 69 88 3c
       -0.06533452 -0.03380421 0.11653968 0.016651819
0002a0 c7 98 ac 3c 23 42 f1 bc 78 3a b6 bc 2c a7 50 be
       0.021068944 -0.029450482 -0.022244677 -0.20376271
0002b0 b3 a1 40 be 2a ac 1e be 57 b3 1c be 75 dd 85 bd
       -0.18811683 -0.15495363 -0.15302788 -0.0653638
0002c0 7f 73 f4 bd 61 40 ee bd f6 9a c1 bd 44 a5 81 3d
       -0.11936092 -0.11633373 -0.094533846 0.0633035
0002d0 fd 51 d9 3d 74 ea e6 3d 82 22 ab bd bc c2 1e bd
       0.10611341 0.11275187 -0.08356191 -0.038759932
0002e0 ab e0 ff 3d b8 50 76 3d 89 32 27 bd 9c 2d aa 3d
       0.12494024 0.060135573 -0.04081968 0.083094805
0002f0 c8 bd d7 bb 27 25 98 3d f0 32 13 be 28 e9 06 be
       -0.006583903 0.07428961 -0.143749 -0.1317488
000300 90 dc 94 bd ff 2e ed bd e5 21 a5 3c d6 40 14 bc
       -0.072686315 -0.115812294 0.020157764 -0.009048661
000310 25 83 23 be 6e 05 fd bd 87 33 22 be f6 de 9f 3d
       -0.15967996 -0.12354551 -0.15839969 0.07806198
000320 3c 58 33 bd 2e d5 94 be 19 69 6d bd b1 8b 18 3e
       -0.04378532 -0.29068893 -0.057961557 0.14897038
000330 2a 25 31 be 17 6e 3e be 31 a0 3c be 69 6c e8 bc
       -0.17299333 -0.18596683 -0.18420483 -0.028372006
000340 08 e4 30 bd f0 78 1d be 67 22 86 bc 32 9b 45 3e
       -0.043186218 -0.15378165 -0.016373826 0.19297484
000350 0c f5 ec 3c 75 2b 6e bd 33 a4 3e be 9c df 39 bc
       0.028925441 -0.058146913 -0.18617325 -0.011344817
000360 0e 90 ae 3e b7 32 14 3e aa de b6 3e 4e 2b b3 bd
       0.3409428 0.14472471 0.35716754 -0.08748494
000370 30 9c 12 3d 0c 2c 68 3e 62 45 42 3e 6d 46 bc 3e
       0.035793483 0.22673053 0.1897178 0.3677248
000380 28 86 e4 bd 6e 9b 5f be e9 cc 66 be 69 a7 92 be
       -0.11158401 -0.21836635 -0.22539105 -0.2864335
000390 65 68 e9 bd dc d0 85 bd 42 3a 02 bd 57 cf dd bc
       -0.11396865 -0.065339774 -0.03179384 -0.027076406
0003a0 ac c1 5f 3c f7 77 e1 3c ab 8e 9a 3c 5e 57 12 be
       0.013657015 0.027523024 0.018866858 -0.1429114
0003b0 ea 38 a5 3c 27 cb ff 3d fe 40 0b 3e 09 cb c4 3d
       0.02016874 0.1248992 0.13599011 0.096090384
0003c0 80 e4 97 bc e4 85 eb 3c ad 24 5c 3e 0e d8 5c 3e
       -0.018541574 0.028750367 0.21498366 0.21566793
0003d0 d9 db 60 3e 01 22 19 3e 27 1e 1e 3e bd 05 97 3d
       0.21958865 0.14954378 0.1544119 0.07374141
0003e0 dc 5e 1a 3e 7b 7e 4d 3e 12 b1 25 be 1b d9 89 be
       0.15075248 0.2006778 -0.16180828 -0.2692345
0003f0 44 73 90 be fa 17 09 be ce a9 b8 bd 56 2b bf bd
       -0.2821294 -0.13388053 -0.09016763 -0.093344375

conv2.bias f4 [16]
000000 15 23 b9 3c ee 5d ee bc fd a1 c7 3d 34 ef 6b bc
       0.022599736 -0.029097524 0.09747694 -0.014400292
000010 46 eb e0 bc 8a e4 1b 3e 17 d1 05 bd 55 be cb 3d
       -0.027455937 0.152239 -0.032670107 0.09948412
000020 c9 84 87 bd 8b 8d 76 3c 3d 7e 7c 3d 2a 32 13 bd
       -0.06617124 0.015048395 0.061643828 -0.035936512
000030 45 ce 0b bd b3 eb 03 bd f7 90 c9 3c 11 9b d2 bd
       -0.03413226 -0.032207202 0.024605257 -0.10283483

fc1.weight f4 [120, 400]
000000 ff e3 9b bd ae cf 94 bc 65 48 0e 3c 76 9a d0 bd
       -0.07611846 -0.018165436 0.008684252 -0.10185711
000010 4d 51 99 bd a9 8f 6d bd c2 fb 52 3c 23 e6 b3 ba
       -0.0748621 -0.057998333 0.012877407 -0.0013725202
000020 59 9c 52 bd e9 81 3d bd 90 dc 03 bd 09 9b f5 3c
       -0.051418636 -0.04626647 -0.032192767 0.029981153
000030 4f 9d 60 3d 03 b7 92 3c d2 f1 91 bd d2 78 6e bd
       0.05483752 0.017909532 -0.07126202 -0.058220692
000040 34 e5 21 ba 7e ff b7 bc 4c 32 a7 3a fc 37 49 3c
       -0.00061758165 -0.022460695 0.0012756079 0.012281414
000050 1a f0 88 bd 11 2f da bb 28 eb af bc 7f ea ac b9
       -0.06686421 -0.006658443 -0.021474436 -0.0003298111
000060 a3 2c 83 bd 4e a0 a6 3c 6f 79 8b bc 2f 59 13 bd
       -0.06404998 0.020340111 -0.017025677 -0.035973724
000070 8c b8 83 bc bb 25 8b bc f0 b1 82 3c 3c 76 be 3b
       -0.01607921 -0.016985765 0.015953988 0.0058124345
000080 2a eb de 3b a0 7a 22 3b 6f ba df bc 4d 2e 34 bd
       0.006802936 0.0024792328 -0.027310578 -0.04398947
000090 78 ab 93 bd 70 f4 70 bd 9e 4b d8 bc 48 6f 27 bd
       -0.072104394 -0.058826864 -0.026403245 -0.04087761
0000a0 35 3e a5 3d 91 dc 87 3d 93 80 18 3d ad 1b 38 3d
       0.08068506 0.066338666 0.037231993 0.04494827
0000b0 57 3f 09 3c 41 ad bb bb 21 6c 9a 3d 12 5a 08 3c
       0.008376918 -0.0057274406 0.07540155 0.008322256
0000c0 c7 94 17 3e 12 b2 40 3d f2 1f a3 bd af 2b 08 bd
       0.14802848 0.04704482 -0.079650775 -0.033244785
0000d0 4a 04 6a bd 15 6c 8e bd 18 0a 93 bc 09 33 a3 bc
       -0.057132997 -0.06954209 -0.017949149 -0.019921796
0000e0 83 7a 04 be 02 6f 7c bd 84 81 b6 bd 87 c7 d2 bd
       -0.1293736 -0.061629303 -0.08911422 -0.10291963
0000f0 42 34 8e bd 30 66 b0 bc 64 83 ff bc bb 99 8d bd
       -0.06943561 -0.021533102 -0.031190582 -0.069140874
000100 05 67 96 bd de c6 9f 3c 71 e8 8f bd cf 17 a5 bd
       -0.07343868 0.019504007 -0.070267566 -0.08061182
000110 8c 77 d4 bd ef fb 77 bd 22 7d cb bd 18 3c cf bd
       -0.10374364 -0.060542997 -0.099359766 -0.10118884
000120 b8 9d f6 3b ff ec 6b 3a fa b8 aa bd 46 38 32 bb
       0.0075261258 0.0008999854 -0.08336063 -0.0027194186
000130 4a 37 9b 3c 82 eb 1f 3b c0 c6 18 bc ba 91 52 bc
       0.018947262 0.0024401848 -0.009324729 -0.012852127
000140 75 e7 21 bc 72 43 bc bb 50 ac db 3c 37 18 2c bd
       -0.009881844 -0.005745345 0.026815563 -0.04201528
000150 5c 69 fc 3c 23 87 2d 3d e5 bd f5 3c 4a 95 2c bd
       0.030811958 0.042365205 0.029997775 -0.04213456
000160 dd 8b 60 3c 35 76 83 bc 1c d9 34 3d 4c ad 21 3d
       0.013705221 -0.016047576 0.044152364 0.03947191
000170 8c 0e 76 3b f7 c1 9f bc f2 0e 0a 3d 33 58 ae 3a
       0.0037545292 -0.01950167 0.03370566 0.0013301432
000180 3f 95 09 3d 37 17 6c 3c 26 33 3b bd 09 e9 11 3d
       0.033589598 0.014409832 -0.045703076 0.03562263
000190 18 d3 f3 bc 8f 4a 51 bd 83 2f ef 3c 0a 81 31 3d
       -0.029763743 -0.051096495 0.02919746 0.043335952
0001a0 6b 58 1b bd 39 c5 87 3a 98 53 99 3c 45 55 9e bb
       -0.03792612 0.001035846 0.018716618 -0.0048319423
0001b0 3c 61 02 3d 41 19 54 3c b5 b9 57 3d b7 26 47 3d
       0.03183101 0.012945474 0.05266734 0.048620906
0001c0 d4 f2 78 bc 81 20 c8 bc 61 d2 52 3c 69 31 2d bd
       -0.0151946135 -0.024429562 0.012867541 -0.04228345
0001d0 90 ee a4 3c f9 79 a0 3c 3f 9a e5 3c cd 9c 4a 3c
       0.020133287 0.019589411 0.028027652 0.012366486
0001e0 62 06 12 3d bc f1 06 3c 75 5c 4b 3d 45 34 86 bd
       0.03565062 0.008236345 0.04964872 -0.06552938
0001f0 e8 45 49 3d 62 6a 8e 3d 15 89 c0 bb 6f 6f b3 bb
       0.049138933 0.06953885 -0.0058757165 -0.0054759304
000200 74 ec 28 3d 0e 62 9d bc 18 68 b7 3b 21 12 cb bc
       0.041241124 -0.019211795 0.0055971257 -0.024788918
000210 0f 62 c9 bb f5 41 a4 bc a4 b4 75 bb 75 55 84 3c
       -0.0061457227 -0.020050982 -0.0037491703 0.01615403
000220 97 09 c4 3c 0b 1a 47 bd 81 03 49 bd ef 34 41 3d
       0.023930354 -0.04860882 -0.049075607 0.047169622
000230 59 bb 88 3d b2 6e a0 3c e7 e6 2d bd 9b b3 ed bc
       0.06676359 0.019584034 -0.042456534 -0.029016307
000240 f8 a4 10 bb 2e 70 ee 3d b1 8e 13 bd ab d5 0c 3b
       -0.0022070985 0.1164249 -0.036024753 0.002148966
000250 26 1d be 3d 5f 79 0a 3e ee 1f ef 3c 5e c7 36 bd
       0.092829034 0.13522862 0.02919003 -0.044623725
000260 0b 0d 14 3d 89 a6 af 3c b7 e0 00 3c 45 ca 57 3d
       0.03614525 0.021441715 0.007866076 0.052683134
000270 77 b5 c4 3c ea af db 3b e5 9e 71 bc d0 31 1a bc
       0.02401231 0.00670432 -0.014747356 -0.00941129
000280 96 c5 0b 3d 32 bc eb bb 48 14 89 bc 26 e8 57 3d
       0.03412398 -0.0071940655 -0.016733304 0.05271163
000290 f1 c2 31 bd 66 d8 04 bc 22 14 48 3b 47 7b 6f 3d
       -0.0433988 -0.008108234 0.0030529578 0.058467176
0002a0 34 5a 9b bc b3 d1 8d bd c9 ed 38 3c e5 97 e4 3c
       -0.01896391 -0.069247626 0.011287161 0.02790446
0002b0 31 1e 41 bc ad 6b ab 3b 17 bc 22 bd d3 b7 60 bb
       -0.011786983 0.005231342 -0.039730158 -0.0034289255
0002c0 39 bc d3 3c c8 de 84 3c 86 44 00 bd f8 92 94 bb
       0.025846587 0.016219512 -0.03131535 -0.0045341216
0002d0 88 55 ee ba fc e2 4a bd 0a fd e0 3d e4 fc 8d 3c
       -0.0018183449 -0.049532875 0.10985763 0.017332502
0002e0 65 5b 56 bd 57 2d 60 bc c5 d1 f4 ba 53 48 94 bc
       -0.052333254 -0.013682685 -0.0018678239 -0.018100893
0002f0 35 38 8b bb df 0d 39 3d ae ee 4d 3b d2 d7 cb 3c
       -0.0042486438 0.045179244 0.0031422782 0.024883185
000300 cc cb 87 3c 64 86 04 bd 06 e2 5f 3d 20 d9 06 bd
       0.01657667 -0.032354727 0.054658912 -0.03292191
000310 39 3f 0a bd b0 3c 60 3d 54 37 00 3d 29 49 83 3d
       -0.0337517 0.054745376 0.031302765 0.064104386
000320 07 f1 11 bd 2c 02 01 bd eb 79 f0 bb 1c 61 dc bb
       -0.035630252 -0.031496212 -0.0073387525 -0.0067254435
000330 2d e3 c2 3c 31 fb 9c bd 64 6e 6d bd 6a c3 80 bd
       0.023789966 -0.076650985 -0.057966605 -0.06287272
000340 54 6b c3 3c 1f 84 8a 3d 2b d0 82 bd bd 10 3a bc
       0.023854889 0.06763481 -0.06387361 -0.01135653
000350 df df 93 3c 27 9d bf bc ca aa 1d 3b f6 01 10 3d
       0.018051086 -0.023390366 0.0024058097 0.03515812
000360 e7 56 62 bd 09 bc 2a 3c df 70 82 3d dd d7 8f 3d
       -0.055258658 0.010420808 0.06369185 0.070235945
000370 22 f7 19 3a 9e 87 82 bd 5d 14 55 bc 3d b6 48 3d
       0.00058733125 -0.06373523 -0.013005343 0.04900192
000380 2d 6f 0e 3c 4d fa a5 3d 2a 3b 2d 3d 5b 4a 5d bd
       0.008693499 0.08104382 0.04229275 -0.05402599
000390 4c 0a b7 bc 3b ac 14 3d d6 85 b8 3d a2 27 6b bc
       -0.022343777 0.036297064 0.09009902 -0.014352711
0003a0 d0 74 c1 bd a9 98 35 3d 6b 57 ea 3b 20 43 27 3c
       -0.09446108 0.04433504 0.0071515343 0.010208875
0003b0 98 eb 3f bd 99 b3 ae bd 10 7b 82 bc 3e 97 dc 3a
       -0.04685554 -0.08530349 -0.015927821 0.0016829742
0003c0 d9 f2 96 3d 80 37 b3 3d 99 53 0b bd 3c 07 c7 bc
       0.07370538 0.0875082 -0.03401527 -0.024295442
0003d0 0d 8e 12 b8 de 12 73 3d 0a 38 a4 3d 0b 2b bb bd
       -3.4941408e-05 0.059344165 0.08018501 -0.09139069
0003e0 57 3f 3c bd 8b b6 bc 3d 3e 90 1a 3d 1b 61 e0 bc
       -0.045958843 0.09214505 0.037735216 -0.027390053
0003f0 a2 b3 13 3c 5f 39 5a bd bd 19 b9 bb 7f 0d 33 bd
       0.009014996 -0.05327737 -0.00564882 -0.043714043

fc1.bias f4 [120]
000000 13 76 6c 3d 45 83 93 3b 10 6d ec 3c 0b 97 8e 3d
       0.05772979 0.0045017325 0.028860599 0.06962403
000010 04 df 7e 3c 66 63 a6 3d ab c7 86 bc 44 5e 9c 3d
       0.015556101 0.081244275 -0.016452631 0.07635167
000020 d2 78 2b bd e4 8a e3 bc f2 e2 9e bc 0a 60 66 bc
       -0.04186327 -0.02777619 -0.019395325 -0.014060983
000030 02 ad c0 3d f1 a6 67 bb 09 ed 66 bd a5 8d 3a 3c
       0.094079986 -0.0035347308 -0.056378398 0.01138631
000040 32 8e 39 3d 85 3d c8 3d bb 93 81 bd 3d a8 3c 3d
       0.045301624 0.09777359 -0.063270055 0.046058882
000050 e0 ca 7d bc a4 a4 3b 3e 4e 45 c9 bc ad 69 18 3d
       -0.015490264 0.18324524 -0.02456918 0.037210155
000060 a6 17 81 3d ad fa 9c bc 9f d1 71 3d a1 73 47 3d
       0.06303339 -0.0191625 0.0590378 0.048694257
000070 06 84 cc bc a1 b9 a4 3b f2 97 8b 3d 42 3d 4c bc
       -0.024965297 0.0050270115 0.06816091 -0.012465777
000080 f4 15 e2 bc e8 c4 0c 3e 5c 8e 60 3d 06 5e 5a bd
       -0.027598359 0.13746989 0.054823264 -0.053312324
000090 1e db a5 bc 01 e3 97 bd 18 47 cc bc d6 dd 49 3c
       -0.020246085 -0.074163444 -0.024936244 0.012320956
0000a0 43 5e 44 bd 48 0c ca 3c 10 ee 90 3b 59 58 9f 3c
       -0.047941457 0.02466406 0.0044229105 0.019451307
0000b0 01 35 b0 bc 37 3a 21 bd ad c4 d5 3d 1d 31 b1 3b
       -0.02150965 -0.03936216 0.104379036 0.005407466
0000c0 28 61 e9 bc 4c c6 26 3c e4 83 75 3d 3a f8 6f bc
       -0.02848871 0.010179114 0.059940234 -0.014646584
0000d0 51 5a 3b bd 86 a3 a3 3d cc 51 d6 bb f2 80 c1 ba
       -0.04574043 0.07990174 -0.0065405127 -0.001476316
0000e0 32 20 f7 bc 46 dc 6b bd 07 f0 9e 3c a9 d1 62 bd
       -0.03016672 -0.057583116 0.019401563 -0.05537573
0000f0 ac f2 ef bb 6a 04 74 3d 4b 6c 83 3d f2 78 1e 3d
       -0.00732263 0.059574522 0.064171396 0.03868956
000100 78 c5 68 3d 59 17 33 3c 89 be 1c 3c aa f5 2e 3c
       0.056828946 0.0109308595 0.0095669115 0.010678688
000110 00 26 eb bc 3f 29 28 bd b7 03 21 3d 59 1d 10 bb
       -0.028704643 -0.04105496 0.039310183 -0.0021990149
000120 23 a9 c6 ba 4d 0c 09 bd 5a 8a 79 3d 9f 1a ab bc
       -0.0015156608 -0.033458997 0.060922958 -0.020886717
000130 6c 8c 1f bd 20 d2 5c bc 3f fa ea bb 4b 5d 71 3c
       -0.038952276 -0.013477832 -0.007170945 0.014731715
000140 df d3 f3 3d 48 2c 2f bc 1f 38 cd 3c af 95 d4 3b
       0.119056456 -0.01069171 0.025051175 0.0064875702
000150 31 5c 15 bd 88 5a 04 3e 9e cf 7c 3d 62 77 ad bc
       -0.036464874 0.1292516 0.061721437 -0.02117509
000160 28 ad 0a 3c 04 34 94 3c a1 53 f0 3b 69 fa 1f bc
       0.008464135 0.01809121 0.007334188 -0.009764292
000170 da 41 88 3d e0 a1 64 3c e9 c2 7d 3d 8e 32 25 3d
       0.06653185 0.01395461 0.06195346 0.040331416
000180 a2 68 94 bb 85 51 00 bd 43 40 14 bd 16 d3 ff 3a
       -0.0045290748 -0.031327743 -0.036194097 0.0019517865
000190 da 1e e8 bc dc 76 bb 3c b3 30 4c 3d 08 93 c7 bb
       -0.028335024 0.022883825 0.04985113 -0.0060905255
0001a0 bc 32 21 3d 33 90 52 bc 4b b0 30 bd 2d 50 b4 bc
       0.039355025 -0.012851763 -0.043136876 -0.022010887
0001b0 bf 80 05 bc e3 0e bb bb e5 9a 77 3c 54 16 84 3c
       -0.008148371 -0.0057085617 0.015112613 0.016123928
0001c0 58 da eb 3b 8d e0 ab 3d 85 38 5a 3d be 3d d1 3c
       0.0071976595 0.08392439 0.053276557 0.025542136
0001d0 9a 3e 8c bb 0c df b6 bc 25 27 64 3d 38 c7 03 bd
       -0.0042799236 -0.022323154 0.055701394 -0.03217241

fc2.weight f4 [84, 120]
000000 19 d7 29 be ef 01 01 3e bb 70 38 bc 05 c6 1f 3e
       -0.1658596 0.12598394 -0.011257346 0.15602882
000010 7d 28 81 3c 3c 44 fe bd 94 2c d7 3b 52 5b 4c be
       0.015766377 -0.124153584 0.0065665934 -0.19956711
000020 3b 0a 9e 3c 4f 4e 51 bd ac 72 9d bc 8b 24 0e bd
       0.019291988 -0.05110007 -0.019219719 -0.03470282
000030 19 6a 0e bd aa dc 2a 3d ea 50 d6 bd 43 3b 46 3c
       -0.03476915 0.041714348 -0.10464652 0.01209909
000040 40 7a 4b bd 7a ff 12 3e 17 bb b3 3d 0e 9c a9 bd
       -0.049677134 0.14355269 0.08775919 -0.08281718
000050 15 76 a3 3c d8 56 ac bc 17 fb d8 bd 49 9e fb bd
       0.019953767 -0.021037504 -0.105947666 -0.1228605
000060 77 94 be bd c2 4a 58 3d c5 89 80 3d fa b0 42 3e
       -0.09305661 0.05280567 0.062762775 0.19012824
000070 2a 42 f2 bc 5c 6c 12 bd 19 96 16 be 47 d2 db 3c
       -0.029572565 -0.03574787 -0.14705695 0.026833666
000080 75 79 0c 3e ef 6e 33 3c 34 8d b0 3d 8d 03 0b 3d
       0.13718207 0.010951742 0.08620682 0.033938933
000090 83 d7 c6 3d 38 58 9a 3d 30 dc 2d bd 5d 22 db 3d
       0.09709074 0.07536358 -0.042446315 0.10699914
0000a0 2f f5 6f 3d ef 8a 11 bc b0 8b 26 bd ef c8 c0 bc
       0.058583435 -0.008883222 -0.04066056 -0.023533313
0000b0 cd a0 05 be 49 9f 0e 3d b0 62 1e be db 3b af bd
       -0.13049622 0.034819875 -0.15467334 -0.085563384
0000c0 c7 de 6a 3d 20 3d a7 3d e1 a2 ce bd c2 c3 72 bd
       0.057341363 0.081659555 -0.100896604 -0.05926872
0000d0 98 5a 5d 3c 11 3b 3f 3d d3 eb 0b 3e 2d ba cb 3d
       0.013510369 0.04668719 0.13664179 0.099476196
0000e0 bb 89 28 3d 62 40 b0 3c cf 0b ac bd 79 3b f3 3d
       0.041146975 0.021515075 -0.0840069 0.11876578
0000f0 8b 04 4b 3d ee ca 80 3d 50 4e 00 bd c4 69 4e 3b
       0.04956488 0.06288706 -0.031324685 0.0031496147
000100 08 21 8a bd 2b 00 82 bb 59 a0 fb 3d f4 87 49 3d
       -0.067445815 -0.003967305 0.12286443 0.04920192
000110 c0 71 0d 3d 2b 9f af 3d 79 1b b3 3d 2e eb 4a bd
       0.03453231 0.08575281 0.08745474 -0.04954069
000120 e2 83 cf bd 50 a6 f3 bc f0 ad c1 bc a3 4d 5e 3d
       -0.101325765 -0.02974239 -0.02364251 0.05427326
000130 96 a2 21 bd 4f 70 21 3b db 65 3a be bb 5a 5c be
       -0.039461695 0.0024633592 -0.18202917 -0.21518986
000140 0d 5a 56 3c 54 db 79 3d 0a 63 09 bd 2b 9c b4 3d
       0.013082993 0.061000183 -0.033541717 0.08818849
000150 96 42 bb 3d d7 02 e5 bd e6 16 09 3d 02 14 f6 3d
       0.0914356 -0.11182182 0.033469103 0.12015535
000160 4e 33 85 3c fe 95 8c bc 80 55 b1 3d a7 e8 f7 bc
       0.016259816 -0.017161366 0.08658886 -0.030262304
000170 97 9d a8 3c 0b 1b a8 3d de af b6 3d 1b 6a 17 be
       0.020582957 0.08208283 0.08920263 -0.1478657
000180 a4 d5 b4 bd 4e ff 5d 3e cb e9 35 3d 53 f6 c8 3d
       -0.08829811 0.21679422 0.044412415 0.098126076
000190 8e f8 86 bd 80 6f 09 be 7e a0 68 3d 7b 09 f5 bc
       -0.06590377 -0.1342144 0.056793682 -0.029911747
0001a0 a3 2f 85 3c b8 e8 1a bd c6 7b 5b 3d 5f 8f 95 3c
       0.016258067 -0.037819594 0.053584836 0.018256841
0001b0 5c 3a 7d bd 5d 0f ba 3c 6d cd 53 bc 3b c4 2e bd
       -0.061823234 0.022712404 -0.012927395 -0.04266761
0001c0 9c a3 a7 bd f4 e2 e7 3c 98 02 dc bd 2d 34 a3 3c
       -0.08185503 0.028306462 -0.10742682 0.01992234
0001d0 26 4d be 3b bc e6 e5 bc dd 78 7a bd 23 46 cb bd
       0.0058075367 -0.028064124 -0.06115042 -0.09925487
0001e0 49 d1 0c 3e 13 ba 0f be 4a be 61 3d a6 de 16 3c
       0.13751711 -0.14035825 0.055113114 0.009208357
0001f0 77 57 ce 3b 2f 8f 8d 3c 0b 28 9a bd 5d 25 a0 3d
       0.0062970477 0.01728019 -0.07527169 0.078196265
000200 02 38 25 bd fe 23 91 3c bd 8c b7 bd a6 55 4d 3d
       -0.040336616 0.017717358 -0.089623906 0.05013051
000210 e9 b7 0f be f4 a7 14 be 40 0b c5 39 98 8a 74 3d
       -0.14035 -0.14517194 0.0003758315 0.059702486
000220 0d 0a 93 bd a3 2b 89 bd cc 60 a0 bd 37 35 9a bd
       -0.071796514 -0.06697776 -0.078309625 -0.07529681
000230 29 97 01 3d f8 f5 a0 bc 0c f7 f1 3c 20 b5 95 3b
       0.0316383 -0.019648537 0.029536746 0.004568711
000240 aa 7d 93 3d d4 f0 93 3d df 9b 19 3c 91 42 e2 bd
       0.07201703 0.07223669 0.0093755415 -0.11047853
000250 be d4 6a 3d 1f 3b 08 3d ad cf f1 3d c0 51 3b bb
       0.057331793 0.033259507 0.11807189 -0.0028582662
000260 92 07 56 3d 31 2d 2a 3e 2b 01 3c bd 0e 2f 76 3d
       0.052253313 0.16618802 -0.04589955 0.06010347
000270 80 02 c0 bd 82 54 34 bd fe ec 62 bc 41 91 a2 3c
       -0.09375477 -0.044025905 -0.013850449 0.019844653
000280 20 f3 af 3d e9 4f 0a be 9a 39 cb bd f8 af 09 3e
       0.08591294 -0.13507046 -0.09923096 0.13446033
000290 5c e7 4f 3e 3e 2b 88 3d 5f a9 9b bc d5 be 51 bd
       0.203031 0.06648873 -0.01900166 -0.051207382
0002a0 d4 59 22 bd 92 f2 03 bd 49 1e 67 3d 89 d8 fd 3c
       -0.039636448 -0.032213755 0.056425367 0.030987041
0002b0 61 40 27 bb d1 55 65 bd e9 e9 27 be 8b dc 49 be
       -0.002552055 -0.055990044 -0.16397823 -0.19713037
0002c0 30 47 a4 ba b8 8e cd 3d 5e 65 bb bd a7 21 fc bb
       -0.0012533423 0.10036987 -0.09150194 -0.0076944414
0002d0 ad 15 6c bc d6 44 31 3d 58 79 5b bd 4b 5b c6 3d
       -0.014409465 0.043278538 -0.05358252 0.096853815
0002e0 80 36 41 3e b5 e2 ce 3d 63 0b 41 3d fd b7 40 bd
       0.18868446 0.10101835 0.04713 -0.047050465
0002f0 55 3b 72 be 4d 84 19 3d e3 92 ae bd 4f eb 9f bc
       -0.23655446 0.037479687 -0.0852411 -0.019521384
000300 ef f5 ac 3c b5 53 f4 3d f4 3a 27 3e b6 c0 b3 bc
       0.021113364 0.11930028 0.16331083 -0.021942478
000310 bd 4a 50 bd 86 8d c9 bd 8f c1 f4 3d 7b 24 31 3e
       -0.050852526 -0.098414466 0.11950981 0.17299072
000320 54 8a 22 3e 39 65 43 3d 91 15 9a 3d 18 c9 b6 bc
       0.1587308 0.047703955 0.07523645 -0.022312686
000330 13 5f 47 bd 14 76 f0 3c c8 28 62 be 2d b3 a7 3d
       -0.048674654 0.029353179 -0.2208587 0.08188472
000340 f3 ee 64 bd c7 7b 09 be fe 13 81 3d 4c 63 ab 3d
       -0.055891942 -0.13426124 0.06302641 0.08368549
000350 ff 3c 37 3e 16 56 e4 bd df 06 52 bd 1a 3e 57 3c
       0.17894362 -0.11149232 -0.051276084 0.013137365
000360 a5 9c 18 3d 1f fd a7 bd 9a 13 05 bc 58 5a dd bd
       0.037258763 -0.08202576 -0.008122349 -0.10808247
000370 0f 47 eb bb fa 89 a2 3d 0e f8 08 3c 7d 6a 86 3d
       -0.0071801017 0.07936473 0.008359922 0.0656328
000380 be 43 bd bc 05 ec 2e 3d d7 e8 ed 3c 59 9e ad 3d
       -0.023103591 0.042705555 0.02904169 0.08477468
000390 87 60 da bd b3 8e 8b 3c 0d dc 54 3d 6b 4d cd 3c
       -0.106629424 0.017035818 0.05196767 0.02506133
0003a0 00 f4 f6 bd 8d 92 c6 3d db 4a 98 bd 8e cc a3 bd
       -0.12058258 0.09695921 -0.074361525 -0.07998
0003b0 5c 55 84 3d b4 4c b8 3c 74 09 9f 3c c4 82 b9 bd
       0.064615935 0.022497512 0.019413687 -0.09058145
0003c0 87 e7 17 be 0b 00 6a bd 06 d5 85 3b 88 e8 12 3d
       -0.14834414 -0.057128947 0.0040842323 0.03586629
0003d0 0d ab 5b 3c 00 54 72 bb 67 ab 0a b8 70 9e a1 3d
       0.013407481 -0.0036976337 -3.3061395e-05 0.07891548
0003e0 fa 3e 16 3d 5a 48 83 bd a9 10 98 bd 05 4c 65 3d
       0.036681153 -0.06410284 -0.07425053 0.0559807
0003f0 21 6f 5a 3d c9 3d 6b 3d dc e3 1c bd 48 14 55 bc
       0.053328637 0.05743197 -0.03830324 -0.013005324

fc2.bias f4 [84]
000000 02 4d e3 3c ae 91 c7 3d b9 11 ea 3c 61 77 67 bb
       0.027746681 0.09744583 0.028572904 -0.0035318958
000010 1f 3f cd 3d 62 59 51 bd e0 bc 9e bd 35 da 3b 3d
       0.10021805 -0.051110633 -0.07750869 0.045862395
000020 ae cb 93 3d fe 64 1f 3e 97 ad 24 bd 2d da 5c bd
       0.07216583 0.15565869 -0.04020461 -0.053919006
000030 93 ab 51 bd ff 7e d0 3c 16 6e 7e 3c 39 92 95 bd
       -0.051189017 0.025451181 0.015529176 -0.073032804
000040 32 f4 d3 3d 45 23 30 bd 42 2c 94 3c 47 2b 07 3e
       0.10349311 -0.043002386 0.01808751 0.13200103
000050 b9 8b 62 bd 34 79 97 3e 08 45 0d bd b4 0d 5a 3e
       -0.05530903 0.29584658 -0.03448966 0.2129429
000060 90 cb 2d 3e 67 77 53 3e ee aa b1 3d 30 e2 49 3d
       0.16972184 0.20651017 0.086751804 0.049287975
000070 6c f1 b8 3d a5 fd 6d bd 96 01 a4 3d 8a a7 3c bd
       0.090304226 -0.058103222 0.08008115 -0.046058215
000080 fa e4 34 bd ff 8f 0b 3e a1 33 06 3d 16 66 42 bd
       -0.04416368 0.13629149 0.03276408 -0.047460638
000090 35 55 84 3e 33 f5 7f bb 05 a1 d8 3c 6b d1 25 3d
       0.25846258 -0.0039056062 0.026443968 0.04048292
0000a0 99 72 1b bd 63 25 de 3c c3 e4 9d 3d ca aa 45 bd
       -0.037951086 0.027117437 0.077096485 -0.04825858
0000b0 21 6d 25 3d b7 e7 3e bd e0 ca e3 3c f0 2f e3 3d
       0.040387277 -0.0466077 0.0278067 0.11093128
0000c0 9b e5 6e bd d2 61 22 3e 2d ae c5 bb 7c 7f 87 3c
       -0.058324438 0.15857628 -0.0060327263 0.016540281
0000d0 f7 62 59 bd f8 32 dc 3c b7 fd c8 bd 74 aa 63 bd
       -0.053072896 0.026879773 -0.09814017 -0.05558248
0000e0 18 58 1b 3c 2b 7e 4b 3e 00 5b da 3d d5 43 32 3c
       0.009481452 0.19872348 0.10661888 0.01088043
0000f0 9a 29 b5 bc 77 c9 36 3d 66 6e d9 3d 6b 58 ba 3d
       -0.022114564 0.044625726 0.1061676 0.09098896
000100 f5 88 81 3d f3 d0 6d 3e 52 70 83 3d 3a 0c 4c 3a
       0.063249506 0.23224239 0.06417908 0.00077838043
000110 cf df bb bd 0b b2 b9 3d a2 d6 ae 3a 95 ab 83 3c
       -0.091735475 0.09067162 0.0013339112 0.016073028
000120 bd e6 87 bd e2 b9 3f 3d ee e5 b0 bd ab 25 d1 3d
       -0.06635807 0.04680813 -0.086376056 0.10212263
000130 dc c5 68 bd 95 6b b6 3c 1c 6d a4 3d b5 ac 8c bd
       -0.05682932 0.022268096 0.080286235 -0.06868879
000140 8c ee a0 3d 54 0e 98 bd 06 6e 11 3e c3 a0 c8 3a
       0.07857999 -0.07424608 0.14202127 0.00153067

fc3.weight f4 [19, 84]
000000 11 4e e0 bc 40 79 9c 3e 70 df 69 be b8 8a c7 bb
       -0.027380975 0.30561256 -0.22839141 -0.0060895346
000010 bc 4c 2a be f5 03 c9 bc 09 2b b7 be fb ea 96 be
       -0.16630834 -0.02453802 -0.3577502 -0.2947615
000020 3e 83 18 bd 3d 51 99 bd 68 11 96 be 6c 49 31 3e
       -0.037234537 -0.07486198 -0.29310155 0.17313164
000030 6c 76 43 3d b6 8d 99 3e 54 eb 9b 3b 9c 3a 98 3e
       0.047720358 0.2999093 0.004758278 0.29732215
000040 62 b6 77 be a1 69 ab 3d 4b de f9 3d 6d 26 fa bc
       -0.24190667 0.083697565 0.12200602 -0.030535901
000050 1e a8 66 3d 2d 6e f2 bd e2 f3 3b 3e 4c 5d 05 be
       0.056312673 -0.118374206 0.18354753 -0.13023871
000060 05 10 91 bd cc 81 78 be d0 43 49 be c2 b4 6d 3e
       -0.070831336 -0.24268264 -0.19654775 0.23213485
000070 95 83 0a be 5a c2 ac bd a4 f8 48 3a f4 8d 24 3d
       -0.13526757 -0.08435507 0.0007666445 0.04017444
000080 4b cd 81 bc 81 b5 f4 bd de eb 82 bd fc ff a4 3d
       -0.015844962 -0.119486816 -0.06392644 0.08056638
000090 b4 9e 80 be 0d 0b fe bc a5 5c 45 bd a5 5b 27 3e
       -0.2512108 -0.031011129 -0.048184056 0.16343553
0000a0 77 fa 94 bd 28 07 e0 bd 54 92 03 be 0d 53 de bd
       -0.07274335 -0.10938865 -0.12848788 -0.108556844
0000b0 ac 82 66 3e ae 5f de bd 33 99 c5 be d9 fc 5b 3e
       0.22510785 -0.10858093 -0.38593444 0.21483172
0000c0 3b 72 62 bd a5 10 ea bc 1e 53 39 3e a2 b1 e8 3e
       -0.05528472 -0.02857239 0.18098113 0.45448023
0000d0 19 2f 62 be c0 63 1a be 7c 34 9f bd 86 01 1b 3d
       -0.22088279 -0.15077114 -0.077736825 0.03784325
0000e0 17 14 02 3e ca 24 a0 3e a6 d9 22 bc 97 d3 94 3d
       0.12702976 0.31278068 -0.009939587 0.0726692
0000f0 2c c9 cf 3d b8 92 90 be 50 cc 3d be e2 9c 3f 3e
       0.10145792 -0.28236938 -0.1853497 0.1871219
000100 4c 77 9f 3e 93 cc fe 3c 67 5d e8 3c d2 3c 5a ba
       0.31145704 0.031103408 0.02836485 -0.0008325103
000110 12 e0 6f 3d 6f d7 20 3e 22 20 e5 3a 93 0a 22 bd
       0.0585633 0.15707181 0.001748089 -0.039560866
000120 45 0d 18 3c 5a 08 e0 3c 99 47 2a 3d 87 fd 8b be
       0.009280507 0.027347732 0.041572187 -0.27341864
000130 66 ce 58 bc f8 77 98 3e 2e f4 c7 b8 4b d6 c3 3d
       -0.013232803 0.2977903 -9.5345415e-05 0.095623575
000140 ac 49 ea bd 75 84 37 bd e0 bc 9c bd 89 3d 35 3e
       -0.11439833 -0.044804055 -0.076532125 0.17699255
000150 f2 da ef bd a6 88 e7 3c 79 1a 21 be 14 0b a2 3d
       -0.117116824 0.028263401 -0.15732755 0.07912269
000160 c6 79 2e be 30 e5 ed 3d 6d 5f 16 bd bc 02 15 3e
       -0.1703864 0.1161598 -0.0367121 0.14551824
000170 1a f5 24 3b 98 1b 5d be 2c 16 5f 3e 02 86 b4 3d
       0.0025170506 -0.21592557 0.21785802 0.088146225
000180 34 fe 43 bc 9d 99 a0 3e af ce 8a bd c0 6a 98 be
       -0.011962462 0.31367198 -0.06777703 -0.29768944
000190 e9 59 35 bb d2 97 aa bd 8e 35 82 bd 55 3b 28 3e
       -0.0027671999 -0.08329739 -0.06357871 0.16428883
0001a0 48 cd 3a be f6 7a ab be 24 13 8d 3e a8 3c 07 be
       -0.18242371 -0.3349225 0.27553666 -0.13206732
0001b0 4c b0 d4 bd ce 1b 3d be c5 76 13 3e d4 a4 e4 3e
       -0.103851885 -0.18467638 0.14400776 0.44657004
0001c0 84 2d 06 be 91 c8 20 bd 1f fe bd bc 52 98 b8 3d
       -0.131033 -0.039253775 -0.023192463 0.09013428
0001d0 02 d5 14 3e 44 60 b3 bd c2 0c 88 3d 9b b5 68 3d
       0.14534381 -0.087585956 0.06643058 0.056813817
0001e0 4c 1b ae be 7e 2b 9e bc 30 4f 81 bd fc 88 5f be
       -0.340052 -0.019307848 -0.06313932 -0.21829599
0001f0 64 52 c9 3d b4 58 93 be 9a 02 0b be 84 46 b6 3b
       0.09830168 -0.28778613 -0.13575211 0.0055626053
000200 e3 e3 0c 3d cf 48 a6 bd c4 64 85 3e d6 17 ae bd
       0.034397017 -0.08119356 0.2605344 -0.0850064
000210 ea ec 32 bd f6 6e 3c be 7b a1 d3 3d b3 ab 24 3e
       -0.04368297 -0.18401703 0.10333534 0.16081123
000220 ce 62 90 bb ed 91 0e 3d 78 52 70 3b 70 6b 24 bd
       -0.0044063097 0.034807134 0.003667025 -0.040141523
000230 fa 88 ce 3d 98 77 93 3e da 1a c9 3e 41 e1 1b 3d
       0.1008472 0.2880218 0.392783 0.038056616
000240 88 0f 68 bd 4d 0e 7c 3e 38 c2 4f 3e f9 3f 02 3e
       -0.056655437 0.2461483 0.20288932 0.12719716
000250 6c a1 37 3e 20 c4 97 bc 05 a1 5a be 89 97 41 be
       0.17932671 -0.018526137 -0.21350487 -0.18905462
000260 48 18 26 be 8b 2e 61 be 00 64 7d 3e 77 57 05 bc
       -0.162202 -0.21990411 0.24745178 -0.008138529
000270 7a 7c dd 3a 19 0d e4 bd d8 50 a9 3c e8 72 b6 bd
       0.0016898059 -0.11135311 0.020668432 -0.089086354
000280 c5 ee 47 bd 6c 04 93 3e b3 11 d9 bc b8 c1 6c 3c
       -0.048811693 0.2871431 -0.026497697 0.014450483
000290 60 a5 2f be 0a a6 21 be da b6 08 be 23 0e 33 be
       -0.1715293 -0.15785995 -0.13351002 -0.17485861
0002a0 04 a7 d1 bd 0f eb 26 3e 4b 32 df 3d a0 c4 d8 bd
       -0.10236934 0.16300605 0.108982645 -0.10584378
0002b0 09 37 da bc 30 20 ee 3c c3 a8 1a be 40 48 b1 3e
       -0.026637571 0.029068083 -0.1510344 0.34625435
0002c0 d7 ff 29 be 2f dc 8d bd f2 64 94 3d 2a 9e d4 3d
       -0.16601501 -0.06926762 0.07245816 0.1038173
0002d0 60 92 e4 bd 58 24 52 3d 0d 43 c7 bd 5e 9d 13 bc
       -0.11160731 0.05130419 -0.09729586 -0.009009687
0002e0 e6 b3 99 bc 46 4d 08 3d 25 9f 3e 3d eb 34 d6 bc
       -0.01876254 0.03327682 0.04653849 -0.02614828
0002f0 57 33 34 be 37 3d 5d be 33 5c 25 bd 2e 31 7e bd
       -0.1759771 -0.21605383 -0.04037113 -0.06205862
000300 fd 69 83 bd 57 af 25 be d1 9b cf bd 02 7e a1 bd
       -0.064167 -0.16180168 -0.101371415 -0.07885362
000310 90 9a 8d be 33 29 aa 3d 55 8e cc 3e 65 0b 50 bd
       -0.27656984 0.083086394 0.3995234 -0.050792117
000320 14 ff 5a 3c 84 a5 49 be 0d 8e db bd 94 f0 8b 3e
       0.013366479 -0.19692045 -0.107204534 0.27331984
000330 5a fb 76 be 0c 63 e7 bd e4 1a 91 bd 10 0a 0b bd
       -0.2411932 -0.112981886 -0.07085207 -0.033945143
000340 de 9c 97 3d 12 df 1c be c1 fa 09 be f7 3e 6f bd
       0.07402967 -0.1531947 -0.13474561 -0.058409657
000350 02 ae 33 3e 9e 16 59 bd 0f 8e e1 3d 1c 4b 18 3e
       0.17546847 -0.053000085 0.11013424 0.14872402
000360 17 80 9e 3d 51 8f 07 3a 00 94 7c 3d ce 52 82 bb
       0.07739275 0.0005171197 0.06166458 -0.0039771562
000370 90 f2 3a bd 53 8f 36 3e b0 69 28 3d 81 89 02 bd
       -0.045641482 0.17828111 0.041116416 -0.031869415
000380 32 d1 9d 3e b9 f6 6b 3e 37 3b 50 be 29 db e2 bd
       0.30823666 0.23043336 -0.20335089 -0.11076958
000390 95 04 0e be 02 c8 1e be 56 ec 94 3d a4 79 da 3d
       -0.13868935 -0.15505984 0.0727164 0.10667732
0003a0 cd 00 a5 bd 85 61 23 be bb 15 3d be bd 57 16 3e
       -0.08056793 -0.1595517 -0.18465321 0.14681907
0003b0 60 1b 96 bd 48 46 3d be 10 93 25 3e a9 21 74 bc
       -0.0732944 -0.18483841 0.16169381 -0.014900603
0003c0 04 58 c0 3d b9 fd 95 3e af 84 77 bd 9a 60 e0 bd
       0.09391788 0.29295138 -0.06042927 -0.10955925
0003d0 b7 86 8a bd 3d f0 52 3e 35 09 1f 3e cc 36 48 be
       -0.06763976 0.20599456 0.15530856 -0.19552153
0003e0 eb 49 5b be 00 e3 2e bc b1 28 90 3d 81 e5 42 be
       -0.21414916 -0.010674238 0.07039011 -0.19032861
0003f0 a2 c9 0b be d2 d5 83 3e 3e 24 6d b9 13 46 20 bd
       -0.13651136 0.2574907 -0.00022615583 -0.039129328

fc3.bias f4 [19]
000000 6f 00 9b be 74 91 d5 bd 0a 90 34 3d dd c9 8b 3b
       -0.30273768 -0.104281336 0.04408268 0.0042660073
000010 38 2e 71 be c2 b6 17 3e 6e 0f a5 be a1 2c 16 3d
       -0.23552787 0.1481581 -0.32238334 0.036663655
000020 5d 2c 8f be 71 2f a2 bd 24 cc a0 3e f5 c8 87 bd
       -0.27963534 -0.07919205 0.31405747 -0.066301264
000030 01 62 84 3e 35 a8 cc bc a8 6f a2 3d 11 6a 48 3e
       0.2585602 -0.024982551 0.07931453 0.19571711
000040 e8 ea 0d 3c 3f b5 58 3e 6c 62 a6 bd
       0.008661963 0.2116289 -0.08124241
