python/CNN1.pth (torch_old, 252622 bytes, 10 tensors)

conv1.weight f4 [6, 3, 5, 5]
0.17049637 0.3016232 0.3119416 0.18255992 0.39320078 -0.04300541 0.10552315 0.035301533
0.1386715 0.09931676 0.07839904 -0.00673901 0.045148358 -0.013196526 0.0091337105 0.065508425
0.08415534 0.0033687057 0.13771161 0.11765691 0.12454653 0.31935316 0.13778438 0.23174924
-0.0014039149 -0.120626785 0.012789076 0.07176174 0.114211634 0.2049351 -0.14408387 -0.09630641
-0.08895787 -0.035785258 -0.1182019 -0.15300247 -0.30145603 -0.16078623 -0.33116373 -0.107844174
-0.17262866 -0.07948972 -0.20586468 -0.24444196 -0.12334808 -0.008017585 0.079836205 0.055912826
-0.14137752 -0.1918747 -0.15242743 -0.123780556 0.09767389 0.038168572 0.022386968 -0.17726418
-0.117764644 -0.13872829 -0.04890069 -0.040172245 -0.20676154 -0.32764524 -0.35924917 -0.28347072
-0.25418872 -0.122905135 -0.20825693 -0.26164517 -0.23776388 -0.16877523 0.16741574 0.018829351
-0.13223182 -0.07654748 -0.21880688 0.010617572 0.030581778 -0.056463975 0.020475509 0.028494142
0.12157094 0.06057981 -0.030230654 0.08545684 0.07182921 -0.0818495 0.12796426 0.0048416443
0.07691222 0.14643016 -0.07376397 -0.0002961753 0.043218408 0.086002104 0.12469955 0.013171308
0.04386528 -0.16101402 0.009980112 -0.071893394 -0.010357103 -0.08586766 -0.06385899 -0.06061454
-0.0655135 -0.006363537 0.12623149 0.029488835 0.10957737 -0.014558029 0.07363067 0.059173815
0.051582776 0.1497481 0.13258365 -0.11888592 -0.08067793 -0.16147453 -0.028523527 -0.053106595
-0.03408909 -0.049480345 -0.064577535 -0.010880967 -0.09437005 -0.08631306 0.010949204 -0.111138396
0.08275759 -0.004554041 -0.14417604 -0.051848434 0.045781434 -0.08397965 -0.030065304 -0.11826761
0.00408519 -0.09611374 0.1031905 0.09150941 -0.102393895 -0.116699666 -0.19716597 -0.11275996
0.002939757 -0.07592054 -0.22256832 -0.15807873 -0.23381805 -0.13811414 -0.017866446 -0.034441434
0.024905577 0.007509515 -0.13927916 0.03962571 -0.10533556 -0.17487319 -0.14055714 -0.20034687
0.077405676 -0.18832754 -0.2333917 -0.26473767 -0.20009275 0.00827092 0.00931747 -0.23072223
-0.18007015 -0.16476804 0.23984751 0.03473439 0.04410068 -0.08847839 -0.16966628 -0.09905421
-0.0176164 -0.15549022 -0.18947718 -0.18199115 -0.0820501 -0.07910416 -0.2658661 -0.19931507
-0.30367884 -0.23580346 -0.056572773 -0.22153926 -0.112995766 -0.27708673 -0.015739765 -0.07417758
-0.07796716 -0.24757138 -0.19169888 -0.094589196 -0.119142465 -0.107072815 -0.22028755 -0.1604257
0.14093828 0.16622904 0.24197875 0.06611668 0.011068813 0.05895633 0.05422717 0.1318368
0.062666036 0.100302465 0.055296518 0.17680179 0.051219743 0.009642613 0.18788049 0.16648503
0.14336717 0.056064993 0.22579424 0.24665514 0.3057554 0.13357365 0.14483525 0.18393986
0.15084024 0.07355981 0.16061155 -0.026850848 0.1553444 0.108979486 -0.03927662 0.027787829
0.08973247 -0.04053935 0.14740129 -0.10321768 -0.04325823 -0.14523053 -0.105316415 -0.07930696
-0.12181063 -0.08596787 -0.041539017 0.035878606 0.05209189 -0.12849624 -0.00086144527 -0.10469236
-0.115126595 0.028709227 -0.18154138 -0.15712234 -0.10631045 -0.10024006 0.020009287 -0.11489131
00000000: 9a96 2e3e 5b6e 9a3e cfb6 9f3e fdf0 3a3e
00000010: 9d51 c93e 7126 30bd 851c d83d 5798 103d
00000020: e7ff 0d3e 9666 cb3d ad8f a03d ead2 dcbb
00000030: 7ced 383d 3e36 58bc 8fa5 153c 4829 863d
00000040: a359 ac3d 81c5 5c3b 4604 0d3e 1bf6 f03d
00000050: 4012 ff3d 4282 a33e 5917 0d3e ac4f 6d3e
00000060: 9103 b8ba 2d0b f7bd 4689 513c d2f7 923d
00000070: cae7 e93d 82da 513e b98a 13be 4c3c c5bd
00000080: 8b2f b6bd 9093 12bd d613 f2bd aeac 1cbe
00000090: 7258 9abe 25a5 24be 4b8e a9be 68dd dcbd
000000a0: 91c5 30be 82cb a2bd 31ce 52be fe4e 7abe
000000b0: eb9d fcbd 305c 03bc 2a81 a33d d904 653d
000000c0: 45c5 10be cd7a 44be f015 1cbe a980 fdbd
000000d0: 4009 c83d a656 1c3d e064 b73c be84 35be
000000e0: 972e f1bd ca0e 0ebe 174c 48bd a78b 24bd
000000f0: 4cb9 53be 1ec1 a7be 82ef b7be 1323 91be
00000100: 0625 82be b0b5 fbbd 4e41 55be 5bf6 85be
00000110: 6078 73be 6ad3 2cbe 086f 2b3e 0340 9a3c
00000120: c767 07be edc4 9cbd e90e 60be 53f5 2d3c
00000130: a386 fa3c c546 67bd 41bc a73c 8c6c e93c
00000140: 2ffa f83d 8922 783d 47a6 f7bc ff03 af3d
00000150: 311b 933d b6a0 a7bd 1009 033e a8a6 9e3b
00000160: 2784 9d3d caf1 153e 9011 97bd fa47 9bb9
00000170: c905 313d df21 b03d 7a62 ff3d 78cc 573c
00000180: 14ac 333d dce0 24be a083 233c d83c 93bd
00000190: d7b0 29bc 62db afbd 81c8 82bd f446 78bd
000001a0: f12b 86bd 3885 d0bb d442 013e 9292 f13c
000001b0: 1a6a e03d cd84 6ebc adcb 963d 3e60 723d
000001c0: 7648 533d 9157 193e 02c4 073e 767a f3bd
000001d0: 783a a5bd 9459 25be 2caa e9bc 4d86 59bd
000001e0: 00a1 0bbd e7ab 4abd 3a41 84bd 1546 32bc
000001f0: 1645 c1bd e7c4 b0bd 4a64 333c 879c e3bd
00000200: d07c a93d 113a 95bb e2a2 13be 065f 54bd
00000210: 5085 3b3d 86fd abbd 834b f6bc 4a36 f2bd
00000220: 0fdd 853b 48d7 c4bd 8a55 d33d 4969 bb3d
00000230: e4b3 d1bd 3c00 efbd e0e5 49be b2ee e6bd
00000240: f0a8 403b 3a7c 9bbd f3e8 63be 64df 21be
00000250: 006e 6fbe cb6d 0dbe a75c 92bc 7612 0dbd
00000260: c806 cc3c 6112 f63b 329f 0ebe 924e 223d
00000270: 2cba d7bd f511 33be 36ee 0fbe bb27 4dbe
00000280: de86 9e3d efd8 40be 3cfe 6ebe b28b 87be
00000290: 1de5 4cbe c182 073c 4da8 183c 7342 6cbe
000002a0: 4f64 38be f4b8 28be 969a 753e a645 0e3d
000002b0: eaa2 343d 2834 b5bd ffbc 2dbe efdc cabd
000002c0: 4550 90bc d438 1fbe 4e06 42be e35b 3abe
000002d0: e209 a8bd 5d01 a2bd 9a1f 88be 4019 4cbe
000002e0: cb7b 9bbe 7676 71be dab8 67bd 30db 62be
000002f0: 536a e7bd 50de 8dbe aef0 80bc 6aea 97bd
00000300: 3fad 9fbd 5a83 7dbe b64c 44be fbb7 c1bd
00000310: f700 f4bd fe48 dbbd 0f93 61be a246 24be
00000320: 2052 103e f237 2a3e 47c9 773e 2f68 873d
00000330: f759 353c 317c 713d 4f1d 5e3d 3a00 073e
00000340: 0d57 803d 616b cd3d 9a7e 623d 870b 353e
00000350: cbcb 513d 0dfc 1d3c be63 403e 0d7b 2a3e
00000360: d8ce 123e 68a4 653d 9b36 673e 2a93 7c3e
00000370: f98b 9c3e 88c7 083e b14f 143e bb5a 3c3e
00000380: dd75 1a3e 87a6 963d 5b77 243e 4ff6 dbbc
00000390: 9a12 1f3e a330 df3d 85e0 20bd 4da3 e33c
000003a0: a8c5 b73d 970c 26bd 5df0 163e ca63 d3bd
000003b0: 8b2f 31bd 50b7 14be 22b0 d7bd b06b a2bd
000003c0: da77 f9bd ec0f b0bd d124 2abd 72f5 123d
000003d0: 4e5e 553d 8594 03be 9dd2 61ba f368 d6bd
000003e0: 7ec7 ebbd 9d2f eb3c fce5 39be aee4 20be
000003f0: 4bb9 d9bd a94a cdbd 84ea a33c 234c ebbd

conv1.bias f4 [6]
0.2651217 0.16695206 0.012597022 -0.08849123 0.04349347 0.090572715
00000000: 08be 873e 7bf5 2a3e bd63 4e3c e43a b5bd
00000010: 3526 323d 307e b93d

conv2.weight f4 [16, 6, 5, 5]
0.15757748 0.18661943 0.14410919 0.08969195 0.1122319 0.117056765 0.14018308 0.30256894
0.25814328 0.169094 0.058264874 0.023870282 0.106357224 0.14812793 0.1560576 -0.11725011
-0.087428026 -0.11795786 -0.073584765 0.06533297 -0.11023028 -0.016623406 -0.022112466 -0.104760274
-0.076443255 -0.034153298 0.10312014 0.16103618 0.026283246 0.09714446 -0.027511816 -0.008548834
0.11872505 0.028334375 0.10641768 0.076140225 0.030493723 0.06729069 -0.020566981 -0.024260065
0.020622753 0.06981659 0.10926002 0.05078235 -0.029721221 -0.036783706 -0.076571465 -0.0051018484
-0.021398626 -0.07114877 0.14090677 0.0264904 0.14139035 0.09514255 -0.00988372 0.09081622
0.038645085 0.103353254 -0.0035262664 -0.0642801 -0.012844185 0.060662072 -0.005117139 -0.008038707
-0.09378064 -0.034467146 -0.13817644 -0.15565918 -0.16916804 -0.16952644 -0.09663678 -0.10502581
-0.090855375 -0.14739677 -0.096902095 0.13142039 0.11140912 0.07285409 0.04067127 0.05548725
0.1283077 0.16829251 0.14883347 0.11894954 -0.003091382 0.044263426 -0.10622066 0.020461164
-0.0829608 -0.008828528 -0.06992654 -0.14506625 -0.041681897 -0.10428478 -0.101482786 0.007063711
-0.1465449 -0.056800243 -0.10110806 -0.11148934 0.034769963 0.1064625 0.09049877 0.080577224
0.07056298 0.10985332 0.09052286 0.023185983 0.0051590507 -0.028826816 -0.022712303 -0.10761217
-0.019996494 -0.0071090553 -0.08844488 -0.10190514 -0.10433781 -0.09959947 -0.0462606 -0.12060993
-0.03478223 -0.009747903 -0.012501252 -0.048419688 -0.10442154 -0.015147029 0.09822274 -0.053992257
-0.047253445 -0.024259735 0.07074992 0.10573272 0.0678423 0.08134018 -0.046392217 -0.044213887
0.0061329785 0.07273118 0.04702277 0.09722819 0.0038391824 -0.073506765 -0.07583575 -0.04210996
-0.08323067 0.047950115 -0.043010987 -0.038842786 -0.104476 -0.04633643 -0.09583238 -0.007432988
0.07866265 0.020306699 0.14087377 -0.0018670459 0.050874233 0.049460556 0.06339872 -0.045846526
-0.044258352 0.018321311 0.042858317 0.04788442 -0.010094319 -0.04850684 0.043895658 -0.0004202983
0.021758528 0.023398006 -0.03416311 -0.07115104 -0.119047925 -0.042222653 -0.028497908 -0.06557303
-0.0800114 0.016740575 -0.03367067 0.062118843 -0.054799087 0.02078707 -0.0602393 -0.016300704
0.023319585 0.0130133405 -0.1168434 0.03171044 -0.038322028 -0.017428067 -0.09903091 -0.052654903
-0.030404918 -0.023892518 0.052319013 -0.08120481 -0.067316115 -0.045457773 -0.0864219 0.053980134
-0.07483253 -0.20151411 -0.21725959 -0.09715761 -0.12621135 -0.1234631 -0.12128004 -0.021873351
-0.005400133 0.008101554 0.042778373 0.117259055 0.15859683 -0.011794392 -0.011492027 0.060666874
0.18105905 0.21011516 0.21361786 0.046710197 0.1026217 0.21218407 0.22512996 0.2034058
0.055641104 -0.12622134 -0.10499973 -0.13664097 -0.051238537 -0.045412075 -0.009317007 0.045856457
0.060383707 0.037456546 0.03582407 -0.06686121 0.067675635 0.0664896 0.05147016 -0.020452362
0.053104743 0.036064956 0.15741192 0.14625664 0.119450174 0.032572616 0.069407016 0.044384178
0.12806271 0.124419 -0.06946011 -0.10031608 -0.16636755 -0.18854156 -0.12130708 -0.06552152
00000000: fe5b 213e 2a19 3f3e 5c91 133e 6ab0 b73d
00000010: d7d9 e53d 75bb ef3d 278c 0f3e 51ea 9a3e
00000020: 5b2b 843e fa26 2d3e 26a7 6e3d 9c8b c33c
00000030: d1d1 d93d d9ae 173e 90cd 1f3e d320 f0bd
00000040: 770d b3bd e493 f1bd 9cb3 96bd 4bcd 853d
00000050: 6ac0 e1bd cf2d 88bc 3425 b5bc 8e8c d6bd
00000060: 488e 9cbd 54e4 0bbd a730 d33d abe6 243e
00000070: f64f d73c adf3 c63d 7660 e1bc 6910 0cbc
00000080: 1e26 f33d 7e1d e83c 83f1 d93d 68ef 9b3d
00000090: f9cd f93c b4cf 893d 167c a8bc 0bbd c6bc
000000a0: 0cf1 a83c 00fc 8e3d b8c3 df3d 2701 503d
000000b0: eb79 f3bc 83aa 16bd 80d1 9cbd 682d a7bb
000000c0: 2c4c afbc 72b6 91bd dd49 103e 6502 d93c
000000d0: a2c8 103e 19da c23d 54ef 21bc dbfd b93d
000000e0: 4f4a 1e3d dfaa d33d ef18 67bb 49a5 83bd
000000f0: 6b70 52bc cb78 783d acad a7bb c8b4 03bc
00000100: 1010 c0bd 6c2d 0dbd 207e 0dbe 1f65 1fbe
00000110: 633a 2dbe 5798 2dbe 81e9 c5bd c617 d7bd
00000120: 6212 babd 2eef 16be 9b74 c6bd 1193 063e
00000130: 772a e43d 8634 953d eb96 263d 9946 633d
00000140: 1863 033e df54 2c3e cd67 183e d19b f33d
00000150: c998 4abb 914d 353d 388a d9bd 2c9e a73c
00000160: 5ae7 a9bd 88a5 10bc a535 8fbd 3f8c 14be
00000170: a3ba 2abd 4293 d5bd 35d6 cfbd b476 e73b
00000180: de0f 16be 5fa7 68bd be11 cfbd 8654 e4bd
00000190: f36a 0e3d 0309 da3d 6b57 b93d ac05 a53d
000001a0: 5383 903d c7fa e03d 0d64 b93d 88f0 bd3c
000001b0: 410d a93b 3726 ecbc 270f babc c563 dcbd
000001c0: b0cf a3bc 14f3 e8bb 9722 b5bd a4b3 d0bd
000001d0: 10af d5bd cffa cbbd c17b 3dbd 5702 f7bd
000001e0: d077 0ebd abb5 1fbc 0dd2 4cbc b953 46bd
000001f0: f6da d5bd 3f2b 78bc 0129 c93d fc26 5dbd
00000200: d48c 41bd 5abc c6bc 56e5 903d 658a d83d
00000210: e7f0 8a3d ae95 a63d c405 3ebd 9f19 35bd
00000220: 27f7 c83b 16f4 943d f39a 403d 931f c73d
00000230: cb9a 7b3b b78a 96bd c64f 9bbd 7e7b 2cbd
00000240: d774 aabd 5767 443d 4a2c 30bd 9d19 1fbd
00000250: 83f7 d5bd 45cb 3dbd c443 c4bd 6c90 f3bb
00000260: e219 a13d 3c5a a63c 3741 103e aab7 f4ba
00000270: 8061 503d 2797 4a3d 30d7 813d 91c9 3bbd
00000280: 3f48 35bd 9316 963c 348c 2f3d 7422 443d
00000290: a462 25bc 1caf 46bd efcb 333d 7c5b dcb9
000002a0: f13e b23c 2dad bf3c 9eee 0bbd a3b7 91bd
000002b0: 66cf f3bd a9f1 2cbd 7274 e9bc 274b 86bd
000002c0: 04dd a3bd 8823 893c 42ea 09bd 5470 7e3d
000002d0: 0275 60bd a549 aa3c 7cbd 76bd 0e89 85bc
000002e0: b708 bf3c e835 553c 984b efbd cee2 013d
000002f0: 8ff7 1cbd 4ec5 8ebc b8d0 cabd abac 57bd
00000300: bc13 f9bc 3eba c3bc 764c 563d b54e a6bd
00000310: 08dd 89bd ee31 3abd f7fd b0bd 461a 5d3d
00000320: cc41 99bd b759 4ebe 4c79 5ebe 92fa c6bd
00000330: 8c3d 01be 39da fcbd ab61 f8bd be2f b3bc
00000340: 99f3 b0bb 61bc 043c 6038 2f3d 8425 f03d
00000350: 3567 223e 443d 41bc 0e49 3cbc d47d 783d
00000360: 8b67 393e 6e28 573e a4be 5a3e 3153 3f3d
00000370: 532b d23d c846 593e 7888 663e 9c49 503e
00000380: ede7 633d 2b40 01be 190a d7bd 9ceb 0bbe
00000390: 80df 51bd 0302 3abd 5ca6 18bc fbd3 3b3d
000003a0: e854 773d 096c 193d 43bc 123d 88ee 88bd
000003b0: 8699 8a3d b32b 883d 60d2 523d b68b a7bc
000003c0: 5c84 593d d9b8 133d 9730 213e 4dc4 153e
000003d0: 4ba2 f43d dd6a 053d 4425 8e3d 2fcc 353d
000003e0: df22 033e 64cf fe3d 1a41 8ebd 8472 cdbd
000003f0: 415c 2abe 0a11 41be d96f f8bd 2630 86bd

conv2.bias f4 [16]
0.035080206 -0.07514012 0.067326255 -0.025952633 -0.0037103982 0.073807195 -0.007673048 0.051765382
-0.046240404 -0.039976038 0.021944163 -0.026142366 -0.039132364 -0.024893627 -0.081529945 -0.08676989
00000000: 43b0 0f3d 10e3 99bd 59e2 893d 9e9a d4bc
00000010: 272a 73bb 3a28 973d 316e fbbb f007 543d
00000020: 9466 3dbd eabd 23bd 3fc4 b33c 8428 d6bc
00000030: 4249 20bd b8ed cbbc 2cf9 a6bd 69b4 b1bd

fc1.weight f4 [120, 400]
-0.006150162 0.0067286952 0.049761984 -0.05599821 -0.05122342 -0.043681722 -0.0066024796 0.0130587695
-0.039344605 -0.034629505 -0.047014147 -0.02473538 0.02792743 0.042232826 -0.039236266 -0.045561276
-0.0048565897 -0.012604814 0.011430401 0.0261475 -0.041935507 -0.019136736 -0.0027745578 0.020302474
-0.051397096 0.007979715 0.021844024 -0.0014266135 -0.024823941 -0.016884023 -0.0064030522 -0.00833113
0.009336834 0.0045759124 0.029755754 -0.026069548 -0.035738762 -0.03335949 -0.028093858 0.027263857
0.061907224 0.04493784 0.037989404 0.0126118185 0.02261182 0.042043425 0.08260088 -0.013638392
0.028152613 0.0105041 -0.051539667 -0.039870434 -0.04487947 -0.056794662 -0.028765455 0.008123424
-0.072828874 -0.034407828 -0.054195486 -0.042355407 -0.05848915 0.017001074 0.025369659 -0.028994001
-0.025809888 0.026561176 -0.03265286 -0.05169827 -0.07270001 -0.026757443 -0.037443828 -0.058588363
0.029162878 0.03437678 -0.022609308 -0.0007896567 0.023748463 0.021024287 0.0034255316 0.0026352569
-0.0138680395 -0.010864599 0.0332023 -0.040000133 0.038104266 0.045119386 0.03154196 -0.03488295
0.009314665 -0.008869404 0.037294623 0.03584794 0.013617254 -0.016858267 0.043799248 -0.00791389
0.028663713 0.024202105 -0.04255327 0.035758443 0.021597987 -0.038063906 0.034774054 0.050247665
-0.031793956 0.015118433 0.022261042 0.015351286 0.041320875 0.0066091856 0.050435103 0.024737302
-0.02038104 -0.03905809 0.010996555 -0.04141458 0.006117801 0.00807021 0.009631142 0.0210746
0.044564754 -0.02783124 0.046390034 -0.018784238 0.04188839 0.06631848 0.032117568 0.027885063
0.039715286 -0.016945332 0.0148822125 -0.02913671 0.015792666 0.012849714 -0.0459948 0.021603284
0.018144827 -0.018029582 -0.010022269 0.03500984 0.05487417 0.02596655 -0.025204916 -0.026288025
-0.0067571877 0.06825457 -0.03312126 0.02335034 0.05326558 0.06356892 0.009486866 -0.048977673
0.03457208 0.01391208 0.016806997 0.046915777 0.019274672 0.00439958 -0.026262462 0.004955889
0.026750064 -0.007840996 -0.029175859 0.036760546 -0.04263285 0.0029970931 0.009451055 0.044345204
-0.028130652 -0.04908524 -0.008247725 0.028795695 -0.02263479 0.0058358023 -0.022843776 -0.036062803
0.03406133 0.0043793404 0.005177554 0.026606457 0.002974686 -0.035360504 0.050060116 -0.0037951113
-0.013899241 -0.012197034 0.039411224 -0.038132317 0.018089727 0.057936653 0.0028286139 0.047406234
0.0148698585 -0.023771584 0.02763153 -0.04752604 -0.001410545 -0.003175332 0.005569774 0.054823
0.0037134832 0.030506594 -0.0034647689 -0.01742757 0.08209724 -0.047161855 0.007608288 -0.039724946
0.042286627 0.054960474 -0.047098182 0.03251934 -0.0061713248 -0.038485244 0.0058268122 0.00984821
-0.018931784 0.005959594 0.059128877 0.048740156 0.026539253 -0.035706438 -0.04750195 0.023179807
0.038205847 0.07973749 0.042632386 0.0038010848 0.016868558 0.085429616 0.052630045 0.021541247
-0.073118806 -0.0014327468 0.020760499 -0.010873453 -0.03162047 -0.045958284 -0.014836092 0.0011869433
0.0345466 0.08131861 0.023869785 0.004058448 0.011892207 0.05274426 0.061427977 -0.0381892
-0.030537872 0.046004277 0.043091208 0.049350165 0.023199651 -0.02770946 -0.03912899 -0.009718236
00000000: 4c87 c9bb 637c dc3b 39d3 4b3d 615e 65bd
00000010: a6cf 51bd 9beb 32bd 9d59 d8bb 73f4 553c
00000020: cf27 21bd abd7 0dbd e891 40bd daa1 cabc
00000030: 11c8 e43c 54fc 2c3d 35b6 20bd 769e 3abd
00000040: 0724 9fbb 6c84 4ebc 9446 3b3c 4833 d63c
00000050: 91c4 2bbd a5c4 9cbc 5bd5 35bb 6051 a63c
00000060: c385 52bd 5abd 023c 3df2 b23c 35fd baba
00000070: 945b cbbc 5d50 8abc b2d0 d1bb 4b7f 08bc
00000080: 85f9 183c 89f1 953b 57c2 f33c ce8f d5bc
00000090: cf62 12bd f6a3 08bd 1725 e6bc 7458 df3c
000000a0: 6e92 7d3d be10 383d c79a 1b3d cda1 4e3c
000000b0: 6c3c b93c ba35 2c3d a62a a93d 9073 5fbc
000000c0: 4fa0 e63c 6319 2c3c 421b 53bd 2e4f 23bd
000000d0: 89d3 37bd 85a1 68bd 88a5 ebbc 1c18 053c
000000e0: 4e27 95bd 39ef 0cbd 16fc 5dbd dd7c 2dbd
000000f0: 5292 6fbd d645 8b3c 08d4 cf3c d484 edbc
00000100: 426f d3bc d396 d93c 01bf 05bd 91c1 53bd
00000110: bee3 94bd 6d32 dbbc b35e 19bd 5afa 6fbd
00000120: fde6 ee3c abce 0c3d 2837 b9bc f700 4fba
00000130: 238c c23c 203b ac3c e27e 603b 46b4 2c3b
00000140: c636 63bc 6e01 32bc 23ff 073d 2ed7 23bd
00000150: 3813 1c3d 1bcf 383d 2432 013d 6de1 0ebd
00000160: 899c 183c fa50 11bc 3fc2 183d 4ad5 123d
00000170: e71a 5f3c 591a 8abc d766 333d 43a9 01bc
00000180: 2ad0 ea3c 7e43 c63c 564c 2ebd 7277 123d
00000190: 43ee b03c e6e8 1bbd 3d6f 0e3d 7fd0 4d3d
000001a0: 613a 02bd 4eb3 773c ca5c b63c f683 7b3c
000001b0: 1440 293d de91 d83b 0a95 4e3d e2a5 ca3c
000001c0: 24f6 a6bc 60fb 1fbd e52a 343c 56a2 29bd
000001d0: d677 c83b ea38 043c f0cb 1d3c a4a4 ac3c
000001e0: 8889 363d 57fe e3bc 7a03 3e3d 67e1 99bc
000001f0: 2993 2b3d fcd1 873d b68d 033d 376f e43c
00000200: 7fac 223d f0d0 8abc 86d4 733c 1cb0 eebc
00000210: 9f5f 813c 9b87 523c 0b65 3cbd 5ff9 b03c
00000220: 76a4 943c c6b2 93bc 7134 24bc 7a66 0f3d
00000230: bdc3 603d cdb7 d43c 8a7a cebc fc59 d7bc
00000240: 666b ddbb 0dc9 8b3d 29aa 07bd 3649 bf3c
00000250: 022d 5a3d 6c30 823d cd6e 1b3c d09c 48bd
00000260: 749b 0d3d 7eef 633c d4ae 893c c22a 403d
00000270: ebe5 9d3c 5a2a 903b 6024 d7bc 0365 a23b
00000280: f322 db3c 8577 00bc 3602 efbc 3a92 163d
00000290: c99f 2ebd e16a 443b 99d8 1a3c 51a3 353d
000002a0: 4172 e6bc 9b0d 49bd 7721 07bc f3e4 eb3c
000002b0: 986c b9bc 423a bf3b df22 bbbc 97b6 13bd
000002c0: e583 0b3d 9280 8f3b 79a8 a93b c9f5 d93c
000002d0: f3f2 423b 2dd6 10bd d60b 4d3d 67b7 78bb
000002e0: a4b9 63bc 12d6 47bc aa6d 213d a230 1cbd
000002f0: e830 943c fc4e 6d3d 4460 393b 0a2d 423d
00000300: b5a0 733c a0bc c2bc 855b e23c aaaa 42bd
00000310: 09e2 b8ba 3b19 50bb a782 b63b 158e 603d
00000320: e95d 733b f7e8 f93c 2d11 63bb 43c4 8ebc
00000330: 9922 a83d ca2c 41bd f24e f93b a0b6 22bd
00000340: be34 2d3d 3c1e 613d 06ea 40bd 0033 053d
00000350: d338 cabb b4a2 1dbd d8ee be3b 635a 213c
00000360: d416 9bbc b348 c33b 1f31 723d c2a3 473d
00000370: d968 d93c ea40 12bd 6891 42bd 94e3 bd3c
00000380: bc7d 1c3d 694d a33d 4c9f 2e3d 9f1b 793b
00000390: ee2f 8a3c b9f5 ae3d 9a92 573d 4577 b03c
000003a0: 50bf 95bd 01cb bbba ec11 aa3c 9126 32bc
000003b0: 7784 01bd c13e 3cbd 1413 73bc 3593 9b3a
000003c0: bc80 0d3d 5f8a a63d 918a c33c bbfc 843b
000003d0: 88d7 423c 5d0a 583d e79b 7b3d 476c 1cbd
000003e0: 8f2a fabc fb6e 3c3d 6880 303d 6623 4a3d
000003f0: 320d be3c f3fe e2bc b845 20bd 3c39 1fbc

fc1.bias f4 [120]
0.053882953 0.03181257 0.015528763 0.0599511 0.003569967 0.04925963 -0.019104704 0.022325777
-0.044980224 -0.027540041 -0.022270849 -0.01355717 0.082337275 -0.0012228969 -0.053516038 0.03546567
0.022828475 0.08452258 -0.04624993 0.017366055 -0.020403428 0.108922906 -0.02533453 0.036522042
0.029378172 -0.024114832 0.031121671 0.02814617 -0.04301706 -0.028916964 0.02436224 -0.013646301
-0.022874998 0.08656287 0.02580521 -0.06638337 -0.004302636 -0.029827928 -0.006624089 0.012682887
-0.0463177 -0.011004237 0.015830724 0.02591422 -0.010614729 -0.037827235 0.06302855 0.0046144966
-0.011026607 0.015006021 0.03943895 -0.005206076 -0.031348553 0.05967504 -0.0005799656 -0.00034369237
-0.03411637 -0.04807235 0.01330722 -0.05336284 -0.015909515 0.023160957 0.021951329 -0.018016513
0.027451675 0.008112022 0.022099324 0.012204434 -0.02212586 -0.040794794 0.042046424 0.0012631357
0.013026792 -0.042427 0.035702236 -0.025835037 -0.03245718 -0.041776605 -0.01610803 0.051668063
0.09007649 -0.009469062 0.029795868 -0.020812914 -0.010413502 0.04466452 0.047111705 -0.0048598177
0.01622758 0.0039147693 -0.04116102 -0.015713474 0.040306885 0.0023610787 0.070967294 0.01807707
-0.003985862 -0.018176695 -0.0322615 0.0039348896 -0.027926255 0.0135541465 0.061032463 -0.005743741
0.022052882 -0.0113645755 -0.045089394 -0.020989038 -0.02292399 0.0003931231 0.018836092 -0.024481738
-0.0035147918 0.06512306 0.049521655 0.018861497 -0.031757463 -0.028047847 0.049633574 -0.019610703
00000000: 5fb4 5c3d e64d 023d 5a6c 7e3c 498f 753d
00000010: 1cf6 693b 77c4 493d 7881 9cbc 8ce4 b63c
00000020: 2f3d 38bd a79b e1bc 5b71 b6bc e41e 5ebc
00000030: 72a0 a83d 9c49 a0ba a233 5bbd 7344 113d
00000040: c802 bb3c 2d1a ad3d 9170 3dbd 4243 8e3c
00000050: 1725 a7bc f912 df3d 5c8a cfbc 2398 153d
00000060: 7eaa f03c 788c c5bc e0f2 fe3c cc92 e63c
00000070: a832 30bd 45e3 ecbc 5293 c73c bc94 5fbc
00000080: 5964 bbbc e047 b13d 7365 d33c 01f4 87bd
00000090: 20fd 8cbb b359 f4bc e30e d9bb e2cb 4f3c
000000a0: a1b7 3dbd 1e4b 34bc 6faf 813c 0f4a d43c
000000b0: 66e9 2dbc bbf0 1abd 1d15 813d 3435 973b
000000c0: f1a8 34bc d0db 753c bd8a 213d bb97 aabb
000000d0: 5767 00bd d16d 743d d508 18ba 9c31 b4b9
000000e0: 9bbd 0bbd 83e7 44bd 8706 5a3c fe92 5abd
000000f0: ac54 82bc 0cbc bd3c 46d3 b33c 5e97 93bc
00000100: 56e2 e03c 49e8 043c a409 b53c 1bf5 473c
00000110: 4b41 b5bc 7118 27bd df38 2c3d cd8f a53a
00000120: 536e 553c efc7 2dbd 823c 123d 00a4 d3bc
00000130: d2f1 04bd f21d 2bbd fdf4 83bc e4a1 533d
00000140: 067a b83d 2024 1bbc 7716 f43c d87f aabc
00000150: 659d 2abc 25f2 363d 34f8 403d 1b3f 9fbb
00000160: b4ef 843c 7747 803b 7598 28bd 8bb9 80bc
00000170: d518 253d 54bc 1a3b 4d57 913d 5d16 943c
00000180: d59b 82bb 4be7 94bc a224 04bd 3ff0 803b
00000190: 9ac5 e4bc 3612 5e3c 2dfd 793d fe35 bcbb
000001a0: 3fa8 b43c 7c32 3abc a8af 38bd 34f1 abbc
000001b0: 17cb bbbc 171c ce39 264e 9a3c ed8d c8bc
000001c0: 6c58 66bb 3d5f 853d 38d7 4a3d 6d83 9a3c
000001d0: 1d14 02bd 99c4 e5bc 934c 4b3d a0a6 a0bc

fc2.weight f4 [84, 120]
-0.108112514 0.117935024 0.03534589 0.16646212 0.053075757 -0.06381541 0.0015116326 -0.1613732
0.020026833 -0.05623666 -0.025289498 -0.03490746 0.05634808 0.06553433 -0.057780173 0.0633085
-0.03555964 0.1258184 0.05526347 -0.0061147558 0.050750576 -0.01876847 -0.09123848 -0.05450648
-0.067523174 0.06511952 0.13239056 0.12976865 0.006963459 -0.011923513 -0.08811044 0.031098934
0.080530114 0.016240362 0.03481699 0.028556256 0.07955854 0.06240188 -0.03308078 0.07914865
0.015988816 -0.034691334 -0.020881722 -0.050040316 -0.095514715 0.0012137865 -0.14313853 -0.0864451
0.04515669 0.0790417 -0.08567206 -0.022215253 0.05932112 0.10620295 0.111179315 0.07170646
0.041115705 0.02958667 -0.05409126 0.077867694 0.042686444 -0.00053439924 0.011206518 0.03870804
-0.063623436 -0.00523801 0.052861795 0.050219845 0.0024801444 0.07692016 0.08520297 -0.053942975
-0.06944378 0.00335929 -0.035151813 0.07159629 -0.017585127 -0.019800935 -0.049762264 -0.1030871
0.053614363 0.060970493 -0.017348308 0.078143366 0.07701374 -0.10427166 0.08809444 0.08641694
0.0068276217 -0.019586902 0.06977223 -0.07595342 -0.031846665 -0.0034439922 0.10613248 -0.10690234
-0.08470415 0.15207346 0.04747858 0.10903909 -0.065839544 -0.09945143 0.040482387 -0.029883813
-0.01728482 -0.037617847 0.062739454 0.023634238 -0.069318496 0.048414037 -0.011540671 -0.011023299
-0.05417143 0.06276897 -0.08373827 0.007767989 -0.080070026 0.020082837 -0.031807575 -0.01607849
0.09035686 -0.06337215 0.072869934 -0.050953675 0.03721338 0.013438275 -0.05730321 0.0892453
-0.033394203 0.04092882 -0.068612516 0.050260738 -0.07900569 -0.090855874 -0.015590835 -0.011753704
-0.0021289086 -0.015960092 -0.05670684 -0.063917525 0.08003315 -0.00032246366 0.032848984 -0.0042842277
-0.0033930922 0.041691117 0.0016134183 -0.056236193 0.045496255 0.087210074 0.04538411 -0.013677414
0.057677872 0.112795934 -0.061506074 0.02437501 -0.071444154 -0.003351598 -0.026373448 -0.00267647
0.02613013 -0.08955787 -0.085040726 0.09631997 0.11081556 0.034502055 -0.0072196615 -0.027799658
0.00044743417 -0.043117967 0.0535634 0.023116492 -0.024505623 0.06226097 -0.14717717 -0.10160575
-0.024266832 0.0846333 -0.070326366 0.008160184 -0.011507228 0.08107391 -0.03170063 0.056529664
0.09971777 0.09817161 0.066974275 -0.043456197 -0.106192596 0.06740175 -0.08188352 0.0018112614
0.056177232 0.08451286 0.11940166 -0.04479647 -0.036697157 -0.07861514 0.115955405 0.13315472
0.10697182 0.047605917 0.08034937 0.022479035 0.031028766 -0.0013163881 -0.10529691 0.04359437
0.004219703 -0.06959624 0.06522996 0.055189505 0.13736416 -0.05417391 -0.068499684 0.079731844
0.02856582 -0.037696794 -0.00050956005 -0.09291036 -0.005965005 0.04048413 0.058034226 0.0656328
-0.047910824 0.04282484 0.028210612 0.081693485 -0.101692535 0.03256079 0.053211093 -0.0050046835
-0.0739337 0.08062941 -0.05060308 -0.08859681 0.06376059 0.012935069 -0.003136683 -0.069004804
-0.0922519 -0.069638334 -0.011482931 0.054826513 0.03277811 -0.050521273 -0.028100384 0.07963153
0.03760136 -0.06315401 -0.07633071 0.05616735 0.0069904816 0.03603292 0.0013207094 0.014848538
00000000: 186a ddbd eb87 f13d dac6 103d 0c75 2a3e
00000010: f765 593d a7b1 82bd f921 c63a 043f 25be
00000020: 500f a43c 6958 66bd ec2b cfbc 20fb 0ebd
00000030: 3fcd 663d dd36 863d e7aa 6cbd e3a7 813d
00000040: fca6 11bd 8ad6 003e f35b 623d 4a5e c8bb
00000050: d6df 4f3d 56c0 99bc 3ddb babd 3042 5fbd
00000060: 9749 8abd 625d 853d 6491 073e 13e2 043e
00000070: ba2d e43b d75a 43bc 3f73 b4bd 31c3 fe3c
00000080: f9ec a43d 820a 853c 439c 0e3d cfee e93c
00000090: 96ef a23d 1d99 7f3d b67f 07bd b018 a23d
000000a0: fafa 823c 8018 0ebd 2510 abbc 13f7 4cbd
000000b0: 389d c3bd eb17 9f3a e892 12be 210a b1bd
000000c0: 39f6 383d 9de0 a13d d574 afbd c3fc b5bc
000000d0: b4fa 723d ef80 d93d fbb1 e33d d6da 923d
000000e0: f168 283d bf5f f23c cc8e 5dbd 1979 9f3d
000000f0: fbd7 2e3d ed16 0cba 8b9b 373c 528c 1e3d
00000100: 014d 82bd 9da3 abbb 9c85 583d 53b3 4d3d
00000110: eb89 223b 5188 9d3d e57e ae3d 4ff3 5cbd
00000120: 8a38 8ebd 8927 5c3b 59fb 0fbd 13a1 923d
00000130: af0e 90bc 9235 a2bc 84d3 4bbd 541f d3bd
00000140: bc9a 5b3d 32bc 793d 0a1e 8ebc a109 a03d
00000150: 61b9 9d3d 618c d5bd dc6a b43d 5dfb b03d
00000160: 3eba df3b b674 a0bc bee4 8e3d 778d 9bbd
00000170: a671 02bd 9ab4 61bb fc5b d93d 9def dabd
00000180: 5f79 adbd 25b9 1b3e e678 423d e34f df3d
00000190: e2d6 86bd 31ad cbbd dcd0 253d e6ce f4bc
000001a0: e598 8dbc 2c15 1abd 8b7d 803d 979c c13c
000001b0: dbf6 8dbd cc4d 463d 1515 3dbc 119b 34bc
000001c0: dde2 5dbd 058d 803d f87e abbd 9d8a fe3b
000001d0: c1fb a3bd c384 a43c a948 02bd 0ab7 83bc
000001e0: 040d b93d 42c9 81bd d53c 953d cdb4 50bd
000001f0: 0f6d 183d 362c 5c3c c5b6 6abd 3dc6 b63d
00000200: 5cc8 08bd faa4 273d b884 8cbd 34de 4d3d
00000210: bccd a1bd a512 babd b470 7fbc 9c92 40bc
00000220: 2985 0bbb bdbe 82bc 6e45 68bd 31e7 82bd
00000230: 6ce8 a33d 5710 a9b9 a88c 063d b562 8cbb
00000240: a45e 5ebb 4ec4 2a3d 5679 d33a ec57 66bd
00000250: 485a 3a3d 329b b23d b0e4 393d 3b17 60bc
00000260: a23f 6c3d 8e01 e73d cbed 7bbd 1aae c73c
00000270: 5051 92bd 7ca6 5bbb 210d d8bc b767 2fbb
00000280: db0e d63c 1e6a b7bd d529 aebd 6843 c53d
00000290: 45f3 e23d 0752 0d3d e992 ecbb 1cbc e3bc
000002a0: 9995 ea39 779c 30bd 4c65 5b3d cc5e bd3c
000002b0: 04c0 c8bc 5c05 7f3d 9db5 16be ad16 d0bd
000002c0: 3ccb c6bc 3954 ad3d 4507 90bd 4bb2 053c
000002d0: d088 3cbc 140a a63d 85d8 01bd a68b 673d
000002e0: d538 cc3d 320e c93d cf29 893d 20ff 31bd
000002f0: 817b d9bd ee09 8a3d 8cb2 a7bd d967 ed3a
00000300: 191a 663d 1415 ad3d dc88 f43d 817c 37bd
00000310: c24f 16bd f900 a1bd 077a ed3d b659 083e
00000320: 0b14 db3d 6cfe 423d 368e a43d f425 b83c
00000330: 0a30 fe3c a88a acba e8a5 d7bd 0390 323d
00000340: 6f45 8a3b 7988 8ebd 4997 853d 640e 623d
00000350: 31a9 0c3e 76e5 5dbd 9049 8cbd 734a a33d
00000360: de02 ea3c f467 1abd ff93 05ba c947 bebd
00000370: 1776 c3bb b0d2 253d 4cb5 6d3d 7d6a 863d
00000380: 243e 44bd 1969 2f3d f119 e73c ea4e a73d
00000390: 2d44 d0bd 775e 053d e0f3 593d 54fe a3bb
000003a0: 8d6a 97bd 0821 a53d 2d45 4fbd 3f72 b5bd
000003b0: ea94 823d 9ded 533c cf90 4dbb 6452 8dbd
000003c0: 90ee bcbd 8b9e 8ebd e722 3cbc c491 603d
000003d0: 5742 063d 65ef 4ebd c732 e6bc db15 a33d
000003e0: e203 1a3d e456 81bd 4653 9cbd bc0f 663d
000003f0: 6910 e53b 4197 133d a71b ad3a 4847 733c

fc2.bias f4 [84]
0.054914888 0.087959886 -0.0107046645 -0.001986357 0.10351608 -0.07865674 -0.093852185 0.035705432
0.006448546 0.10924212 -0.03681897 -0.0562914 -0.0424142 0.030831164 0.0059389635 -0.072814934
0.06342119 -0.042234883 0.03467579 0.11646677 -0.063292935 0.21229938 -0.06525585 0.15672281
0.11510285 0.19348858 0.06908202 0.0064370474 0.06583939 -0.06569525 0.04809083 -0.044282053
-0.059567887 0.12652515 0.026225304 -0.04671482 0.20994236 0.01628472 0.013817123 0.056726173
-0.038923442 0.053347956 0.017080786 -0.06525179 0.020093061 -0.04941905 0.021155104 0.09681871
-0.06550371 0.14959946 -0.027031349 -0.03152953 -0.06393676 0.026974887 -0.074568205 -0.053694896
0.017289978 0.15388983 0.027580129 0.0064997994 -0.02710549 0.02278027 0.08746943 0.070140965
0.05001718 0.17115825 0.037662275 -0.014001092 -0.091925 0.03972877 -0.01773731 0.01700344
-0.061371133 0.0059644855 -0.08219326 0.09025867 -0.052821726 0.026541945 0.075039916 -0.079188205
0.06865657 -0.07034274 0.10005157 0.0060742446
00000000: 6fee 603d 5024 b43d 9e62 2fbc 8a2d 02bb
00000010: 3d00 d43d c916 a1bd 9335 c0bd dc3f 123d
00000020: 534e d33b 55ba df3d 7dcf 16bd d091 66bd
00000030: 83ba 2dbd a391 fc3c a39b c23b ff1f 95bd
00000040: f8e2 813d 7cfe 2cbd 3408 0e3d 2186 ee3d
00000050: ba9f 81bd 0265 593e dca4 85bd f27b 203e
00000060: 0bbb eb3d df21 463e e07a 8d3d deed d23b
00000070: cdd6 863d 3b8b 86bd e4fa 443d 1961 35bd
00000080: 75fd 73bd cf8f 013e 73d6 d63c 0a58 3fbd
00000090: 21fb 563e 8867 853c 3761 623c b459 683d
000000a0: 306e 1fbd 6383 5a3d 01ed 8b3c bba2 85bd
000000b0: 349a a43c a16b 4abd 784d ad3c e348 c63d
000000c0: cf26 86bd 9a30 193e d970 ddbc 1c25 01bd
000000d0: 47f1 82bd 70fa dc3c 37b7 98bd 2eef 5bbd
000000e0: b6a3 8d3c 4c95 1d3e b9ef e13c 45fc d43b
000000f0: 550c debc b09d ba3c 2c23 b33d 11a6 8f3d
00000100: d1de 4c3d 1c44 2f3e c243 1a3d d664 65bc
00000110: 2d43 bcbd a2ba 223d d64d 91bc cc4a 8b3c
00000120: 4c60 7bbd bb71 c33b f154 a8bd 8ad9 b83d
00000130: 985b 58bd 7e6e d93c 87ae 993d 6d2d a2bd
00000140: d19b 8c3d db0f 90bd d6e7 cc3d 750a c73b

fc3.weight f4 [19, 84]
-0.0055608638 0.08718642 -0.09947542 -0.006051601 -0.09662914 0.00665402 -0.14414261 -0.016623918
0.010393022 -0.06969395 -0.056660436 0.09519633 0.05898483 0.1282745 -0.020506054 0.098767236
-0.12308647 0.09374669 0.06443993 0.002090582 -0.019191226 -0.15432847 0.058003154 -0.08262237
0.008715384 -0.21366216 0.008807845 0.115534365 -0.06546692 -0.052095376 0.008867841 0.040477313
0.03513252 -0.08029381 -0.0621015 0.081648104 -0.24223815 -0.0025501538 -0.021921491 0.051144693
-0.06667753 -0.045587376 -0.065688245 -0.054955937 0.107684836 -0.10816771 -0.07901088 0.108019866
-0.046165064 -0.009859755 0.07817605 0.20714587 -0.07307882 -0.017219316 0.0056909327 0.03653709
0.09004356 0.16970026 0.021586731 0.08793589 0.04498005 -0.063220106 -0.015670972 0.10908496
0.16914728 0.0056523904 0.076958805 0.04677171 0.051590472 0.027327603 0.019809818 -0.03875634
0.013737364 0.003298559 0.045022056 -0.13509114 -0.014524529 0.17966065 -0.005765872 0.06513026
-0.033957608 0.016877634 -0.027548669 0.029062876 -0.11554541 0.088092774 -0.08857224 0.07917165
-0.06867962 0.051603936 -0.07500704 -0.030038904 0.013189815 -0.0951009 0.08475155 0.038124308
0.008660003 0.20835653 -0.044072077 -0.094268456 -0.003108655 -0.08881263 0.033027798 0.092550136
-0.10346121 -0.15695381 0.12130396 -0.087114334 0.013588296 -0.1912735 0.012102863 0.16692455
-0.16315827 -0.013039468 0.017996347 0.08857108 0.10392864 -0.040739745 0.07046735 0.0048804292
-0.26239905 0.066509955 -0.048628904 -0.11674629 0.097843364 -0.14416566 0.0072516063 -0.026130604
0.002494201 -0.0810189 0.04035048 0.0064903907 -0.033709176 -0.083211176 0.08719083 0.116154954
-0.018505089 -0.028469842 0.046094954 -0.03521853 0.032790303 0.17953566 0.23245177 0.054797713
-0.0064390996 0.09741946 0.024765482 0.08030676 0.14211446 -0.010920995 -0.11533795 -0.08745943
-0.09017135 -0.0793036 0.05146887 -0.008150542 0.02606267 -0.07581162 0.024522252 -0.17589952
-0.037577085 0.14005814 -0.01407996 0.03393994 -0.08320474 -0.08535552 -0.09202835 -0.073515676
-0.09264308 0.22978655 0.0040475857 -0.105936244 -0.0749593 0.009921303 -0.16212569 0.25026453
-0.15461501 -0.07234619 -0.07277273 0.1139431 -0.109483786 0.0385263 -0.07595439 0.034506764
-0.041722257 0.029927678 0.091368936 0.037103496 -0.10819409 -0.108962506 0.08905848 -0.01963634
-0.10834177 -0.050893936 -0.15873729 0.0028089895 -0.20313683 0.068705425 0.28301024 -0.05083623
-0.037731107 -0.12826112 -0.10390412 0.1596202 -0.18938516 -0.08623652 -0.06458525 -0.009875028
0.065122716 -0.09738506 -0.2057919 0.002542324 0.09694421 -0.05028157 0.013927844 0.14128737
0.0509731 0.03396635 0.065520145 0.030978724 -0.06954532 0.11242057 -0.009145886 -0.030443767
0.21234436 0.21183166 -0.20070387 -0.09032286 -0.11458495 -0.19529237 0.18170981 0.091389686
-0.016509768 -0.11439457 -0.098238006 0.08945645 -0.051648647 -0.14091401 0.09919026 -0.014430889
0.07364162 0.25148547 -0.053518724 -0.063044325 -0.06115346 0.15506855 0.18223405 -0.088961005
-0.07853663 -0.025235677 0.088707134 -0.094370544 -0.10577122 0.18413931 -0.048383147 -0.038944155
00000000: e837 b6bb cb8e b23d c5b9 cbbd 824c c6bb
00000010: 80e5 c5bd f709 da3b 1f9a 13be e22e 88bc
00000020: 7e47 2a3c b4bb 8ebd c614 68bd 4bf6 c23d
00000030: 149a 713d 645a 033e 50fc a7bc 7a46 ca3d
00000040: c214 fcbd 44fe bf3d 15f9 833d 2502 093b
00000050: eb36 9dbc 4808 1ebe b794 6d3d eb35 a9bd
00000060: f8ca 0e3c 41ca 5abe c84e 103c 489d ec3d
00000070: 8513 86bd f661 55bd 6c4a 113c 8acb 253d
00000080: 1ee7 0f3d 1571 a4bd 245e 7ebd 1f37 a73d
00000090: 470d 78be 7b20 27bb b394 b3bc 197d 513d
000000a0: 3b8e 88bd d4b9 3abd 8f87 86bd 7a19 61bd
000000b0: de89 dc3d 0887 ddbd 75d0 a1bd 8539 dd3d
000000c0: 9417 3dbd cf8a 21bc c41a a03d 0c1e 543e
000000d0: 59aa 95bd 860f 8dbc 017b ba3b eaa7 153d
000000e0: c268 b83d e8c5 2d3e a8d6 b03c bb17 b43d
000000f0: 003d 383d 8b79 81bd 6960 80bc ef67 df3d
00000100: f234 2d3e b037 b93b 949c 9d3d b193 3f3d
00000110: 8850 533d 23de df3c 3348 a23c f8be 1ebd
00000120: ae12 613c a32c 583b 0c69 383d 5555 0abe
00000130: 4af8 6dbc f6f8 373e a4ef bcbb 0463 853d
00000140: 2217 0bbd f742 8a3c bfad e1bc 4515 ee3c
00000150: 12a3 ecbd fc69 b43d 5d65 b5bd bf24 a23d
00000160: e7a7 8cbd a65e 533d 4a9d 99bd 2614 f6bc
00000170: 181a 583c 43c4 c2bd 3892 ad3d 3c28 1c3d
00000180: afe2 0d3c 6a5b 553e ec84 34bd d20f c1bd
00000190: 94ba 4bbb 65e3 b5bd 2848 073d ed8a bd3d
000001a0: 79e3 d3bd 80b8 20be 366e f83d 0069 b2bd
000001b0: 72a1 5e3c 33dd 43be 164b 463c 45ee 2a3e
000001c0: f612 27be 7ea3 55bc 136d 933c c164 b53d
000001d0: 8ad8 d43d b8de 26bd 3051 903d 02ec 9f3b
000001e0: 2b59 86be 5f36 883d 1a2f 47bd ae18 efbd
000001f0: 1a62 c83d 2aa0 13be e29e ed3b d90f d6bc
00000200: c075 233b 3ded a5bd 8b46 253d 58ad d43b
00000210: a212 0abd 9f6a aabd 1b91 b23d a6e2 ed3d
00000220: fc97 97bc 9639 e9bc 10ce 3c3d 4e41 10bd
00000230: 204f 063d 32d8 373e d607 6e3e 9173 603d
00000240: 15ff d2bb db83 c73d fbe0 ca3c df77 a43d
00000250: 7486 113e f9ed 32bc 4e36 ecbd ee1d b3bd
00000260: c2ab b8bd ed69 a2bd 06d1 523d da89 05bc
00000270: 6181 d53c 1f43 9bbd e4e2 c83c 011f 34be
00000280: 6eea 19bd 676b 0f3e a2af 66bc 9b04 0b3d
00000290: 3f67 aabd e0ce aebd 5c79 bcbd 638f 96bd
000002a0: a8bb bdbd 2a4d 6b3e 9ca1 843b 1af5 d8bd
000002b0: 4384 99bd f68c 223c 4704 26be ac22 803e
000002c0: 6653 1ebe 3d2a 94bd de09 95bd 005b e93d
000002d0: 0939 e0bd c1cd 1d3d fa8d 9bbd f756 0d3d
000002e0: f5e4 2abd e42a f53c a31f bb3d d6f9 173d
000002f0: dd94 ddbd bc27 dfbd 4b64 b63d 64dc a0bc
00000300: 4ae2 ddbd 2976 50bd 078c 22be 0617 383b
00000310: 1a03 50be 6eb5 8c3d b8e6 903e a739 50bd
00000320: ef8b 1abd e256 03be afcb d4bd 7a73 233e
00000330: 2fee 41be c69c b0bd 4645 84bd dfca 21bc
00000340: 0f5f 853d d171 c7bd 1dbb 52be 1e9d 263b
00000350: b08a c63d 0cf4 4dbd 9d31 643c a3ad 103e
00000360: 2bc9 503d 4d20 0b3d 6d2f 863d 18c7 fd3c
00000370: c76d 8ebd c13c e63d a0d8 15bc 3565 f9bc
00000380: cd70 593e 66ea 583e 5185 4dbe 31fb b8bd
00000390: 84ab eabd b9fa 47be 2312 3a3e 842a bb3d
000003a0: 7e3f 87bc b347 eabd 0231 c9bd f134 b73d
000003b0: 888d 53bd c34b 10be 4324 cb3d 896f 6cbc
000003c0: 6bd1 963d b4c2 803e 7336 5bbd 621d 81bd
000003d0: 0d7c 7abd 4aca 1e3e 909b 3a3e 3031 b6bd
000003e0: d0d7 a0bd 0dbb cebc 16ac b53d 5845 c1bd
000003f0: 959e d8bd 048f 3c3e 682d 46bd e883 1fbd

fc3.bias f4 [19]
-0.2577071 -0.084324725 0.04598237 -0.012748108 -0.22870082 0.14222364 -0.20511313 0.007866942
-0.19173172 -0.09315168 0.24980249 -0.064808115 0.13225473 0.08019091 0.07500592 0.054590628
0.0071772155 0.24133779 -0.09332341
00000000: 2ff2 83be 71b2 acbd 0258 3c3d 71dd 50bc
00000010: 8c30 6abe 13a3 113e 2d09 52be 59e4 003c
00000020: 5255 44be 4fc6 bebd 39cc 7f3e 1eba 84bd
00000030: c96d 073e 223b a43d b49c 993d 6c9a 5f3d
00000040: d92e eb3b 4121 773e 5820 bfbd
