python/CNN19.pth (torch_old, 252622 bytes, 10 tensors)

conv1.weight f4 [6, 3, 5, 5]
0.4506049 0.5822991 0.6274116 0.48126572 0.6087149 0.0023710777 0.050821953 0.058546077
0.28652063 0.2506376 0.00044478124 -0.23759422 -0.22583635 -0.22245377 -0.16056548 0.15910825
0.13995995 -0.003890834 0.009859637 -0.057021502 0.37360713 0.5926245 0.34339145 0.20292734
-0.11557738 -0.05167246 0.11249187 0.26232892 0.3367613 0.36564845 -0.23940638 -0.29177886
-0.18344475 0.025571648 -0.020524107 -0.3190233 -0.6098864 -0.505878 -0.5945629 -0.31048244
-0.13491248 -0.059559774 -0.24486817 -0.3956354 -0.30245388 0.19799788 0.30997363 0.22962123
-0.19748612 -0.3182998 0.01660644 0.053705078 0.34996176 0.31942725 0.2654037 -0.17351763
-0.23512323 -0.17528921 0.06830772 0.12944768 -0.27667642 -0.5672271 -0.64500606 -0.48530248
-0.3801918 0.0013131765 -0.1324214 -0.2506001 -0.33286828 -0.27774158 0.456729 0.31999722
0.10416608 -0.06437335 -0.26258117 -0.04383556 0.022962391 -0.022727927 0.016611518 0.021363176
0.14408666 0.19167149 0.19179416 0.24286625 0.20532942 -0.12051496 0.17909376 0.17968498
0.2591168 0.33043545 -0.22953174 -0.17238411 -0.08685345 0.0034172211 0.13337356 -0.085626125
-0.104236305 -0.34779757 -0.17897202 -0.18198684 0.0012070356 -0.037106935 0.011326646 -0.021062579
-0.02339951 0.07587135 0.2990118 0.28831765 0.3156179 0.17907673 0.10086916 0.15464477
0.26961616 0.3870933 0.39051747 -0.176783 -0.18034956 -0.22196487 -0.03638487 0.04110776
0.004961328 -0.08166365 -0.15463299 -0.10719052 -0.10970727 -0.13601345 -0.024198735 -0.1397328
0.0077861315 -0.08052451 -0.15242742 0.0129457265 0.18014991 -0.0065237232 0.03215188 -0.19036153
-0.012408277 -0.0038446963 0.21186776 0.21802613 -0.25368455 -0.31811565 -0.36481336 -0.22890553
-0.014917189 -0.13292998 -0.357962 -0.34737656 -0.42291966 -0.24481164 0.20561498 0.2652908
0.089795336 -0.10019527 -0.052458495 0.2129609 0.06479591 -0.24676575 -0.33844715 -0.3095661
0.3469218 -0.040666558 -0.3625545 -0.5107018 -0.31610334 0.4101749 0.20355842 -0.42321286
-0.47276682 -0.16098517 0.73500186 0.35497317 -0.03604924 -0.27800906 -0.07408618 -0.0054339073
0.20488271 -0.13847367 -0.33577186 -0.1370419 -0.052424684 0.01672985 -0.36626095 -0.39932254
-0.4114256 -0.11323105 0.007966688 -0.38247675 -0.36313573 -0.39547512 0.2288834 0.027989876
-0.3019717 -0.5443297 -0.20299052 0.236418 0.10059202 -0.24230638 -0.44972816 -0.12850001
0.23859702 0.43431285 0.35651723 0.043863438 0.1775487 0.06207619 0.19048992 0.13474073
-0.003230945 0.11270851 0.11486356 0.27007025 -0.008830583 -0.10164895 0.19761105 0.32676414
0.253952 -0.08434242 0.045698132 0.34190702 0.5443097 0.35058224 0.06380196 0.026377415
0.2438106 0.06314826 0.12232179 -0.041622177 0.18187164 0.23818108 0.02325131 0.0731934
0.14486314 0.0073051658 0.24792148 -0.112567425 -0.03100312 -0.12523453 -0.08956511 -0.010440105
-0.17474322 -0.088460125 -0.011984879 0.101665564 0.116787225 -0.20629819 -0.057660162 -0.080941066
-0.009703734 0.16024992 -0.27316818 -0.28897506 -0.24315311 -0.2075611 0.018782219 -0.09755981
00000000: afb5 e63e 8e11 153f 0c9e 203f 7668 f63e
00000010: bdd4 1b3f 1564 1b3b ae2a 503d 03ce 6f3d
00000020: d5b2 923e 9253 803e 8731 e939 e64b 73be
00000030: a541 67be ecca 63be 476b 24be 46ed 223e
00000040: a951 0f3e 5dfd 7ebb 518a 213c 618f 69bd
00000050: 6f49 bf3e 3db6 173f 01d1 af3e 2fcc 4f3e
00000060: d5b3 ecbd 80a6 53bd 2362 e63d fa4f 863e
00000070: fa6b ac3e 4636 bb3e f226 75be 0a64 95be
00000080: f1d8 3bbe a27b d13c 2c22 a8bc 0657 a3be
00000090: 8421 1cbf 3881 01bf 4635 18bf 8ef7 9ebe
000000a0: 7f26 0abe f3f4 73bd b9be 7abe b990 cabe
000000b0: 3cdb 9abe f5bf 4a3e ddb4 9e3e d421 6b3e
000000c0: cd39 4abe 31f8 a2be 3b0a 883c dbf9 5b3d
000000d0: 302e b33e f88b a33e fee2 873e 9bae 31be
000000e0: 25c4 70be 047f 33be ebe4 8b3d ef8d 043e
000000f0: 88a8 8dbe cc35 11bf 1e1f 25bf 9179 f8be
00000100: 80a8 c2be e41e ac3a 7a99 07be a84e 80be
00000110: b66d aabe 2534 8ebe 62d8 e93e add6 a33e
00000120: 0755 d53d 2dd6 83bd 0a71 86be eb8c 33bd
00000130: a01b bc3c eb2f babc e114 883c d401 af3c
00000140: 748b 133e 8845 443e b065 443e eeb1 783e
00000150: e041 523e 8cd0 f6bd 5b64 373e 57ff 373e
00000160: f5aa 843e d62e a93e 5e0a 6bbe 7685 30be
00000170: 39e0 b1bd 75f3 5f3b 1493 083e c05c afbd
00000180: d879 d5bd 8612 b2be 7144 37be c25a 3abe
00000190: 6535 9e3a 71fd 17bd 6693 393c 6e8b acbc
000001a0: 54b0 bfbc 7062 9b3d 1318 993e 5f9e 933e
000001b0: ab98 a13e e45f 373e 7d94 ce3d 335b 1e3e
000001c0: 210b 8a3e 1831 c63e e8f1 c73e 9a06 35be
000001d0: 8ead 38be c24a 63be 4d08 15bd 9c60 283d
000001e0: a392 a23b 463f a7bd 1c58 1ebe b486 dbbd
000001f0: 35ae e0bd 1c47 0bbe 6d3c c6bc 1d16 0fbe
00000200: ce22 ff3b 09ea a4bd ef15 1cbe 501a 543c
00000210: 3879 383e f5c4 d5bb b1b1 033d 22ee 42be
00000220: 164c 4bbc 4df7 7bbb ddf3 583e 3e42 5f3e
00000230: f1e2 81be 0ee0 a2be d1c8 babe 3666 6abe
00000240: 3a67 74bc cc1e 08be cc46 b7be 57db b1be
00000250: ed88 d8be e7af 7abe bc8c 523e 32d4 873e
00000260: 9ee6 b73d 2d33 cdbd b8de 56bd 6c12 5a3e
00000270: b8b3 843d 29b0 7cbe f248 adbe 737f 9ebe
00000280: bc9f b13e fa91 26bd bea0 b9be 5abd 02bf
00000290: 4cd8 a1be 7202 d23e 9e71 503e 5baf d8be
000002a0: 7e0e f2be 4cd9 24be 1529 3c3f 0bbf b53e
000002b0: 5ea8 13bd 3457 8ebe 7fba 97bd eb0e b2bb
000002c0: c6cc 513e 0bcc 0dbe 4aea abbe b654 0cbe
000002d0: 44bb 56bd 0a0d 893c 8e86 bbbe 0174 ccbe
000002e0: 60a6 d2be aee5 e7bd b686 023c fed3 c3be
000002f0: edec b9be b77b cabe 6960 6a3e 064b e53c
00000300: 099c 9abe 3159 0bbf bfdc 4fbe 8f17 723e
00000310: 3003 ce3d 2a1f 78be c542 e6be 8295 03be
00000320: c752 743e 415e de3e 6d89 b63e 26aa 333d
00000330: 54cf 353e 9a43 7e3d ca0f 433e 79f9 093e
00000340: 43be 53bb b8d3 e63d 963d eb3d a646 8a3e
00000350: 26ae 10bc 532d d0bd 8d5a 4a3e a14d a73e
00000360: ff05 823e b8bb acbd f72d 3b3d 700e af3e
00000370: e157 0b3f 847f b33e 9aaa 823d 7315 d83c
00000380: 7ca9 793e e053 813d d983 fa3d 047c 2abd
00000390: 8f3c 3a3e bee5 733e 8879 be3c 6ce6 953d
000003a0: 0157 143e 2c60 ef3b 21df 7d3e c089 e6bd
000003b0: 41fa fdbc 7b3d 00be ea6d b7bd f90c 2bbc
000003c0: e3ef 32be 952a b5bd 3a5c 44bc 0936 d03d
000003d0: 242e ef3d d53f 53be 102d 6cbd 6ec4 a5bd
000003e0: 69fc 1ebc 8e18 243e b3dc 8bbe 8af4 93be
000003f0: 21fd 78be e68a 54be 2bdd 993c 70cd c7bd

conv1.bias f4 [6]
0.29350418 0.00059578905 0.36783093 -0.4749201 -0.22915299 0.056280173
00000000: 2e46 963e ba2e 1c3a 5654 bc3e ba28 f3be
00000010: 15a7 6abe 0a86 663d

conv2.weight f4 [16, 6, 5, 5]
-0.13009675 -0.081482485 0.047555633 0.17677832 0.19617164 -0.16897671 -0.056020778 0.18038127
0.06429746 -0.039283298 -0.059937526 -0.06459352 0.20448121 0.309722 0.021131832 -0.10125192
-0.092678964 -0.15180488 -0.10236238 -0.107880846 -0.17019905 0.07644178 0.10901753 -0.12448976
-0.22012854 -0.14321128 -0.0007193699 0.09937158 -0.0384151 0.044224273 -0.042224392 -0.039460354
0.1943166 0.12945415 0.15679236 0.13996026 0.04070886 0.0931199 0.007825573 -0.038644418
0.118018866 0.18692587 0.15671992 0.023135412 -0.118371285 0.0656685 -0.08999903 -0.03751461
-0.036808126 -0.13889451 0.36214077 0.21699068 0.16534844 -0.0162866 -0.024559727 0.183936
0.15534498 0.06214311 -0.186339 -0.16420747 0.047957137 0.040315423 -0.122882605 -0.15469427
-0.22184153 0.0038123578 -0.28109846 -0.30941603 -0.2897375 -0.27398214 -0.16648526 -0.25689396
-0.20193078 -0.20277469 -0.09482393 0.32007685 0.32509106 0.1980174 0.118369825 0.15851784
0.25608724 0.32986066 0.24315034 0.12705822 0.023520937 0.051387984 -0.07292536 0.07596585
-0.12197615 -0.009054608 -0.04898954 -0.12913582 -0.026006592 -0.08448888 -0.084715195 0.058116842
-0.21615125 -0.16713355 -0.15687415 -0.17964622 0.16906756 0.20276557 0.09924768 0.09152354
0.174951 0.2979996 0.20071553 0.031041073 -0.09932127 -0.107156485 0.067850016 -0.1280787
-0.087321326 -0.16198659 -0.20908739 -0.07916171 -0.1766342 -0.22407813 -0.167436 -0.18275699
-0.07742522 -0.08621596 -0.08048016 -0.112900555 -0.13203645 -0.076810665 0.119283386 0.05889261
0.0045004566 0.16740587 0.16728301 0.17842408 0.08604476 0.039388087 -0.024461035 0.061684277
0.11372351 0.23986498 -0.01833819 -0.08105907 0.087310396 -0.041385084 0.010006031 -0.06328923
-0.20122808 0.1075725 0.053233325 -0.10714845 -0.13680834 -0.041305218 -0.1878442 -0.13520381
0.03581824 0.1284443 0.3613883 -0.029125659 -0.05536867 -0.2147197 -0.04374875 -0.07476811
0.25511828 0.16768633 -0.082035884 0.030190896 -0.03921362 -0.033724397 0.113402136 -0.03188418
-0.039012548 -0.06746732 0.0027140933 -0.18179077 -0.17129728 -0.1441087 -0.19143184 -0.073955916
-0.123131886 -0.15397479 -0.12811792 0.06637821 0.14327475 0.156919 -0.06888917 -0.036945578
0.13231817 0.063748695 -0.027609937 0.07897634 -0.025844174 0.078181006 -0.14582139 -0.103693835
-0.037796464 -0.11575787 0.0040957183 -0.0011276365 -0.19575898 -0.16588074 -0.18927363 0.07273876
-0.0873129 -0.33418795 -0.009933575 0.17438164 -0.18741305 -0.21884298 -0.19981991 -0.012481993
-0.050586928 -0.1705942 -0.035340857 0.19052899 0.022607606 -0.037330385 -0.17160203 -0.042209826
0.30809495 0.11958335 0.39323324 -0.07450243 0.017676886 0.22967464 0.1644837 0.4213875
-0.123814575 -0.22442062 -0.26911938 -0.33727247 -0.1315397 -0.08538928 -0.012735945 -0.045244046
-0.014834636 0.010946192 0.009398798 -0.13482797 0.00017595508 0.11398847 0.12855516 0.09806757
-0.018182963 0.042224463 0.22697753 0.21755007 0.23096219 0.14246823 0.17344275 0.06909733
0.13768503 0.19533779 -0.19402343 -0.33987483 -0.31893125 -0.13350245 -0.09328324 -0.111295454
00000000: 1538 05be 4ae0 a6bd b2c9 423d 6005 353e
00000010: 38e1 483e 3b08 2dbe 0b76 65bd deb5 383e
00000020: 63ae 833d 86e7 20bd 0d81 75bd 9b49 84bd
00000030: 8663 513e e293 9e3e aa1c ad3c 2b5d cfbd
00000040: 78ce bdbd bd72 1bbe 5ea3 d1bd a2f0 dcbd
00000050: a948 2ebe 828d 9c3d 9544 df3d 7df4 febd
00000060: 6069 61be faa5 12be 1994 3cba 5483 cb3d
00000070: 2759 1dbd 8324 353d 7cf3 2cbd 2ea1 21bd
00000080: eefa 463e a18f 043e 2d8e 203e be51 0f3e
00000090: 55be 263d a5b5 be3d d536 003c 9c49 1ebd
000000a0: e0b3 f13d 7f69 3f3e 307b 203e 7a86 bd3c
000000b0: a56c f2bd 357d 863d 6951 b8bd eba8 19bd
000000c0: 1ec4 16bd 5d3a 0ebe 846a b93e ce32 5e3e
000000d0: 1a51 293e 7a6b 85bc 7b31 c9bc b859 3c3e
000000e0: c112 1f3e c689 7e3d a7cf 3ebe 0126 28be
000000f0: b46e 443d c921 253d e0a9 fbbd 2d68 1ebe
00000100: 6d2a 63be c0d8 793b 23ec 8fbe c76b 9ebe
00000110: 7958 94be 6347 8cbe 1d7b 2abe 9b87 83be
00000120: f1c6 4ebe 2ba4 4fbe 0c33 c2bd 1de1 a33e
00000130: 5672 a63e 13c5 4a3e e16b f23d 8052 223e
00000140: de1d 833e 7fe3 a83e 67fc 783e 8d1b 023e
00000150: fbae c03c 357c 523d e459 95bd fc93 9b3d
00000160: a2ce f9bd c759 14bc 42a9 48bd 2e3c 04be
00000170: c70b d5bc 8208 adbd 297f adbd ed0b 6e3d
00000180: c156 5dbe 0f25 2bbe 9ea3 20be 2ef5 37be
00000190: 0c20 2d3e c7a1 4f3e 5e42 cb3d b270 bb3d
000001a0: 5b26 333e 6793 983e 5f88 4d3e d949 fe3c
000001b0: f368 cbbd dc74 dbbd f3f4 8a3d 1027 03be
000001c0: 86d5 b2bd d0df 25be 011b 56be 891f a2bd
000001d0: 99df 34be bd74 65be 5874 2bbe a624 3bbe
000001e0: 1d91 9ebd fe91 b0bd c8d2 a4bd 6838 e7bd
000001f0: 9034 07be e94e 9dbd d94a f43d 6139 713d
00000200: 9178 933b 726c 2b3e 3d4c 2b3e cdb4 363e
00000210: 3c38 b03d 6755 213d 8262 c8bc a7a8 7c3d
00000220: dfe7 e83d 2a9f 753e f939 96bc 4c02 a6bd
00000230: cbcf b23d 6883 29bd 56f0 233c c99d 81bd
00000240: bc0e 4ebe f94e dc3d 300b 5a3d a670 dbbd
00000250: 7c17 0cbe a92f 29bd 3b5a 40be de72 0abe
00000260: 26b6 123d e786 033e e307 b93e ef98 eebc
00000270: 42ca 62bd 7bdf 5bbe e431 33bd 0620 99bd
00000280: dd9e 823e f7b5 2b3e 6e02 a8bd e652 f73c
00000290: 769e 20bd 9822 0abd 613f e83d fc98 02bd
000002a0: 9fcb 1fbd 4e2c 8abd eede 313b 5c27 3abe
000002b0: 8e68 2fbe 3b91 13be b506 44be 3376 97bd
000002c0: 922c fcbd 91ab 1dbe 5831 03be 4df1 873d
000002d0: 9eb6 123e 60af 203e c415 8dbd 3f54 17bd
000002e0: 6a7e 073e ad8e 823d 3c2e e2bc 59be a13d
000002f0: 29b7 d3bc 5d1d a03d 3452 15be 6f5d d4bd
00000300: 77d0 1abd 7612 edbd 6035 863b 34cd 93ba
00000310: 0b75 48be a4dc 29be f2d0 41be 0ff8 943d
00000320: 1bd1 b2bd af1a abbe 6fc0 22bc 1a91 323e
00000330: 35e9 3fbe 6018 60be 979d 4cbe 4681 4cbc
00000340: 3d34 4fbd 3fb0 2ebe 93c1 10bd 081a 433e
00000350: 9633 b93c bfe7 18bd 71b8 2fbe 36e4 2cbd
00000360: 9fbe 9d3e 1ee8 f43d de55 c93e bb94 98bd
00000370: 1ecf 903c d42f 6b3e 6a6e 283e 1ac0 d73e
00000380: 7f92 fdbd 85ce 65be 04ca 89be faae acbe
00000390: 58b2 06be 93e0 aebd 6daa 50bc d251 39bd
000003a0: f90c 73bc a857 333c 6bfd 193c 5810 0abe
000003b0: 9580 3839 c972 e93d f7a3 033e a6d7 c83d
000003c0: 70f4 94bc 8ff3 2c3d cc6c 683e 72c5 5e3e
000003d0: 5a81 6c3e 31e3 113e fa9a 313e e782 8d3d
000003e0: 4efd 0c3e a106 483e 14ae 46be 1304 aebe
000003f0: f54a a3be deb4 08be 490b bfbd dfee e3bd

conv2.bias f4 [16]
0.018049963 -0.036170147 0.113026105 -0.015028414 -0.022522256 0.15308289 -0.039007302 0.107922815
-0.06800511 0.023835953 0.065851994 -0.04398703 -0.030864038 -0.028093284 0.049605493 -0.1033254
00000000: 84dd 933c 2627 14bd 3b7a e73d bd39 76bc
00000010: 9880 b8bc c3c1 1c3e 1fc6 1fbd a306 dd3d
00000020: 4346 8bbd 9e43 c33c 69dd 863d be2b 34bd
00000030: 94d6 fcbc e323 e6bc 212f 4b3d 449c d3bd

fc1.weight f4 [120, 400]
-0.10844963 -0.037964027 -0.008467916 -0.11884398 -0.08019786 -0.07741627 0.0075163958 -0.00047632906
-0.05426625 -0.052357685 -0.037076004 0.03262313 0.05979982 0.019414192 -0.08454763 -0.06904535
0.002071816 -0.028943554 -0.021244349 0.0047197244 -0.06391841 -0.0046713827 -0.023202488 -0.006857105
-0.07220698 0.024756622 -0.015446085 -0.031700134 -0.010935657 -0.022395307 0.008084009 0.018970726
-0.0028025692 -0.015518784 -0.01635213 -0.03958314 -0.06236941 -0.059212964 -0.012224671 -0.025696468
0.08465903 0.09842666 0.0484274 0.052542336 0.016118672 -0.023375152 0.08039062 0.0061436417
0.15342934 0.031280555 -0.0762012 -0.03360628 -0.06611429 -0.068097346 -0.0043206345 -0.022178972
-0.1390123 -0.06723208 -0.0890351 -0.10326288 -0.058387365 -0.026911927 -0.038375903 -0.07207428
-0.06279537 0.029749433 -0.07390683 -0.07889047 -0.10885442 -0.06552025 -0.09807258 -0.109916866
-0.0038600536 0.0046267486 -0.08018689 -0.0018951434 0.017834717 -0.0008451415 -0.01257156 -0.014516408
-0.009394191 -0.0017906945 0.024856625 -0.043585904 0.027914802 0.041288897 0.03089101 -0.04259916
0.014728455 -0.017282765 0.047041375 0.043025848 0.003918301 -0.017852934 0.032130636 0.0055628517
0.036658887 0.0124583645 -0.049086485 0.038317144 -0.04711286 -0.049108382 0.029587684 0.028014723
-0.039069362 -0.008186732 0.01107238 -0.00086170115 0.009903421 0.0018211487 0.042350147 0.04480109
-0.007379861 -0.026559928 0.016197432 -0.0455974 0.007956465 0.023139382 0.013706014 0.0073374547
0.037417002 0.008252571 0.04926903 -0.077060595 0.054664195 0.07547752 -0.0055070277 -0.0011447689
0.047725674 0.0026506493 0.00069019984 -0.027211474 -0.008749544 -0.019037316 0.018501764 0.01613781
0.029654566 -0.050445884 -0.040263947 0.039552577 0.073618904 0.024662051 -0.041994087 -0.040250994
0.0029017914 0.119850576 -0.042542364 0.013330907 0.10127894 0.1417382 0.02298745 -0.041325618
0.041921448 0.025880197 0.008211203 0.03937026 0.026925733 0.0063745244 -0.010824154 -0.015640454
0.03570412 -0.006928948 -0.031063605 0.050321005 -0.033977106 -0.012105593 0.007876853 0.058042202
-0.013741807 -0.07138405 0.009678345 0.02685519 -0.008828777 0.008235203 -0.054537434 -0.011995359
0.038014077 0.019099873 -0.047768265 -0.04439451 0.005043228 -0.046233464 0.11122965 0.033383567
-0.056811403 -0.0035675305 -0.0019178487 -0.033829965 0.00954254 0.03493996 0.012211868 0.0304895
0.01862469 -0.025276614 0.029676776 -0.021009045 -0.030508602 0.06567822 0.03977707 0.045711055
-0.031044824 -0.027678585 -0.0038564785 0.008884285 0.025854928 -0.06741024 -0.05603065 -0.08317728
0.036190126 0.06550279 -0.04917548 -0.007953726 0.019183418 -0.022762066 0.0010568389 0.05423825
-0.05812982 0.006595286 0.06378631 0.066655904 0.015042617 -0.057189714 -0.018269304 0.03997874
-0.008048829 0.08897057 0.0526414 -0.057140473 -0.035300728 0.024041375 0.10330812 -0.0068008117
-0.0840588 0.051563684 0.014491081 0.0022458252 -0.04344837 -0.074998625 -0.0103520835 0.021734757
0.076751105 0.114326365 -0.032067586 -0.01729994 0.005089144 0.054302227 0.0963751 -0.08077526
-0.037306745 0.11432051 0.053122893 -0.016974628 0.021911165 -0.06461058 -0.047045574 -0.02798197
00000000: d71a debd 2b80 1bbd 04bd 0abc 7964 f3bd
00000010: c73e a4bd 6c8c 9ebd 194c f63b cebb f9b9
00000020: 4a46 5ebd 0375 56bd 02dd 17bd d59f 053d
00000030: a8f0 743d 830a 9f3c 4f27 adbd a667 8dbd
00000040: 4ec7 073b 081b edbc a108 aebc eba7 9a3b
00000050: a8e7 82bd 6612 99bb 2513 bebc 91b1 e0bb
00000060: 41e1 93bd 66ce ca3c 9311 7dbc 00d8 01bd
00000070: 782b 33bc 5d76 b7bc cb72 043c 7f68 9b3c
00000080: 4fab 37bb 7f42 7ebc e7f4 85bc ee21 22bd
00000090: 1177 7fbd 4b89 72bd fd49 48bc 6681 d2bc
000000a0: b761 ad3d eb93 c93d cf5b 463d a236 573d
000000b0: 4e0b 843c 3f7d bfbc d6a3 a43d 9a50 c93b
000000c0: 951c 1d3e 0a20 003d 600f 9cbd bda6 09bd
000000d0: ee66 87bd 9f76 8bbd 1c94 8dbb adb0 b5bc
000000e0: 3e59 0ebe f9b0 89bd 0958 b6bd 7d7b d3bd
000000f0: 9727 6fbd 6776 dcbc 0d30 1dbd ae9b 93bd
00000100: dc9a 80bd 15b5 f33c 775c 97bd 5491 a1bd
00000110: 11ef debd 7b2f 86bd 47da c8bd 181c e1bd
00000120: f4f8 7cbb fb9b 973b 0639 a4bd 7666 f8ba
00000130: 1d1a 923c 7c8c 5dba f2f8 4dbc 3ad6 6dbc
00000140: 18ea 19bc bdb5 eaba 1fa0 cb3c 2287 32bd
00000150: 95ad e43c 8c1e 293d 250f fd3c 757c 2ebd
00000160: 9e4f 713c 9694 8dbc 75ae 403d df3b 303d
00000170: 1765 803b 5140 92bc 6a9b 033d 9548 b63b
00000180: a127 163d 2b1e 4c3c e90e 49bd 70f2 1c3d
00000190: 6af9 40bd df25 49bd df61 f23c 227f e53c
000001a0: 3207 20bd a521 06bc ed68 353c c9e3 61ba
000001b0: f541 223c 9cb3 ee3a 5977 2d3d 5981 373d
000001c0: c3d2 f1bb 3594 d9bc 7ab0 843c 57c4 3abd
000001d0: d55b 023c cd8e bd3c 308f 603c 086f f03b
000001e0: 9242 193d cb35 073c 53ce 493d f2d1 9dbd
000001f0: 90e7 5f3d f593 9a3d 4c74 b4bb 120c 96ba
00000200: ff7b 433d 84b6 2d3b 87ee 343a 99ea debc
00000210: 3f5a 0fbc 25f4 9bbc 0391 973c 7133 843c
00000220: 22ee f23c 58a0 4ebd cfeb 24bd e201 223d
00000230: 82c5 963d 1208 ca3c fe01 2cbd 3ade 24bd
00000240: fb2b 3e3b 3874 f53d e740 2ebd e069 5a3c
00000250: 556b cf3d d223 113e 2d50 bc3c 0d45 29bd
00000260: d3b5 2b3d b502 d43c 4888 063c b642 213d
00000270: 5b93 dc3c 63e1 d03b cb57 31bc 6920 80bc
00000280: 7c3e 123d 3b0c e3bb 1a79 febc 661d 4e3d
00000290: 942b 0bbd 8a56 46bc eb0d 013c a9bd 6d3d
000002a0: 5125 61bc cd31 92bd ec91 1e3c 6aff db3c
000002b0: 93a6 10bc f2ec 063c a562 5fbd 2f88 44bc
000002c0: a6b4 1b3d 5677 9c3c a8a8 43bd 05d7 35bd
000002d0: aa41 a53b 4d5f 3dbd 5fcc e33d 35bd 083d
000002e0: 13b3 68bd 3bcd 69bb 5360 fbba 4a91 0abd
000002f0: 5058 1c3c 341d 0f3d 4914 483c 1ec5 f93c
00000300: ce92 983c e710 cfbc b61c f33c 291b acbc
00000310: 2ded f9bc 4d82 863d 48ed 223d 843b 3b3d
00000320: b751 febc 33be e2bc f9bc 7cbb 648f 113c
00000330: b7cd d33c 610e 8abd 6580 65bd da58 aabd
00000340: 193c 143d 5426 863d 3a6c 49bd 5850 02bc
00000350: 8b26 9d3c 8377 babc a185 8a3a ed28 5e3d
00000360: 8919 6ebd 451d d83b 66a2 823d e482 883d
00000370: 4f75 763c c33f 6abd 82a9 95bc bfc0 233d
00000380: 3cdf 03bc 3436 b63d 829e 573d 210c 6abd
00000390: 7f97 10bd 6bf2 c43c 3593 d33d 58d9 debb
000003a0: 0527 acbd 7134 533d 006c 6d3c b22e 133b
000003b0: ebf6 31bd e198 99bd c99b 29bc 170d b23c
000003c0: af2f 9d3d f123 ea3d 4d59 03bd 9bb8 8dbc
000003d0: d6c2 a63b 036c 5e3d 4f60 c53d 806d a5bd
000003e0: f5ce 18bd df20 ea3d 6497 593d 600e 8bbc
000003f0: 0b7f b33c 8d52 84bd dcb2 40bd 723a e5bc

fc1.bias f4 [120]
0.060312983 -0.0036606437 0.02970265 0.06638798 0.01882614 0.08574942 -0.015899975 0.081410885
-0.041114837 -0.02738439 -0.017054461 -0.014290976 0.09152446 -0.0036094987 -0.060458988 0.008314572
0.048292458 0.09986211 -0.066063605 0.05014175 -0.012455145 0.19239694 -0.02428967 0.040020455
0.06361817 -0.017921709 0.06302748 0.048573684 -0.020716872 0.007819985 0.07790429 -0.011454705
-0.027041592 0.14901578 0.059763245 -0.046193358 -0.023640968 -0.077733584 -0.0220079 0.008980027
-0.04248897 0.037306406 0.00033455953 0.020832133 -0.022082416 -0.039192073 0.113573566 0.007012641
-0.022560537 0.011185846 0.062112853 -0.014139207 -0.046087824 0.080678 -0.0140344445 0.00016819377
-0.028566333 -0.05882004 0.019566372 -0.056266062 -0.006904503 0.06133676 0.07075752 0.046570126
0.06150783 0.012102311 0.008985428 0.009544123 -0.03072085 -0.041859575 0.03778878 -0.0024089976
-0.0010700562 -0.030823566 0.06147717 -0.021095496 -0.043635804 -0.009873975 -0.0035672626 0.010752516
0.11822783 -0.010908708 0.022204299 0.0120268995 -0.04374176 0.1374165 0.06737541 -0.02091688
0.009291177 0.018479396 0.01365076 -0.012517696 0.0684441 0.020898664 0.06447702 0.04336343
-0.005896747 -0.036714472 -0.0354997 0.0037537767 -0.028034203 0.021859445 0.042979836 -0.006318672
0.0414033 -0.012842667 -0.04014047 -0.020515554 -0.005535138 -0.006124396 0.014108517 0.02146989
0.009226174 0.08348032 0.058720246 0.023954429 -0.0019118924 -0.021519098 0.055562675 -0.02871114
00000000: bf0a 773d 69e7 6fbb f952 f33c 6cf6 873d
00000010: 4739 9a3c 649d af3d aa40 82bc c0ba a63d
00000020: 0868 28bd 3a55 e0bc ccb5 8bbc b324 6abc
00000030: 2d71 bb3d 578d 6cbb d8a3 77bd d839 083c
00000040: 50ce 453d 8284 cc3d 5b4c 87bd 7061 4d3d
00000050: aa10 4cbc b403 453e 21fb c6bc 7dec 233d
00000060: 3e4a 823d 8cd0 92bc 8d14 813d 33f5 463d
00000070: 6eb6 a9bc 651f 003c 498c 9f3d 84ac 3bbc
00000080: 5486 ddbc 9897 183e 4eca 743d 3f35 3dbd
00000090: b4aa c1bc c932 9fbd e949 b4bc f720 133c
000000a0: ea08 2ebd 9ace 183d d267 af39 26a8 aa3c
000000b0: 2fe6 b4bc de87 20bd 4299 e83d 4cca e53b
000000c0: e0d0 b8bc d744 373c 0c6a 7e3d 22a8 67bc
000000d0: 96c6 3cbd 823a a53d baf0 65bc 2c5d 3039
000000e0: f103 eabc 48ed 70bd a849 a03c 3e77 66bd
000000f0: 2b3f e2bb 413c 7b3d 52e9 903d 51c0 3e3d
00000100: a2ef 7b3d c548 463c 9e37 133c f45e 1c3c
00000110: 4baa fbbc f274 2bbd 68c8 1a3d 46e0 1dbb
00000120: 2141 8cba b481 fcbc 7ccf 7b3d 76d0 acbc
00000130: 75bb 32bd 74c6 21bc bcc8 69bb 522b 303c
00000140: 6f21 f23d 70ba 32bc cae5 b53c 790c 453c
00000150: 8f2a 33bd e9b6 0c3e 1efc 893d e059 abbc
00000160: 053a 183c 1a62 973c 70a7 5f3c 0617 4dbc
00000170: 6c2c 8c3d ad33 ab3c 870c 843d da9d 313d
00000180: 8039 c1bb ea61 16bd 2268 11bd ec01 763b
00000190: fca7 e5bc 9412 b33c a00b 303d dd0c cfbb
000001a0: 8296 293d 0d6a 52bc 556a 24bd 3c10 a8bc
000001b0: 1a60 b5bb 28af c8bb 6927 673c 9fe1 af3c
000001c0: 6129 173c bbf7 aa3d a484 703d 143c c43c
000001d0: 7798 faba d248 b0bc b095 633d a033 ebbc

fc2.weight f4 [84, 120]
-0.1786322 0.12900107 -0.015629051 0.15590347 -0.0041029663 -0.12115704 0.018668596 -0.21005154
0.020960415 -0.055659596 -0.021361595 -0.03465242 -0.044854503 0.03665522 -0.107429534 0.0074333516
-0.053867746 0.13599625 0.10275766 -0.10309169 0.023343919 -0.027921105 -0.10666892 -0.12259153
-0.099476546 0.04724994 0.04823563 0.20442717 -0.03225061 -0.03626057 -0.16462012 0.029435186
0.14352229 -0.001773856 0.10543792 0.03839101 0.081046596 0.07552052 -0.032659605 0.12089174
0.063056804 -0.019159514 -0.037330985 -0.03073825 -0.14425099 0.046951618 -0.16775075 -0.08589793
0.051650193 0.09310751 -0.1027582 -0.055558972 0.0140286265 0.034744963 0.13984756 0.08724077
0.038322177 0.02916683 -0.10025424 0.13994244 0.05300829 0.0658885 -0.041529976 0.0021746513
-0.073097065 -0.013910526 0.13886999 0.04917196 0.021732187 0.08594734 0.08600826 -0.05683262
-0.10096222 -0.03915564 -0.016718391 0.060141996 -0.05422387 0.014811923 -0.1848948 -0.2422992
0.0031986025 0.0609577 -0.034357302 0.07908771 0.07217194 -0.1373622 0.004934655 0.12147592
0.032596838 -0.03871216 0.08305354 -0.030859943 0.011646452 0.074603684 0.0930639 -0.15795799
-0.08604559 0.22540244 0.043054122 0.09682068 -0.06618923 -0.13239267 0.05258931 -0.029927693
0.003366374 -0.037844997 0.046531003 0.01184266 -0.07279944 0.021196634 -0.0038573714 -0.041564446
-0.10498139 0.0032292649 -0.123053305 0.026227249 0.01651974 -0.0407059 -0.07393258 -0.12714297
0.13900481 -0.14642067 0.050121233 0.02315979 -0.015027833 0.021783056 -0.08614049 0.07686659
-0.04100904 0.02797081 -0.099289976 0.05007642 -0.16039756 -0.15522121 -0.021642793 0.079151265
-0.08476887 -0.07853039 -0.08973591 -0.0821955 0.02338357 -0.035067305 0.026187927 -0.0021854832
0.062469255 0.07073608 0.0019574275 -0.114324585 0.053451907 0.03441823 0.120897904 -0.0014351995
0.047733467 0.15935421 -0.03774413 0.041085858 -0.10895264 -0.047735665 -0.034630716 0.0008366136
0.08658149 -0.14565536 -0.12998612 0.12217205 0.2109063 0.059023052 -0.023128893 -0.05989694
-0.042660747 -0.03006436 0.057350993 0.036784943 0.0031015356 -0.06609044 -0.16923542 -0.2114255
-0.020041363 0.09742983 -0.096009366 -0.017014422 -0.02916444 0.036828067 -0.053501748 0.09944622
0.17361176 0.09062346 0.03469428 -0.04912554 -0.2633154 0.055924412 -0.08928499 -0.03705434
0.03112838 0.11870094 0.15518726 -0.02015143 -0.06528043 -0.0947677 0.13824646 0.20593838
0.16522168 0.0478216 0.051466756 -0.024014985 -0.04393838 0.0403882 -0.24148327 0.073685415
-0.07187297 -0.13418905 0.07526984 0.09224446 0.1868932 -0.112463556 -0.04443947 0.029066136
0.04056147 -0.083833605 -0.024849424 -0.10386785 -0.0073456913 0.07132574 -0.01568056 0.0656328
-0.025961498 0.042892452 0.029369326 0.096338406 -0.11093445 0.025798194 0.054521788 0.030075816
-0.12556227 0.099038504 -0.08612646 -0.08539221 0.03813445 0.03554025 0.00859661 -0.070408925
-0.15879256 -0.06958282 0.017439999 0.01855239 -0.00038051174 -0.01121719 -0.0037277283 0.09225999
0.036746856 -0.06998714 -0.07654661 0.055919394 0.045647025 0.05929566 -0.044932414 -0.0060241907
00000000: 5ceb 36be db18 043e 7f08 80bc 29a5 1f3e
00000010: 2d72 86bb 2f21 f8bd e2ee 983c c017 57be
00000020: 2db5 ab3c 51fb 63bd 83fe aebc b2ef 0dbd
00000030: 5bb9 37bd c923 163d 0404 dcbd 7993 f33b
00000040: 6da4 5cbd 9a42 0b3e 9c72 d23d bc21 d3bd
00000050: bf3b bf3c cdba e4bc 3c75 dabd 4511 fbbd
00000060: 5cba cbbd 2789 413d b992 453d 5b55 513e
00000070: 3719 04bd f785 14bd 2d92 28be 0f22 f13c
00000080: 82f7 123e bb80 e8ba d6ef d73d e43f 1d3d
00000090: c2fb a53d 81aa 9a3d 14c6 05bd 1796 f73d
000000a0: ed23 813d 6af4 9cbc 60e8 18bd c8ce fbbc
000000b0: 88b6 13be 5750 403d dac6 2bbe 41eb afbd
000000c0: 278f 533d 26af be3d e472 d2bd ce91 63bd
000000d0: 53d8 653c bc50 0e3d 3334 0f3e 4aab b23d
000000e0: b7f7 1c3d 47ef ee3c 1852 cdbd 124d 0f3e
000000f0: 381f 593d 8df0 863d 561b 2abd 9884 0e3b
00000100: eab3 95bd fae8 63bc ef33 0e3e 8a68 493d
00000110: b307 b23c 2905 b03d 1925 b03d 52c9 68bd
00000120: 48c5 cebd aa61 20bd 02f5 88bc 7457 763d
00000130: d919 5ebd b5ad 723c 1055 3dbe 481d 78be
00000140: a59f 513b c8ae 793d 3eba 0cbd bdf8 a13d
00000150: e2ce 933d ada8 0cbe e3b2 a13b 5ec8 f83d
00000160: 4384 053d a490 1ebd f917 aa3d fecd fcbc
00000170: c3d0 3e3c d1c9 983d 4998 be3d bdbf 21be
00000180: ac38 b0bd e6cf 663e 8559 303d ec49 c63d
00000190: 388e 87bd f291 07be e367 573d ec2a f5bc
000001a0: 629e 5c3b 5b03 1bbd 4b97 3e3d b707 423c
000001b0: df17 95bd 90a4 ad3c f4cb 7cbb 7b3f 2abd
000001c0: 7c00 d7bd 13a2 533b 5f03 fcbd 87da d63c
000001d0: 6854 873c 3bbb 26bd f769 97bd c431 02be
000001e0: 4757 0e3e 4def 15be ec4b 4d3d 9ab9 bd3c
000001f0: 4d37 76bc 6172 b23c 6d6a b0bd 3b6c 9d3d
00000200: 18f9 27bd 0a23 e53c 8b58 cbbd ef1c 4d3d
00000210: 423f 24be 4ff2 1ebe 3a4c b1bc 0f1a a23d
00000220: 4d9b adbd 8bd4 a0bd 76c7 b7bd 1d56 a8bd
00000230: e78e bf3c bca2 0fbd 1088 d63c 533a 0fbb
00000240: c3df 7f3d 14de 903d 2f48 003b 0223 eabd
00000250: 63f0 5a3d 21fa 0c3d 5299 f73d 4e1d bcba
00000260: 2b84 433d c02d 233e 9799 1abd a549 283d
00000270: 9022 dfbd 7986 43bd f0d8 0dbd 3050 5b3a
00000280: a351 b13d ae26 15be 151b 05be 5735 fa3d
00000290: d2f7 573e 28c2 713d ce78 bdbc 7e56 75bd
000002a0: 09bd 2ebd 8849 f6bc e0e8 6a3d cfab 163d
000002b0: 2243 4b3b 6d5a 87bd 0d4c 2dbe ed7f 58be
000002c0: c92d a4bc 4a89 c73d 8fa0 c4bd d461 8bbc
000002d0: 44ea eebc 07d9 163d a624 5bbd 76aa cb3d
000002e0: 48c7 313e cb98 b93d 971b 0e3d dd37 49bd
000002f0: 47d1 86be ff10 653d 0ddb b6bd 4bc6 17bd
00000300: f200 ff3c 7a19 f33d 69e9 1e3e 9d14 a5bc
00000310: bfb1 85bd 9115 c2bd 7b90 0d3e 83e1 523e
00000320: df2f 293e 95e0 433d cece 523d 13bb c4bc
00000330: bbf8 33bd 196e 253d 6447 77be 61e8 963d
00000340: 2332 93bd db68 09be 1327 9a3d aaea bc3d
00000350: ee60 3f3e 4b53 e6bd 2906 36bd 1b1c ee3c
00000360: c923 263d f4b0 abbd 0591 cbbc abb8 d4bd
00000370: 20b4 f0bb 3b13 923d 8574 80bc 7d6a 863d
00000380: 35ad d4bc ffaf 2f3d f197 f03c 124d c53d
00000390: 9a31 e3bd bc56 d33c 3d52 5f3d 8f61 f63c
000003a0: 6593 00be b3d4 ca3d 1263 b0bd 1ce2 aebd
000003b0: de32 1c3d a792 113d ccd8 0c3c 8e32 90bd
000003c0: 849a 22be 7081 8ebd 54de 8e3c 2ffb 973c
000003d0: 6c7f c7b9 4ec8 37bc e74c 74bb cef2 bc3d
000003e0: df83 163d 6b55 8fbd 78c4 9cbd bc0b 653d
000003f0: 60f8 3a3d 02e0 723d 0d0b 38bd 9366 c5bb

fc2.bias f4 [84]
0.025336592 0.09186096 0.031687025 -0.00347367 0.10529942 -0.05064798 -0.07231169 0.046377014
0.085960865 0.16205281 -0.0403412 -0.05512966 -0.052095953 0.021459946 0.018405236 -0.0692083
0.10752422 -0.043989386 0.016696457 0.14271675 -0.053931244 0.30687392 -0.02963198 0.21870449
0.17646442 0.20961413 0.08954174 0.04724433 0.08833627 -0.055773582 0.09070158 -0.044626504
-0.04133495 0.13680291 0.037157547 -0.04455989 0.26092148 -0.0050722044 0.028710764 0.03830136
-0.039271403 0.029937217 0.07310997 -0.048012078 0.03865519 -0.04671505 0.029612308 0.11631105
-0.05881026 0.15675528 -0.0009489702 0.017247932 -0.053063516 0.03410378 -0.09561831 -0.056114938
0.0148105435 0.20148763 0.12474558 0.013172667 -0.02057202 0.049491 0.11469155 0.08787651
0.064523704 0.24186502 0.06487183 0.004311718 -0.08423384 0.092999674 0.001127873 0.014762022
-0.07440936 0.058979083 -0.08828158 0.10378142 -0.05834906 0.017437877 0.082430966 -0.06460953
0.084431335 -0.07802714 0.1402803 0.002534442
00000000: af8e cf3c 9921 bc3d 41ca 013d 83a6 63bb
00000010: 39a7 d73d 4274 4fbd 2718 94bd d3f5 3d3d
00000020: 400c b03d 2cf1 253e d03c 25bd a3cf 61bd
00000030: 9162 55bd c5cc af3c 94c6 963c 15bd 8dbd
00000040: a935 dc3d 372e 34bd 02c7 883c 5724 123e
00000050: 02e7 5cbd 941e 9d3e c4be f2bc 12f4 5f3e
00000060: 17b3 343e 16a5 563e a961 b73d 4583 413d
00000070: a5e9 b43d d772 64bd c0c1 b93d 48ca 36bd
00000080: d64e 29bd 1016 0c3e 8332 183d 6e84 36bd
00000090: 8097 853e bc34 a6bb d632 eb3c e3e1 1c3d
000000a0: 0ddb 20bd e53e f53c aeba 953d 50a8 44bd
000000b0: e854 1e3d 4858 3fbd 8395 f23c 7d34 ee3d
000000c0: 07e3 70bd 7584 203e 50c4 78ba 894b 8d3c
000000d0: 2159 59bd 68b0 0b3d 88d3 c3bd c7d8 65bd
000000e0: eca7 723c c652 4e3e 9c7a ff3d 2bd2 573c
000000f0: a786 a8bc 13b7 4a3d 67e3 ea3d 9af8 b33d
00000100: 0125 843d 77ab 773e 86db 843d 5049 8d3b
00000110: cb82 acbd 9d76 be3d 23d5 933a 68dc 713c
00000120: ef63 98bd 0d94 713d f9cc b4bd 5a8b d43d
00000130: 6dff 6ebd e1d9 8e3c 91d1 a83d 0052 84bd
00000140: 56ea ac3d b1cc 9fbd a4a5 0f3e e218 263b

fc3.weight f4 [19, 84]
-0.028848981 0.30473107 -0.2452523 -0.0060896073 -0.17368352 -0.041291006 -0.38611776 -0.31968492
-0.0486096 -0.06901187 -0.3052439 0.19194536 0.047916025 0.29014257 0.016105894 0.30768
-0.24385597 0.07921327 0.122520566 -0.026707258 0.07088834 -0.14317909 0.18556611 -0.14357957
-0.1001513 -0.24565876 -0.21597019 0.22556706 -0.14446189 -0.10418424 -0.027666407 0.04002904
-0.018386884 -0.12721135 -0.069385774 0.07505815 -0.26170397 -0.02690096 -0.043877497 0.16832224
-0.074787535 -0.112578005 -0.14064692 -0.113584094 0.2296787 -0.10868473 -0.4127396 0.22866963
-0.056739584 -0.042968415 0.18283643 0.47709715 -0.23171014 -0.15266885 -0.08435547 0.037638176
0.13546278 0.339458 -0.051815104 0.06984214 0.09934646 -0.30085525 -0.20316495 0.1957381
0.32898116 0.025814338 0.01121416 -0.027164048 0.061556663 0.16588566 -0.014026287 -0.04143367
0.012115704 0.029090585 0.041389264 -0.28211182 -0.011021797 0.30549306 0.0009422282 0.092350096
-0.12216011 -0.05070172 -0.07583609 0.18691629 -0.117449 0.017707359 -0.16400132 0.0791198
-0.17596978 0.12682359 -0.038101748 0.14522666 0.007798809 -0.22655791 0.24928789 0.09807951
-0.010722979 0.32382092 -0.08077196 -0.32556665 -0.0020979554 -0.085053235 -0.07286621 0.16376074
-0.19757757 -0.37370527 0.30090684 -0.13787137 -0.13895294 -0.18794438 0.15226962 0.5146292
-0.1442759 -0.045290995 -0.033455312 0.09028506 0.15141985 -0.094904706 0.063595384 0.032382254
-0.35403353 -0.035342336 -0.0636194 -0.22495654 0.098512225 -0.29558375 -0.13751619 0.0024959054
0.054961625 -0.08255117 0.2886772 -0.111954115 -0.051487792 -0.1952276 0.10091756 0.19237863
-0.020415524 0.035812985 0.0033394827 -0.039883148 0.076291814 0.29761988 0.3999757 0.038067855
-0.070871904 0.28160042 0.21379921 0.13385713 0.18854193 -0.011835025 -0.22683623 -0.2239136
-0.1822023 -0.25530475 0.27592543 -0.007585853 0.00085821387 -0.120252475 0.02040062 -0.08773059
-0.050889596 0.30115965 -0.036822386 -0.0057656555 -0.19930738 -0.17663063 -0.14138441 -0.20398526
-0.10716062 0.18462163 0.108282894 -0.10583568 -0.04267425 0.022355456 -0.16516785 0.37778243
-0.16162747 -0.07299924 0.06945782 0.11716154 -0.11187506 0.04618405 -0.10990144 -0.0009604926
-0.0222951 0.03465044 0.03560915 -0.053573497 -0.18098883 -0.23216558 -0.03923989 -0.066454075
-0.062595636 -0.17254415 -0.10779456 -0.080511026 -0.27103025 0.085773416 0.44134885 -0.049616847
0.0027216757 -0.20453456 -0.10704245 0.3012132 -0.25307065 -0.13726346 -0.07672981 -0.035697933
0.06934781 -0.16042635 -0.13525096 -0.067855656 0.19929355 -0.05553884 0.1176778 0.1823736
0.07950827 -0.0020575146 0.06804444 0.009859312 -0.080537714 0.1948838 0.03126679 -0.03189955
0.34083182 0.25881976 -0.20997706 -0.11470581 -0.1455576 -0.17491223 0.066631325 0.09087483
-0.08006311 -0.17353931 -0.21389598 0.1604909 -0.0730219 -0.18996611 0.17945372 -0.015012166
0.094123736 0.29624283 -0.06335196 -0.097877495 -0.07392552 0.2144987 0.16743444 -0.21204084
-0.23670945 -0.008644256 0.06372971 -0.2011038 -0.13218467 0.26104316 -0.010981346 -0.03914602
00000000: b354 ecbc b605 9c3e 6b23 7bbe 548b c7bb
00000010: 18da 31be c220 29bd 3ab1 c5be bead a3be
00000020: dc1a 47bd 1856 8dbd ee48 9cbe 538d 443e
00000030: 9843 443d 918d 943e 82f0 833c 3c88 9d3e
00000040: 61b5 79be 913a a23d 10ec fa3d 2ec9 dabc
00000050: e82d 913d 8a9d 12be 0b05 3e3e 8606 13be
00000060: 201c cdbd f88d 7bbe 4a27 5dbe 0dfb 663e
00000070: d1ed 13be 8c5e d5bd a9a4 e2bc 7ef5 233d
00000080: 17a0 96bc b143 02be 211a 8ebd 16b8 993d
00000090: 10fe 85be 675f dcbc e4b8 33bd aa5c 2c3e
000000a0: 352a 99bd 4c8f e6bd bf05 10be c79e e8bd
000000b0: e530 6b3e 1a96 debd 9b52 d3be 5f28 6a3e
000000c0: c467 68bd a6ff 2fbd 7939 3b3e 1446 f43e
000000d0: 6c45 6dbe 3955 1cbe 90c2 acbd 7d2a 1a3d
000000e0: c1b6 0a3e 70cd ad3e 133c 54bd 6509 8f3d
000000f0: 2876 cb3d b309 9abe 790a 50be 926f 483e
00000100: 3870 a83e 9778 d33c 99bb 373c 2387 debc
00000110: d722 7c3d eedd 293e 83ce 65bc 5ab6 29bd
00000120: f280 463c 614f ee3c ca87 293d f670 90be
00000130: c494 34bc 9669 9c3e ddff 763a 0c22 bd3d
00000140: 142f fabd 9bac 4fbd f44f 9bbd fc66 3f3e
00000150: 1a89 f0bd 060f 913c f6ef 27be 9009 a23d
00000160: 6c31 34be 0bde 013e 9410 1cbd 4cb6 143e
00000170: 278d ff3b ccfe 67be 5345 7f3e e9dd c83d
00000180: 6faf 2fbc dbcb a53e c56b a5bd acb0 a6be
00000190: da7d 09bb 6430 aebd e13a 95bd e5b0 273e
000001a0: c651 4abe 4c56 bfbe 7610 9a3e 272e 0dbe
000001b0: ae49 0ebe 7e74 40be 91ec 1b3e bdbe 033f
000001c0: 10bd 13be 0d83 39bd 7008 09bd 60e7 b83d
000001d0: ce0d 1b3e 665d c2bd 4c3e 823d 41a3 043d
000001e0: e243 b5be 20c3 10bd e34a 82bd 025b 66be
000001f0: c7c0 c93d c156 97be 0bd1 0cbe 5892 233b
00000200: 711f 613d 9610 a9bd 7fcd 933e 3348 e5bd
00000210: dde4 52bd bee9 47be dead ce3d e7fe 443e
00000220: 753e a7bc a3b0 123d 39db 5a3b 835c 23bd
00000230: e23e 9c3d a261 983e 9dc9 cc3e 0aed 1b3d
00000240: 4a25 91bd ee2d 903e 2eee 5a3e d811 093e
00000250: 2311 413e b1e7 41bc c247 68be 9b49 65be
00000260: 3d93 3abe 4eb7 82be 1946 8d3e bf92 f8bb
00000270: c2f9 603a ee46 f6bd 331f a73c 18ac b3bd
00000280: 9c71 50bd 9931 9a3e 12d3 16bd d3ed bcbb
00000290: 3c17 4cbe a9de 34be 13c7 10be 83e1 50be
000002a0: 0777 dbbd 740d 3d3e 6cc3 dd3d 61c0 d8bd
000002b0: 32cb 2ebd ca22 b73c c321 29be b36c c13e
000002c0: ac81 25be a080 95bd e73f 8e3d 64f2 ef3d
000002d0: c01e e5bd 7d2b 3d3d 0214 e1bd 91c9 7bba
000002e0: 37a4 b6bc 9fed 0d3d e6da 113d e26f 5bbd
000002f0: 2355 39be d0bc 6dbe 02ba 20bd 1319 88bd
00000300: 2432 80bd 6aaf 30be 65c3 dcbd f7e2 a4bd
00000310: 7ac4 8abe f9a9 af3d 7af8 e13e 093b 4bbd
00000320: 245e 323b 8271 51be 1239 dbbd 9e38 9a3e
00000330: 7a92 81be cb8e 0cbe 8524 9dbd ff37 12bd
00000340: 3906 8e3d ce46 24be 3a7f 0abe e8f7 8abd
00000350: 9c13 4c3e b27c 63bd 0f01 f13d 25c0 3a3e
00000360: 3bd5 a23d 5ed7 06bb e25a 8b3d f488 213c
00000370: f5f0 a4bd 9e8f 473e 9b11 003d 1aa9 02bd
00000380: 8281 ae3e 0684 843e 3a04 57be e1ea eabd
00000390: 0d0d 15be 311c 33be 0176 883d 951c ba3d
000003a0: 21f8 a3bd 4ab4 31be 8c07 5bbe ba57 243e
000003b0: 828c 95bd 7a86 42be b7c2 373e 97f5 75bc
000003c0: f2c3 c03d 24ad 973e acbe 81bd ff73 c8bd
000003d0: 4366 97bd 8ca5 5b3e ef73 2b3e 3c21 59be
000003e0: f663 72be a3a0 0dbc b984 823d 28ee 4dbe
000003f0: 6b5b 07be 73a7 853e 1aeb 33bc 9457 20bd

fc3.bias f4 [19]
-0.31690228 -0.11471554 0.047305696 0.011662345 -0.23654431 0.14523222 -0.3304736 0.04797639
-0.2824587 -0.074815094 0.32162046 -0.070496604 0.2683395 -0.035537276 0.074854895 0.20103952
0.015623769 0.2133126 -0.080194876
00000000: 0441 a2be fbef eabd 9ec3 413d 6c13 3f3c
00000010: ac38 72be c1b7 143e d633 a9be e482 443d
00000020: 6d9e 90be a838 99bd 70ab a43e 8660 90bd
00000030: cc63 893e 898f 11bd 864d 993d 4edd 4d3e
00000040: d6fa 7f3c 9e6e 5a3e 363d a4bd
