python/CNN2.pth (torch_old, 252622 bytes, 10 tensors)

conv1.weight f4 [6, 3, 5, 5]
0	0x3e78afd7	0.24285828
1	0x3ec60bd8	0.3868091
2	0x3ecd3fbc	0.40087688
3	0x3e868edc	0.26280868
4	0x3ee55591	0.44791844
5	0xbd3eb584	-0.046559826
6	0x3dc69296	0.09695928
7	0x3d52e399	0.051486585
8	0x3e347be3	0.17625384
9	0x3e0f53f4	0.1399687
10	0x3d2d3fdd	0.042297233
11	0xbd995884	-0.07487586
12	0xbce053b3	-0.02738366
13	0xbd8cff71	-0.06884659
14	0xbce445dd	-0.027865345
15	0x3da819d5	0.08208052
16	0x3db0f679	0.08640761
17	0xbbbad388	-0.005701486
18	0x3de32c6a	0.11092456
19	0x3db79266	0.0896347
20	0x3e406e71	0.1879213
21	0x3ec00e5c	0.37510955
22	0x3e44f52a	0.19234148
23	0x3e8444ee	0.2583384
24	0x3c3b3e0d	0.011428368
25	0xbd8e9148	-0.06961304
26	0x3d9b6fb3	0.07589664
27	0x3e0b6ffd	0.13616939
28	0x3e2b4e4d	0.16729088
29	0x3e6dd33a	0.23225108
30	0xbe1d0624	-0.15334374
31	0xbde35dbf	-0.11101865
32	0xbdafd1d8	-0.085849464
33	0xbc8688fc	-0.016422741
34	0xbdcbe519	-0.09955806
35	0xbe3eee83	-0.18645673
36	0xbebabd72	-0.3647266
37	0xbe6e99c2	-0.23300841
38	0xbec82a59	-0.3909481
39	0xbe1f258b	-0.15541665
40	0xbe1e84d4	-0.15480357
41	0xbd8aac83	-0.06771185
42	0xbe52fef2	-0.20605066
43	0xbe88e131	-0.26734307
44	0xbe1d62a7	-0.15369664
45	0x3d5021fa	0.050813653
46	0x3e0f2a8a	0.13981071
47	0x3def7f4f	0.11694204
48	0xbde7ef53	-0.11324944
49	0xbe3e336b	-0.18574302
50	0xbd81e3ab	-0.06342252
51	0xbce49477	-0.027902825
52	0x3e44693f	0.19180773
53	0x3dfa44e6	0.122201726
54	0x3dad67db	0.084670745
55	0xbe177c8b	-0.14793603
56	0xbdc983ef	-0.098396175
57	0xbdd43020	-0.103607416
58	0x3b3d5e82	0.0028895442
59	0x3c6698d9	0.014074528
60	0xbe505c6c	-0.20347756
61	0xbeb72e45	-0.35777488
62	0xbecc4843	-0.3989888
63	0xbe9ea725	-0.30986896
64	0xbe87dca9	-0.26535538
65	0xbd953d20	-0.07287049
66	0xbe2c2b2e	-0.16813347
67	0xbe6f33e4	-0.23359638
68	0xbe6c4174	-0.23071843
69	0xbe2a9604	-0.16658789
70	0x3e82c4fb	0.2554091
71	0x3dd8e5d1	0.10590709
72	0xbd339f40	-0.043853045
73	0xbca6ec4c	-0.020376347
74	0xbe39a24c	-0.18128318
75	0xbcb8c817	-0.022556348
76	0x3b7a76fa	0.0038217888
77	0xbd82fbc1	-0.063956745
78	0x3cbe5608	0.023234382
79	0x3cf377dc	0.02972024
80	0x3deae82f	0.11470067
81	0x3d933d51	0.071894296
82	0x3ba426ed	0.005009523
83	0x3df20c4c	0.11818752
84	0x3dcc639f	0.09979939
85	0xbdb47273	-0.08810892
86	0x3e118f67	0.1421486
87	0x3d4942ce	0.049135976
88	0x3e0032b9	0.12519349
89	0x3e4636da	0.19356862
90	0xbdf72186	-0.12066941
91	0xbd321aae	-0.043482475
92	0x3c84fbc9	0.016233342
93	0x3d8ccfff	0.068756096
94	0x3e0474f0	0.12935233
95	0xbd0e6161	-0.034760837
96	0xbc2c38b7	-0.010511569
97	0xbe5e16b5	-0.2168835
98	0xbd4a0ff9	-0.04933164
99	0xbdd6b00d	-0.10482798
100	0xbcbe2f4c	-0.023215912
101	0xbdc18b45	-0.09450392
102	0xbd6c31cb	-0.057664674
103	0xbd38c33a	-0.045108058
104	0xbd44e7d0	-0.048072636
105	0x3c46c56e	0.012132032
106	0x3e226be0	0.15861464
107	0x3da23992	0.07921137
108	0x3e1df0e0	0.15423918
109	0x3ce7bad1	0.028287323
110	0x3dce4425	0.10071591
111	0x3dcfb093	0.10141101
112	0x3defdc8f	0.1171199
113	0x3e5b91e2	0.21442369
114	0x3e488c96	0.1958488
115	0xbdffa969	-0.12483484
116	0xbdb16380	-0.08661556
117	0xbe22412d	-0.15845175
118	0xbcb86446	-0.022508752
119	0xbce80d86	-0.028326761
120	0xbd179b22	-0.03701318
121	0xbd756025	-0.059906144
122	0xbdaa7978	-0.083239496
123	0xbd278d9e	-0.04090654
124	0xbdd42bd0	-0.10359919
125	0xbde62174	-0.112368494
126	0xbc6f2f18	-0.01459863
127	0xbe0122f5	-0.12610991
128	0x3d99d4ff	0.07511329
129	0xbc10ba23	-0.008833441
130	0xbe1269d7	-0.14298187
131	0xbd2ac59d	-0.041692365
132	0x3d8f2040	0.06988573
133	0xbd883af7	-0.06651872
134	0xbc5fc2f7	-0.013657323
135	0xbddf9768	-0.1091755
136	0x3cc4f39c	0.024041943
137	0xbd669651	-0.056295697
138	0x3e0fb6b4	0.1403454
139	0x3e02b6a2	0.12764981
140	0xbdfe92ca	-0.124303415
141	0xbe10e2a9	-0.14148964
142	0xbe5c002a	-0.21484438
143	0xbe0372ca	-0.12836757
144	0x3bbf8d25	0.005845683
145	0xbdc24fc3	-0.094878696
146	0xbe80a08f	-0.25122496
147	0xbe47acc1	-0.19499494
148	0xbe8fe76e	-0.28106254
149	0xbe27f950	-0.16403699
150	0x3db4f3ce	0.088355646
151	0x3dcea2b7	0.10089629
152	0x3dac0cfd	0.08400915
153	0xbc78a444	-0.015175883
154	0xbe0c2d76	-0.13689217
155	0x3dfd573d	0.12370155
156	0xbc4cedf6	-0.012507906
157	0xbe28b5ce	-0.16475603
158	0xbe4a7a73	-0.19773273
159	0xbe744c5c	-0.23857254
160	0x3e33aa4e	0.17545435
161	0xbddee806	-0.10884099
162	0xbe7b823c	-0.24561399
163	0xbea8185c	-0.32831085
164	0xbe65e29c	-0.22449726
165	0x3e109f95	0.14123376
166	0x3dd79ca2	0.10527922
167	0xbe7e62d5	-0.24842389
168	0xbe708800	-0.2348938
169	0xbe0385b7	-0.12843977
170	0x3ed34a57	0.41267654
171	0x3e2749fe	0.1633682
172	0x3d0b1ee8	0.03396502
173	0xbe20c39e	-0.15699622
174	0xbe09a596	-0.13442072
175	0xbd3da6ea	-0.04630176
176	0x3dab8818	0.08375567
177	0xbdf5c8dc	-0.120012015
178	0xbe6bc481	-0.23024179
179	0xbe4c5bd3	-0.19956903
180	0xbd641438	-0.055683345
181	0xbc93939b	-0.01801472
182	0xbe8aaa91	-0.27083257
183	0xbe85bbc7	-0.26119825
184	0xbeb09f56	-0.34496564
185	0xbe50ca78	-0.20389736
186	0xbc7a0966	-0.01526103
187	0xbe8036c8	-0.25041795
188	0xbe371b43	-0.17881493
189	0xbe98d6e0	-0.29851437
190	0x3d305497	0.04304942
191	0xbcce555c	-0.025187187
192	0xbdf19d06	-0.11797528
193	0xbe9c92c2	-0.30580717
194	0xbe1c7e5b	-0.15282576
195	0xbb7144c8	-0.0036814678
196	0xbd3826fe	-0.04495906
197	0xbe18c8b2	-0.14920309
198	0xbe9b1683	-0.30290613
199	0xbe0795fd	-0.1324081
200	0x3e5538bc	0.20822424
201	0x3e8e94d2	0.27847916
202	0x3e93df63	0.28881368
203	0x3d128856	0.03577455
204	0xba39ff86	-0.0007095266
205	0x3db1c3bf	0.08679914
206	0x3df394d2	0.118936196
207	0x3e09f10c	0.13470858
208	0x3c26cee5	0.010181163
209	0x3d8967c2	0.06709243
210	0x3da41c36	0.08013193
211	0x3e5fc2a6	0.21851596
212	0x3cf7dc0f	0.0302563
213	0xbd341a26	-0.04397025
214	0x3e35f12d	0.17767783
215	0x3e587ae1	0.21140625
216	0x3e429af1	0.19004418
217	0x3ccb81b5	0.024842123
218	0x3e3a82b4	0.18213922
219	0x3e984363	0.29738912
220	0x3ec23e3d	0.3793811
221	0x3e51cd30	0.20488429
222	0x3de844af	0.11341225
223	0x3df4f516	0.11960809
224	0x3e475cfd	0.19469066
225	0x3d8a6654	0.06757799
226	0x3e11e634	0.14247972
227	0xbd128b5a	-0.035777427
228	0x3e21dc02	0.15806583
229	0x3e0e7a19	0.13913764
230	0xbd1b4460	-0.037907004
231	0x3d0e5b1e	0.034754865
232	0x3df4fbe1	0.119621046
233	0x3b5d1987	0.003373714
234	0x3e45617a	0.19275466
235	0xbdf49969	-0.11943323
236	0xbd394960	-0.04523599
237	0xbe001536	-0.12508091
238	0xbda24f5b	-0.07925292
239	0xbd819774	-0.063277155
240	0xbe27b34b	-0.16376989
241	0xbde712ac	-0.11282858
242	0xbd30e6b7	-0.043188777
243	0x3d431312	0.04762561
244	0x3d2d04da	0.042240955
245	0xbe215dc2	-0.15758422
246	0xbcd14e31	-0.02554998
247	0xbdc629e6	-0.0967596
248	0xbd978331	-0.0739807
249	0x3d852086	0.06500344
250	0xbe57120c	-0.21002978
251	0xbe4effbe	-0.20214745
252	0xbe1976f3	-0.14986782
253	0xbe103acc	-0.14084929
254	0x3b37e40d	0.0028059513
255	0xbe0015cf	-0.1250832

conv1.bias f4 [6]
0	0x3e9eba7b	0.31001648
1	0x3e2c93ef	0.16853307
2	0x3e1ec8a5	0.15506227
3	0xbe642503	-0.22279744
4	0x3d580a3d	0.05274414
5	0x3e41744e	0.18892023

conv2.weight f4 [16, 6, 5, 5]
0	0x3d130d6d	0.035901476
1	0x3dd1ad30	0.10238111
2	0x3dd200da	0.10254069
3	0x3dd170f2	0.10226621
4	0x3e0f2d51	0.1398213
5	0x3d21f4fd	0.03954028
6	0x3d9456bc	0.07243106
7	0x3e759125	0.2398115
8	0x3e33bb07	0.17551814
9	0x3d3a5ece	0.04550057
10	0x3c88ab5d	0.016683275
11	0xbd0ab6cd	-0.03386574
12	0x3dbba733	0.0916275
13	0x3e1e689c	0.15469593
14	0x3ddde0cd	0.10833893
15	0xbe12e845	-0.14346416
16	0xbdba6221	-0.09100748
17	0xbdea9539	-0.11454243
18	0xbdda5011	-0.10659803
19	0x3d467377	0.04844996
20	0xbdb64002	-0.08898927
21	0x3d1d6db3	0.038434695
22	0xbc63f65b	-0.013913716
23	0xbe24ef71	-0.16106965
24	0xbe25f250	-0.16205716
25	0xbd405d25	-0.04696383
26	0x3db803f8	0.08985132
27	0x3e20c368	0.15699542
28	0xbc10c337	-0.008835605
29	0x3d7e23a4	0.06204571
30	0xbccd8161	-0.025086107
31	0xbc83b1ad	-0.016075933
32	0x3e12bc66	0.14329681
33	0x3d6495d6	0.055806957
34	0x3def6ab0	0.11690271
35	0x3dabbd16	0.08385675
36	0x3d1ec1c6	0.038759016
37	0x3db0f274	0.08639994
38	0xbc6c1461	-0.014409156
39	0xbc85d8df	-0.016338764
40	0x3d4888ad	0.04895847
41	0x3dd29c2b	0.10283693
42	0x3e00c980	0.12576866
43	0x3d34ac1f	0.04410946
44	0xbd2f9329	-0.042864952
45	0x3c28be87	0.0102993315
46	0xbd820e7b	-0.06350418
47	0x3b7da5a8	0.0038703475
48	0xbd1c7900	-0.038201332
49	0xbdf684a4	-0.12037018
50	0x3e7c527b	0.24640839
51	0x3da944bb	0.082650624
52	0x3e1c03c7	0.15235816
53	0x3dd264e5	0.1027315
54	0x3cf17c1a	0.029478122
55	0x3e056d22	0.13029912
56	0x3d667ee1	0.056273345
57	0x3dd367fc	0.10322568
58	0xbcfdc0d1	-0.030975731
59	0xbd91c1bf	-0.07117032
60	0xbc7061a9	-0.0146717215
61	0x3d141d86	0.03616097
62	0xbd5441bf	-0.051820513
63	0xbd5fe9d3	-0.05466635
64	0xbe05f22f	-0.13080667
65	0xbd8c2477	-0.068428926
66	0xbe2dee15	-0.16985352
67	0xbe508e03	-0.20366673
68	0xbe5e3871	-0.21701218
69	0xbe51c4be	-0.20485207
70	0xbe05ed90	-0.13078904
71	0xbe0b729f	-0.13617943
72	0xbe02067f	-0.1269779
73	0xbe487224	-0.19574791
74	0xbdaa2b92	-0.08309092
75	0x3e21c708	0.1579858
76	0x3e104a48	0.14090836
77	0x3d9ef8ea	0.0776232
78	0x3ce33b19	0.02773814
79	0x3d5e7316	0.054308973
80	0x3e2dd360	0.16975164
81	0x3e36f7e4	0.17868
82	0x3e0d67f4	0.13809186
83	0x3da41199	0.08011169
84	0xbd593c12	-0.053035803
85	0x3d8dd49d	0.069253184
86	0xbde72fe3	-0.112884305
87	0x3c96799a	0.018368531
88	0xbddc2bd0	-0.10750544
89	0xbd27c101	-0.040955547
90	0xbd2f57f6	-0.042808495
91	0xbe011371	-0.12605073
92	0xbcbacb5e	-0.022802051
93	0xbdd8b244	-0.105808765
94	0xbdc6bc77	-0.097039156
95	0x3d0e4e7d	0.03474282
96	0xbe1ab76c	-0.15109032
97	0xbd9a94c5	-0.07547907
98	0xbe084818	-0.13308752
99	0xbe1e4fbf	-0.15460108
100	0x3d8924b9	0.066964574
101	0x3e13cd42	0.14433768
102	0x3dd3705a	0.10324164
103	0x3dba1876	0.09086697
104	0x3ddd427c	0.108036965
105	0x3e1e4c13	0.15458708
106	0x3dd37ac4	0.1032615
107	0x3c355a9a	0.011068964
108	0xbcd77c6d	-0.026304448
109	0xbd4bb8d9	-0.04973683
110	0x3bc91a0e	0.006137139
111	0xbdf6a048	-0.1204229
112	0xbd192211	-0.037386004
113	0xbd3fb494	-0.046803072
114	0xbe00ec94	-0.12590247
115	0xbd99d9e4	-0.075122625
116	0xbdcfa794	-0.10139385
117	0xbdd0eb87	-0.10201173
118	0xbd82393c	-0.06358573
119	0xbdef0e17	-0.11672609
120	0xbc8dc587	-0.017306102
121	0x3784c6ac	1.582814e-05
122	0xbc6f2f1d	-0.014598635
123	0xbd9103c0	-0.070807934
124	0xbde7754f	-0.11301672
125	0xbcc12cf5	-0.023581007
126	0x3e123b1b	0.1428036
127	0x3c7d152a	0.01544694
128	0xbc7cec7b	-0.015437241
129	0x3d3bc6c9	0.045843873
130	0x3dcb896c	0.099383205
131	0x3e1a27a0	0.15054178
132	0x3ddf01d2	0.10889019
133	0x3db06b56	0.08614223
134	0xbb89271b	-0.00418557
135	0xbc01bfe8	-0.007919289
136	0x3cfafa6c	0.030636989
137	0x3dd6c9c6	0.10487704
138	0x3cfe7167	0.031059934
139	0x3d855e9f	0.06512188
140	0x3c3dd655	0.011586745
141	0xbdbdd977	-0.09269994
142	0xbd924291	-0.07141603
143	0xbd7e0749	-0.062018666
144	0xbdf975e6	-0.121806905
145	0x3d7a0f15	0.06104954
146	0xbd100aaf	-0.03516644
147	0xbcab58f9	-0.020916449
148	0xbde05101	-0.1095295
149	0xbd3f7e9a	-0.046751596
150	0xbdedbaa6	-0.11607866
151	0xbcda30ff	-0.026634691
152	0x3d6ad060	0.057327628
153	0x3d505dbf	0.050870653
154	0x3e7f5dc3	0.24938111
155	0xbb1edea6	-0.0024241596
156	0xbcca4370	-0.02469036
157	0xbd214279	-0.039370034
158	0xbc1c12af	-0.009525939
159	0xbda764a6	-0.08173494
160	0x3cf21704	0.02955199
161	0x3cea8663	0.028628534
162	0x3d1118da	0.03542409
163	0x3d83ed71	0.06441773
164	0x3cbb548c	0.022867464
165	0xbd3a9d0e	-0.045559935
166	0x3cfb0ad5	0.030644814
167	0xbd042e96	-0.03227099
168	0x3c2d2293	0.010567325
169	0x3d10a938	0.03531763
170	0xbc820edd	-0.015876228
171	0xbdd74dea	-0.10512908
172	0xbe240735	-0.16018374
173	0xbd98e526	-0.074655816
174	0xbcca3d4b	-0.02468743
175	0xbd9b5902	-0.07585336
176	0xbdf01cef	-0.11724269
177	0xbd316fcb	-0.043319505
178	0xbdacf102	-0.08444406
179	0x3d261e11	0.040556017
180	0xbcbeab8b	-0.023275157
181	0x3cd06bdb	0.025442054
182	0xbd8f19e0	-0.06987357
183	0xb99d1389	-0.00029959928
184	0x3d5f579d	0.054526914
185	0x3c066544	0.008202855
186	0xbdebe6d7	-0.115186386
187	0x3c7c9dfd	0.015418527
188	0xbd065352	-0.032794304
189	0x3c347872	0.0110150445
190	0xbdefe60e	-0.11713801
191	0xbd9f8ddd	-0.0779073
192	0xbd8521bf	-0.06500577
193	0xbd30d009	-0.043167148
194	0x3d89770f	0.06712162
195	0xbd4ff146	-0.050767206
196	0xbd7eca90	-0.062204897
197	0xbd3c8ac5	-0.04603078
198	0xbd9c6aed	-0.07637582
199	0x3d9c569c	0.07633707
200	0xbd71885d	-0.058967937
201	0xbe7ac435	-0.2448891
202	0xbe448e57	-0.19194923
203	0xbcfa66f1	-0.030566664
204	0xbde3dda1	-0.11126257
205	0xbe0713f6	-0.13191208
206	0xbe3a4f8f	-0.18194412
207	0xbd4ad501	-0.049519543
208	0xbcf04d69	-0.029333787
209	0xbcd8dc11	-0.026472123
210	0x3d4ad5d3	0.049520325
211	0x3db382c5	0.08765177
212	0x3e176b63	0.14787059
213	0xbcaab84a	-0.020839829
214	0xbd8f4794	-0.06996074
215	0x3d911c05	0.070854224
216	0x3e4683c4	0.19386202
217	0x3e8311c4	0.25599492
218	0x3e78f4dd	0.24312158
219	0xbbed91bd	-0.0072500394
220	0x3dc7d428	0.097572625
221	0x3e59ada3	0.21257643
222	0x3e87d37a	0.2652853
223	0x3e7250b2	0.23663595
224	0x3cd4d59c	0.025980763
225	0xbe2872bf	-0.16450022
226	0xbe13a746	-0.14419279
227	0xbe4181f5	-0.18897231
228	0xbdac83ee	-0.08423601
229	0xbcdbad93	-0.026816165
230	0xbc52d6ca	-0.0128685925
231	0x3d0560b2	0.03256292
232	0x3d2bdd29	0.04195896
233	0x3ce1fee6	0.027587365
234	0x3cff8636	0.031191926
235	0xbd3f0ec0	-0.046644926
236	0x3dc153c2	0.09439804
237	0x3dc6797b	0.09691139
238	0x3dcc5bd6	0.09978454
239	0x3c9e131e	0.019296225
240	0x3d4c7ee7	0.04992571
241	0x3d2ffa9e	0.042963617
242	0x3e235bf6	0.15953049
243	0x3e2e6887	0.17032062
244	0x3e0faa41	0.1402979
245	0x3db5d14f	0.08877813
246	0x3dd75296	0.10513799
247	0x3d808f8a	0.06277378
248	0x3e159865	0.14608915
249	0x3e08f0f8	0.13373172
250	0xbdc88d92	-0.097926274
251	0xbe189d34	-0.14903718
252	0xbe67264d	-0.22573204
253	0xbe42a979	-0.19009961
254	0xbdab297a	-0.083575204
255	0xbd89cf27	-0.06728964

conv2.bias f4 [16]
0	0x3cb40e8d	0.021979595
1	0xbd8077cd	-0.0627285
2	0x3d075b3e	0.033046
3	0xbcc01a9a	-0.023450185
4	0xb8fb660d	-0.00011987621
5	0x3db1e088	0.08685404
6	0xbc65229a	-0.0139853
7	0x3d88c444	0.0667806
8	0xbd65d5b0	-0.05611199
9	0xbd39314c	-0.04521303
10	0x3cf0c3a4	0.029390164
11	0xbb94be4b	-0.0045392863
12	0xbd132aea	-0.035929598
13	0xbd4d714a	-0.05015687
14	0xbd53a70c	-0.05167298
15	0xbdcf79c4	-0.10130647

fc1.weight f4 [120, 400]
0	0xbc22d318	-0.009938024
1	0xba7da517	-0.00096757844
2	0x3d3b495e	0.045724265
3	0xbd717a1a	-0.058954336
4	0xbd7cfa7a	-0.06176231
5	0xbd474121	-0.048646096
6	0x3aa75a4d	0.0012768001
7	0x3cbba803	0.022907263
8	0xbcee16b3	-0.029063558
9	0xbcea72f4	-0.028619267
10	0xbd2fd4f0	-0.042927682
11	0xbc21efb1	-0.009883807
12	0x3d0b594e	0.034020714
13	0x3d2b62e7	0.041842368
14	0xbd2f173c	-0.042746767
15	0xbd3dfd0f	-0.046383914
16	0xbba0f7b7	-0.0049123424
17	0xbc5139ff	-0.012770175
18	0x3c2117e8	0.00983236
19	0x3cc0ae25	0.023520539
20	0xbd58d6b0	-0.052939117
21	0xbcd7b966	-0.026333522
22	0xbc102bff	-0.008799552
23	0x3c259796	0.010106942
24	0xbd7921b1	-0.060823146
25	0x3b09264e	0.0020927372
26	0x3ceb7862	0.028743926
27	0xb9eca3a0	-0.00045135338
28	0xbc8b8b07	-0.017034067
29	0xbbcd98c4	-0.0062743146
30	0x3c291520	0.010319978
31	0xbbcbfbd0	-0.0062250867
32	0x3c00a018	0.007850669
33	0x3be49c59	0.006976646
34	0x3cd466ef	0.025927989
35	0xbcea05fa	-0.028567303
36	0xbd5c941a	-0.05385218
37	0xbd198c89	-0.03748754
38	0xbca63354	-0.020288147
39	0x3cbee9f8	0.023304924
40	0x3d82bbbb	0.06383463
41	0x3d329501	0.043599132
42	0x3d22c984	0.03974296
43	0x3cd84268	0.026398852
44	0x3d364bd6	0.044505917
45	0x3d04f422	0.032459386
46	0x3db8465f	0.08997797
47	0xbc3692cb	-0.011143397
48	0x3d3e329c	0.046434984
49	0x3d1ade05	0.03780939
50	0xbd83c6d4	-0.06434408
51	0xbd3584a2	-0.04431594
52	0xbd272927	-0.04081073
53	0xbd6ec241	-0.058290724
54	0xbceccd58	-0.02890651
55	0xba300366	-0.00067143736
56	0xbdb24d12	-0.08706106
57	0xbd1eb14c	-0.038743302
58	0xbd5b56b2	-0.053549476
59	0xbd23cf0a	-0.03999237
60	0xbd7f5ed2	-0.062346287
61	0x3b77a309	0.0037786386
62	0x3c5ae390	0.013359919
63	0xbd108117	-0.03527936
64	0xbcfec024	-0.03109748
65	0x3c9fbf2b	0.019500336
66	0xbd2ac0cc	-0.04168777
67	0xbd665fea	-0.056243815
68	0xbd9c2333	-0.07623901
69	0xbcf8e314	-0.030381717
70	0xbd6df89b	-0.058098417
71	0xbd8903ee	-0.06690203
72	0x3cce8e41	0.025214316
73	0x3cf49ec5	0.029860863
74	0xbcf80660	-0.030276477
75	0xbacb2344	-0.0015498181
76	0x3cc8f0ea	0.02452894
77	0x3ca41d49	0.020033496
78	0x3b4ef1da	0.003157726
79	0x3b3277f2	0.0027232138
80	0xbc657b87	-0.014006502
81	0xbc221eec	-0.009895068
82	0x3d06a2d1	0.032870118
83	0xbd20ebc1	-0.039287332
84	0x3d1cdab4	0.03829451
85	0x3d36f46f	0.044666704
86	0x3d00a326	0.03140559
87	0xbd12d669	-0.03584901
88	0x3c18acbb	0.009318526
89	0xbc16c6d5	-0.009202679
90	0x3d1e0860	0.038582206
91	0x3d1746ee	0.03693288
92	0x3c51d1bc	0.012806352
93	0xbc91522e	-0.017739382
94	0x3d3462e2	0.044039614
95	0xbbcb9593	-0.006212899
96	0x3cfdb865	0.030971715
97	0x3cc310fb	0.023811808
98	0xbd2f3f49	-0.042784963
99	0x3d14ecc3	0.036358606
100	0x3c3abc8a	0.01139749
101	0xbd2f22ee	-0.04275792
102	0x3d0e6763	0.034766566
103	0x3d3bf990	0.0458923
104	0xbd065777	-0.032798257
105	0x3c3ff864	0.011716936
106	0x3cc9f815	0.024654428
107	0x3c8b4f45	0.017005572
108	0x3d288366	0.041140936
109	0x3c08e2ae	0.008354826
110	0x3d5d29f6	0.053995095
111	0x3d03f7c9	0.03221873
112	0xbcab8c17	-0.020940823
113	0xbd1f3c91	-0.03887612
114	0x3c354fbe	0.011066375
115	0xbd20842a	-0.03918854
116	0x3c552532	0.013009356
117	0x3c5b3192	0.013378518
118	0x3c51d66e	0.012807472
119	0x3c9926ec	0.018695317
120	0x3d2ca35d	0.042147983
121	0xbcdcf0f6	-0.026970368
122	0x3d4cf454	0.050037697
123	0xbcb38c5d	-0.021917516
124	0x3d20c6b0	0.039251983
125	0x3d95a66e	0.073071346
126	0x3cd41ae3	0.025891727
127	0x3c8a7004	0.016899116
128	0x3d1101ac	0.035401985
129	0xbc96cae2	-0.018407289
130	0x3c81ac3d	0.0158292
131	0xbcd6a21d	-0.026200349
132	0x3c2f5e63	0.010703656
133	0xba0bcd5d	-0.0005333031
134	0xbd43190f	-0.04763132
135	0x3caac40f	0.020845441
136	0x3cb63de7	0.022246314
137	0xbca5af8a	-0.020225305
138	0xbcb60634	-0.022219755
139	0x3d05afa2	0.0326382
140	0x3d7b2e74	0.061323598
141	0x3ce6bbf7	0.0281658
142	0xbcf8e99c	-0.030384831
143	0xbcf5c813	-0.03000263
144	0xbbc7d88e	-0.0060988134
145	0x3dac14b7	0.084023885
146	0xbcf9005b	-0.030395677
147	0x3c9bac51	0.019003065
148	0x3d559e8e	0.052153163
149	0x3d860c5d	0.06545327
150	0x3beb13c5	0.0071739876
151	0xbd4c8a7a	-0.04993675
152	0x3d0b50ec	0.03401272
153	0x3c6c2e22	0.014415296
154	0x3c8f841a	0.017519046
155	0x3d42b118	0.04753217
156	0x3ca122fb	0.01967
157	0x3bbdc3f7	0.005791183
158	0xbcca141c	-0.024667792
159	0x3b5d0327	0.0033723803
160	0x3ce01573	0.027353978
161	0xbc15354d	-0.009106946
162	0xbced46a4	-0.028964348
163	0x3d1e8f26	0.038710736
164	0xbd3de1af	-0.046357807
165	0x3b7c4e03	0.0038498647
166	0x3c112878	0.008859746
167	0x3d36498e	0.04450374
168	0xbce07b98	-0.027402684
169	0xbd534c7e	-0.05158662
170	0xbbd2676f	-0.0064210217
171	0x3ce53bfb	0.027982702
172	0xbcbc4074	-0.022979952
173	0x3bd25420	0.00641872
174	0xbcbd9640	-0.023142934
175	0xbcdbaf27	-0.026816918
176	0x3d1dad5a	0.0384954
177	0x3bca79b2	0.006179058
178	0x3b5beb8d	0.0033557147
179	0x3c9f0318	0.019410655
180	0x3b1e4293	0.0024148568
181	0xbd2fcd32	-0.0429203
182	0x3d74f3c0	0.05980277
183	0x3ab410ee	0.0013737956
184	0xbc5fdf5b	-0.013664092
185	0xbc87f27b	-0.016595116
186	0x3cdcff85	0.02697731
187	0xbd026296	-0.0318323
188	0x3c864b17	0.016393228
189	0x3d7617c1	0.060081247
190	0xb9afc693	-0.0003352655
191	0x3d20bf85	0.039245147
192	0x3c749d64	0.014930103
193	0xbcbad1d2	-0.022805128
194	0x3d137a84	0.036005512
195	0xbd48dc89	-0.049038444
196	0xbc1b86b2	-0.009492563
197	0x3b5936cd	0.0033144236
198	0x3ca08eb4	0.019599296
199	0x3d81707d	0.063202836
200	0xbc0a5cec	-0.008445006
201	0x3c7fa8ba	0.015604192
202	0xbbb82c65	-0.0056205266
203	0xbc698fd4	-0.014255483
204	0x3d999212	0.07498564
205	0xbd5616df	-0.052267905
206	0xbc2a9a97	-0.010412834
207	0xbd235fe4	-0.03988637
208	0x3d3dfa13	0.046381067
209	0x3d6a1d55	0.05715688
210	0xbd57ac26	-0.052654408
211	0x3cb91181	0.022591354
212	0x3bc3c0b9	0.005973902
213	0xbd02f406	-0.031971
214	0x3be84dca	0.0070893513
215	0x3bcf6055	0.0063286223
216	0xbd09dd44	-0.03365828
217	0x3c1cfcff	0.009581803
218	0x3d9a8fe0	0.07546973
219	0x3d798385	0.060916442
220	0x3caa021f	0.020752965
221	0xbd411ebc	-0.04714845
222	0xbd4d5c71	-0.050136987
223	0x3d2ecb34	0.04267426
224	0x3d70c99e	0.058786027
225	0x3d844f31	0.06460417
226	0x3d262248	0.040560037
227	0xbc4e00a0	-0.012573391
228	0x3c105bff	0.008810996
229	0x3d93ed66	0.072230145
230	0x3d698f95	0.057021696
231	0x3cbe0b24	0.023198672
232	0xbdabb1fe	-0.08383559
233	0x3be00ce9	0.0068374765
234	0x3c2efc00	0.010680199
235	0xbb2a9056	-0.0026025972
236	0xbcf465e0	-0.029833734
237	0xbd5c7fef	-0.053832944
238	0xbc368165	-0.0111392485
239	0xbbc75d6f	-0.006084136
240	0x3d3408d9	0.04395375
241	0x3da22643	0.07917454
242	0x3c7493ed	0.014927846
243	0xbb8c66ea	-0.0042847292
244	0x3c7cb902	0.015424969
245	0x3d50c436	0.05096837
246	0x3d8d60c8	0.06903225
247	0xbd589c87	-0.05288365
248	0xbd17a833	-0.03702564
249	0x3d855b33	0.065115355
250	0x3d10b093	0.035324644
251	0x3d0834b5	0.03325339
252	0x3cda6c86	0.026663076
253	0xbcf39830	-0.029735655
254	0xbd137ec6	-0.036009572
255	0xbcdb70d7	-0.026787205

fc1.bias f4 [120]
0	0x3d5d12fd	0.053973187
1	0x3cd4e3c8	0.02598752
2	0x3c9bb8be	0.01900899
3	0x3d7f5556	0.062337242
4	0x3b56c70f	0.0032772457
5	0x3d7be87e	0.06150102
6	0xbc96f672	-0.018428061
7	0x3d1a609e	0.037689798
8	0xbd38d9dd	-0.045129646
9	0xbcea6c00	-0.028615952
10	0xbcb1a320	-0.02168423
11	0xbc5e1edd	-0.013557163
12	0x3dbc82bd	0.09204624
13	0xbad38178	-0.0016136607
14	0xbd5eb47b	-0.05437134
15	0x3cf4e218	0.029892966
16	0x3cc333b5	0.023828367
17	0x3db526a6	0.08845262
18	0xbd51d5c9	-0.051229272
19	0x3cc9a435	0.024614433
20	0xbca91883	-0.02064157
21	0x3e03dca2	0.12877133
22	0xbccfacf4	-0.025351025
23	0x3d1662b6	0.03671523
24	0x3d0f70ed	0.035019804
25	0xbcc3507b	-0.023842087
26	0x3d24b492	0.040211268
27	0x3d07bfbd	0.03314184
28	0xbd22d14a	-0.039750375
29	0xbc9735a8	-0.018458202
30	0x3d10ee1d	0.035383333
31	0xbc6528e3	-0.013986799
32	0xbcb2f5fb	-0.021845808
33	0x3dcb884f	0.09938108
34	0x3d0e1cb2	0.034695335
35	0xbd8c1981	-0.06840802
36	0xbc02b6e5	-0.007978176
37	0xbd1ec8c6	-0.03876569
38	0xbc314c93	-0.010821479
39	0x3c74e73e	0.014947711
40	0xbd485f2c	-0.048918888
41	0xbb1d7ac8	-0.0024029482
42	0x3c1d2027	0.009590185
43	0x3ccf4cda	0.0253052
44	0xbc2cbb52	-0.0105427075
45	0xbd1f5e51	-0.038908307
46	0x3d95b571	0.07309998
47	0x3b907ed8	0.004409652
48	0xbc684586	-0.014176732
49	0x3c4fa6a8	0.012674011
50	0x3d39bfaf	0.04534882
51	0xbc18cec0	-0.009326637
52	0xbd0d5efd	-0.034514416
53	0x3d8681aa	0.065677
54	0x392007b6	0.00015261662
55	0xbb2e5567	-0.0026601197
56	0xbd198d51	-0.037488285
57	0xbd47ba3e	-0.0487616
58	0x3c2b8eb9	0.010471039
59	0xbd59ab78	-0.05314204
60	0xbc639336	-0.013890078
61	0x3cd5799f	0.02605897
62	0x3cd50ad4	0.02600614
63	0xbc1ad5c7	-0.009450383
64	0x3d0487d5	0.032356102
65	0x3c3ad5b9	0.0114034945
66	0x3c87b454	0.01656548
67	0x3c3b7e98	0.0114437565
68	0xbcc9d546	-0.02463783
69	0xbd257788	-0.040397197
70	0x3d2ad99f	0.041711446
71	0xbac8f509	-0.0015331815
72	0x3c3ca2d8	0.011513434
73	0xbd2d5299	-0.0423151
74	0x3d2cd2ff	0.04219341
75	0xbccbecae	-0.024893131
76	0xbd0a9094	-0.033829287
77	0xbd0fae0e	-0.0350781
78	0xbc82da90	-0.01597336
79	0x3d439ae5	0.04775514
80	0x3dd01804	0.101608306
81	0xbc1cb56d	-0.00956474
82	0x3cf6c242	0.030121926
83	0xbc7acdeb	-0.015307884
84	0xbc7904ac	-0.015198868
85	0x3d7c9426	0.061664723
86	0x3d47133a	0.04860232
87	0xbb752a2d	-0.0037409172
88	0x3c7464be	0.014916597
89	0x3be25685	0.0069072866
90	0xbd09285a	-0.033485748
91	0xbc529e17	-0.012855074
92	0x3d5b2f53	0.05351193
93	0x3b4b59a2	0.0031028767
94	0x3d90e5fd	0.07075117
95	0x3ccfffb1	0.025390478
96	0xbb928445	-0.004471334
97	0xbca4916e	-0.020088878
98	0xbd05ae69	-0.032637034
99	0x3abf699c	0.0014603618
100	0xbce85284	-0.028359659
101	0x3c8dc67b	0.017306557
102	0x3d7a0606	0.0610409
103	0xbbbc35fe	-0.005743741
104	0x3cd5dbdf	0.02610582
105	0xbc3e88e7	-0.01162932
106	0xbd3779d7	-0.04479393
107	0xbcaf0019	-0.021362351
108	0xbcafa5c2	-0.021441344
109	0xba3e174b	-0.0007251396
110	0x3c9590ea	0.018257577
111	0xbc88dd70	-0.016707152
112	0xbb4b2425	-0.0030996886
113	0x3d90184b	0.070358835
114	0x3d479eff	0.048735615
115	0x3cb562ea	0.022141892
116	0xbccf6851	-0.025318297
117	0xbccdc614	-0.025118865
118	0x3d4322c9	0.047640596
119	0xbca00ced	-0.019537413

fc2.weight f4 [84, 120]
0	0xbe00e1bc	-0.12586111
1	0x3dfb9a63	0.12285306
2	0x3cf49ca7	0.029859854
3	0x3e1ff1c0	0.15619564
4	0x3d8d9faa	0.06915219
5	0xbd8a4659	-0.06751699
6	0xbc3f1d95	-0.011664768
7	0xbe303bb3	-0.17210273
8	0x3c8bc733	0.017062759
9	0xbd66dfa0	-0.05636561
10	0xbd28eef8	-0.041243523
11	0xbd0efb50	-0.03490764
12	0x3d877b3d	0.06615303
13	0x3d86c3e8	0.06580335
14	0xbd84c847	-0.06483512
15	0x3d4da900	0.05021
16	0xbd4aa986	-0.049478076
17	0x3de74094	0.11291614
18	0x3d891e71	0.06695259
19	0xbc89644a	-0.016771454
20	0x3d52c6da	0.05145917
21	0xbcc84354	-0.024446167
22	0xbdbb57f6	-0.091476366
23	0xbd94d592	-0.07267298
24	0xbda81481	-0.08207036
25	0x3d82ef72	0.06393327
26	0x3df9afa8	0.12191707
27	0x3e045a2d	0.12925024
28	0xbbb3835a	-0.005478305
29	0xbd040d1f	-0.032239076
30	0xbda54ed2	-0.080716744
31	0x3cff8481	0.031191112
32	0x3dcdc41f	0.10047173
33	0x3d04e322	0.032443173
34	0x3d2af15e	0.041734092
35	0x3d1fe61a	0.0390378
36	0x3da42544	0.0801492
37	0x3d86ce2a	0.065822914
38	0xbd1d7173	-0.03843827
39	0x3d9ad976	0.07561009
40	0x3d2986e4	0.041388407
41	0xbc45b512	-0.012067096
42	0xbcf7678d	-0.030200744
43	0xbcd3086e	-0.025760856
44	0xbdc5430b	-0.09631928
45	0xba1bd4db	-0.00059444987
46	0xbe00a3d3	-0.12562494
47	0xbdb0e7f9	-0.08637995
48	0x3d55c782	0.05219222
49	0x3d65254b	0.05594377
50	0xbdc3d797	-0.09562605
51	0xbcf3a40f	-0.029741315
52	0x3d5ff1b8	0.05467388
53	0x3d9b6e50	0.075894
54	0x3dd73552	0.10508217
55	0x3dc14530	0.094370246
56	0x3d18fcd3	0.037350487
57	0x3cdaf445	0.026727805
58	0xbd6b26df	-0.057410117
59	0x3db29676	0.087201044
60	0x3d2dd037	0.042434897
61	0x3d37e463	0.04489554
62	0x3af24d95	0.0018486256
63	0x3d0876b6	0.033316337
64	0xbd708264	-0.0587181
65	0x3c5c7a60	0.013456911
66	0x3d808baa	0.06276639
67	0x3d47f48d	0.048817206
68	0x3cb62745	0.022235522
69	0x3da5e03e	0.080994114
70	0x3daea0bb	0.08526751
71	0xbd84ba03	-0.064807914
72	0xbd98a221	-0.07452799
73	0xbc379a3c	-0.011206206
74	0xbcd368a1	-0.025806727
75	0x3d8a9140	0.067659855
76	0xbc972119	-0.0184484
77	0xbcb411df	-0.021981178
78	0xbd9c28ca	-0.076249674
79	0xbe0c31e1	-0.13690902
80	0x3d01315f	0.031541225
81	0x3d7aa901	0.06119633
82	0xbced1d25	-0.028944561
83	0x3dae384d	0.08506832
84	0x3db93c29	0.09044678
85	0xbde1d5f4	-0.110271364
86	0x3dafe5a8	0.08588725
87	0x3dc0408f	0.093873136
88	0x3c924e88	0.017859712
89	0xbc334d92	-0.010943787
90	0x3d97133a	0.07376714
91	0xbd900925	-0.07032994
92	0xbca8c827	-0.020603253
93	0x3d69d3b0	0.057086647
94	0x3de1f782	0.110335365
95	0xbdef900a	-0.11697395
96	0xbdaef55e	-0.08542894
97	0x3e2752db	0.163402
98	0x3d441a83	0.047876846
99	0x3dba7667	0.09104615
100	0xbd87169d	-0.0659611
101	0xbde56a79	-0.11201949
102	0x3d510280	0.051027775
103	0xbcf4cee6	-0.029883813
104	0x3b605f12	0.0034236354
105	0xbd1a2daf	-0.037641224
106	0x3d7684dc	0.0601853
107	0x3cbca4b8	0.023027763
108	0xbd857726	-0.065168664
109	0x3d2fc70e	0.042914443
110	0xbc9fab64	-0.019490905
111	0xbcb42001	-0.021987917
112	0xbd5ecea1	-0.054396275
113	0x3d6ef31e	0.058337323
114	0xbdc111d8	-0.094272316
115	0x3ca501b6	0.020142417
116	0xbdaef36a	-0.08542521
117	0x3c946623	0.018115109
118	0xbd346e42	-0.044050463
119	0xbcca35a9	-0.02468379
120	0x3dc4c55f	0.09607958
121	0xbde0efe4	-0.109832555
122	0x3d7b23f9	0.061313603
123	0xbd14abb3	-0.036296558
124	0x3c083b79	0.008314961
125	0x3b9240fe	0.004463314
126	0xbd96f847	-0.07371574
127	0x3d936571	0.07197083
128	0xbd10023b	-0.035158377
129	0x3d2878a7	0.041130688
130	0xbdb5675e	-0.08857606
131	0x3d4dde7b	0.050261002
132	0xbddd05d6	-0.10792129
133	0xbdd4f2a7	-0.10397845
134	0xbd080348	-0.033206254
135	0xbcde73f4	-0.0271549
136	0xbcc3cb11	-0.02390054
137	0xbd6339be	-0.05547499
138	0xbd977636	-0.07395594
139	0xbd948a87	-0.072529845
140	0x3d96453e	0.07337426
141	0x3bb4a1c7	0.0055124494
142	0x3d06d8e2	0.03292168
143	0xbc84f792	-0.016231332
144	0x3c18d674	0.009328473
145	0x3d2c15a5	0.04201283
146	0xbc00bcf7	-0.007857553
147	0xbd8c4880	-0.06849766
148	0x3d18e3fa	0.03732679
149	0x3d835d94	0.06414333
150	0x3d81aba9	0.0633157
151	0xbc63219a	-0.013862992
152	0x3d4adb06	0.049525283
153	0x3e005007	0.12530528
154	0xbd969b29	-0.07353813
155	0x3cb2b1e1	0.021813335
156	0xbdc5facb	-0.096669756
157	0xbc7c47aa	-0.015397945
158	0xbc8f443a	-0.017488588
159	0xbbfc8c32	-0.0077071423
160	0x3cd91581	0.026499512
161	0xbe09c85e	-0.1345534
162	0xbdb721ec	-0.08942017
163	0x3dd18f3c	0.10232398
164	0x3e02dfea	0.12780729
165	0x3d09757a	0.0335593
166	0xbd27dd9c	-0.040982828
167	0xbcfb3575	-0.030665139
168	0xbc441939	-0.011968904
169	0xbd6dd286	-0.0580621
170	0x3d153b29	0.036433373
171	0xbc0104f8	-0.00787472
172	0xbcd5f626	-0.02611835
173	0x3d023ddf	0.031797286
174	0xbe276fb4	-0.16351205
175	0xbe1fded0	-0.1561234
176	0xbd4c3592	-0.049855776
177	0x3da00099	0.07812614
178	0xbdbf1374	-0.09329882
179	0xbbc0889f	-0.0058756615
180	0xbc4863f7	-0.012230865
181	0x3d54aea5	0.051924367
182	0xbd5cf7e1	-0.053947333
183	0x3d68bc06	0.056819938
184	0x3dd963aa	0.106147125
185	0x3dba54ca	0.090982035
186	0x3d6350a5	0.05549683
187	0xbd361768	-0.044455916
188	0xbe32b13d	-0.17450424
189	0x3d7dddcb	0.061979096
190	0xbda8a022	-0.08233668
191	0xbcd0cebf	-0.02548921
192	0x3d47ef3c	0.048812136
193	0x3db2adba	0.08724542
194	0x3e0b553f	0.13606738
195	0xbd3fab35	-0.046794135
196	0xbd07a4b3	-0.033116054
197	0xbdc85da8	-0.097834885
198	0x3deacc5c	0.1146476
199	0x3e17408d	0.14770718
200	0x3e08896e	0.13333675
201	0x3d41c47d	0.047306526
202	0x3dab5fb2	0.08367862
203	0x3c2efa6b	0.0106798215
204	0x3c3b1502	0.011418583
205	0xbc3eeca0	-0.0116530955
206	0xbe0a18f0	-0.13486075
207	0x3d335522	0.04378236
208	0xbc68fc43	-0.0142203
209	0xbdb4fe51	-0.088375695
210	0x3d3f862b	0.046758812
211	0x3d6724b0	0.056431472
212	0x3e136b0e	0.14396307
213	0xbdbcd1e1	-0.09219719
214	0xbd661bb0	-0.05617875
215	0x3d54aa40	0.051920176
216	0x3ce322b4	0.027726509
217	0xbd4309e9	-0.047616873
218	0xba58f3f8	-0.00082761
219	0xbdd35241	-0.10318423
220	0xbbc6dcba	-0.006068793
221	0x3d1c40e8	0.038147837
222	0x3d67f6a6	0.056631707
223	0x3d866a7d	0.0656328
224	0xbd8a2fa6	-0.067473695
225	0x3d2e34f0	0.042530954
226	0x3cf4e5a5	0.02989466
227	0x3da76209	0.081729956
228	0xbdf7492e	-0.12074505
229	0x3cc586c9	0.024112122
230	0x3d5ef387	0.054431465
231	0xba2fe2d8	-0.00067095226
232	0xbd98ca8f	-0.0746051
233	0x3daaeb56	0.08345668
234	0xbd8000ab	-0.062501274
235	0xbde24c8f	-0.11049759
236	0x3d80f55e	0.062968
237	0x3c6da550	0.014504746
238	0xb8e711fc	-0.00011018288
239	0xbdabe170	-0.08392608
240	0xbdc1319c	-0.0943329
241	0xbd95f51f	-0.07322144
242	0xbc53f7a8	-0.012937464
243	0x3d596f5c	0.053084716
244	0x3cf34ff0	0.029701203
245	0xbd1e4c7b	-0.038647156
246	0xbcbfcfd1	-0.023414524
247	0x3daab9cf	0.083362214
248	0x3d0dbfd4	0.03460677
249	0xbd82a7e2	-0.06379677
250	0xbda0480e	-0.07826243
251	0x3d660fbc	0.05616735
252	0x3c1f97ea	0.009740809
253	0x3d1d976e	0.038474493
254	0xbbb1eed5	-0.0054300823
255	0x3b99b9cb	0.0046913377

fc2.bias f4 [84]
0	0x3d344473	0.04401059
1	0x3db86d68	0.090052426
2	0xbbee2fc5	-0.007268878
3	0xbb3b99ae	-0.0028625536
4	0x3dd5f03f	0.10446214
5	0xbd94a5f8	-0.072582185
6	0xbdbf3083	-0.09335425
7	0x3d17386e	0.03691905
8	0x3c823dd4	0.015898623
9	0x3df1c9f5	0.11806098
10	0xbd3c850e	-0.04602533
11	0xbd5cf966	-0.053948782
12	0xbd2c47f6	-0.042060815
13	0x3ceeff55	0.029174486
14	0x3b87e867	0.0041475776
15	0xbd975682	-0.07389547
16	0x3d965ce0	0.07341933
17	0xbd2a3d99	-0.04156265
18	0x3ce80fb9	0.02832781
19	0x3ded17cd	0.11576805
20	0xbd86c62d	-0.06580768
21	0x3e6cdafe	0.23130414
22	0xbd455d6b	-0.048184793
23	0x3e31c10b	0.17358796
24	0x3e07a2a1	0.13245632
25	0x3e4c3d8f	0.19945358
26	0x3d94fcf5	0.0727481
27	0x3c203db9	0.009780341
28	0x3d945fe5	0.07244853
29	0xbd8457e3	-0.064620756
30	0x3d5b0a81	0.053476814
31	0xbd39c63c	-0.045355067
32	0xbd643eaa	-0.055723824
33	0x3e08846d	0.13331766
34	0x3cca6c8b	0.02470996
35	0xbd3fb315	-0.046801645
36	0x3e64eabc	0.22355169
37	0x3c1bf528	0.009518899
38	0x3c838f35	0.016059497
39	0x3d60569e	0.054770105
40	0xbd25f3cc	-0.040515706
41	0x3d4991bc	0.04921125
42	0x3d0892f8	0.033343285
43	0xbd791081	-0.060806755
44	0x3cc7e530	0.024401277
45	0xbd4ef0b8	-0.050522536
46	0x3c9d4500	0.01919794
47	0x3dcc5551	0.0997721
48	0xbd85af56	-0.06527583
49	0x3e224d69	0.15849842
50	0xbcb4c73d	-0.02206766
51	0xbc96c603	-0.018404966
52	0xbd918581	-0.07105542
53	0x3cbcd3e9	0.023050265
54	0xbda4a298	-0.08038825
55	0xbd5d15ed	-0.05397599
56	0x3c225a57	0.009909234
57	0x3e2cd81a	0.16879311
58	0x3d2a4ac6	0.041575216
59	0x3c2564b6	0.010094812
60	0xbce3ae1a	-0.027792979
61	0x3cd0b1b7	0.025475366
62	0x3db41fad	0.08795104
63	0x3d91a8d1	0.07112277
64	0x3d5746b9	0.05255768
65	0x3e3973a9	0.18110527
66	0x3d42242f	0.04739779
67	0xbc51b92f	-0.012800499
68	0xbdbeb639	-0.093121
69	0x3d45151e	0.048115842
70	0xbc639ccf	-0.013892367
71	0x3c88faed	0.016721213
72	0xbd73fe32	-0.05956859
73	0x3c7e2ef8	0.015514128
74	0xbdab3195	-0.083590664
75	0x3dbf8b27	0.09352713
76	0xbd53c394	-0.05170019
77	0x3cf02ada	0.029317308
78	0x3da251c1	0.079257496
79	0xbda1bda3	-0.078974985
80	0x3d9129eb	0.07088073
81	0xbd94c949	-0.072649546
82	0x3def9306	0.11697964
83	0x3b9d8f9b	0.004808379

fc3.weight f4 [19, 84]
0	0xbc66ee48	-0.014094897
1	0x3e2cd7a4	0.16879135
2	0xbdf4f546	-0.11960845
3	0xbbc72bcd	-0.0060782195
4	0xbdf6b19e	-0.120455965
5	0x3bdb4dd9	0.00669263
6	0xbe56ca52	-0.20975617
7	0xbd87458e	-0.066050634
8	0x3c93e612	0.018054042
9	0xbda576b0	-0.080792785
10	0xbdcc37e8	-0.09971601
11	0x3de8e22e	0.11371265
12	0x3d552ca2	0.05204452
13	0x3e59d929	0.21274246
14	0xbc93f9d0	-0.018063456
15	0x3e059b61	0.13047554
16	0xbe214081	-0.15747263
17	0x3dbd3e38	0.09240383
18	0x3d5b216d	0.053498674
19	0xbc070daf	-0.0082430085
20	0xbb8fb569	-0.0043856394
21	0xbe1924e9	-0.14955486
22	0x3db7bba8	0.089713395
23	0xbdc828af	-0.09773385
24	0xbbd3afea	-0.0064601796
25	0xbe63a8d8	-0.22232378
26	0xbcd41d9f	-0.02589303
27	0x3e1b75aa	0.15181604
28	0xbdd11ca6	-0.102105424
29	0xbd659b72	-0.056056447
30	0x3d6d37fb	0.057914715
31	0x3d25c94d	0.04047518
32	0x3cc9e941	0.024647357
33	0xbdb41c33	-0.08794441
34	0xbd7e0e8c	-0.06202559
35	0x3dc9ec3a	0.0985951
36	0xbe821f5a	-0.25414544
37	0xbcdc7587	-0.02691151
38	0xbd052918	-0.032509893
39	0x3dea6e60	0.114468336
40	0xbd876331	-0.06610716
41	0xbd95d45b	-0.07315894
42	0xbdc51448	-0.09623009
43	0xbd84a062	-0.06475903
44	0x3e15cc01	0.14628603
45	0xbddda23a	-0.10821958
46	0xbe1a310e	-0.15057775
47	0x3e15d60e	0.14632437
48	0xbd3db756	-0.04631742
49	0xbc1bf30e	-0.009518398
50	0x3dd7d88e	0.105393514
51	0x3e729b9e	0.23692176
52	0xbe00b001	-0.1256714
53	0xbd2b98db	-0.04189382
54	0xbc22ef47	-0.0099447435
55	0x3d186a22	0.03721059
56	0x3decb31c	0.115576
57	0x3e6f495f	0.23367833
58	0x3cfc7e99	0.030822085
59	0x3da1772a	0.07884057
60	0x3d5cb5d3	0.05388434
61	0xbe147a5f	-0.14499806
62	0xbd8de505	-0.06928448
63	0x3e16b2cf	0.14716648
64	0x3e5c13f8	0.21491992
65	0xbb47e6f6	-0.0030502654
66	0x3d86d71e	0.06583999
67	0x3d4489c5	0.04798295
68	0x3d4b0133	0.04956169
69	0x3cfb5ba2	0.030683342
70	0x3ccbd5b7	0.02488218
71	0xbd1ee8fc	-0.03879641
72	0x3c810815	0.015750924
73	0x3d48dea9	0.04904047
74	0x3d36d87c	0.04464005
75	0xbe3780a6	-0.17920169
76	0xbc7ab8f3	-0.015302884
77	0x3e6172e2	0.2201648
78	0xbd0c9924	-0.034325734
79	0x3d9fb7d7	0.077987365
80	0xbd85a2fa	-0.06525226
81	0x3a48f2bd	0.00076655654
82	0xbd1f2947	-0.038857725
83	0x3d759b83	0.05996276
84	0xbdf82265	-0.12115935
85	0x3d8b0003	0.067871116
86	0xbdb0ee2c	-0.08639178
87	0x3da21928	0.079149544
88	0xbdb7ca11	-0.08974088
89	0x3dad1e37	0.08453029
90	0xbd876bd2	-0.06612362
91	0xbc4dd2c0	-0.012562454
92	0xbc20b300	-0.009808302
93	0xbdf0c460	-0.117562056
94	0x3dc19b0c	0.09453401
95	0x3d56d1e1	0.05244625
96	0xbbceacdf	-0.006307229
97	0x3e788dc5	0.24272831
98	0xbd37f324	-0.04490961
99	0xbdf19027	-0.11795073
100	0xbbbc4a5c	-0.005746169
101	0xbdb7f165	-0.08981589
102	0x3cb4b629	0.022059517
103	0x3ddbcbee	0.10732256
104	0xbdf53be0	-0.11974311
105	0xbe57e9fb	-0.2108535
106	0x3e12e2da	0.1434435
107	0xbdd3bd59	-0.103388496
108	0xbc80675d	-0.015674287
109	0xbe45a358	-0.19300592
110	0x3d223e46	0.03961017
111	0x3e6e9e81	0.23302652
112	0xbe236817	-0.15957676
113	0xbc4652ce	-0.012104703
114	0xbced7ca0	-0.02899009
115	0x3db56327	0.088568024
116	0x3dfa3924	0.1221793
117	0xbd736b41	-0.059428457
118	0x3d8f3d19	0.06994075
119	0x3cf80132	0.030274007
120	0xbe922df2	-0.28550678
121	0x3d953d89	0.072871275
122	0xbd6328dc	-0.05545889
123	0xbdff280f	-0.124588124
124	0x3dc4e28c	0.09613523
125	0xbe596576	-0.2123011
126	0xbc9b1eb7	-0.018935544
127	0xbd0c9919	-0.034325693
128	0x3cb9aaca	0.022664446
129	0xbda6218d	-0.08111868
130	0x3dd89637	0.10575526
131	0xbcc564b9	-0.02409588
132	0xbd0b98d4	-0.034081295
133	0xbdfe0d11	-0.12404836
134	0x3dd3b411	0.10337079
135	0x3e2e7720	0.1703763
136	0xbc99dd67	-0.01878233
137	0xbca3a584	-0.019976385
138	0x3d385a92	0.04500825
139	0xbd10bd11	-0.035336558
140	0x3d8c5772	0.06852616
141	0x3e4e82cc	0.20167083
142	0x3e88bf86	0.2670862
143	0x3d73fe5d	0.05956875
144	0x3b3cd04e	0.0028810683
145	0x3e093f3c	0.13403028
146	0x3d41d9c7	0.04732683
147	0x3dcd9758	0.10038632
148	0x3e21f311	0.15815379
149	0xbb695cf5	-0.0035608385
150	0xbe02b6b9	-0.12765016
151	0xbdd7f39c	-0.10544512
152	0xbdcc427a	-0.09973617
153	0xbdc62958	-0.096758544
154	0x3dec2ce8	0.11532003
155	0xbc042657	-0.008065782
156	0x3cc7004d	0.024292136
157	0xbde01122	-0.10940768
158	0x3cc60d57	0.024176283
159	0xbe244761	-0.16042854
160	0xbd180649	-0.03711537
161	0x3e433968	0.19064867
162	0xbcffe656	-0.031237762
163	0x3d4d0132	0.050049968
164	0xbdb9a338	-0.09064335
165	0xbdc66041	-0.09686328
166	0xbdea197f	-0.11430644
167	0xbdc18075	-0.09448329
168	0xbdb838b6	-0.08995192
169	0x3e59bb27	0.21262799
170	0x3bed9c3e	0.0072512915
171	0xbdd8f7ff	-0.105941765
172	0xbd910aae	-0.07082115
173	0x3c493d68	0.012282707
174	0xbe2b4ff1	-0.16729714
175	0x3e78179c	0.24227756
176	0xbe336b2f	-0.17521356
177	0xbd7922b8	-0.060824126
178	0xbd62d3f1	-0.055377904
179	0x3dd95930	0.10612714
180	0xbddd5a30	-0.108082175
181	0x3d4b187f	0.04958391
182	0xbda14163	-0.078738
183	0x3c92f520	0.01793915
184	0xbd16e697	-0.036841
185	0x3ce69778	0.028148398
186	0x3daef62e	0.08543049
187	0x3d530237	0.051515784
188	0xbdf29bfd	-0.11846159
189	0xbe01d626	-0.12679347
190	0x3da6c3de	0.081428275
191	0xbcbb2975	-0.022846917
192	0xbdb116b3	-0.08646908
193	0xbd8e6045	-0.06951956
194	0xbe22d751	-0.15902449
195	0xbc3f9054	-0.011692125
196	0xbe63bcce	-0.22239992
197	0x3d8df13a	0.06930776
198	0x3e920de9	0.28526238
199	0xbd503c1b	-0.05083857
200	0xbcb35383	-0.021890407
201	0xbe1c3464	-0.1525436
202	0xbdd48a9d	-0.10378001
203	0x3e2a0209	0.16602339
204	0xbe3d8859	-0.18509044
205	0xbdbd1477	-0.09232419
206	0xbd7405fa	-0.059576012
207	0xbcaed1f7	-0.021340353
208	0x3d86be8b	0.06579312
209	0xbde88235	-0.1135296
210	0xbe35fe03	-0.17772679
211	0xbac68d5b	-0.0015148328
212	0x3db7ed33	0.08980789
213	0xbd4e53df	-0.050372954
214	0x3cd6f558	0.026240036
215	0x3e12ecea	0.14348188
216	0x3d50bb7f	0.05096006
217	0x3ce135f8	0.027491555
218	0x3d85ce13	0.06533446
219	0x3c9a6100	0.018845081
220	0xbd8aafad	-0.06771789
221	0x3dcf3765	0.101179875
222	0xbb9fccfc	-0.004876731
223	0xbcfa0582	-0.030520204
224	0x3e5fc3bc	0.2185201
225	0x3e636414	0.22206146
226	0xbe3d8cbc	-0.18510717
227	0xbdc048c9	-0.09388883
228	0xbdee820f	-0.116459005
229	0xbe3c5b21	-0.18394138
230	0x3e1f94df	0.15584134
231	0x3dc97186	0.09836106
232	0xbcbbc9d6	-0.022923391
233	0xbdda970b	-0.106733404
234	0xbdd3757c	-0.10325143
235	0x3dbaf226	0.091282174
236	0xbd60ba09	-0.054864917
237	0xbe166428	-0.14686644
238	0x3dcd583a	0.100265935
239	0xbc6cd752	-0.014455633
240	0x3d9a06ab	0.07520803
241	0x3e860343	0.26174363
242	0xbd556841	-0.052101377
243	0xbdaae14a	-0.08343752
244	0xbd7ff3ab	-0.06248824
245	0x3e2d09ce	0.16898271
246	0x3e377410	0.17915368
247	0xbdd66cc3	-0.104699634
248	0xbdc7ad4b	-0.0974985
249	0xbcb7de0b	-0.022444746
250	0x3dba64b2	0.09101237
251	0xbdfbb530	-0.12290418
252	0xbde8e0d8	-0.113710105
253	0x3e48512a	0.19562212
254	0xbd2706f0	-0.0407781
255	0xbd1fd077	-0.039017167

fc3.bias f4 [19]
0	0xbe844b5f	-0.25838754
1	0xbdc250f7	-0.09488099
2	0x3d517333	0.051135253
3	0xbc8b6269	-0.017014699
4	0xbe6e6204	-0.23279577
5	0x3e23264a	0.15932575
6	0xbe7d5aa6	-0.24741611
7	0xba9c5b01	-0.0011928977
8	0xbe65d2f8	-0.2244376
9	0xbdbc208e	-0.09185897
10	0x3e946a52	0.28987366
11	0xbd630dd0	-0.055433095
12	0x3e3aaf32	0.18230894
13	0x3d0a5381	0.03377104
14	0x3da8bc3e	0.08239029
15	0x3d9b4c62	0.07582928
16	0xbc889d12	-0.01667646
17	0x3e831a1f	0.25605866
18	0xbdafaa8f	-0.08577453
