python/CNN20.pth (torch_old, 252622 bytes, 10 tensors)

conv1.weight f4 [6, 3, 5, 5]
00000000: af5b eb3e 087d 173f a577 223f ff47 fc3e
00000010: 2f5a 1e3f 2a30 cd3b d1c3 6d3d 9171 843d
00000020: a126 983e 6e61 863e 5c91 163b a44d 6cbe
00000030: 0003 5dbe f81b 57be a03d 15be 27a6 213e
00000040: fb73 183e 99a3 0e3c 188c a03c 5d91 38bd
00000050: d59a bf3e eef2 193f 9309 b63e ff1f 513e
00000060: 627f e8bd 4d5d 45bd 8412 f43d 9c37 8a3e
00000070: 7f9f b33e f3d6 c13e 263b 7abe 3767 95be
00000080: d23e 3abe 0a4c 0e3d bde2 11bc e055 a7be
00000090: 4f23 1dbf 3a76 01bf a903 17bf 32a4 99be
000000a0: 6795 12be 2804 79bd 82e8 79be d836 cbbe
000000b0: f3c8 98be 7f59 493e 5777 a03e fd59 6f3e
000000c0: 9a75 52be 4951 a6be abeb b53c 992f 7f3d
000000d0: 10b6 b73e 8ef5 aa3e 7cf5 8e3e d21b 34be
000000e0: 3986 6ebe 3a82 30be e9f2 9e3d 9eed 0f3e
000000f0: befc 90be 8207 12bf d118 25bf 4c78 f6be
00000100: 75f8 bdbe e317 edbb 287a 09be f756 80be
00000110: b1d4 abbe b5de 8cbe 2f57 e83e b2b5 a43e
00000120: 59a5 da3d c255 96bd 4b41 8abe 7f6d 58bd
00000130: 2a4d 933c bacf f5bc ec50 e53b 9f04 bd3b
00000140: c5b8 103e b8b2 443e 4db0 423e 88cd 743e
00000150: d579 483e a210 f6bd 084a 383e db4c 373e
00000160: 098f 833e 5885 a53e 2953 6bbe 10c5 31be
00000170: c5dd b9bd 655c 05bb a7e0 023e 00c4 b0bd
00000180: 4c15 d7bd 3da0 b2be 351f 39be de4f 3cbe
00000190: b4d0 9bbb 8eac 1bbd 5983 0e3c 4bcd c9bc
000001a0: f581 00bd 34ec 9c3d 1f5d 9b3e 9c0c 953e
000001b0: 1d43 a23e 6b89 333e e96a d43d f8cc 213e
000001c0: c24b 8b3e 09f3 c63e a468 c63e 8955 34be
000001d0: d4d5 38be 6bb9 65be 204a 22bd 1d74 1b3d
000001e0: 1feb ac3b 2781 a7bd 291c 1fbe c4c0 debd
000001f0: 0fda e3bd a23e 17be 14e5 ffbc 90c0 16be
00000200: 9034 9a39 1d6d bdbd 2220 22be 9c1f 323c
00000210: 1ea4 353e c79f 20bc 6e56 c73c bafc 46be
00000220: b713 7fbc e680 f2bb da1a 553e b761 573e
00000230: 6316 85be ed52 a6be 2017 bfbe 4262 73be
00000240: 78e6 bcbc aca2 0ebe 917a babe ee21 b5be
00000250: 79ef dbbe d1ec 80be 4788 623e c66f 8c3e
00000260: 6431 be3d 363f d3bd dd66 39bd 4470 653e
00000270: f87d 953d a2f3 78be 8d87 acbe 4ee2 98be
00000280: 84bc b53e 9da4 0bbd 675e b6be 19a5 01bf
00000290: 6473 9cbe 29a8 d53e 8f5f 533e d14d d8be
000002a0: 760c f2be ad71 1abe 7c78 3f3f a47a b73e
000002b0: a90c 1ebd 26a3 8fbe e825 82bd 73e1 003b
000002c0: 9d92 533e 930a 12be dc51 b1be b0b0 0dbe
000002d0: 08b6 44bd 9837 933c b92e bdbe a509 cfbe
000002e0: d289 d0be 551c e2bd dee7 0a3c ea7c c3be
000002f0: 123c babe 58db c7be b27e 6e3e f516 db3c
00000300: 88da 9bbe 92e0 0bbf d136 48be 3062 7d3e
00000310: 7eea cf3d 5065 7cbe 5eb7 e7be 3e6e f1bd
00000320: cabf 803e cf38 e23e 2c84 b73e 6a68 283d
00000330: 2a45 3c3e 2b21 953d a54a 4b3e b0ab 0d3e
00000340: 9dfc 42ba b3d4 fb3d 62e0 fe3d e92c 8e3e
00000350: e1a7 05bb 6824 c4bd 2051 543e 5007 ac3e
00000360: aaa8 843e c28e a5bd 1d88 493d caab b43e
00000370: c925 0f3f 194c b73e ad45 863d cf05 ea3c
00000380: 9bc7 833e 7982 983d fd1d 073e e96a 0dbd
00000390: 7312 3c3e 68b8 773e cade f63c b996 9c3d
000003a0: d82c 173e f9b2 2d3c 8be4 823e 6e4f debd
000003b0: 3556 efbc c293 f9bd 7176 aabd b24e f13a
000003c0: b812 2ebe 6566 aebd 3476 0bbc 7e2b e13d
000003d0: d9a8 083e 7605 53be 3842 6dbd 087d a4bd
000003e0: 9918 73bb 5fbd 323e f2df 88be 536c 91be
000003f0: d3a9 75be 615b 56be a6d8 a63c 4906 c5bd
0.45968387 0.5917516 0.63463813 0.4927368 0.6185636 0.006261845 0.058048073 0.064669736
0.29716972 0.26246208 0.0022974825 -0.23076493 -0.21583176 -0.21006763 -0.1457429 0.15786038
0.14887993 0.008705997 0.019598052 -0.045060504 0.37422815 0.60136306 0.3555418 0.20422362
-0.11352421 -0.04818468 0.11917594 0.26995552 0.35082623 0.37859306 -0.24436626 -0.2918031
-0.18188027 0.034740485 -0.008904156 -0.32682705 -0.61382 -0.50571024 -0.5898996 -0.30008084
-0.14314805 -0.06079498 -0.24405101 -0.3969028 -0.29840812 0.19663046 0.3134105 0.23374172
-0.20552674 -0.3248389 0.022207102 0.062301252 0.3588109 0.33390468 0.27921665 -0.17588738
-0.2329339 -0.17237177 0.07761175 0.14055488 -0.28317827 -0.57042706 -0.6449099 -0.48138654
-0.3710362 -0.0072355135 -0.13425505 -0.2506635 -0.33560708 -0.27513662 0.45379016 0.32169873
0.10676069 -0.07340576 -0.2700294 -0.0528388 0.01798113 -0.030006278 0.006998172 0.005768373
0.14132984 0.19208801 0.19012566 0.23906529 0.19577725 -0.12014891 0.1799699 0.17900412
0.25695065 0.32328296 -0.22980942 -0.1736033 -0.09075502 -0.002034926 0.1278101 -0.08631134
-0.10502109 -0.34887877 -0.18078311 -0.18389842 -0.004755104 -0.038006358 0.008698308 -0.024634024
-0.031373937 0.0766224 0.30344483 0.29111183 0.31691828 0.1753289 0.10371954 0.15800846
0.27206236 0.38857296 0.3875171 -0.17610754 -0.18050319 -0.22434013 -0.039621472 0.03795253
0.005277052 -0.08178931 -0.15538086 -0.10876611 -0.11125576 -0.14769986 -0.031237163 -0.14721894
0.0002941233 -0.09249327 -0.1583257 0.010871794 0.17738387 -0.009803719 0.024333205 -0.19432345
-0.015568665 -0.00740062 0.20811024 0.21033369 -0.25993642 -0.32485142 -0.3732233 -0.23767951
-0.023059115 -0.13929242 -0.36421636 -0.3537745 -0.4295614 -0.25180677 0.22122298 0.27429026
0.09286764 -0.10314791 -0.045264114 0.22406107 0.07299417 -0.24311689 -0.33697167 -0.29860157
0.35495389 -0.034092534 -0.35618898 -0.50642544 -0.30556786 0.4172986 0.20641921 -0.4224687
-0.47275132 -0.15082426 0.7479322 0.35835755 -0.038586292 -0.2805416 -0.06354886 0.0019665628
0.20661397 -0.14261846 -0.34632766 -0.13836932 -0.04802516 0.017970845 -0.3694971 -0.40437046
-0.4073015 -0.1104056 0.008478133 -0.3818124 -0.36373955 -0.39034534 0.23290518 0.026744345
-0.30440164 -0.5463954 -0.19552161 0.24744487 0.10152148 -0.24648023 -0.45257086 -0.11788605
0.25146323 0.44183967 0.35843027 0.041115202 0.18385759 0.07281717 0.19852693 0.13835025
-0.0007438155 0.122964285 0.124451414 0.2776864 -0.0020394253 -0.095772564 0.20734072 0.3359933
0.2590993 -0.080838695 0.049202073 0.35287315 0.5591703 0.35800245 0.06556258 0.028567223
0.25738224 0.07446761 0.13195033 -0.034525786 0.18366413 0.24191439 0.030135531 0.076459356
0.147632 0.010601752 0.2556499 -0.10854994 -0.029215911 -0.12186386 -0.08323372 0.0018410294
-0.16999328 -0.08515624 -0.008512069 0.109946236 0.1334566 -0.20607552 -0.05792448 -0.0803166
-0.0037093519 0.17455052 -0.26733357 -0.28402957 -0.23990564 -0.20933296 0.020366978 -0.096203394

conv1.bias f4 [6]
00000000: 5914 903e 5d95 fa3b 3a97 b13e 0a16 febe
00000010: 6ab8 82be cea5 e23d
0.28140524 0.0076472 0.3468569 -0.4962619 -0.25531322 0.11066781

conv2.weight f4 [16, 6, 5, 5]
00000000: e3dc eabd 1bab 92bd 4b04 7e3d 811e 3d3e
00000010: 26e5 433e c661 36be a1c7 74bd 9b04 443e
00000020: 7978 9b3d 288e 3fbd e06c 86bd 3b25 79bd
00000030: 1228 533e f566 a33e 0cf4 b63c e781 e5bd
00000040: 528c bbbd d919 17be 8486 cfbd 959e ccbd
00000050: 9138 25be f3fa ac3d 73db f53d 8bf2 ecbd
00000060: 0cc8 58be 3c5b 1ebe 5167 01bb 72f1 d93d
00000070: f71f ecbc 17be 3b3d 7ed4 47bd 0337 1cbd
00000080: 239a 4c3e cd6d 123e 7c9c 273e 1745 073e
00000090: e642 283d 54cb cd3d 1390 403c 8ae0 01bd
000000a0: 03b2 f93d 7be1 403e f9c0 213e a431 dd3c
000000b0: 1d9f ebbd b316 9f3d a91f aabd 19d5 f5bc
000000c0: d331 e0bc d11a 08be 5cdf c43e fd8f 643e
000000d0: 189f 193e 6982 dfbc c263 23bd cdc7 503e
000000e0: e41c 263e 329f 4d3d 210e 3ebe def4 37be
000000f0: 8e16 833d 9a30 2c3d 2b94 08be 86c6 1abe
00000100: ae5b 6bbe d94a 953b 0f53 91be 09fd 9ebe
00000110: fd8f 8fbe 0145 8abe a73b 38be 148d 89be
00000120: 834c 51be 369e 49be f595 adbd 0e3f a73e
00000130: 9d30 af3e dcfb 593e 3f53 033e 68db 263e
00000140: a179 843e d3bb b13e 6446 833e 695e 093e
00000150: 482e ee3c c8b5 573d ee3d 6bbd ed3b bb3d
00000160: 9a27 e1bd a073 d93a 9c21 35bd a6eb f6bd
00000170: df28 94bc 1181 98bd 2af0 96bd 87fa 843d
00000180: 65b8 56be c49e 24be f83e 17be 9a61 2ebe
00000190: 384d 3a3e 8790 5d3e 940d d23d c0d2 c33d
000001a0: fa8e 333e 8418 9d3e e33f 5a3e 96f1 0b3d
000001b0: 20bf c1bd c268 e0bd f8b9 9b3d 1917 ebbd
000001c0: 9b23 aabd cabc 1dbe bca0 4fbe 36b6 9bbd
000001d0: 073a 2dbe 63b1 5abe f667 1fbe 8300 2cbe
000001e0: 5d3e 90bd 1e15 aabd a655 99bd 400a d1bd
000001f0: 43d5 f4bd 18cf 93bd 6e90 fd3d 696e 573d
00000200: 1d7c ac3b e101 333e 5640 343e c3b6 403e
00000210: 9a63 c63d 977c 253d 20ce d9bc 4d6a 6d3d
00000220: 7b89 f63d 1725 763e 04d5 cabc 4a7e c0bd
00000230: af00 b73d ea40 07bd a93c 983c 1e4f 83bd
00000240: df20 58be 3a10 da3d 5c51 3d3d cd38 e6bd
00000250: e704 0fbe f100 22bd 14c7 45be f414 09be
00000260: dea1 303d 6021 133e 06dc c13e 08cd 3abd
00000270: 52d8 6dbd 200c 59be 9155 38bd d2dd 6ebd
00000280: 273b 7e3e 443d 303e 1c57 acbd 4bbe c03c
00000290: b604 57bd cd29 a1bc 4a80 0a3e 8024 9fbc
000002a0: 55b2 d1bc 5fa8 94bd 98da 28bb 6c45 52be
000002b0: 1adb 3bbe 353e 1bbe 19d7 45be 0cc6 aabd
000002c0: 0228 05be 226e 21be 0266 febd b8c4 9d3d
000002d0: f951 083e fbdc 203e e11d 8fbd eab0 22bd
000002e0: ea28 013e 4608 933d 88ca 4cbc 0db1 b63d
000002f0: c973 9bbc ea97 9f3d c1f2 17be 7a59 d9bd
00000300: 3a9d 13bd 9571 e4bd 883c 763c 8fef a239
00000310: 0c7c 4bbe 9c73 30be 9aeb 46be cfc6 963d
00000320: f216 94bd 5bb1 acbe afe4 063a 35c3 363e
00000330: 7a18 4bbe fd4d 5fbe 527d 45be 922c ca3b
00000340: c967 44bd 1298 3dbe 89af 04bd a93b 4d3e
00000350: 08a5 023d 78fd 75bd d09d 3abe 0a56 e3bc
00000360: ec74 a93e 9581 033e 9d88 c03e 970a 99bd
00000370: e7aa c23c 9dc8 753e 004e 263e 2c1c d43e
00000380: f648 00be 1a08 61be 5a0d 88be fb0d aebe
00000390: 4824 f8bd 78a4 92bd 50af 72bc a236 53bd
000003a0: b69d 90bc b7b7 b43c d3d2 9b3c 004e 0bbe
000003b0: 882c dabb eccb f73d 84e1 133e 8512 d23d
000003c0: 9d67 69bc 07ff 2c3d c2e5 733e 4ed8 6e3e
000003d0: 32f3 723e 1428 1b3e 8eb4 383e 1110 953d
000003e0: bbbb 0e3e 2d45 4d3e a04e 3fbe 99c2 adbe
000003f0: 36cf a4be 9e2b 03be 4994 c7bd f98e eabd
-0.11467912 -0.07161542 0.062015813 0.18468668 0.19130382 -0.17810735 -0.059760693 0.19142382
0.07591338 -0.04676643 -0.06563735 -0.06082652 0.20620754 0.31914487 0.022333167 -0.112064175
-0.09157623 -0.14755954 -0.10133079 -0.099911846 -0.1613486 0.08446302 0.12004747 -0.11569699
-0.21170062 -0.1546449 -0.001974542 0.10641755 -0.028823836 0.04583558 -0.048786633 -0.0381384
0.19980673 0.14299698 0.16368288 0.1320995 0.041079424 0.100485474 0.0117531 -0.031708278
0.12192156 0.18836014 0.1579627 0.02700121 -0.11504958 0.077680014 -0.0830682 -0.03000884
-0.027367508 -0.1329148 0.3845166 0.22320552 0.15002096 -0.027283864 -0.03989006 0.20388718
0.16221958 0.05020065 -0.18560077 -0.17964503 0.06400786 0.042038538 -0.13337772 -0.15114793
-0.22984192 0.0045560417 -0.2838368 -0.31052426 -0.28039542 -0.2700577 -0.17991506 -0.26865447
-0.20439343 -0.19689259 -0.08475868 0.32665294 0.34216776 0.21287483 0.12824725 0.16294634
0.25874045 0.3471361 0.2563964 0.13414921 0.029074803 0.052663594 -0.057432108 0.09142289
-0.109938815 0.0016590245 -0.044221506 -0.12056665 -0.018085895 -0.074464925 -0.073700264 0.06493097
-0.20968778 -0.1607619 -0.14770114 -0.1702942 0.18193519 0.21637164 0.10256496 0.09561682
0.1753501 0.30682766 0.21313433 0.03416594 -0.09460282 -0.10957481 0.0760383 -0.11479015
-0.083075725 -0.15404049 -0.20276159 -0.07603113 -0.16916667 -0.2135673 -0.15567002 -0.1679707
-0.07043145 -0.08304809 -0.07487039 -0.10207033 -0.11954739 -0.072172344 0.123810634 0.05259553
0.005263819 0.17481185 0.17602667 0.18819718 0.09686966 0.04040202 -0.026587546 0.057962704
0.12037941 0.24037586 -0.024759777 -0.09399088 0.08935677 -0.03302089 0.018583613 -0.06411575
-0.2110629 0.10647626 0.04622017 -0.11241303 -0.13966714 -0.03955168 -0.19314224 -0.13386899
0.04312312 0.143682 0.37863177 -0.04560569 -0.058067627 -0.21196032 -0.045003477 -0.058317013
0.24827252 0.17210871 -0.08415052 0.023528239 -0.052494727 -0.019673252 0.13525501 -0.019426584
-0.02559773 -0.07258677 -0.0025765058 -0.20534295 -0.183453 -0.15160449 -0.19320334 -0.08338556
-0.13003543 -0.15764669 -0.124218 0.07703537 0.1331252 0.15709297 -0.06988121 -0.0397195
0.12613264 0.071793124 -0.012499459 0.089204885 -0.01897611 0.07792647 -0.14838697 -0.106127694
-0.036038615 -0.111544766 0.01502908 0.00031077533 -0.19871539 -0.17231601 -0.19425812 0.073621385
-0.07230939 -0.3372906 0.0005145771 0.17847903 -0.19833556 -0.21807094 -0.19286087 0.006169864
-0.04795054 -0.18515041 -0.032393966 0.2004229 0.031895667 -0.06005618 -0.18224263 -0.027750988
0.33097017 0.128424 0.37604228 -0.07472723 0.023763133 0.24002309 0.16240692 0.41427743
-0.12527832 -0.21975747 -0.26572686 -0.3399504 -0.12116295 -0.07160276 -0.014812306 -0.051565774
-0.017653327 0.022060258 0.019021427 -0.13603973 -0.0066581406 0.12099442 0.14441496 0.102574386
-0.014245895 0.0422354 0.23818114 0.23324701 0.23725584 0.15152007 0.18037626 0.07278455
0.13938801 0.2004592 -0.18682337 -0.3393753 -0.3218934 -0.12809607 -0.0974508 -0.11453051

conv2.bias f4 [16]
00000000: 9b52 d73c 6e6c 1abd ce96 e03d 8697 73bc
00000010: ff28 a5bc cbe2 163e 01eb 26bd e97f db3d
00000020: 4490 8fbd 465d de3c 3e40 833d d24f 2dbd
00000030: 8d28 03bd ccb4 c2bc d2e5 3e3d 9a84 d9bd
0.026284507 -0.037701063 0.10966264 -0.014867669 -0.02016115 0.14734952 -0.04075146 0.10717756
-0.07009938 0.027144086 0.064087376 -0.04231245 -0.032021094 -0.023767851 0.046605892 -0.10620995

fc1.weight f4 [120, 400]
00000000: 7527 debd c0b8 dbbc cf77 d9bb a726 f8bd
00000010: 4450 a3bd 9e3f 99bd f811 173c e567 d4bb
00000020: 11c5 72bd 98fe 5bbd caab 17bd be8b 043d
00000030: 533f 5c3d a861 913c 5e65 aebd 8747 8dbd
00000040: 4131 833b 8565 fcbc a461 adbc 5874 3a3b
00000050: 3be9 6cbd 3797 49ba 7b4d e4bc 4a4e 27bc
00000060: a6ca 99bd 432b b23c dbe0 b1bc 8d1d 16bd
00000070: ed2a 2dbc c024 f0bc 7a30 ec3b 68f3 953c
00000080: 16b1 36ba 43fb e1bb 686b 9ebc 1b48 2bbd
00000090: 9c90 79bd f6d5 5ebd 3e93 4fbb 888f 01bd
000000a0: c368 9e3d 31ba b73d 517c 3d3d 19d5 373d
000000b0: 3b38 7a3c 8745 eebc d4ba 933d e08e 8b3b
000000c0: 7cfe 1f3e aa18 0c3d 798c a2bd eed3 04bd
000000d0: c665 84bd 491f 90bd 6a01 5fbb 4311 c6bc
000000e0: ce46 0ebe 054a 87bd 950d b7bd f6dc dabd
000000f0: 6c57 75bd b779 dfbc a3a7 1cbd 5065 95bd
00000100: 22b1 83bd f509 ee3c 010f 9abd 3d48 a3bd
00000110: d446 debd 33cf 86bd 4e82 cbbd adab e1bd
00000120: dac4 91bb 4d18 753b 759a a9bd 97e3 43bb
00000130: 8376 813c 9a33 96bb a10e 68bc 195f 86bc
00000140: a6f5 27bc f32f f5ba a9c8 c63c d986 34bd
00000150: b3bd e03c 7c54 263d 3767 ee3c f144 2dbd
00000160: fb21 743c 42a1 94bc c79d 403d a1a5 2a3d
00000170: 202c 223b 1d84 97bc 59de 023d aa0b c63b
00000180: a725 0e3d 09e6 263c a210 4dbd cb65 1d3d
00000190: 4bea 32bd b8a6 23bd 2480 083d 504e dd3c
000001a0: 9b5f 0dbd 3224 0bbc a0f4 593c eb2d 59bb
000001b0: d092 333c 523e 263c e78d 353d 01b3 4b3d
000001c0: be2b 74bc a32a cdbc 2f54 963c 8820 2cbd
000001d0: e58b 803c 90b0 ba3c 7aa2 cf3c d269 0e3c
000001e0: 9a93 253d 642e 5d3c 6592 3c3d a1b5 9ebd
000001f0: 4618 683d 1c12 9a3d 9090 0ebb 402b deba
00000200: 2225 433d da4e 8d3b 6ee5 9d3a bce9 d0bc
00000210: f832 8ebb 26ea 99bc 0e74 a13c fa07 953c
00000220: 5ebd 013d 4e41 53bd cdb6 1bbd ff21 383d
00000230: c30c 983d c078 dc3c c5d8 36bd b428 20bd
00000240: 53ae 133c b28a ec3d 0054 1ebd 04b6 693c
00000250: f595 dd3d f5af 153e 586c 053d 5fa8 1cbd
00000260: 95f1 373d fd14 0b3d ec69 293c 36b4 2b3d
00000270: 9ad0 013d e3f5 c63b d90e 0bbb 2328 56bc
00000280: fc7d 263d b55f 9abb 781e fcbc af64 713d
00000290: cc4e f8bc 8d62 0fbc dd4b 0c3c f7b4 833d
000002a0: ed27 d7bb e26f 8fbd d11b 683c c855 db3c
000002b0: 5619 03bb cff0 213c 180c 46bd 4c7a b6bc
000002c0: a086 0e3d fffc c43c e5c0 33bd e3c1 58bd
000002d0: 0538 8b3b 7e49 3cbd 11d6 ea3d 1911 1c3d
000002e0: 60e3 81bd a60c 99bb 99ff 02bb dafc fbbc
000002f0: bfbd 383c 2e4e 063d b1d5 c13b bd8b da3c
00000300: 8d45 8a3c 22e7 c3bc ba3d 063d 8d84 bdbc
00000310: 4d30 01bd c82c 903d 4efc 2c3d d17e 473d
00000320: 021d 01bd 29b5 ffbc 0c98 863a 49ee 873c
00000330: 68e9 da3c 26e9 84bd 0156 69bd 08c3 aebd
00000340: 304d 1d3d a12b 893d 9d81 49bd d8b7 10bc
00000350: ace3 b33c dfef dfbc 84b3 19ba bace 4b3d
00000360: 8ba5 82bd 2803 e23b 13ab 853d b3c6 8f3d
00000370: fe50 b13c 6cf4 89bd 2df1 99bc e3ce 1a3d
00000380: e392 42bc 8eb4 a03d 8d02 323d b6eb 83bd
00000390: b1bb 12bd 87cb 8d3c c0f9 c93d 84a8 41bc
000003a0: bce7 b0bd a001 603d 5619 263c f60f 3fb8
000003b0: 6173 53bd c470 99bd eed7 0fbc b5e8 983c
000003c0: 4f1e 9a3d 3c12 d83d 765d 16bd 705d b4bc
000003d0: 00b3 16b4 859d 413d 200e a73d f6b9 c1bd
000003e0: dea7 3dbd 6116 e13d 8370 7a3d b147 b5bc
000003f0: 5dbf 033d 38cb 53bd 79ed 3dbd 195a d6bc
-0.108473696 -0.026821494 -0.0066365968 -0.12116747 -0.07974294 -0.07482837 0.009220593 -0.0064821118
-0.05926997 -0.053709596 -0.037029065 0.03235983 0.05377133 0.017746761 -0.08515428 -0.068984084
0.0040036743 -0.030810127 -0.021164723 0.0028450694 -0.057839613 -0.0007690074 -0.027868977 -0.010211537
-0.07509355 0.021749144 -0.021713665 -0.036649276 -0.010569316 -0.029314399 0.0072079273 0.018304542
-0.0006969137 -0.006896408 -0.019338325 -0.041816812 -0.060928926 -0.054403268 -0.0031673457 -0.031631023
0.077348255 0.0897106 0.046261135 0.04488096 0.015272195 -0.029085888 0.07213369 0.0042589754
0.15624422 0.03420321 -0.07936949 -0.032428674 -0.06464724 -0.07037217 -0.0034027942 -0.024178153
-0.13894197 -0.06605915 -0.089381374 -0.10686676 -0.059897825 -0.027279718 -0.03824581 -0.072947145
-0.0643027 0.029057482 -0.07522393 -0.07972763 -0.10853353 -0.06582489 -0.09936963 -0.11019073
-0.0044485154 0.0037398518 -0.082814135 -0.0029890293 0.015803581 -0.004583788 -0.014163644 -0.016402768
-0.010251438 -0.0018706307 0.024265604 -0.044073913 0.027434206 0.040607914 0.029101951 -0.042302076
0.01490068 -0.0181433 0.04702547 0.041661862 0.0024745539 -0.018495614 0.03195033 0.006043871
0.034703877 0.010186681 -0.05006469 0.038427155 -0.04368047 -0.039953917 0.03332533 0.027014881
-0.034515005 -0.008492516 0.013302952 -0.0033138942 0.010960296 0.010146694 0.04432478 0.04973126
-0.014903007 -0.025044745 0.018350689 -0.04202321 0.015691707 0.02278927 0.02534603 0.008692222
0.040423967 0.01349983 0.04603805 -0.07749487 0.056663774 0.07522985 -0.0021753646 -0.0016950145
0.047642834 0.0043123784 0.0012046525 -0.025502078 -0.004339572 -0.018788408 0.01970866 0.01819228
0.031674735 -0.05157595 -0.03801613 0.044954296 0.07424309 0.026913047 -0.04464032 -0.039101318
0.00901373 0.115498915 -0.038654327 0.014264587 0.10819618 0.14617904 0.032574028 -0.03824651
0.044908125 0.033955563 0.010340195 0.04191991 0.03169308 0.0060717924 -0.0021218567 -0.013071093
0.04064749 -0.004711116 -0.030776247 0.05893391 -0.03031101 -0.008751524 0.008563009 0.06431001
-0.006566039 -0.07003762 0.014166788 0.026774302 -0.0020004115 0.009884073 -0.048351377 -0.022275113
0.034796357 0.02404642 -0.04388513 -0.05291928 0.0042486214 -0.045968525 0.11466611 0.038102243
-0.063421965 -0.0046706973 -0.0019988774 -0.030760217 0.011275708 0.0327894 0.0059153666 0.02667796
0.016878868 -0.023913924 0.03277371 -0.023134494 -0.031540204 0.07039791 0.042232804 0.048704926
-0.031521805 -0.031214314 0.0010268702 0.016593115 0.026722625 -0.06489782 -0.056966785 -0.08533293
0.03840369 0.06697775 -0.049195874 -0.008832894 0.021959148 -0.02733606 -0.0005863237 0.049757697
-0.06379231 0.006897349 0.065267704 0.07020321 0.021645065 -0.06736073 -0.01879176 0.03779496
-0.011875841 0.07846938 0.043459464 -0.06441443 -0.035823528 0.017308963 0.09862089 -0.011819962
-0.0863795 0.05468905 0.0101378765 -4.5552813e-05 -0.051623706 -0.074922115 -0.008779509 0.01866565
0.07525312 0.10550353 -0.036710225 -0.02201721 -1.4034958e-07 0.047269363 0.08156991 -0.09459297
-0.04630267 0.109905966 0.061142456 -0.022128912 0.03216492 -0.051707476 -0.04636905 -0.026166009

fc1.bias f4 [120]
00000000: 866a 7a3d 70ac 31bb 88b0 f43c 0f1a 8b3d
00000010: 646e 973c 6872 ae3d afff 7cbc 06c8 a43d
00000020: 3111 27bd ac41 e8bc 9fda 8bbc 9d22 6abc
00000030: 0f65 b63d c678 58bb 4397 79bd 369d da3b
00000040: 1999 4e3d 209e cc3d 2f9c 89bd 619b 4f3d
00000050: 5066 5bbc 4b35 473e b1bd c0bc 1aad 243d
00000060: 1c1f 853d 9494 8bbc 449a 7e3d 5d90 4d3d
00000070: f1f3 a3bc d0dd f73b 47ce a03d 5673 38bc
00000080: 8462 dabc 5a96 193e 73b0 733d eb7c 4bbd
00000090: 4a17 babc f5d2 9dbd 6111 b1bc 93ce e63b
000000a0: 33f5 27bd b739 1d3d 829f 253a 2080 9a3c
000000b0: 76b2 adbc 666d 20bd b065 e53d 4281 f33b
000000c0: 3d76 bbbc 4977 3b3c 15dc 7e3d 3ae7 66bc
000000d0: aa7e 3cbd 2500 a03d c0c9 7fbc 4103 d1ba
000000e0: 6445 e7bc b07f 6dbd 5ebe ab3c dddb 5dbd
000000f0: 51f7 d9bb b77a 813d 2826 943d 36af 3f3d
00000100: 976b 7b3d 177e 633c a63d 273c b0c0 1e3c
00000110: bc0d 00bd bcbb 26bd 3b42 1a3d a59e 15bb
00000120: 9713 4fbb eaaa f5bc 1206 7d3d 1732 acbc
00000130: d779 2fbd 7756 17bc 4b48 6cbb f9b9 0e3c
00000140: 874d f73d 3eac 32bc f928 c33c 6499 6a3c
00000150: f6e2 32bd 42c5 0d3e 84e6 8a3d ce7a a8bc
00000160: b09b 223c 541d 8c3c 4310 5e3c 8c9b 38bc
00000170: f88f 8c3d 9ee5 9d3c cabc 813d 56d4 2b3d
00000180: 86f6 adbb b1c1 13bd 6b9b 0dbd baa4 093b
00000190: 7571 e6bc 2865 b83c 0f21 2a3d dd0c cfbb
000001a0: 55f9 293d 751f 52bc e632 23bd d919 a8bc
000001b0: c7c1 8ebb a582 b0bb ef2b 7e3c f1cc a83c
000001c0: 7004 163c 14bd aa3d da14 6c3d 7b9b b93c
000001d0: 2ef2 1839 e6d2 afbc fd98 6d3d 7344 f2bc
0.061136745 -0.0027110837 0.029869333 0.0679208 0.018485256 0.08517915 -0.015441819 0.08045964
-0.04078788 -0.028351627 -0.01707202 -0.014290479 0.08905994 -0.003303097 -0.06093527 0.006671573
0.050438974 0.099910975 -0.06719243 0.05068529 -0.013391092 0.19453923 -0.023527952 0.040204145
0.06500074 -0.017038621 0.062158838 0.050186504 -0.020013781 0.007564284 0.07851844 -0.011257967
-0.026658304 0.14998761 0.059494447 -0.049679678 -0.022716183 -0.077062525 -0.021614732 0.0070436685
-0.041005325 0.03838512 0.0006318019 0.018859923 -0.02120326 -0.03916683 0.11201036 0.00743118
-0.022883529 0.011442014 0.062221605 -0.014093215 -0.046019234 0.078125276 -0.015612066 -0.0015946404
-0.02823133 -0.0579831 0.020964798 -0.054164756 -0.006651797 0.06322234 0.0723384 0.046797954
0.061381903 0.013885043 0.010207569 0.009689495 -0.031263098 -0.04070638 0.03766082 -0.0022830155
-0.003159737 -0.029988725 0.061773367 -0.021019978 -0.042840805 -0.009236923 -0.0036053832 0.0087113315
0.12075334 -0.010905324 0.023823248 0.014318798 -0.043673478 0.13844779 0.067822486 -0.02056637
0.009924814 0.017103828 0.013553682 -0.011267554 0.06863397 0.01927453 0.06334837 0.041950546
-0.005308929 -0.03607339 -0.034572046 0.0021002726 -0.028130272 0.022509173 0.041535433 -0.006318672
0.041497547 -0.012824883 -0.039843462 -0.020520138 -0.004356596 -0.005386668 0.015513404 0.020605536
0.009156331 0.08336845 0.057637073 0.022657147 0.00014586069 -0.021462869 0.05800723 -0.029573655

fc2.weight f4 [84, 120]
00000000: fb64 38be f65d 073e b2c5 8cbc e145 223e
00000010: c422 3bbc 2afb f5bd e83e 7c3c 4c9d 54be
00000020: bbc9 ba3c c337 5cbd 7598 afbc 56e7 0dbd
00000030: c799 22bd 8e34 163d e421 d8bd 1975 313b
00000040: ce6e 4abd c07b 0c3e e1ce cd3d 75cb d0bd
00000050: a0d5 c13c cb8b fcbc bfb8 d8bd 3575 fabd
00000060: d2e9 cbbd 5722 3f3d bc1c 313d e4e3 5a3e
00000070: b438 12bd 0a70 09bd 3cf3 2dbe f604 eb3c
00000080: 1e13 123e 96d3 f1bb 2ac4 df3d 6048 153d
00000090: 4bab a93d e091 9d3d 508f 10bd b4bb fa3d
000000a0: 54b9 7a3d ef18 86bc d653 20bd 5a02 15bd
000000b0: 062a 18be f69a 473d 9792 29be 2249 b4bd
000000c0: 2019 4f3d 8c7c c43d 4062 d1bd a64c 62bd
000000d0: da6b 4b3c 346d 143d c7be 113e 2dc9 b53d
000000e0: bf71 2b3d 2845 033d 6db5 d4bd 9d85 0b3e
000000f0: 69f6 5d3d 6c09 733d 1e9f 34bd 8b8e 113b
00000100: 9c31 9bbd 9f6d 76bc 0972 123e 2ad4 473d
00000110: 6465 d03c e559 b33d 380e b03d d550 5fbd
00000120: cd65 cabd de81 19bd 2d11 ccbc c80e 793d
00000130: 97aa 56bd 123c 8b3c 2f7b 3bbe 34d1 7ebe
00000140: a7e3 1c3b 5ba1 793d 694c 0ebd 857d 9d3d
00000150: b2b7 9c3d cbe9 0abe f433 ae3b 8b36 f93d
00000160: 0aa1 173d c8c1 08bd aea4 ad3d f1da f1bc
00000170: 41f2 2e3c 0a76 933d 2fc9 b73d f7d4 21be
00000180: e75a aebd d467 663e 0a27 333d bf58 cc3d
00000190: 0052 87bd 1018 08be f9c3 2c3d ec2a f5bc
000001a0: cb6a 37ba 6202 1bbd 7489 3a3d 6ecc 483c
000001b0: 4d14 93bd a4c3 b13c 01ed b6ba b7ad 1cbd
000001c0: 75e2 d3bd 7cf7 a93a 6c3a f5bd c4b7 b73c
000001d0: 932f 933c db48 27bd 9ba0 91bd e773 fcbd
000001e0: ef56 0c3e b5d6 16be 05ff 383d bfbf d93c
000001f0: d6cc b9bc 2155 923c 6b67 a8bd 17a7 ad3d
00000200: c328 28bd 51a4 cf3c eb1c c2bd e51d 4d3d
00000210: 2b69 24be 8368 22be 5cb3 afbc 2406 a03d
00000220: 17b1 abbd 9d3d 95bd 1356 aabd e6a2 a6bd
00000230: 8f4c c73c d696 20bd e916 c93c 2333 7b3b
00000240: 15e0 843d 95c9 9e3d 38ab aa3b 80fb 05be
00000250: 9b65 4b3d b817 103d bb38 f93d db70 0b3a
00000260: 9514 4c3d 8ee1 193e 671e 1abd 17d9 163d
00000270: fbed eabd 896d 45bd fe73 1abd 44a6 353b
00000280: 9698 ad3d f51a 2bbe 7c84 05be 4a5f f23d
00000290: 0d6c 573e 1483 863d c74e 90bc 9253 7abd
000002a0: 08d8 23bd 7fcf f1bc e3b3 5e3d 4643 253d
000002b0: 37fd d13a b27c 91bd d402 2ebe eea5 54be
000002c0: f151 a9bc 0567 c53d 6bbd d0bd e810 92bc
000002d0: 42e0 e5bc 7568 0a3d db96 6cbd c017 c23d
000002e0: a46a 3a3e c804 b53d 26c9 fe3c 1606 4cbd
000002f0: d283 81be 0339 6f3d df73 b6bd 9cc6 f5bc
00000300: dd43 b63c 552c ed3d a05d 253e 507d 9fbc
00000310: 8365 8bbd 97b9 b2bd 4397 143e 3456 603e
00000320: 63c7 333e 1df6 433d 5345 4c3d bf82 0ebd
00000330: 863c 83bd 2879 063d 04e7 7dbe a177 b33d
00000340: 86f2 a2bd da11 03be 3b9c 933d d216 be3d
00000350: de43 433e 28f2 eabd 245d 37bd 96e6 cd3c
00000360: af06 253d 94fc adbd f980 adbc 4745 ecbd
00000370: fd69 fabb ecf8 933d 77d7 8dbc 7d6a 863d
00000380: 7417 ccbc d1b4 2f3d 8b7e 0a3d 148a c63d
00000390: df70 e8bd 17b8 af3c 5ca4 4d3d 9a7f b43c
000003a0: cc4d fcbd 617e d03d 9a93 b6bd c4bf a2bd
000003b0: 1c03 133d 924c 113d 060d 633c 8035 9bbd
000003c0: 6a36 2abe 9de7 8cbd 6034 543c f87f aa3c
000003d0: 326c 34bb ff90 79bc 5187 62bb ccf1 b63d
000003e0: d5da 143d 4732 8ebd 39f4 92bd 7ef9 643d
000003f0: 1a8b 393d 67c3 5b3d 87fe 6cbd 3fb0 4ebc
-0.18007271 0.13219437 -0.017184112 0.15846969 -0.011421863 -0.12010796 0.015395857 -0.20763129
0.02280127 -0.053764116 -0.021435002 -0.034644447 -0.039697435 0.036671214 -0.10553339 0.0027077852
-0.049422078 0.13719082 0.10049225 -0.10195056 0.023661435 -0.030828377 -0.105821125 -0.12229387
-0.09956707 0.04666361 0.043240294 0.21375996 -0.035698608 -0.033554114 -0.16987318 0.028688889
0.14265105 -0.0073799593 0.10926087 0.036445975 0.08284625 0.07693839 -0.035292923 0.12242833
0.0612119 -0.016369311 -0.039142452 -0.036379196 -0.1485978 0.048731767 -0.16559826 -0.088030115
0.05056107 0.09594068 -0.10223818 -0.05524888 0.012415851 0.036236957 0.14232932 0.08876262
0.041856524 0.032048374 -0.10386167 0.13625188 0.054190073 0.059335157 -0.04409706 0.0022210206
-0.075778216 -0.015040784 0.14301313 0.04878632 0.025438972 0.087573804 0.08596462 -0.054520447
-0.09882698 -0.037477367 -0.024910534 0.060805112 -0.05240878 0.016996417 -0.1830871 -0.24884492
0.0023939402 0.060944896 -0.03474084 0.076899566 0.076522246 -0.13565747 0.005316252 0.12168606
0.037018813 -0.03338793 0.08478676 -0.029523345 0.010677875 0.072002485 0.089739196 -0.15803896
-0.08513432 0.22500545 0.043738402 0.099778645 -0.06607437 -0.13290429 0.04217908 -0.029927693
-0.00069968094 -0.03784407 0.04554124 0.012255771 -0.071816064 0.021699734 -0.0013956131 -0.038251605
-0.103459276 0.0012967433 -0.11974034 0.022426493 0.017967021 -0.040840965 -0.07110711 -0.12326794
0.13705038 -0.14730342 0.04516508 0.02658069 -0.022680681 0.017862858 -0.082228504 0.084791355
-0.0410545 0.025346907 -0.09478172 0.050077338 -0.16055743 -0.1586018 -0.02144783 0.07813671
-0.083833866 -0.072871424 -0.083171986 -0.08136539 0.024328498 -0.03920635 0.024547057 0.003833004
0.06488053 0.077532925 0.005208399 -0.13084221 0.049657445 0.03517887 0.121690236 0.0005319246
0.049824316 0.15027449 -0.03762665 0.036828127 -0.114711724 -0.048200164 -0.037708275 0.002771751
0.08476369 -0.16709502 -0.1303882 0.11834581 0.21037312 0.0656797 -0.017615689 -0.061114855
-0.040000945 -0.029517887 0.054370772 0.04034736 0.0016020898 -0.07103862 -0.16993266 -0.20766422
-0.020668956 0.0963879 -0.101923786 -0.017830327 -0.028061036 0.033791024 -0.057761054 0.09477186
0.18204743 0.088388026 0.031101774 -0.04981049 -0.25295883 0.05840398 -0.089088194 -0.03000193
0.022249157 0.11580721 0.16148996 -0.019468933 -0.06806471 -0.08726805 0.14510827 0.21907884
0.17556529 0.047842134 0.0498708 -0.034792658 -0.06408028 0.032830387 -0.24795157 0.08763052
-0.07956414 -0.12799779 0.07207533 0.092816964 0.19068858 -0.11471969 -0.04476656 0.025134366
0.040289577 -0.08495441 -0.021179663 -0.11536651 -0.0076420293 0.072252125 -0.017314656 0.0656328
-0.024913527 0.04289705 0.033812087 0.09694305 -0.113496535 0.021450086 0.050205573 0.022033501
-0.12319526 0.10180355 -0.089148715 -0.07946733 0.035891637 0.035473414 0.0138580855 -0.07578564
-0.1662232 -0.06880114 0.01295194 0.020812973 -0.002753031 -0.015232324 -0.0034565518 0.08932838
0.036341507 -0.069431834 -0.07175488 0.055901997 0.045298673 0.053653147 -0.057859924 -0.0126152625

fc2.bias f4 [84]
00000000: 7447 d83c 3859 bb3d 957b fa3c 7795 62bb
00000010: 3a8c d93d e834 4dbd f600 8fbd 5c7d 393d
00000020: 5cd3 b03d 9349 273e 1ea0 2bbd 63e7 65bd
00000030: 4dcb 5cbd c84a b43c 5b41 983c a361 88bd
00000040: 521c da3d 3748 35bd 169e 7b3c 0778 0f3e
00000050: 5be3 61bd b855 9d3e 06ef e1bc a163 5d3e
00000060: 2c62 353e ebf9 593e 1bbd b83d 92c8 4a3d
00000070: 6dd7 b73d 72dd 63bd 0f73 b93d a9a4 35bd
00000080: 664f 26bd 01a9 0a3e 8c5b 193d dc0d 36bd
00000090: de9a 853e b3fa dbbb 85f1 f53c 4cea 223d
000000a0: 7e08 1fbd 918c fa3c 91ac 933d 5eef 3fbd
000000b0: d4f8 233d 19a5 3ebd cc82 f53c f55a ed3d
000000c0: 4831 70bd 972f 223e aa25 9139 cf8f 883c
000000d0: b06e 4ebd f63e 0a3d 580c c5bd 2ad7 65bd
000000e0: 793a 843c fcaa 4e3e 5c62 ff3d bdfe 5a3c
000000f0: 171d a9bc cd4e 493d d47f f23d 24bc b53d
00000100: f94f 813d fd47 773e 438c 833d f2cc c13b
00000110: 4d36 b1bd 1cd3 bc3d fad0 0f3a 64bc 693c
00000120: 0ca4 96bd a488 6a3d 1c18 b4bd ab0d d23d
00000130: 189b 6dbd 1d5a 973c b0c0 a83d 19c2 83bd
00000140: 1c4b ab3d 57d7 9fbd af41 0e3e eab8 453b
0.026401259 0.091478765 0.030576507 -0.0034573951 0.10622449 -0.050099283 -0.06982605 0.045285568
0.086340636 0.1633666 -0.041900747 -0.05612887 -0.05390482 0.022008315 0.018585851 -0.06659248
0.10649933 -0.044258323 0.015357515 0.1401063 -0.055148464 0.3072946 -0.027579796 0.21620037
0.17713231 0.21286742 0.09020444 0.049507685 0.08976636 -0.05563111 0.09055149 -0.044346485
-0.040603064 0.13541032 0.03744082 -0.04444681 0.26094717 -0.0067132353 0.030022392 0.039774224
-0.03882646 0.030584605 0.07210649 -0.046859138 0.040032223 -0.04654417 0.029969595 0.11589614
-0.05864075 0.15838467 0.00027684617 0.016670136 -0.05039853 0.03375145 -0.09621495 -0.0561134
0.016141163 0.20182413 0.124699324 0.013366398 -0.020643754 0.049147416 0.118407875 0.088737756
0.06314082 0.24148555 0.06423237 0.005914324 -0.08652935 0.092199534 0.0005486157 0.014266107
-0.07355508 0.057259217 -0.08793661 0.10256513 -0.058009237 0.018475587 0.08239877 -0.064335056
0.08363935 -0.07804745 0.13892244 0.0030170032

fc3.weight f4 [19, 84]
00000000: 557d ecbc 331e 9c3e 2740 7abe 548b c7bb
00000010: eb1b 33be 534d 26bd 3959 c6be 6be9 a3be
00000020: 80e9 4bbd fbe4 8cbd 8083 9abe 5157 4b3e
00000030: b8ab 443d e7fb 993e f662 803c 8033 a53e
00000040: 2f1b 79be 121a a13d 2130 e23d 5afb ebbc
00000050: f368 973d 010c 12be dea1 543e f0fa 13be
00000060: 1ca2 c6bd 4b24 7cbe 7b18 63be 7d8e 693e
00000070: 020c 16be 068c dbbd a3b6 86bc 4f8a 243d
00000080: faa6 33bc 2f37 fdbd e9ff 8ebd 9030 bc3d
00000090: 82bc 88be a687 d9bc 21ea 3ebd eefc 233e
000000a0: ae6f 9abd bd5b f7bd 19f4 0fbe 9df7 ecbd
000000b0: 5f2b 713e ba06 e2bd 1724 d2be ef16 723e
000000c0: b1cb 60bd f308 3dbd 5dbf 423e 1da4 f63e
000000d0: de27 6dbe c0f8 1abe fafd a9bd 7929 1a3d
000000e0: ee42 223e 0a44 b53e 5571 30bd b1eb 8d3d
000000f0: 65ac c83d 5bfc 98be 4f02 56be 4968 563e
00000100: 492c a63e af0a a83c 5359 a73c f770 f6bc
00000110: 0562 703d f275 273e cc12 e5bb 522f 2abd
00000120: 7930 463c 91bf 1b3d c482 293d d168 90be
00000130: 8eb0 2cbc adc5 a93e 2d41 563b 8443 b23d
00000140: 3ef8 fcbd 0581 53bd ed22 9fbd d0b1 3b3e
00000150: 65a5 f0bd 2950 7e3c a14d 24be 9009 a23d
00000160: d65e 30be 807f 003e 73c1 0cbd fb08 1a3e
00000170: 81ef dc3b 6e53 6dbe 59b3 833e c957 c93d
00000180: 1d48 31bc 7aa9 a63e 2ebf a6bd c1d6 a7be
00000190: c8c6 3f3c ff39 adbd e4d9 8fbd 8d13 2c3e
000001a0: 7622 4bbe 448b bfbe 7cbd 9b3e 2986 08be
000001b0: f3ee 13be 0bdd 40be 6701 223e fb65 043f
000001c0: 0647 15be 7756 38bd 6b7f ccbc 7e92 b73d
000001d0: 75a6 183e dcfe c4bd b9b5 823d 9f2c 2a3d
000001e0: b0dc b4be 26f9 c2bc b69e 7bbd ef6f 64be
000001f0: aa52 cb3d ee79 97be 0e18 0cbe 660f 19b9
00000200: 51f1 7a3d dc9f a4bd 2a9e 9b3e ee1b ecbd
00000210: 1253 4fbd 56e0 43be 90c0 ea3d b404 4d3e
00000220: e502 2cbc 8a05 273d c810 7f3c 8e6a 23bd
00000230: 2a36 ac3d 0ee1 9c3e 7abb cf3e 9384 173d
00000240: a79b 8bbd 5d5a 963e c950 5f3e e33c 043e
00000250: 847c 403e acfb 6cbb fa61 67be d69a 60be
00000260: a590 35be ae4c 85be be48 8e3e 6ed2 e8bb
00000270: 9013 613a 49b5 01be a41b a73c 33c3 b2bd
00000280: 0c93 51bd 4957 a33e 13d3 18bd a430 f7bb
00000290: 1fe5 4abe d1cc 30be c031 0ebe 7e91 4fbe
000002a0: e394 dbbd 28c5 393e 972d d03d 61c0 d8bd
000002b0: 77e3 3dbd 7a0d 973c 66b6 2bbe 4823 b83e
000002c0: 96fb 24be 784c 98bd 93b4 853d 73f9 e83d
000002d0: a08a e5bd a060 363d c7b9 e5bd d66c 1cbb
000002e0: a22d fabc 0d2c 0d3d 9385 0d3d 7feb 7bbd
000002f0: 6aef 3abe 810e 6fbe aec7 47bd c820 8bbd
00000300: ade1 80bd 3507 34be 5ab9 e1bd 6fbe b2bd
00000310: 92ba 8bbe 9a79 af3d e4f1 dc3e 7499 4abd
00000320: dd67 ccba 7466 51be 8429 dcbd 76ab 973e
00000330: 97b1 82be 0788 0fbe 2084 9dbd 2c80 18bd
00000340: f029 8d3d 9fe8 27be 861d 0bbe 3f93 93bd
00000350: b153 483e 6022 66bd c8d0 ec3d c8eb 363e
00000360: 900d a43d f9af 29bb 5aac 793d 9f07 d53b
00000370: 1ce4 c2bd 3bfd 3f3e ad88 ec3c 1a8f 02bd
00000380: 9d71 ac3e 40dd 7b3e 7e04 58be 7674 ebbd
00000390: 35ac 16be 16e6 3bbe 5ace 6d3d 025d ae3d
000003a0: 88da a7bd 940f 34be e7d3 5dbe e3ea 1c3e
000003b0: 4416 97bd c5eb 45be 0a9b 2d3e ce0d 76bc
000003c0: 22d2 c03d e20e 933e ffc7 81bd 43e1 dabd
000003d0: dd30 9cbd 2cfc 513e 9454 293e e96d 5abe
000003e0: 0f83 73be 986a 16bc 6826 813d 31db 51be
000003f0: be40 07be dc0d 8e3e 0b9e 17bc 9457 20bd
-0.028868357 0.3049179 -0.24438535 -0.0060896073 -0.17491119 -0.040601086 -0.38739946 -0.3201402
-0.04978323 -0.06879612 -0.30178452 0.19857527 0.048015326 0.30075 0.015672188 0.32265854
-0.24326776 0.07866301 0.11044336 -0.028806377 0.07393064 -0.14262392 0.20764872 -0.14451194
-0.09698889 -0.2462322 -0.22177307 0.22808261 -0.14653018 -0.10720067 -0.01644451 0.040170964
-0.010965103 -0.12364041 -0.06982405 0.0918895 -0.2670632 -0.02655394 -0.04661 0.16014454
-0.075408325 -0.120780446 -0.1405796 -0.11570666 0.23551701 -0.11036439 -0.4104316 0.23641561
-0.054881755 -0.046151113 0.19018312 0.48172083 -0.2315974 -0.15133953 -0.08300395 0.037637208
0.15845844 0.35403472 -0.04307683 0.0692972 0.09798507 -0.29880032 -0.20899318 0.20938219
0.32455662 0.020512907 0.020428335 -0.030083163 0.05868723 0.16353586 -0.006990766 -0.041549034
0.012096518 0.03802449 0.041384473 -0.2820497 -0.010540141 0.33158627 0.0032692656 0.08704284
-0.12352036 -0.051636714 -0.077703334 0.18329549 -0.117502965 0.015522041 -0.16045238 0.0791198
-0.17223677 0.12548637 -0.034364175 0.15042488 0.0067424183 -0.23176357 0.2572277 0.09831197
-0.010820416 0.32551175 -0.081419334 -0.32781032 0.011705108 -0.084583275 -0.07023981 0.16804333
-0.19837365 -0.3741094 0.30418003 -0.13332428 -0.1444662 -0.18834321 0.15820847 0.5171811
-0.14577875 -0.045004334 -0.024963101 0.08963488 0.14907248 -0.09618923 0.06382317 0.04154646
-0.3532462 -0.023800444 -0.061430655 -0.22308324 0.09927876 -0.29585212 -0.13681051 -0.00014596953
0.061265294 -0.08038303 0.30394107 -0.11528765 -0.05061633 -0.19128546 0.1146251 0.20021325
-0.010498737 0.040776767 0.015567966 -0.03989654 0.084087685 0.30640453 0.4057272 0.036991667
-0.06816798 0.29365817 0.21808161 0.12913851 0.18797499 -0.003616075 -0.22595969 -0.21934065
-0.17730959 -0.26035064 0.27789873 -0.0071051633 0.0008585984 -0.12666811 0.020398922 -0.087286375
-0.051165625 0.3190253 -0.03731067 -0.00754364 -0.19813965 -0.17265631 -0.13886166 -0.20270345
-0.10721757 0.18141615 0.101649456 -0.10583568 -0.046359506 0.018439043 -0.16768798 0.35964417
-0.16111597 -0.0743646 0.065285824 0.11375704 -0.11208081 0.044525743 -0.11217075 -0.0023868582
-0.030539338 0.03446584 0.034551214 -0.061503883 -0.18255392 -0.23345377 -0.048774414 -0.06793362
-0.06293044 -0.17580874 -0.11021681 -0.087277286 -0.2729078 0.085681155 0.43153298 -0.04946275
-0.0015594919 -0.20449239 -0.10750106 0.29623002 -0.25526115 -0.14016734 -0.076912165 -0.03723161
0.068927646 -0.16397332 -0.13585481 -0.07205819 0.19563176 -0.056185126 0.11563259 0.17863381
0.08010399 -0.0025892241 0.060955383 0.0065011526 -0.09516165 0.18748944 0.028873766 -0.031874754
0.3368043 0.24596119 -0.21095464 -0.114968225 -0.1471413 -0.1834949 0.05805812 0.085138336
-0.081959784 -0.17584068 -0.21662866 0.15323977 -0.07377294 -0.1932822 0.16953674 -0.01501794
0.0941508 0.28722292 -0.06336974 -0.106874965 -0.076265074 0.20506352 0.1653617 -0.2133099
-0.23780464 -0.009180687 0.063061535 -0.20493771 -0.13208291 0.2774495 -0.009253989 -0.03914602

fc3.bias f4 [19]
00000000: ad3f a2be 4e9f e6bd 6201 383d 6ae6 4d3c
00000010: c198 72be 9c54 123e 7987 a9be a1d6 4f3d
00000020: 70d8 90be bac4 a0bd 95ad a63e 1ed8 91bd
00000030: 82cb 893e 8b2a 24bd ac4c 9f3d 4ad5 4b3e
00000040: 5986 b83c 5632 553e 0668 a0bd
-0.31689206 -0.11260854 0.044923194 0.012567142 -0.23691083 0.14290088 -0.3311117 0.050741795
-0.2829013 -0.078500226 0.32554308 -0.07121299 0.26913077 -0.040079635 0.07778296 0.19905582
0.022525 0.20819983 -0.07832341
