python/CNN3.pth (torch_old, 252622 bytes, 10 tensors)

conv1.weight f4 [6, 3, 5, 5]
000000 e8 45 9e 3e 63 dc e0 3e 13 27 e8 3e e6 29 a1 3e
       0.3091271 0.43918142 0.4534231 0.31477278
000010 25 d8 f2 3e 06 b5 96 bc a8 25 c5 3d 6a 6e 71 3d
       0.4743053 -0.018396866 0.09626323 0.05894319
000020 31 1a 52 3e d2 73 2b 3e 4d 96 3f 3d 0a 72 d9 bd
       0.20517804 0.167434 0.046774197 -0.10617454
000030 e9 cc 90 bd de 30 cc bd 47 00 54 bd 5b 83 e6 3d
       -0.070703335 -0.09970258 -0.051758077 0.11255523
000040 44 bf d1 3d 94 ba f6 bb f0 06 b5 3d a2 27 85 3d
       0.10241559 -0.007529566 0.08839214 0.065017
000050 c7 10 73 3e 93 3f d3 3e 42 f7 57 3e 69 12 70 3e
       0.23736869 0.4125944 0.21090415 0.23444523
000060 42 8a 8a bc 56 91 2c bd a1 19 cc 3d af ec 30 3e
       -0.01691163 -0.04213079 0.09965826 0.17277788
000070 ac 26 5b 3e 5a be 86 3e d6 ba 1e be 3e 6e 0c be
       0.21401471 0.26317102 -0.1550096 -0.13713929
000080 fd de cb bd 7f 28 4c bb 4a 15 a2 bd d4 9c 50 be
       -0.09954641 -0.0031152067 -0.07914217 -0.20372325
000090 f6 9c d4 be 5e 29 97 be 3d ee df be fd ea 40 be
       -0.41526002 -0.29523748 -0.4373645 -0.18839641
0000a0 a9 b2 0c be 88 34 86 bd a2 43 65 be 4d 6b 9b be
       -0.13740028 -0.06552988 -0.22389081 -0.30355301
0000b0 85 ff 3c be c2 ee c0 3d d5 6a 2c 3e 98 b3 fc 3d
       -0.18456848 0.094205394 0.16837628 0.12338942
0000c0 c0 83 18 be 8c da 62 be 4c 45 bc bc a3 0a af 3b
       -0.14894009 -0.22153682 -0.022982262 0.005341844
0000d0 91 1a 71 3e 07 0a 34 3e a8 ad fd 3d b1 0d 0c be
       0.2354529 0.1758195 0.12386638 -0.13677098
0000e0 85 ef e8 bd 37 8b da bd 24 5b e5 3c 51 15 42 3d
       -0.1137381 -0.106710844 0.02799756 0.04738361
0000f0 86 99 53 be da e8 ca be f5 8e e5 be ad ad ae be
       -0.20664033 -0.39630777 -0.4483563 -0.3411688
000100 40 2b 90 be 9e 34 34 bd 55 c7 1f be 00 6f 76 be
       -0.28157997 -0.043995492 -0.15603383 -0.2406578
000110 12 79 82 be f1 2e 3c be ff 68 9e 3e 3f 9a 14 3e
       -0.25482994 -0.18377282 0.3093948 0.14511965
000120 62 51 d5 bc 3b 55 31 bd 29 7b 4f be 9a 50 fa bc
       -0.026039783 -0.043294173 -0.20261826 -0.030556012
000130 0b cb 44 bb 50 c1 89 bd 9c 17 79 3c f0 00 dd 3c
       -0.003002825 -0.067263246 0.015203383 0.026977986
000140 76 83 ed 3d 08 a7 ad 3d 60 ac e4 3c 7b 29 08 3e
       0.1159734 0.08479124 0.027914226 0.13297074
000150 34 ce ee 3d fd e4 bc bd e2 d9 1c 3e d2 d6 99 3d
       0.11660424 -0.092233635 0.1531749 0.07511677
000160 03 c1 1b 3e 1d cf 65 3e dc 23 12 be e4 c5 84 bd
       0.15210347 0.22442289 -0.14271492 -0.06483057
000170 0f d5 02 bb a7 0e 62 3d a5 1d 08 3e 51 c9 49 bd
       -0.0019963419 0.055189755 0.13292558 -0.049264256
000180 4a c2 e1 bc 1c ba 77 be 3d f5 a3 bd 61 21 ef bd
       -0.027558465 -0.24192089 -0.0800576 -0.116762884
000190 ec 7b cb bc 40 63 bd bd d0 46 53 bd d2 38 2b bd
       -0.024839364 -0.09247446 -0.051581204 -0.041802235
0001a0 e9 a6 16 bd 55 eb aa 3c 27 76 37 3e 97 e8 e2 3d
       -0.03678027 0.020864168 0.17916165 0.11079519
0001b0 ee ca 38 3e 10 5a 7e 3d 45 84 dc 3d a1 6c f9 3d
       0.18046162 0.06209761 0.10767416 0.121789224
0001c0 6a 3c 1b 3e ba f1 80 3e 6d 94 79 3e d6 16 06 be
       0.15159765 0.25184423 0.24373026 -0.13094649
0001d0 30 3b c0 bd b4 94 27 be c5 81 bb bc 68 85 05 bc
       -0.09386289 -0.1636532 -0.022889027 -0.008149482
0001e0 b3 ba f8 bc 43 a9 6a bd 85 06 bc bd 8f 85 6d bd
       -0.030362463 -0.057290327 -0.09180931 -0.0579887
0001f0 91 6d cf bd 24 5a 00 be d0 fd d8 bc 09 50 0c be
       -0.1012832 -0.12534386 -0.026488215 -0.13702406
000200 c9 f7 74 3d e8 61 8e bc 99 ab 18 be 21 d2 1b bd
       0.05980662 -0.01738067 -0.1490921 -0.03804219
000210 97 de a8 3d 3d e8 74 bd a8 51 44 ba 31 9a f3 bd
       0.08245581 -0.059791792 -0.00074889744 -0.11894644
000220 8a 59 d2 3c b1 66 2a bd e6 22 22 3e c3 39 1f 3e
       0.025677461 -0.04160184 0.15833625 0.15549378
000230 2e 59 15 be b2 ec 29 be 3a e3 72 be 21 81 13 be
       -0.145848 -0.16594198 -0.23719493 -0.14404728
000240 f7 c5 38 3c bd 4c d4 bd 88 14 88 be 7d 5c 61 be
       0.011277667 -0.10366199 -0.26578164 -0.22007938
000250 2b 48 9f be b9 34 31 be 30 43 f1 3d 1b 35 12 3e
       -0.31109747 -0.17305268 0.11780393 0.1427807
000260 0d 0c c1 3d 9d 10 f5 bc 17 35 ff bd c0 37 17 3e
       0.09426127 -0.029915148 -0.12461298 0.1476736
000270 90 b5 a6 3c 01 d5 2c be e3 65 60 be 0a b0 75 be
       0.020350248 -0.1687813 -0.21913867 -0.23992935
000280 fd 3c 5f 3e d9 3a 95 bd a3 7b 85 be 6a f6 ba be
       0.21800609 -0.07286615 -0.2607089 -0.36516124
000290 64 3e 6a be 5a eb 52 3e 10 93 1e 3e f9 3b 8a be
       -0.22875363 0.20597592 0.15485787 -0.2699888
0002a0 4d f1 90 be 74 7f ea bd a4 c4 00 3f fe b5 77 3e
       -0.28309098 -0.11450091 0.5030005 0.24190518
0002b0 36 5d 06 3d 06 19 50 be c3 96 f8 bd c3 ec e3 bc
       0.032803737 -0.20322046 -0.121381305 -0.027822858
0002c0 62 24 01 3e a8 c2 cd bd 3c 5f 6e be 83 17 34 be
       0.12611535 -0.10046893 -0.23278517 -0.17587094
0002d0 b5 34 6c bd 92 39 be 3b c4 df 8a be 94 f5 8b be
       -0.057667453 0.0058052028 -0.27123845 -0.273358
0002e0 78 57 ac be 94 ee 4b be ce c9 c6 3a ed 20 8a be
       -0.33660483 -0.19915229 0.0015166344 -0.26978245
0002f0 0e 1c 5b be 26 23 99 be 7d af 7c 3d 08 7e 94 bb
       -0.21397421 -0.2990963 0.061690796 -0.0045316257
000300 9f 7e 1b be 3e c8 b7 be e2 87 11 be 62 90 15 3d
       -0.15185021 -0.3589496 -0.14211991 0.036514647
000310 d7 1e c1 ba a3 c4 2f be b6 1b ba be 1c 52 07 be
       -0.0014733922 -0.17164855 -0.36349267 -0.13214916
000320 a7 f7 6e 3e 5c 43 ab 3e a2 4b a8 3e d5 a3 68 3d
       0.2333666 0.3344983 0.32870203 0.056796867
000330 4c bb 34 3d 90 61 a5 3d 46 55 19 3e 21 aa 19 3e
       0.044123933 0.08075249 0.14973935 0.15006305
000340 1f da 97 3c dc 0a c2 3d e1 ad 8e 3d 85 69 6e 3e
       0.018536625 0.094747275 0.069667585 0.2328244
000350 a1 e2 a1 3c af 64 7e bd 10 47 47 3e 3e 41 56 3e
       0.019761385 -0.062107738 0.19460702 0.20923325
000360 0d 50 4f 3e a4 f3 a7 bb 5c 1c 10 3e 77 7c a3 3e
       0.2024538 -0.00512548 0.14073318 0.31930897
000370 5e 12 cc 3e 1e 1a 75 3e 30 af bc 3d cf 62 86 3d
       0.39857763 0.23935744 0.09213102 0.06561815
000380 0c a4 4c 3e d0 59 68 3d 22 86 03 3e a3 12 53 bd
       0.19984454 0.056726277 0.12844136 -0.051531445
000390 c0 74 14 3e 30 56 0d 3e 34 f7 f2 bc 33 83 31 3d
       0.14497662 0.13802409 -0.029658891 0.043338012
0003a0 be cd ff 3d 54 5c 9d 3b d2 1b 49 3e c0 e7 de bd
       0.12490414 0.004802266 0.19639519 -0.108840466
0003b0 9d 0a e0 bc 1c 80 ed bd 8f 74 8e bd 1d 83 54 bd
       -0.02734881 -0.115967005 -0.069558255 -0.051882852
0003c0 92 98 21 be 53 03 cd bd dc d4 08 bd 88 ae 82 3d
       -0.15780857 -0.100104 -0.033406124 0.063809454
0003d0 11 4f 5e 3d 2d 12 27 be 66 d0 03 bd 13 d0 c9 bd
       0.054274622 -0.16315527 -0.032181166 -0.0985414
0003e0 f1 6c 82 bd 42 6e a4 3d 14 16 65 be 2e 25 5d be
       -0.06368435 0.080288425 -0.22371703 -0.21596214
0003f0 ef ec 2d be 96 4f 27 be 98 58 39 bc 60 bb f1 bd
       -0.16984914 -0.16338953 -0.011312626 -0.11803317

conv1.bias f4 [6]
000000 4d 70 bd 3e 55 4b 10 3e f2 ce 77 3e 12 65 96 be
       0.3699974 0.14091237 0.24200037 -0.29373986
000010 dd 1c b5 bc d3 22 3c 3e
       -0.02210849 0.1837266

conv2.weight f4 [16, 6, 5, 5]
000000 93 ab 7d bd 44 31 ba bb b4 5e 5d 3d 46 f4 03 3e
       -0.061931204 -0.0056821425 0.054045394 0.12886152
000010 34 26 22 3e 7a 15 d0 3c 2d 97 43 3d 1a a5 4a 3e
       0.15834886 0.025400866 0.047751594 0.19789544
000020 d1 25 09 3e a4 de 2a 3d d9 5d 73 ba 46 16 e0 bc
       0.13393332 0.041716233 -0.0009283699 -0.02735437
000030 6b 1d e9 3d df 7a 27 3e 05 43 ca 3d 74 76 11 be
       0.11382564 0.16355465 0.09876064 -0.14205343
000040 58 92 b7 bd d9 11 d7 bd fb 89 f1 bd 9a 35 a4 3c
       -0.0896346 -0.10501451 -0.11793896 0.02004509
000050 77 a9 ff bd 40 64 8b 3c b3 00 ae bb 49 e3 17 be
       -0.12483495 0.017015576 -0.005310142 -0.14832796
000060 34 b7 3b be 6e 0d 29 bd 95 e0 b2 3d d2 1d 12 3e
       -0.18331605 -0.041272573 0.08734242 0.14269188
000070 00 03 cc bc 5f 4b 96 3d 34 0a 9f bc b2 3e 08 bc
       -0.024903774 0.07338595 -0.019414045 -0.008315729
000080 35 11 32 3e d1 4f 96 3d 0c f0 09 3e 57 ed d7 3d
       0.17389376 0.073394425 0.13470477 0.10543316
000090 d1 60 21 3d 5f d7 dd 3d d3 f7 88 bb 29 dc c3 bc
       0.039398972 0.108320944 -0.0041799336 -0.023908691
0000a0 b0 da 84 3d 14 d7 dd 3d 6a 5c 09 3e 50 99 62 3d
       0.06487024 0.108320385 0.1341416 0.05532199
0000b0 5c fa 51 bd 81 98 2e 3d 4f 28 9c bd bf 5a 9d 3a
       -0.051264152 0.042625908 -0.07624876 0.0012005194
0000c0 9b d8 95 bc b8 f2 e4 bd 85 e1 8a 3e f7 0f bb 3d
       -0.018291762 -0.111791074 0.27125183 0.091339044
0000d0 54 d3 17 3e fe 80 ea 3d af d7 dd 3c 7f 63 11 3e
       0.14826709 0.114503846 0.027080385 0.14198111
0000e0 80 97 82 3d f2 0f c1 3d a4 42 38 bd 4f 67 87 bd
       0.063765526 0.094268695 -0.04498543 -0.066115014
0000f0 e7 c0 c2 3b e1 bc 2d 3d 87 69 9a bd 62 f8 96 bd
       0.005943406 0.042416457 -0.07539659 -0.07371594
000100 62 86 e9 bd 5b b9 6b bd 37 3d 31 be 39 a0 66 be
       -0.114025846 -0.057549816 -0.17308508 -0.22522058
000110 19 4a 7c be fb 2a 35 be 31 30 19 be 49 03 1a be
       -0.24637641 -0.17692177 -0.1495979 -0.15040316
000120 8f df 0a be c5 45 4c be 88 d5 3f bd d9 29 3c 3e
       -0.13561843 -0.1994849 -0.0468345 0.18375339
000130 3a b7 2d 3e b4 7e bf 3d 18 0a 5c 3d 9a 81 c0 3d
       0.16964427 0.093503386 0.053720564 0.093997195
000140 cd 69 4f 3e 6b c6 5b 3e 18 b4 21 3e f6 fd ad 3d
       0.20255204 0.21462409 0.15791357 0.08495705
000150 8a e8 03 bd 13 cc ab 3d 6c b5 c9 bd bd 7b 28 3d
       -0.03220419 0.083885334 -0.098490566 0.04113363
000160 94 64 e3 bd 80 4b 30 bd 01 fd 24 bd 2b 09 01 be
       -0.11103168 -0.043040752 -0.040280346 -0.12601154
000170 d2 f5 1a bc 0b 78 c6 bd 90 95 c8 bd 0f 2b 01 3d
       -0.009458022 -0.09690865 -0.09794152 0.031535204
000180 81 3d 40 be 03 85 cf bd ac 0e 0a be fb 8a 1c be
       -0.18773462 -0.10132792 -0.1348216 -0.15287392
000190 1e 4d a4 3d 26 5e 15 3e d8 67 d1 3d b9 0b dc 3d
       0.080225214 0.14586696 0.10224885 0.107444234
0001a0 22 83 1d 3e df b3 3b 3e bb fc ee 3d c2 2c 93 3c
       0.15382054 0.18330334 0.11669298 0.017965678
0001b0 57 4d 05 bd 43 c5 db bc 41 81 ff 3c 60 16 db bd
       -0.03254446 -0.02682746 0.031189563 -0.10697627
0001c0 f8 d5 d3 bc 6d cf 87 bd 08 1c fa bd 54 d2 5a bd
       -0.025858864 -0.0663136 -0.12212378 -0.05342324
0001d0 47 eb c3 bd 52 d6 bc bd bb ed 9e bd ed 9a da bd
       -0.0956636 -0.09220566 -0.07760187 -0.10674081
0001e0 cb ea b3 bc f0 89 98 bc f1 b8 6a bc 72 9c 9e bd
       -0.021962544 -0.018620461 -0.01432632 -0.07744683
0001f0 d9 a9 c3 bd ed 6b e7 bc 4d c5 22 3e 6d 8e 53 3d
       -0.0955388 -0.028249705 0.15895577 0.0516495
000200 79 cc 5b bc bd fd 9c 3d ed 9d e5 3d 2b 6d 10 3e
       -0.013415449 0.07665584 0.112117626 0.14104144
000210 d8 86 e6 3d 1d d7 a1 3d f7 f2 8c 3c 58 8e 1e 3d
       0.11256188 0.07902358 0.017205698 0.03870997
000220 84 0c 4b 3d bd ac 11 3e 38 76 c3 3c 39 04 6d 3d
       0.049572483 0.1422605 0.023860082 0.057865355
000230 40 85 75 3d 2e 54 94 bd da 5b e3 bc 4f 72 7e bd
       0.05994153 -0.072426185 -0.02775376 -0.062120732
000240 34 17 0f be df 72 c8 3d 5d 2b 82 bc 1a 06 62 bc
       -0.13973695 0.09787535 -0.015889818 -0.0137954
000250 35 09 01 be df ea 76 bd 07 0e 21 be 4a 8e 33 bd
       -0.12601168 -0.060282584 -0.15728007 -0.04383687
000260 6f 9f 6b 3d b0 cd 6d 3d c8 7e 84 3e b9 59 da bc
       0.057525095 0.058057487 0.25877976 -0.026654111
000270 d1 ed 9b bd 71 f3 af bd e3 47 d6 bc fd 22 f7 bd
       -0.07613719 -0.08591355 -0.026157325 -0.1206722
000280 64 5b f5 3d ec 9a f2 3c 86 03 1a bd 83 03 02 3d
       0.11980322 0.029614888 -0.037601016 0.03174163
000290 41 a3 f8 bb c4 8a bc bc 9e c2 59 3d 28 f3 1a bd
       -0.0075878208 -0.023015387 0.053164117 -0.037829548
0002a0 9b 44 bc bb 07 f4 21 3d db 92 ff bb 33 bc 04 be
       -0.005745483 0.039539363 -0.007799489 -0.12962417
0002b0 85 20 2b be 34 cb f9 bd 44 4b 85 bd bb 90 b2 bd
       -0.16711624 -0.12196961 -0.065084964 -0.087190114
0002c0 17 c4 0a be 54 45 8c bd 64 33 dc bd 69 47 a0 3c
       -0.13551365 -0.06849161 -0.107519895 0.019565301
0002d0 2c 1e d2 3c 3a bd 14 3d 23 d6 c3 bd a1 ef 8b bc
       0.025649153 0.036313273 -0.09562328 -0.017082037
0002e0 51 35 88 3d 2f 34 fb 3c 57 f9 ae bd 71 cb 9c 3c
       0.06650794 0.030664532 -0.085436516 0.019139977
0002f0 b4 79 31 bd 17 bc 01 3d 5a 65 01 be c3 07 c3 bd
       -0.043328956 0.031673517 -0.12636319 -0.09522965
000300 74 3f 9a bd 80 dc ae bd ab f7 4f 3d a5 d2 17 bd
       -0.07531634 -0.08538151 0.050773304 -0.03706612
000310 62 91 9b bd 36 13 66 bd 47 d9 b3 bd 9f fb 89 3d
       -0.07596089 -0.056170665 -0.08781677 0.06737446
000320 21 91 38 bd b2 90 86 be b5 c1 2b be cd 69 2f 3d
       -0.04506028 -0.2628227 -0.16773112 0.04282551
000330 b1 e1 b4 bd 8a 6c 13 be 4e 30 56 be 9b 77 83 bd
       -0.0883211 -0.14396873 -0.20916864 -0.06419297
000340 96 97 cb bb dc 3f 1b bd 73 26 61 3d b0 e2 a0 3d
       -0.006213139 -0.037902698 0.05496831 0.07855737
000350 5c 7d b4 3d 23 4c 9b bc 22 09 df bd 7f 2b 75 3d
       0.08812973 -0.018957203 -0.10890414 0.059855934
000360 2d 2a 4c 3e 62 12 68 3e 5d 8e 8c 3e a2 b7 2c bd
       0.19937964 0.22663262 0.27452365 -0.042167313
000370 03 9e be 3d 85 b6 46 3e ff f3 85 3e be d6 85 3e
       0.09307482 0.19405563 0.26162717 0.26140398
000380 a6 c4 eb bc 5c a9 5a be 49 de 40 be 74 6a 6c be
       -0.028780293 -0.21353668 -0.18834795 -0.23087484
000390 6f d4 ed bd 50 ab 58 bd a1 97 1d bd e3 57 03 bc
       -0.11612784 -0.05289775 -0.038474683 -0.008016559
0003a0 e1 60 5b 3b a0 24 b9 39 11 10 61 3c ce df 90 bd
       0.0033474492 0.00035313237 0.013736741 -0.07073937
0003b0 77 83 95 3d 68 b6 98 3d 4d fd ae 3d a8 43 15 3d
       0.073004656 0.07456666 0.08544407 0.036441475
0003c0 bc 9d ba 3c 8f c6 13 3d 72 f3 17 3e 09 7f 26 3e
       0.022780292 0.036078032 0.14838961 0.16259398
0003d0 f7 5c 25 3e c0 ad d3 3d f0 06 e8 3d ae 3d 86 3d
       0.16148745 0.103358746 0.11329448 0.06554733
0003e0 06 1a 17 3e eb 78 18 3e 0f 34 fa bd cf 0a 2e be
       0.14756021 0.14889877 -0.12216961 -0.1699631
0003f0 a8 dc 7b be 8e 03 3d be ee 16 9f bd b2 64 9b bd
       -0.24595892 -0.18458387 -0.07768045 -0.075875655

conv2.bias f4 [16]
000000 88 c0 76 3c f0 e0 5f bd 28 6b 46 3d fe 7b c3 bc
       0.015060551 -0.054657876 0.048442036 -0.023862835
000010 db 95 5f bc aa 15 d2 3d 3e f8 a3 bc f7 72 85 3d
       -0.013646568 0.10258038 -0.020015832 0.065160684
000020 67 a1 76 bd 4b 0f 15 bd 41 52 f5 3c 9f f2 7c bc
       -0.06021252 -0.036391538 0.029946448 -0.015438705
000030 b7 7f 12 bd 22 78 5a bd 1b 39 e7 bc 3f 5a d9 bd
       -0.03576633 -0.053337224 -0.028225472 -0.10612916

fc1.weight f4 [120, 400]
000000 f2 41 bb bc f1 45 23 bc 2d dc 1c 3d 73 a1 85 bd
       -0.022858594 -0.009965406 0.038295913 -0.065249346
000010 54 9c 83 bd 9f 4d 5f bd d1 fc 0a 3c c2 4f e4 3c
       -0.064263016 -0.054517385 0.008483128 0.027870063
000020 bd 3f d7 bc 4c c7 ad bc 97 4d 0f bd c7 da ef 3b
       -0.02627551 -0.021213196 -0.034986105 0.0073197815
000030 2b ea 41 3d ae ad 35 3d 1c 57 21 bd 6a 57 36 bd
       0.04734246 0.044355087 -0.039389715 -0.04451696
000040 a7 fe e5 ba 15 33 83 bc 55 57 e6 3b c8 2e cb 3c
       -0.0017547206 -0.016015569 0.0070294538 0.02480258
000050 0f d9 65 bd e5 11 d1 bc 46 99 07 bc ec da 40 3c
       -0.056115206 -0.025521228 -0.008276289 0.011770945
000060 a1 f5 64 bd eb 68 d6 3b 29 87 10 3d cd 4b 53 ba
       -0.055898312 0.006543269 0.03528515 -0.00080603064
000070 cd b9 1e bc e9 8b ac 3a 52 34 b6 3c 2e b1 e0 3a
       -0.009687853 0.0013164255 0.022241745 0.0017142647
000080 34 15 41 3c 2a 76 21 3c 5a 3c 53 3c 67 4d f9 bc
       0.01178484 0.009854833 0.012892807 -0.030432416
000090 ff d4 78 bd a1 c9 2e bd 69 a2 cf bc 57 fb 06 3c
       -0.060750004 -0.042672757 -0.025345998 0.008238635
0000a0 b7 a8 91 3d 5e 1b 45 3d c0 b9 31 3d 72 a0 1b 3d
       0.07112258 0.048121803 0.043390036 0.03799481
0000b0 86 78 4f 3d cd 56 b3 3c ed 9e bb 3d 11 a6 4a bb
       0.05065205 0.021891976 0.09161172 -0.0030921737
0000c0 37 c8 86 3d a6 e5 42 3d d6 20 87 bd 53 e4 32 bd
       0.06581157 0.04758229 -0.0659806 -0.04367478
0000d0 db ab 20 bd 56 b7 7e bd ad 60 fe bc 77 f6 34 bb
       -0.039226394 -0.06218656 -0.031051958 -0.0027612725
0000e0 60 3e c2 bd ec 62 2d bd 6a 75 6d bd df bd 3a bd
       -0.09484553 -0.042330667 -0.057973303 -0.04559123
0000f0 1f bf 8b bd 8e 91 6d ba 95 f6 73 3b cb ef 2e bd
       -0.06823563 -0.0009062522 0.0037225832 -0.042709153
000100 17 00 1e bd 8b 7c 53 3c 0c 7d 3e bd 12 c2 7d bd
       -0.038574304 0.012908111 -0.046505973 -0.061952658
000110 59 6c ac bd 56 43 17 bd 33 57 91 bd cd 61 99 bd
       -0.08419103 -0.03692945 -0.0709671 -0.07489357
000120 5d 5e c0 3c 6c 1b c3 3c 36 a3 22 bd d3 0e 39 bb
       0.023482496 0.023816787 -0.03970643 -0.0028237596
000130 b0 2d c8 3c 7a 26 92 3c c7 b6 19 3b 94 a9 8d 3a
       0.024435848 0.017840613 0.002345489 0.0010807985
000140 02 69 6d bc 90 25 0e bc 9d 84 02 3d 2f 08 20 bd
       -0.014490368 -0.008675948 0.03186475 -0.039070304
000150 1a 6f 19 3d 46 1e 2f 3d 5e bf fa 3c ae 47 16 bd
       0.03745947 0.04275348 0.03060883 -0.036689453
000160 11 f6 12 3c 3d b9 28 bc c6 9c 21 3d e1 67 19 3d
       0.0089698 -0.0102980705 0.03945615 0.037452582
000170 16 70 3f 3c df 1d 97 bc 05 19 2e 3d a9 02 b8 bb
       0.011684438 -0.01844686 0.04250433 -0.0056155515
000180 25 fe 03 3d ca 64 ba 3c ae 2a 2f bd d2 d4 15 3d
       0.032224793 0.022753138 -0.042765312 0.036579914
000190 09 95 c1 39 75 f1 42 bd 9e c7 02 3d b1 cb 27 3d
       0.00036922868 -0.047593553 0.03192865 0.04096574
0001a0 80 a5 0e bd fd 7a 01 3c 5f 1d d5 3c 98 9b 90 3c
       -0.0348258 0.007902858 0.026014982 0.017652318
0001b0 e9 7f 28 3d 5f d9 29 3c d9 34 64 3d 02 50 1e 3d
       0.04113761 0.010366767 0.055714462 0.03865052
0001c0 fe 6f a1 bc e2 4f 14 bd 85 da 42 3c 11 dd 26 bd
       -0.019706722 -0.036208995 0.011892919 -0.04073817
0001d0 e5 e0 88 3c cd d6 70 3c b4 f3 62 3c 50 59 80 3c
       0.0167088 0.01469965 0.013852049 0.015667588
0001e0 36 e4 1d 3d 2b e1 d9 bc 68 6d 55 3d 2e 5e d0 bc
       0.038547717 -0.026596626 0.05210629 -0.025435533
0001f0 20 3c 1e 3d 4c ca 94 3d 8e bc b3 3c 72 90 1f 3c
       0.03863156 0.072651476 0.021940496 0.009739028
000200 e7 3d 08 3d 60 f8 98 bc 5a 05 43 3c 05 3c ba bc
       0.03326216 -0.018673122 0.011903131 -0.022733698
000210 ef 38 2d 3c d7 9f 1f bc ff 82 35 bd 90 b7 95 3c
       0.010572656 -0.009742699 -0.04431438 0.018276006
000220 f3 8c ad 3c 58 22 b3 bc 86 22 fe bc 0a 35 12 3d
       0.021185374 -0.021866962 -0.031022321 0.035695113
000230 10 be 84 3d c4 71 b9 3c 17 24 14 bd ae b8 f8 bc
       0.06481564 0.022637255 -0.03616723 -0.0303615
000240 c3 cf 32 bb 22 06 c0 3d fa db 07 bd 0b 44 39 3c
       -0.002728448 0.0937617 -0.03316877 0.011307727
000250 11 56 5a 3d 1e db 90 3d 9a 18 0f 3c dc a1 45 bd
       0.053304736 0.07073043 0.008733893 -0.048250064
000260 52 80 0d 3d 29 64 7c 3c 9a b0 8b 3c 58 bc 4d 3d
       0.034546204 0.015404739 0.017051984 0.050228447
000270 1a aa a9 3c 0a 3f df 3b 65 e9 b7 bc fc 7b b1 3a
       0.020710994 0.0068129348 -0.022450158 0.0013540979
000280 3f c7 ec 3c b8 8d 01 bc 19 f8 e5 bc ca bd 28 3d
       0.028903602 -0.007907324 -0.028072404 0.041196622
000290 30 b6 49 bd c8 58 c2 3b 3d 10 1f 3c 1d c0 30 3d
       -0.049246013 0.0059309937 0.009708461 0.043151964
0002a0 c4 a5 eb bc 0f 06 5f bd 27 a7 b1 ba c9 3d f7 3c
       -0.028765567 -0.054449137 -0.0013553844 0.030180829
0002b0 f2 9e af bc 74 48 04 3c 9a 29 c8 bc 15 7f a9 bc
       -0.021438096 0.008073915 -0.0244339 -0.02069048
0002c0 20 9c 23 3d 13 87 b0 3b c1 ed ae bb 49 12 32 3c
       0.039943814 0.005387196 -0.005338401 0.010868617
0002d0 a5 d1 7f 3b ad e6 45 bd 94 09 8b 3d 72 73 cc 3a
       0.003903487 -0.048315693 0.06788936 0.001559837
0002e0 f4 d5 c2 bc 4f a6 8b bc d1 3b a6 3c 7b 8b df bc
       -0.023783661 -0.017047076 0.020292195 -0.02728819
0002f0 eb 78 2e 3c c6 54 66 3d be 08 4e 3b 75 84 12 3d
       0.010648946 0.05623319 0.0031438316 0.035770852
000300 55 4a 7f 3c 8c 94 db bc 8d ac 1c 3d 12 ab 42 bd
       0.015581687 -0.026804231 0.038250495 -0.047526427
000310 e8 c3 79 bc b9 86 c0 3b 94 89 b9 3c 58 71 81 3d
       -0.015244462 0.005875435 0.02264861 0.06320447
000320 e9 46 5a bc 1c 1c e0 3a ef 50 10 bc ae 7f 5c bc
       -0.01332257 0.0017098221 -0.008808359 -0.013458176
000330 c5 0d 73 3d 83 b3 58 bd 83 50 bc bc 43 83 28 bd
       0.059339304 -0.05290557 -0.02298761 -0.041140806
000340 dd 18 3b 3d 72 e7 65 3d 67 90 56 bd 2a f6 8b 3c
       0.04567801 0.056128927 -0.052383807 0.017085154
000350 f5 18 25 3c ed 03 f0 bc dd 4a fb 3b c6 5f 09 3c
       0.010076751 -0.029298747 0.0076688365 0.008384651
000360 02 e0 13 bd d3 3a 1d 3c 8a e8 9b 3d 5e e5 84 3d
       -0.036102302 0.009596544 0.07612713 0.06489061
000370 e9 7e a3 3c 82 b0 44 bd f9 13 39 bd 0b e4 4c 3d
       0.019957976 -0.048019893 -0.045185063 0.050022166
000380 3f 7f 83 3d d5 8f 6b 3d 36 13 1e 3d 12 3e bf bc
       0.06420755 0.057510216 0.03859254 -0.023345027
000390 67 2c c1 3b 9a 69 7b 3d b2 bc 7b 3d 5b b6 cc 3c
       0.0058951857 0.061380006 0.06145925 0.024989298
0003a0 bc fb b3 bd d4 0d 91 3c b2 72 fe 3b 76 29 b2 3a
       -0.08788249 0.01770679 0.0077651376 0.0013592679
0003b0 a9 7a d6 bc 23 c9 61 bd 77 ae 13 bc 92 e5 0a bc
       -0.026181536 -0.05512346 -0.009013764 -0.008477585
0003c0 8f 66 50 3d 96 5d a6 3d b1 7d 2d 3c b8 72 1a bc
       0.050879057 0.08123319 0.010589049 -0.009426765
0003d0 bd 9d 89 3c f8 24 5d 3d 5c c9 9c 3d d5 50 60 bd
       0.016798848 0.053990334 0.07655594 -0.054764587
0003e0 69 55 0f bd 7d a4 9a 3d c5 29 e2 3c dd 7b 8d 3c
       -0.034993563 0.07550905 0.027607808 0.017270977
0003f0 09 c2 e1 3c c3 b9 27 bd ae 94 09 bd d2 24 02 bd
       0.027558343 -0.04094864 -0.033589058 -0.031773396

fc1.bias f4 [120]
000000 c4 18 58 3d 61 62 ab 3c 61 d8 ad 3c 63 67 82 3d
       0.052757993 0.020920934 0.021221342 0.06367376
000010 18 ea ce 3b d1 c3 8e 3d a6 05 95 bc af aa 42 3d
       0.0063145272 0.06970943 -0.01819117 0.047526058
000020 ef 4c 38 bd c1 da e3 bc 72 6a ac bc 38 69 5e bc
       -0.044995245 -0.02781427 -0.02104685 -0.013574891
000030 15 e6 c7 3d 87 5a 43 bb b3 fc 65 bd e5 fd e8 3c
       0.097606815 -0.0029808597 -0.056149196 0.028441379
000040 8c 78 f8 3c 6a 57 b8 3d ec 59 5a bd db 1d fc 3c
       0.030330919 0.09001048 -0.053308412 0.030775955
000050 a2 88 a3 bc 17 f2 14 3e 67 c3 c9 bc 77 de 16 3d
       -0.019962613 0.14545475 -0.024629308 0.036833253
000060 27 f0 1c 3d ae df c0 bc 49 31 39 3d 46 9e 1d 3d
       0.038314965 -0.023544159 0.045213018 0.03848102
000070 ac 50 23 bd e1 d7 26 bc 83 c8 32 3d 3d 4a 66 bc
       -0.039871857 -0.0101833055 0.043648254 -0.014055786
000080 45 a9 c0 bc 77 b5 dc 3d d7 8d 22 3d f4 33 92 bd
       -0.023518214 0.10776799 0.03968605 -0.071388155
000090 93 e4 32 bc 87 2e 3c bd b3 b0 85 bc fd 41 79 3c
       -0.010918754 -0.04594281 -0.016319608 0.015213487
0000a0 13 67 52 bd 32 c0 93 3b 8b 9d f3 3b 0d df be 3c
       -0.05136783 0.0045089955 0.007434552 0.023299718
0000b0 66 e8 4a bc 52 61 1a bd 45 34 a6 3d 2b 8c 77 3b
       -0.01238451 -0.037690468 0.08115438 0.0037772756
0000c0 fc 3e b2 bc 18 98 45 3c 4f 18 4e 3d 4e 99 27 bc
       -0.021758549 0.012060188 0.05031615 -0.010229422
0000d0 ab 66 14 bd 58 f2 8c 3d 6c a2 c5 3a ee 86 fd 39
       -0.036230724 0.06882161 0.0015078313 0.0004835645
0000e0 05 94 10 bd 75 f8 44 bd 76 78 3b 3c 9d ed 5f bd
       -0.035297412 -0.04808851 0.011442294 -0.054669965
0000f0 75 9e 50 bc 4c 4f 08 3d f6 0a 06 3d 8c da 19 3a
       -0.012733092 0.03327875 0.032725297 0.0005869053
000100 45 0d 0b 3d c0 b7 44 3c 5e 98 38 3c 27 fd 3c 3c
       0.0339482 0.0120067 0.011266796 0.011534966
000110 78 7c e2 bc 54 28 26 bd be b1 2c 3d 7f 4b fa ba
       -0.027647242 -0.040565804 0.042161696 -0.0019095986
000120 a5 fa 1c 3c 55 f1 2c bd 37 00 42 3d d3 87 c5 bc
       0.009581243 -0.04222234 0.047363486 -0.024112618
000130 fe a6 0f bd 1b c6 f6 bc ea c8 40 bc 07 25 29 3d
       -0.035071366 -0.03012376 -0.011766652 0.041295078
000140 c6 63 db 3d 03 e9 1f bc 68 f7 f9 3c 50 88 37 bc
       0.1071239 -0.009760144 0.03051348 -0.011201933
000150 88 2a 9d bc a5 18 a5 3d 4e 13 54 3d cb 94 f9 bb
       -0.01918532 0.08061341 0.051776223 -0.0076166145
000160 47 fe 7b 3c 44 43 0e 3c 49 13 d8 bc d8 78 3e bc
       0.015380449 0.00868303 -0.026376383 -0.011625491
000170 89 52 77 3d 94 71 2b 3b e8 40 8c 3d 6a 01 e7 3c
       0.060381446 0.0026160227 0.068483174 0.028198916
000180 3f 63 c1 bb 22 ca ae bc 88 3b 03 bd e7 55 e4 3a
       -0.0059017236 -0.021336619 -0.032039195 0.001742062
000190 38 95 e9 bc 38 f1 9d 3c 1d e1 75 3d c6 5e bc bb
       -0.028513536 0.019280061 0.060029138 -0.0057486026
0001a0 19 d1 f6 3c 4f 38 48 bc 1f 3e 3a bd 32 ca b0 bc
       0.030129002 -0.012220456 -0.0454694 -0.02158079
0001b0 1e ac 9b bc ea 6a 15 bb 11 03 8c 3c cf 3d 0d bc
       -0.01900297 -0.0022799321 0.017091306 -0.008620693
0001c0 a0 34 45 ba 63 bd 96 3d fa b7 45 3d 8a 64 c3 3c
       -0.00075227953 0.073603414 0.048271157 0.023851652
0001d0 c4 52 8f bc cf f6 c2 bc b3 08 49 3d aa 2e ae bc
       -0.01749552 -0.023799328 0.04908056 -0.021262486

fc2.weight f4 [84, 120]
000000 ee 72 0d be bf db 03 3e f2 0e b1 3c 61 4a 20 3e
       -0.13813373 0.12876795 0.021613572 0.15653373
000010 c5 46 71 3d 23 54 a2 bd 0d 54 28 bc 44 3f 32 be
       0.05890538 -0.07926204 -0.0102739455 -0.17406946
000020 b2 22 87 3c 1b 30 64 bd a9 8c 3b bd 6a cf 0e bd
       0.016496036 -0.05570994 -0.04578844 -0.034865774
000030 4a 1e 74 3d e0 ea 7d 3d c1 fc 8a bd a1 f3 1e 3d
       0.0595992 0.061991572 -0.0678649 0.03880656
000040 15 4c 2b bd a0 85 e6 3d 82 fe a3 3d 1a 80 e1 bc
       -0.041820604 0.11255956 0.08007528 -0.027526904
000050 e3 89 55 3d 6b f6 07 bd 4f a3 be bd da 4d b8 bd
       0.052133452 -0.033193987 -0.093084924 -0.08999224
000060 75 d8 a9 bd 11 97 80 3d 6e e3 f2 3d 83 bf 08 3e
       -0.08293239 0.06278814 0.11859785 0.13354306
000070 bb 11 22 bc b8 71 fc bc 26 82 ae bd 19 28 00 3d
       -0.009891923 -0.030815944 -0.085209176 0.03128824
000080 0b 33 ea 3d 23 de 11 3d 6c d2 2d 3d e8 da 24 3d
       0.11435517 0.035612237 0.042437002 0.040247828
000090 c8 ea ae 3d 9b e8 9e 3d ac 90 e1 bc 20 3c 95 3d
       0.08540875 0.0775921 -0.027534805 0.072868586
0000a0 93 39 21 3d ac f7 79 bb 14 0b b8 bc c9 ca 78 bb
       0.039361548 -0.0038142009 -0.02246622 -0.0037962666
0000b0 ba ec c7 bd 41 78 30 bb 4f 3c 04 be 51 b7 b1 bd
       -0.09761949 -0.0026927146 -0.12913631 -0.08677543
0000c0 d5 60 86 3d fc 57 6a 3d f3 69 c7 bd 9c cb 03 bd
       0.06561438 0.057212815 -0.09737005 -0.0321766
0000d0 5c e8 27 3d aa 14 6c 3d da 3d d2 3d 04 e0 db 3d
       0.04099308 0.057636894 0.102657035 0.10736087
0000e0 a6 63 2a 3d f0 26 a2 3c a8 a6 5b bd 3c 82 c9 3d
       0.04159894 0.019793957 -0.053625733 0.09839293
0000f0 89 51 32 3d 84 ac 86 3d 5a 64 19 bb 74 53 e2 3c
       0.04353479 0.065758735 -0.0023405761 0.027627684
000100 40 50 90 bd 71 72 b5 3c b7 94 98 3d 90 25 41 3d
       -0.070465565 0.022149296 0.0745024 0.047154963
000110 cf ae ff 3c c2 21 aa 3d 3b d5 af 3d 3e 2b 81 bd
       0.031211285 0.0830722 0.08585592 -0.06307076
000120 d8 91 a7 bd 86 50 c2 bc cf 61 f4 bc 0a 86 82 3d
       -0.08182114 -0.023720037 -0.029831795 0.06373222
000130 47 91 9f bc 4e 93 b2 bc 5f 84 d4 bd a2 86 21 be
       -0.019478453 -0.021798756 -0.1037681 -0.15774015
000140 31 f3 4a 3c 87 ff 79 3d 03 bc ea bc 32 36 be 3d
       0.012387083 0.061034705 -0.028654104 0.09287681
000150 f8 1b bc 3d 33 25 ef bd 68 c7 a9 3d 6d 9f be 3d
       0.09185022 -0.11677017 0.08289987 0.09307752
000160 f0 48 11 3d 49 9f e7 bb 55 00 9e 3d 40 f5 87 bd
       0.03546995 -0.007068549 0.07714907 -0.066385746
000170 c0 38 4e bc 28 28 b5 3d 56 cb dc 3d b0 5b fc bd
       -0.012586772 0.0884555 0.10780971 -0.123221755
000180 7b 9d ae bd 76 96 2b 3e 08 3c 46 3d 98 1e b0 3d
       -0.08526131 0.16756615 0.048397094 0.08599585
000190 4b 1b 87 bd 15 2b f7 bd e0 bc 6b 3d e6 ce f4 bc
       -0.065970026 -0.12068764 0.057553172 -0.029883813
0001a0 10 50 e7 3b 08 2e 1a bd 54 40 73 3d e5 5c bb 3c
       0.0070591047 -0.037641555 0.05938752 0.022871444
0001b0 ec aa 6f bd 7a 88 16 3d 2f cb b7 bc 84 a6 e8 bc
       -0.058512613 0.036751248 -0.022435753 -0.028399713
0001c0 96 c8 65 bd de 46 3f 3d 65 84 c8 bd 79 a4 63 3c
       -0.056099497 0.046698444 -0.09790877 0.013894194
0001d0 a2 be 9d bd 7a 7d 57 3c 07 73 37 bd 4d cc 32 bd
       -0.07702376 0.013152475 -0.044787433 -0.043651868
0001e0 ca c4 d0 3d 00 83 f9 bd ce c6 6c 3d cc 81 e5 bc
       0.101937845 -0.121831894 0.057806782 -0.028015994
0001f0 f7 4f 78 3c f1 d2 d7 ba d1 4c 93 bd 0e 64 77 3d
       0.015155784 -0.0016466064 -0.07192386 0.060398154
000200 1a a3 14 bd 87 50 22 3d cc 13 a3 bd 7b de 4d 3d
       -0.03628836 0.039627578 -0.0796276 0.050261002
000210 95 90 f6 bd ee f7 e0 bd 81 15 4d bd be 26 28 bc
       -0.120392956 -0.10984789 -0.050069336 -0.010263143
000220 c9 05 1d bd a8 3e 6b bd d1 0f a3 bd 41 54 a9 bd
       -0.038335595 -0.0574328 -0.07962001 -0.08268023
000230 1c 19 86 3d 04 be 93 3c 03 f2 08 3d c3 37 26 bc
       0.06547758 0.018034942 0.033433925 -0.010145131
000240 0d 49 28 3b 19 3e 2e 3d f0 47 33 bc fa 80 9d bd
       0.0025678307 0.04253969 -0.010942444 -0.07690616
000250 73 83 14 3d 07 8a 31 3d e3 42 a6 3d db 02 62 bc
       0.036258172 0.043344524 0.081182264 -0.013794626
000260 bb 7e 27 3d e3 86 15 3e 37 1f bb bd 77 0b 21 3d
       0.040892344 0.14602236 -0.09136813 0.039317574
000270 9a d7 bf bd c6 04 c0 bc f8 29 03 bd 3b 73 f7 3a
       -0.093672946 -0.023439776 -0.032022446 0.0018878946
000280 49 b9 f5 3c 06 ad ed bd f7 c4 b6 bd 06 e8 f3 3d
       0.029995577 -0.11605267 -0.08924287 0.11909489
000290 96 f3 09 3e 9b 98 17 3d 5f 0b 16 bd 7a 90 01 bd
       0.13471827 0.03701077 -0.036631938 -0.031631924
0002a0 df fb 95 bc c3 fc 65 bd d5 d6 f4 3c 31 59 99 bb
       -0.018308578 -0.056149255 0.029887596 -0.004679822
0002b0 ec 00 36 bc 0e c8 99 3c 2d 01 25 be b9 02 34 be
       -0.011108618 0.018772151 -0.1611373 -0.17579164
0002c0 34 81 0b bd 57 db a9 3d 84 a1 c6 bd 6a b1 14 bc
       -0.034058765 0.08293789 -0.096987754 -0.009075502
0002d0 1a 6e 72 bc 6d 5c 57 3d 99 e4 77 bd 74 b3 72 3d
       -0.014796758 0.05257838 -0.060520742 0.05925317
0002e0 46 15 dc 3d de 42 dd 3d fd fa 36 3d 32 5b 36 bd
       0.10746245 0.108037695 0.044672955 -0.044520564
0002f0 1b 1d 48 be a6 e4 52 3d f9 2b a9 bd c1 15 ff bc
       -0.19542353 0.051487587 -0.0826034 -0.031138303
000300 be eb 43 3d e4 c5 ad 3d 93 f0 17 3e 72 e5 32 bd
       0.047832243 0.0848501 0.14837866 -0.043675847
000310 10 b4 02 bd 9f e2 d6 bd 57 0a e5 3d 80 60 22 3e
       -0.031910002 -0.10492443 0.11183613 0.15857124
000320 a0 93 19 3e 5d 0b 42 3d 79 ac a7 3d 54 6b 81 3c
       0.1499772 0.047374118 0.081871934 0.015798248
000330 ad 25 db bb 97 30 42 bb ea 80 1e be bd af 85 3d
       -0.006687841 -0.0029631013 -0.15478864 0.0652766
000340 e5 db 0d bd a5 c9 b9 bd 12 0e 0c 3d e7 fb 6e 3d
       -0.034633536 -0.09071664 0.034193106 0.0583457
000350 2c e5 1e 3e 8e 23 bd bd 53 79 38 bd ee 79 29 3d
       0.1551711 -0.09235297 -0.04503758 0.041376047
000360 40 de ef 3c 23 d4 68 bd f4 5a e3 ba 94 61 da bd
       0.029280782 -0.056842934 -0.0017345832 -0.10663143
000370 64 18 be bb 61 b3 2b 3d c6 e2 46 3d 7d 6a 86 3d
       -0.0058012474 0.041919116 0.04855611 0.0656328
000380 2d 0d 4d bd 39 ce 2c 3d aa d8 d1 3c b8 9e a6 3d
       -0.050061394 0.042188857 0.025616009 0.08135742
000390 c1 c9 00 be 16 98 b2 3c 39 6f 62 3d d7 6d 81 bb
       -0.12576963 0.021801036 0.05528185 -0.0039498615
0003a0 02 db 98 bd 7f 6a ca 3d 4a 95 95 bd 15 44 dc bd
       -0.074636474 0.09883594 -0.07303865 -0.10755173
0003b0 8e 88 87 3d 60 eb 94 3c 1c 92 ac 3b d0 50 bf bd
       0.066178426 0.018178642 0.005266441 -0.09341586
0003c0 aa 12 cd bd 6c 73 9e bd 2b 83 3e bc 91 f4 3e 3d
       -0.100133255 -0.07736859 -0.011627953 0.046619955
0003d0 78 d3 ce 3c 8b 8e 11 bd 3b 45 95 bc 09 4e ab 3d
       0.02524732 -0.03553633 -0.018221488 0.083644934
0003e0 ce 41 0d 3d 29 76 81 bd 07 21 aa bd 5e 0d 66 3d
       0.034486584 -0.063213654 -0.08307081 0.05616509
0003f0 b2 e7 25 3c 9a 58 2d 3d 8a 43 1d bc 64 0a 3d 3b
       0.010126041 0.042320825 -0.009598622 0.0028845305

fc2.bias f4 [84]
000000 8b 08 15 3d 8a fd bc 3d 9b b2 d3 ba cb 1e 57 bb
       0.0363851 0.09228046 -0.0016151251 -0.003282475
000010 f6 e5 cf 3d 39 83 87 bd f1 22 b5 bd 4d 7b 17 3d
       0.101512834 -0.066168256 -0.08844555 0.036982823
000020 fc a1 de 3c 32 a4 03 3e 41 52 3f bd bd 6a 5c bd
       0.02717685 0.12855604 -0.046709303 -0.05381273
000030 13 ee 32 bd 55 f9 fa 3c d8 aa 64 3b ca b8 96 bd
       -0.043684077 0.030636469 0.003489187 -0.073594645
000040 a1 e1 9e 3d fd 36 2b bd 77 35 bc 3c a7 13 ed 3d
       0.07757879 -0.041800488 0.022974713 0.11576014
000050 4d 87 82 bd 55 65 80 3e 30 25 2e bd db cd 3c 3e
       -0.06373463 0.2507731 -0.042515934 0.18437903
000060 b5 1e 16 3e e5 50 4f 3e 01 90 91 3d 25 0a 63 3c
       0.14660151 0.20245703 0.07107545 0.013857399
000070 ab 79 9b 3d 20 2f 83 bd ee 20 87 3d 1a fa 3b bd
       0.07591566 -0.06405473 0.06598078 -0.045892812
000080 69 57 68 bd 3e d9 0c 3e 7f 8f d1 3c 1d 89 36 bd
       -0.056723986 0.13754746 0.02558112 -0.044564355
000090 17 f1 6a 3e 2e 0f 01 3c 69 05 9f 3c ad 2a 4d 3d
       0.22943531 0.007877154 0.01941176 0.050089527
0000a0 55 44 25 bd 7d 02 31 3d c2 e6 35 3d 3d 5f 7d bd
       -0.04034837 0.043215264 0.04440952 -0.061858404
0000b0 b3 06 e0 3c 95 6c 4d bd d5 6a ad 3c 51 06 d6 3d
       0.027346944 -0.05015238 0.021169106 0.104504235
0000c0 58 a7 84 bd ad 6b 24 3e ef 47 80 bc 77 73 29 bc
       -0.06477231 0.160567 -0.0156593 -0.01034247
0000d0 cd 0d 8e bd 01 16 ce 3c 2c 84 ad bd d4 d3 5f bd
       -0.06936226 0.025156977 -0.084724754 -0.054645374
0000e0 fb fc e7 3b 0c 93 35 3e 3c 83 69 3d 33 2c 18 3c
       0.007079718 0.17731875 0.05700992 0.009287882
0000f0 06 6e d6 bc 9b 6f f8 3c 7a 14 b9 3d 0a d0 9c 3d
       -0.02617551 0.030326655 0.09037109 0.07656868
000100 80 30 66 3d c0 8c 47 3e 24 36 5a 3d 12 01 34 bc
       0.056198597 0.19487286 0.05327429 -0.010986583
000110 e4 e0 bd bd 7a f2 7a 3d cc e7 5b bc 9b 98 82 3c
       -0.0927141 0.0612664 -0.013421964 0.015941909
000120 ee e0 6d bd 3d 20 af 3c 8e da ad bd 3a f9 c8 3d
       -0.058075838 0.021377677 -0.084889516 0.09813161
000130 ee 34 57 bd b5 69 f3 3c 85 08 a0 3d c3 92 9d bd
       -0.052540712 0.029713491 0.07814125 -0.07694008
000140 97 84 91 3d 58 e9 90 bd 06 ab 00 3e 0b 45 c9 3b
       0.07105368 -0.07075757 0.1256524 0.0061422638

fc3.weight f4 [19, 84]
000000 82 54 96 bc 28 e1 60 3e 68 c0 15 be c1 4a c7 bb
       -0.018350843 0.2196089 -0.14624178 -0.0060819094
000010 76 6a 09 be e9 77 a2 3a f6 a1 87 be 0d e4 0b be
       -0.13419518 0.0012395355 -0.26490754 -0.13661213
000020 e0 ed b5 3c 60 4f a9 bd c5 3a 27 be 81 f2 07 3e
       0.022208154 -0.08267093 -0.16331013 0.13276102
000030 d2 56 4d 3d 26 da 85 3e 83 52 b1 bc 64 11 36 3e
       0.050131626 0.26142997 -0.02164579 0.17780071
000040 10 52 3c be 11 76 b8 3d a1 a1 84 3d 69 2c 30 bc
       -0.1839068 0.090068944 0.06476141 -0.010752776
000050 bc 36 a8 3c 63 2c 09 be 4d ca f7 3d c4 0a dc bd
       0.020533912 -0.13395838 0.12099133 -0.10744241
000060 f9 2c 13 bc f6 a5 67 be 53 aa 8c bd c7 c1 3a 3e
       -0.00898289 -0.22621903 -0.06868424 0.18237983
000070 83 dd fb bd 6e 08 71 bd 9e 8d 85 3d 1a be 25 3d
       -0.122981094 -0.05884593 0.06521152 0.040464498
000080 7b e1 99 3c c6 c5 c0 bd 4b bf 7f bd 51 83 df 3d
       0.018784275 -0.09412722 -0.06243829 0.109137185
000090 0e 9b 78 be 09 e2 c8 bc b7 c9 21 bd 52 82 27 3e
       -0.24277899 -0.024521844 -0.03949901 0.16358307
0000a0 c0 88 87 bd dd cd 9f bd 70 5d c7 bd 32 59 98 bd
       -0.0661788 -0.07802937 -0.09734619 -0.07438888
0000b0 6d 86 31 3e 40 b0 dd bd 83 d6 5c be 13 69 3a 3e
       0.17336436 -0.10824633 -0.21566205 0.18204145
0000c0 21 d2 3a bd 9b d9 70 bb 67 2d 07 3e f1 63 95 3e
       -0.04561055 -0.0036750797 0.13200913 0.29177812
0000d0 1d 87 29 be 30 9f 9d bd e9 58 9a bc 78 ef 1c 3d
       -0.16555448 -0.07696378 -0.018841224 0.038314313
0000e0 7c ca fa 3d 8d 52 8b 3e 43 71 05 3d 9e 49 9b 3d
       0.12245652 0.2721142 0.032578718 0.07582401
0000f0 df 42 97 3d 45 5f 46 be e1 3d cf bd c0 d1 23 3e
       0.073858015 -0.1937228 -0.10119224 0.15997982
000100 be 36 86 3e a9 b2 16 3c f2 c2 5b 3d ef 7d 46 3d
       0.2621364 0.009197869 0.05365271 0.048459943
000110 07 9a 5a 3d 97 24 46 3d b5 9b c8 3c c9 18 1f bd
       0.05336955 0.04837474 0.02448831 -0.038841996
000120 38 1f 90 3c a9 b2 85 3d 85 e8 2d 3d 01 28 53 be
       0.017593011 0.06528217 0.042458076 -0.20620729
000130 80 a9 68 bc 7a d8 7c 3e 7c 0a f0 bc 95 c8 ba 3d
       -0.014200568 0.24691954 -0.029301874 0.09120289
000140 44 ce aa bd 45 e3 9b bb 7f d8 62 bd 2d 6a c3 3d
       -0.08340123 -0.0047573172 -0.055382248 0.09541736
000150 0a 89 f4 bd 18 86 6d 3d 1f ed af bd 43 14 a2 3d
       -0.119402006 0.05798921 -0.08590149 0.07914021
000160 12 e2 d6 bd 69 ed cd 3d 4f 4a 6a bd 8f ae 1c 3d
       -0.10492338 0.10055048 -0.057199772 0.03825241
000170 5e 72 9b bc 42 e6 11 be 9c cb fa 3d 39 ba 5b 3d
       -0.018975433 -0.14247993 0.12245867 0.053644393
000180 1e e3 10 bc e0 a5 79 3e f6 e8 42 bd cc 5b 27 be
       -0.008843211 0.24379683 -0.04758545 -0.16343611
000190 b2 55 4a bb c5 ee b5 bd 2f d1 4c 3c ab 98 e6 3d
       -0.0030873832 -0.08883432 0.012501045 0.11259588
0001a0 ef a4 1c be 22 37 80 be 46 be 2b 3e 95 32 db bd
       -0.15297292 -0.25042063 0.16771802 -0.10703007
0001b0 ca e0 14 bd 4b 62 42 be 62 6d 74 3d 4e 13 8b 3e
       -0.036347188 -0.18982808 0.059674628 0.27163166
0001c0 af 66 0f be 4a a7 83 bc 50 c5 a9 bb ac 5f b5 3d
       -0.14004014 -0.01607098 -0.005180992 0.088561386
0001d0 35 82 04 3e 0d f4 85 bd b1 7a 8f 3d e8 72 31 3d
       0.12940295 -0.065406896 0.070058234 0.043322474
0001e0 51 38 94 be a1 28 64 3d 5d f9 75 bd 39 be 2f be
       -0.28949216 0.05570281 -0.060052264 -0.17162408
0001f0 27 b1 c2 3d b4 86 81 be 05 77 60 bd b0 e2 f0 bc
       0.095064454 -0.25298083 -0.054801006 -0.029404968
000200 3b b6 bf 3c 19 28 a6 bd 4f 8a 18 3e be 06 f0 bc
       0.023402324 -0.08113117 0.1489651 -0.02930009
000210 67 51 0e bd 29 ea 1a be a2 29 bf 3d 85 a6 2e 3e
       -0.0347456 -0.15128388 0.09334113 0.1705571
000220 07 f1 1f bc 81 c0 08 bb d1 dd 16 3d 9a 92 17 bd
       -0.009762055 -0.0020866694 0.036832634 -0.037005045
000230 20 29 af 3d ab a7 6e 3e 18 23 99 3e 51 ec 67 3d
       0.08552766 0.23306148 0.29909587 0.056621853
000240 87 35 81 bc df a6 2a 3e 99 e4 aa 3d 29 06 e1 3d
       -0.015772594 0.16665219 0.08344383 0.10987503
000250 2b ce 14 3e 7d 04 7e bc c1 18 0a be e6 a7 f2 bd
       0.14531772 -0.015504 -0.13486005 -0.1184843
000260 32 fb e3 bd 61 99 e8 bd 51 20 1a 3e 32 a6 05 bc
       -0.11131896 -0.1135738 0.1505139 -0.0081573
000270 61 d4 c4 3c 58 59 cd bd d7 25 be 3c 8a 81 0e be
       0.024027051 -0.100268066 0.023211403 -0.13916603
000280 06 12 24 bd 8e 02 54 3e ca 0e a4 bc 8d 56 1c 3d
       -0.04005625 0.207041 -0.020026583 0.03816848
000290 76 ac ce bd a7 ba e8 bd ee 98 f9 bd aa 5a 08 be
       -0.10091488 -0.11363726 -0.12187372 -0.13315836
0002a0 28 b8 b3 bd 08 90 54 3e c8 64 b8 3c 39 fa d8 bd
       -0.087753594 0.20758069 0.022508994 -0.10594601
0002b0 bb 57 86 bd c1 98 06 3c e8 01 24 be 32 c6 85 3e
       -0.06559702 0.00821513 -0.16016352 0.26127774
0002c0 36 97 34 be 0e f8 79 bd fc 92 f7 bc 0d a4 d6 3d
       -0.17635807 -0.06102758 -0.030221455 0.10480509
0002d0 ea 97 df bd fd bf 46 3d d2 be a2 bd b3 0a 2f 3c
       -0.10917647 0.048522938 -0.07946552 0.010683703
0002e0 26 f5 0f bd b3 a9 f9 3c 04 9c b4 3d b4 9a 2f 3d
       -0.0351459 0.030476427 0.0881882 0.042872146
0002f0 71 e2 fa bd c4 3c 0e be b5 04 66 3d fc 28 08 bd
       -0.122502215 -0.13890368 0.056156833 -0.03324221
000300 54 ff 96 bd 43 79 a4 bd ea d9 16 be d3 3b 17 bd
       -0.07372919 -0.08030941 -0.14731565 -0.036922287
000310 89 b6 72 be 84 2e 93 3d 1d e4 97 3e 06 45 50 bd
       -0.23702444 0.071866065 0.29666224 -0.050847076
000320 32 0d 79 bc ab d7 23 be 0e 3a d5 bd 71 91 36 3e
       -0.0152009 -0.1600024 -0.10411464 0.17828919
000330 b3 0e 4f be 56 0f cd bd 54 42 70 bd 50 fd c9 bc
       -0.20220451 -0.10012691 -0.058657005 -0.024656922
000340 9a 31 88 3d 42 1f e9 bd 75 75 30 be 08 ce 16 38
       0.06650086 -0.11382915 -0.17232306 3.595467e-05
000350 06 d6 c3 3d bf 63 4e bd 35 fb 10 3d 12 a1 19 3e
       0.09562306 -0.050388094 0.03539582 0.1500285
000360 d1 6e 58 3d cb 91 a2 3c a9 74 78 3d 52 84 9d 3b
       0.052840058 0.01984491 0.06065813 0.0048070336
000370 26 cb 6d bd da 67 e9 3d a3 b4 07 bc a8 3d 02 bd
       -0.058055066 0.11396761 -0.008282813 -0.03179708
000380 b6 1c 73 3e 35 67 5c 3e fb 6e 3e be f6 a1 c6 bd
       0.23741421 0.21523745 -0.18597023 -0.0969886
000390 1e 25 fb bd 4d 49 37 be f5 b5 15 3e 63 82 d3 3d
       -0.12262939 -0.17899056 0.14620192 0.10327604
0003a0 ee 73 3e bd af 4a eb bd 2a 80 e7 bd cc d8 d3 3d
       -0.046497278 -0.11488854 -0.11303742 0.10344085
0003b0 78 30 68 bd ed 8b 11 be 11 4f b8 3d 2f f9 6e bc
       -0.05668685 -0.14213534 0.08999456 -0.014585777
0003c0 94 38 9e 3d 52 22 8a 3e 42 08 5a bd a5 ac bc bd
       0.07725635 0.2697931 -0.05323053 -0.09212617
0003d0 12 e4 82 bd 28 b5 2d 3e f5 31 34 3e 08 5c f7 bd
       -0.06391157 0.16963637 0.17597182 -0.120781004
0003e0 3a 16 ef bd dc 76 98 bc cf 86 b4 3d 6f 6f 08 be
       -0.11674161 -0.018611364 0.08814775 -0.13323759
0003f0 ac 67 00 be 3f 98 44 3e 13 81 1d bd 87 e0 1f bd
       -0.12539548 0.19198702 -0.038453173 -0.039032485

fc3.bias f4 [19]
000000 c7 12 87 be a0 a4 cf bd 10 37 4a 3d 10 b7 73 bc
       -0.26381513 -0.101388216 0.049368918 -0.0148751885
000010 6d 48 6c be 01 80 27 3e 4f c1 88 be 59 60 a0 bb
       -0.23074503 0.16357423 -0.26709983 -0.004894298
000020 fd f1 76 be 4b 6c bb bd bc cb 9a 3e cf 52 5e bd
       -0.24115749 -0.091515146 0.30233562 -0.05427819
000030 0a 49 5d 3e ee 21 df 3b 1c d7 b3 3d 05 34 da 3d
       0.21609893 0.0068094647 0.08781263 0.10654453
000040 ee 42 ba bc 86 14 7b 3e 2a ae a4 bd
       -0.022736993 0.24519548 -0.08041032
