python/CNN4.pth (torch_old, 252622 bytes, 10 tensors)

conv1.weight f4 [6, 3, 5, 5]
0.32360604 0.44865146 0.46711838 0.33339757 0.48960218 -0.024495633 0.07748287 0.048509177
0.21428293 0.1761795 0.01709181 -0.14204402 -0.104948506 -0.12873347 -0.083185025 0.10065543
0.10230261 -0.0045070746 0.067636944 0.024173832 0.24853611 0.43410337 0.22644468 0.20481406
-0.07402951 -0.042394195 0.09517664 0.17651573 0.22826557 0.2795153 -0.15955718 -0.16175199
-0.11881524 0.0010526688 -0.06801938 -0.22109321 -0.44490623 -0.32891855 -0.46365744 -0.21078654
-0.13112924 -0.0506088 -0.20956749 -0.31150022 -0.20755506 0.12401829 0.20542851 0.15426518
-0.16082853 -0.2563405 -0.030612525 -0.009985864 0.22756319 0.1794159 0.13293643 -0.14713304
-0.14801592 -0.13727894 0.02201059 0.052676026 -0.22335789 -0.43155098 -0.49023062 -0.37446207
-0.30730006 -0.034061797 -0.14421032 -0.23292558 -0.26919165 -0.2103618 0.34574765 0.18482286
0.0040813987 -0.056825507 -0.23690346 -0.036959838 -0.0057500075 -0.06782625 0.009102558 0.02577515
0.11813804 0.096536934 0.04829981 0.14636262 0.13294941 -0.094067015 0.15610243 0.088290006
0.16615312 0.24474674 -0.15521693 -0.0826768 -0.022432882 0.037425645 0.13182808 -0.057201203
-0.04063467 -0.26713544 -0.10895148 -0.13197015 -0.029700555 -0.09287772 -0.050443158 -0.045512885
-0.034279127 0.02371252 0.1916887 0.13291796 0.19767466 0.08427808 0.11068099 0.12726685
0.16863494 0.2718182 0.27267376 -0.12998822 -0.10242126 -0.17517176 -0.030525893 0.0031188666
-0.017004177 -0.052338228 -0.102327116 -0.0729332 -0.10079319 -0.13655801 -0.03572369 -0.14691806
0.042837515 -0.030273061 -0.15711966 -0.037866507 0.09117348 -0.05665328 0.0051504173 -0.12872799
0.0173667 -0.038555216 0.16469975 0.16931222 -0.15677524 -0.18750662 -0.2612537 -0.16267312
0.011098892 -0.10169988 -0.27452037 -0.24301672 -0.3353687 -0.18126693 0.1364804 0.1635877
0.0900061 -0.040801443 -0.10577213 0.16734529 0.037521843 -0.17465447 -0.22764815 -0.23358011
0.24659133 -0.06025646 -0.27898827 -0.38962686 -0.22923203 0.24285404 0.17217503 -0.29718158
-0.32018894 -0.111610204 0.55334014 0.2809053 0.023505375 -0.22495143 -0.10708912 -0.018331975
0.13900661 -0.11132092 -0.24927054 -0.16174394 -0.050687052 0.014601595 -0.28255907 -0.2858596
-0.33357587 -0.1882778 0.0030369216 -0.2939198 -0.24398506 -0.30573052 0.07811292 -0.0022867974
-0.18707354 -0.40321624 -0.14814088 0.06385858 0.019600645 -0.19390924 -0.39856055 -0.13387984
0.24528703 0.35303697 0.3274315 0.05132903 0.06664168 0.082907066 0.16043681 0.14598215
0.015632745 0.10510988 0.06873341 0.23208083 0.00039795728 -0.08362591 0.19402559 0.21021679
0.19843787 -0.039314058 0.10134174 0.3159801 0.4111419 0.2531504 0.06680105 0.028581401
0.19452387 0.05004253 0.12003276 -0.061813146 0.14651553 0.16653882 -0.027746871 0.045244068
0.11943944 0.0022745123 0.21444425 -0.1102185 -0.02571427 -0.121189155 -0.071893424 -0.036808364
-0.15622686 -0.0967386 -0.033085056 0.06970824 0.06591937 -0.16076973 -0.031556863 -0.09496695
-0.052095886 0.10096321 -0.23877999 -0.23156829 -0.18990126 -0.17298244 0.0065670717 -0.119117886
00000000: b1af a53e a5b5 e53e 242a ef3e 16b3 aa3e
00000010: 23ad fa3e 11ab c8bc 57af 9e3d 8fb1 463d
00000020: fc6c 5b3e 6668 343e 2004 8c3c fd73 11be
00000030: 3eef d6bd b5d2 03be e95c aabd 6f24 ce3d
00000040: 0884 d13d 15b0 93bb 3d85 8a3d 3308 c63c
00000050: 4080 7e3e cc42 de3e 1de1 673e c7ba 513e
00000060: c99c 97bd 89a5 2dbd f8eb c23d 8ac0 343e
00000070: 73be 693e a11c 8f3e f562 23be 50a2 25be
00000080: 6855 f3bd b4f9 893a bf4d 8bbd 4266 62be
00000090: c0ca e3be 0368 a8be 8264 edbe 6dd8 57be
000000a0: be46 06be 2c4b 4fbd dc98 56be f57c 9fbe
000000b0: 5089 54be 4dfd fd3d da5b 523e b1f7 1d3e
000000c0: 3cb0 24be 103f 83be 1ec7 fabc c09b 23bc
000000d0: 5306 693e cdb8 373e 7d20 083e 0baa 16be
000000e0: 7c91 17be da92 0cbe 8e4f b43c d1c2 573d
000000f0: eeb7 64be 40f4 dcbe 82ff fabe 7eb9 bfbe
00000100: 6f56 9dbe 6284 0bbd dfab 13be 0b84 6ebe
00000110: 7dd3 89be 1569 57be d605 b13e 3442 3d3e
00000120: 41bd 853b ddc1 68bd d296 72be 3363 17bd
00000130: 8f6a bcbb 7de8 8abd e522 153c 6826 d33c
00000140: 5bf2 f13d 28b5 c53d 06d6 453d 15e0 153e
00000150: e423 083e 35a6 c0bd 51d9 1f3e 64d1 b43d
00000160: 0b24 2a3e e49e 7a3e 30f1 1ebe 7452 a9bd
00000170: 2ac5 b7bc a24b 193d f1fd 063e cf4b 6abd
00000180: 8a70 26bd fac5 88be f421 dfbd 2f23 07be
00000190: 944e f3bc ad36 bebd 7c9d 4ebd b86b 3abd
000001a0: 4568 0cbd c240 c23c 0b4a 443e a51b 083e
000001b0: 3a6b 4a3e fc99 ac3d b7ac e23d 3e52 023e
000001c0: a3ae 2c3e c12b 8b3e e59b 8b3e a21b 05be
000001d0: 3dc2 d1bd 3a60 33be 7011 fabc e665 4c3b
000001e0: 584c 8bbc 9c60 56bd e190 d1bd 005e 95bd
000001f0: a96c cebd ddd5 0bbe 0153 12bd b071 16be
00000200: 6476 2f3d 36ff f7bc fae3 20be e919 1bbd
00000210: 29b9 ba3d 450d 68bd d5c4 a83b 45d1 03be
00000220: 9c44 8e3c 13ec 1dbd 0da7 283e 2f60 2d3e
00000230: b089 20be bc01 40be 0cc3 85be c893 26be
00000240: 21d8 353c 0748 d0bd ef8d 8cbe 60d9 78be
00000250: 72b5 abbe 0a9e 39be 85c1 0b3e 8983 273e
00000260: 1e55 b83d 6a1f 27bd 0f9f d8bd 905c 2b3e
00000270: 81b0 193d 9fd8 32be 991c 69be a02f 6fbe
00000280: 7082 7c3e 7acf 76bd 8dd7 8ebe 2c7d c7be
00000290: cdbb 6abe bbae 783e a74e 303e 2f28 98be
000002a0: ceef a3be e493 e4bd b3a7 0d3f d2d2 8f3e
000002b0: 588e c03c ab59 66be 8a51 dbbd f02c 96bc
000002c0: c057 0e3e 39fc e3bd c740 7fbe 34a0 25be
000002d0: 3a9d 4fbd 873b 6f3c 95ab 90be 315c 92be
000002e0: 75ca aabe e5cb 40be 1707 473b a87c 96be
000002f0: 38d7 79be b688 9cbe abf9 9f3d 18de 15bb
00000300: 3590 3fbe 5c72 cebe 3eb2 17be 4ac8 823d
00000310: 8891 a03c 2590 46be 2110 ccbe cc17 09be
00000320: 862c 7b3e 43c1 b43e 1aa5 a73e 643e 523d
00000330: 6f7b 883d 2ecb a93d 8c49 243e 587c 153e
00000340: 3e10 803c d943 d73d 1ac4 8c3d 99a6 6d3e
00000350: eca4 d039 1044 abbd a5ae 463e 1243 573e
00000360: 4c33 4b3e c707 21bd 428c cf3d 25c8 a13e
00000370: 3181 d23e ee9c 813e fdce 883d 8b23 ea3c
00000380: 4431 473e 65f9 4c3d bcd3 f53d c82f 7dbd
00000390: 2b08 163e 2789 2a3e 684d e3bc d851 393d
000003a0: aa9c f43d fc0f 153b 4697 5b3e 3dba e1bd
000003b0: bca6 d2bc 0532 f8bd dc3c 93bd 5ec4 16bd
000003c0: eff9 1fbe e31e c6bd 3284 07bd 32c3 8e3d
000003d0: bc00 873d d2a0 24be c541 01bd 087e c2bd
000003e0: 7f62 55bd cdc5 ce3d be82 74be 3d20 6dbe
000003f0: 7a75 42be 4f22 31be 9730 d73b 14f4 f3bd

conv1.bias f4 [6]
0.3875174 0.13404322 0.2609767 -0.3400373 -0.07072478 0.1590569
00000000: ae68 c63e a042 093e bd9e 853e 5e19 aebe
00000010: 27d8 90bd d0df 223e

conv2.weight f4 [16, 6, 5, 5]
-0.10469463 -0.057508275 0.034485966 0.13372262 0.16842331 -0.020994367 -0.008329782 0.15501086
0.08641649 -0.01656263 0.0067627644 -0.05194735 0.11294494 0.17574383 0.07203476 -0.1252429
-0.096938275 -0.11669756 -0.124707915 -0.011945748 -0.1300291 0.024229923 0.015389259 -0.12799244
-0.2001904 -0.050314102 0.0653821 0.12811746 -0.0385539 0.059658125 -0.011016451 -0.01321186
0.18159455 0.09353425 0.15160717 0.12451618 0.041200656 0.10214996 0.0029620857 -0.019338265
0.08488819 0.1263939 0.13549869 0.05286686 -0.055438273 0.0694901 -0.07000307 -7.750208e-06
-0.012010344 -0.093881406 0.26821727 0.104195595 0.1448648 0.094469704 0.02163557 0.12149563
0.06076041 0.08913205 -0.07242906 -0.089276835 -0.007112713 0.027791658 -0.07590781 -0.082931444
-0.12728855 -0.07400413 -0.22148097 -0.24899465 -0.24539618 -0.18390974 -0.16886976 -0.19029649
-0.15700546 -0.18541248 -0.04665737 0.20347266 0.19323102 0.10593986 0.05699325 0.10808921
0.23198295 0.24169399 0.17868063 0.09078029 -0.026929205 0.10356662 -0.093691 0.04734145
-0.11710603 -0.04109736 -0.024965113 -0.12479799 -0.020094266 -0.091621675 -0.090578176 0.041923165
-0.18607804 -0.11130334 -0.1327237 -0.1382807 0.08897348 0.15425684 0.10206117 0.10179867
0.16449411 0.19309393 0.12420949 0.022905026 -0.04213269 -0.0321666 0.05131312 -0.10912662
-0.025293283 -0.07624317 -0.12242375 -0.04810942 -0.116249785 -0.116022445 -0.09039291 -0.10343315
-0.024463313 -0.03230218 -0.030325796 -0.07744192 -0.08545624 -0.031212805 0.16217297 0.061174855
-0.018211283 0.08255472 0.11621259 0.13506523 0.11889167 0.07100966 0.015221993 0.07745205
0.06716277 0.16623999 0.022214968 0.036275566 0.11224905 -0.06501983 -0.028348759 -0.07695949
-0.15055361 0.12303992 -0.01117203 -0.052328307 -0.16126585 -0.06591191 -0.17502728 -0.047844168
0.061730515 0.0635217 0.24452314 -0.017870847 -0.06901821 -0.10514669 -0.008411189 -0.09608642
0.16639207 0.05684625 -0.08810716 -0.008218634 -0.032786146 -0.036428776 0.07326553 -0.024861315
-0.019762436 0.017466212 -0.010073894 -0.13507745 -0.14500982 -0.12284097 -0.07761791 -0.082744226
-0.1342698 -0.07034439 -0.098140046 0.028189626 0.061322432 0.05251009 -0.10608515 -0.032953504
0.08039224 0.040346663 -0.07188828 0.03642987 -0.049592413 0.024956305 -0.13129051 -0.10137773
-0.05909933 -0.0933827 0.047075294 -0.02583966 -0.09355817 -0.06042103 -0.09269522 0.07100346
-0.053065144 -0.27398574 -0.13426003 0.08004206 -0.09146746 -0.1603235 -0.19734995 -0.05090667
0.0022993772 -0.047045752 0.048247345 0.115683995 0.052392904 -0.04752403 -0.11675057 0.036958452
0.24432789 0.2006534 0.2607328 -0.04366451 0.08742155 0.22931777 0.2610828 0.26894936
-0.04083444 -0.22152093 -0.19684896 -0.23371786 -0.11354982 -0.05231573 -0.037750226 -0.01172519
0.008819718 0.004183381 0.014603463 -0.08341053 0.069018535 0.09021231 0.08620137 0.047212776
0.017423125 0.047054518 0.17977652 0.17778768 0.17431256 0.12851037 0.13281623 0.09135759
0.16958003 0.17156476 -0.13490899 -0.18524334 -0.24986999 -0.1694618 -0.07127551 -0.07852795
00000000: 236a d6bd cc8d 6bbd 2841 0d3d 95ee 083e
00000010: 2977 2c3e 61fc abbc a379 08bc 2bbb 1e3e
00000020: 21fb b03d 5aae 87bc 2e9a dd3b bfc6 54bd
00000030: ad4f e73d 31f6 333e f686 933d ad3f 00be
00000040: 9387 c6bd 21ff eebd dd66 ffbd 19b8 43bc
00000050: 5926 05be d57d c63c 3b23 7c3c 7310 03be
00000060: b6fe 4cbe 2916 4ebd 0de7 853d 3931 033e
00000070: b2ea 1dbd 145c 743d 587e 34bc 8f76 58bc
00000080: ecf3 393e e38e bf3d e93e 1b3e 5702 ff3d
00000090: 05c2 283d 0034 d13d 8d1f 423b 486b 9ebc
000000a0: dcd9 ad3d 676d 013e 2bc0 0a3e ec8a 583d
000000b0: 3e13 63bd d350 8e3d c55d 8fbd e406 02b7
000000c0: 09c7 44bc e544 c0bd c653 893e 8064 d53d
000000d0: 7057 143e 5579 c13d 143d b13c b3d2 f83d
000000e0: e8df 783d dd8a b63d b055 94bd c6d6 b6bd
000000f0: c311 e9bb 55ab e33c 8e75 9bbd f6d7 a9bd
00000100: ee57 02be 7a8f 97bd e8cb 62be 74f8 7ebe
00000110: 2349 7bbe d652 3cbe 32ec 2cbe 15dd 42be
00000120: 0ac6 20be c5dc 3dbe cc1b 3fbd 235b 503e
00000130: 5ade 453e fff6 d83d c171 693d e05d dd3d
00000140: f08c 6d3e a17e 773e 0ef8 363e 04eb b93d
00000150: a39a dcbc bc1a d43d 11e1 bfbd 1ce9 413d
00000160: 49d5 efbd b555 28bd a383 ccbc 1796 ffbd
00000170: bb9c a4bc 25a4 bbbd 0d81 b9bd a0b7 2b3d
00000180: 3e8b 3ebe 01f3 e3bd b9e8 07be 7599 0dbe
00000190: ba37 b63d 81f5 1d3e 7205 d13d d27b d03d
000001a0: 2571 283e 6aba 453e 8c61 fe3d 52a3 bb3c
000001b0: 5493 2cbd 20c1 03bd b52d 523d c77d dfbd
000001c0: dc33 cfbc 6125 9cbd 4eb9 fabd 620e 45bd
000001d0: 5e14 eebd 2d9d edbd eb1f b9bd c2d4 d3bd
000001e0: 4967 c8bc 4a4f 04bd ce6d f8bc df99 9ebd
000001f0: ae03 afbd ffb1 ffbc ac10 263e 7c92 7a3d
00000200: d42f 95bc 7312 a93d de00 ee3d 8a4e 0a3e
00000210: 7a7d f33d 836d 913d ab65 793c 2e9f 9e3d
00000220: a28c 893d d13a 2a3e 2afc b53c b095 143d
00000230: d4e2 e53d 1e29 85bd a83b e8bc f09c 9dbd
00000240: ba2a 1abe 5bfc fb3d e40a 37bc 3556 56bd
00000250: e022 25be d3fc 86bd 5a3a 33be 3ff8 43bd
00000260: 23d9 7c3d aa17 823d 4664 7a3e e265 92bc
00000270: 6b59 8dbd 2657 d7bd 15cf 09bc f5c8 c4bd
00000280: af62 2a3e 9dd7 683d 8771 b4bd 73a7 06bc
00000290: c44a 06bd 5736 15bd 3d0c 963d f5a9 cbbc
000002a0: d5e4 a1bc 4d15 8f3c f90c 25bc be51 0abe
000002b0: 747d 14be 0c94 fbbd 24f6 9ebd ce75 a9bd
000002c0: 067e 09be b810 90bd a6fd c8bd eeed e63c
000002d0: 3b2d 7b3d d214 573d 2c43 d9bd 41fa 06bd
000002e0: b0a4 a43d 8b42 253d 2a3a 93bd 7d37 153d
000002f0: 6a21 4bbd 2a71 cc3c 0571 06be 219f cfbd
00000300: 2412 72bd 6e3f bfbd 06d2 403d b2ad d3bc
00000310: 6d9b bfbd 0b7c 77bd fed6 bdbd 436a 913d
00000320: d65a 59bd dc47 8cbe 767b 09be 17ed a33d
00000330: 4b53 bbbd d82b 24be 1b16 4abe 8383 50bd
00000340: 26b1 163b 0cb3 40bd 029f 453d bbeb ec3d
00000350: f199 563d 8fa8 42bd ec1a efbd bf61 173d
00000360: 1731 7a3e 1678 4d3e c57e 853e 8fd9 32bd
00000370: 120a b33d 47d2 6a3e a5ac 853e bbb3 893e
00000380: 0442 27bd 62d6 62be c692 49be bc53 6fbe
00000390: cf8c e8bd 0549 56bd fb9f 1abd 031b 40bc
000003a0: 9480 103c be14 893b 5d43 6f3c 24d3 aabd
000003b0: 9759 8d3d 3bc1 b83d 588a b03d 2f62 413d
000003c0: f1ba 8e3c 3dbc 403d 5617 383e f90d 363e
000003d0: fe7e 323e 3998 033e fa00 083e b019 bb3d
000003e0: 63a6 2d3e acae 2f3e 9525 0abe 6eb0 3dbe
000003f0: ebdd 7fbe 6587 2dbe e5f8 91bd 43d3 a0bd

conv2.bias f4 [16]
0.0051926635 -0.047038674 0.049204357 -0.024129659 -0.017888859 0.11411647 -0.020295693 0.07456495
-0.06741579 -0.031000737 0.032872155 -0.011250876 -0.034894492 -0.05247798 -0.0145955505 -0.108632766
00000000: 3827 aa3b a0ab 40bd 828a 493d 90ab c5bc
00000010: a88b 92bc e5b5 e93d 2743 a6bc 82b5 983d
00000020: 4a11 8abd 42f5 fdbc f4a4 063d 9855 38bc
00000030: 87ed 0ebd 26f3 56bd 2d22 6fbc db7a debd

fc1.weight f4 [120, 400]
-0.03332983 -0.015399634 0.031605937 -0.06938162 -0.06572722 -0.057223942 0.011050256 0.028339243
-0.027191702 -0.023585167 -0.037233125 0.010671737 0.050809547 0.040292475 -0.044748537 -0.046442453
-0.0008451736 -0.013808224 0.0065594786 0.023081027 -0.058301948 -0.027717784 -0.015241975 0.004762525
-0.0525167 0.00047712564 0.022174515 -0.021501964 -0.02875598 -0.006363702 0.026830757 -0.0060383677
0.006098178 0.00363073 -0.0017864648 -0.035268437 -0.055525348 -0.03532316 -0.016003197 0.0050192177
0.074408 0.052443154 0.04745681 0.053563923 0.05349897 0.014070927 0.08744015 0.0033066098
0.08926193 0.05428589 -0.07224938 -0.04477923 -0.043475542 -0.06915108 -0.03408689 -0.0095850155
-0.103243366 -0.044543803 -0.065222874 -0.05924672 -0.071793914 -0.008568156 -0.003408981 -0.04613382
-0.046698816 0.0153126605 -0.05189816 -0.067040935 -0.08890182 -0.043927625 -0.07745294 -0.0765819
0.01976294 0.016316159 -0.052407928 -0.0036542928 0.023877857 0.016017685 0.000627521 -0.0011488847
-0.013773796 -0.008090609 0.030923685 -0.038883254 0.03543071 0.042695623 0.030939462 -0.03801508
0.009737283 -0.011845157 0.03978653 0.03732424 0.010439223 -0.018581819 0.040624768 -0.0044366107
0.032590337 0.02122832 -0.042892605 0.036236588 -0.003940331 -0.04774475 0.03168841 0.041670743
-0.03443807 0.007980754 0.02647771 0.016027713 0.0431338 0.011779154 0.056646947 0.03708217
-0.019708933 -0.036954764 0.011675775 -0.04270003 0.02114927 0.015452886 0.015555859 0.016371218
0.034988776 -0.025021503 0.047904115 -0.032314923 0.038573902 0.07883411 0.015410395 0.008554479
0.036920458 -0.019333068 0.01920901 -0.019270774 0.006208175 -0.012361542 -0.039207824 0.024170171
0.024008764 -0.025681583 -0.036669042 0.036311857 0.06511299 0.023947055 -0.035564315 -0.02763383
-0.0012354585 0.09749768 -0.033617646 0.013311886 0.058569863 0.07980111 0.012129864 -0.04524688
0.035940282 0.018289313 0.018249113 0.05608693 0.021791203 0.008695 -0.02102602 0.002364999
0.029707124 -0.0077127735 -0.025719663 0.043422934 -0.049692146 0.0071044643 0.010185994 0.044172045
-0.02799913 -0.056014366 0.004351616 0.030387972 -0.021337207 0.009187891 -0.026865212 -0.008368867
0.038215086 0.00738364 -0.012881746 0.0117881065 0.0033196714 -0.0504629 0.0789237 0.0004661666
-0.025562461 -0.017101115 0.013330093 -0.023967518 0.0047852546 0.054758422 0.0066460595 0.031173266
0.019878425 -0.027801499 0.041374646 -0.03844647 -0.018561024 0.01720018 0.02533112 0.059410084
-0.01600629 -0.005616016 -0.0054068286 -0.01580706 0.054489117 -0.06035086 -0.037665907 -0.04660506
0.03802691 0.05376494 -0.05507821 0.01000213 0.007393875 -0.032203864 0.0025171433 0.018462034
-0.03942371 0.011599395 0.07405861 0.060345057 0.022180406 -0.04513737 -0.037082158 0.055880338
0.057984043 0.06876814 0.043325733 -0.029006897 0.0004204138 0.052955233 0.066720404 0.015995976
-0.095737435 0.018083978 0.0025407358 0.004610805 -0.028777536 -0.06239103 -0.010653297 -0.008376493
0.056071974 0.08232883 0.0055810995 -0.0076696235 0.020360399 0.05282757 0.081271395 -0.060506035
-0.028623188 0.08697533 0.026228193 0.013587188 0.03403218 -0.04099561 -0.018531818 -0.039903503
00000000: dc84 08bd bf4e 7cbc 3a75 013d f317 8ebd
00000010: fe9b 86bd a763 6abd 220c 353c b327 e83c
00000020: 22c1 debc ae35 c1bc c381 18bd 82d8 2e3c
00000030: ac1d 503d b909 253d 3e4a 37bd 713a 3ebd
00000040: a48e 5dba e43b 62bc e5f0 d63b 6c14 bd3c
00000050: 06ce 6ebd 6810 e3bc 7ab9 79bc f50e 9c3b
00000060: c01b 57bd b826 fa39 54a7 b53c e324 b0bc
00000070: a991 ebbc 9a86 d0bb 2dcc db3c 80dd c5bb
00000080: 3ad3 c73b 8bf1 6d3b d027 eaba a375 10bd
00000090: 8c6e 63bd 05af 10bd 2319 83bc 4078 a43b
000000a0: 3963 983d a2ce 563d 1262 423d d865 5b3d
000000b0: bc21 5b3d bf89 663c d213 b33d b5b3 583b
000000c0: f5ce b63d e25a 5e3d 7cf7 93bd 6d6a 37bd
000000d0: 6913 32bd 159f 8dbd b29e 0bbd 780a 1dbc
000000e0: 4271 d3bd 9073 36bd 9293 85bd b0ac 72bd
000000f0: b008 93bd 7361 0cbc 3669 5fbb d1f6 3cbd
00000100: 4247 3fbd f4e1 7a3c 2a93 54bd c24c 89bd
00000110: 2812 b6bd 74ed 33bd a69f 9ebd f9d6 9cbd
00000120: e4e5 a13c 77a9 853c b2a9 56bd dc7c 6fbb
00000130: 7f9b c33c 8537 833c 3980 243a 2c96 96ba
00000140: 7dab 61bc 798e 04bc ab53 fd3c 0c44 1fbd
00000150: cb1f 113d 9be1 2e3d c174 fd3c b3b5 1bbd
00000160: 2089 1f3c 3012 42bc 33f7 223d 4de1 183d
00000170: 4609 2b3c e638 98bc 2866 263d fd60 91bb
00000180: 727d 053d 04e7 ad3c 28b0 2fbd d16c 143d
00000190: e41d 81bb 0090 43bd b5cb 013d f1ae 2a3d
000001a0: ef0e 0dbd b5c1 023c c8e7 d83c 8d4c 833c
000001b0: 11ad 303d 5afd 403c a106 683d 79e3 173d
000001c0: a174 a1bc e15d 17bd c04b 3f3c 3ae6 2ebd
000001d0: 3c41 ad3c 1a2e 7d3c 00de 7e3c ef1c 863c
000001e0: 6450 0f3d e5f9 ccbc 1b37 443d a75c 04bd
000001f0: abff 1d3d c773 a13d e27b 7c3c 1628 0c3c
00000200: e839 173d 6260 9ebc 375c 9d3c bedd 9dbc
00000210: f26d cb3b 1188 4abc 6298 20bd 8600 c63c
00000220: 07ae c43c 2f62 d2bc 4732 16bd bebb 143d
00000230: f659 853d 9d2c c43c e3ab 11bd 5860 e2bc
00000240: 1cef a1ba ddac c73d a8b2 09bd 191a 5a3c
00000250: f4e6 6f3d c46e a33d 56bc 463c cb54 39bd
00000260: 1e36 133d 78d3 953c 2a7f 953c 69bb 653d
00000270: 7783 b23c 7975 0e3c c33e acbc 19fe 1a3b
00000280: 5b5c f33c 6fbb fcbb 0bb2 d2bc 3fdc 313d
00000290: fe89 4bbd 91cc e83b 28e3 263c bfed 343d
000002a0: 6e5e e5bc 526f 65bd 0098 8e3b 32f0 f83c
000002b0: 5ecb aebc cf88 163c 6f14 dcbc 931d 09bc
000002c0: 6c87 1c3d 76f2 f13b f50d 53bc e722 413c
000002d0: d88e 593b 30b2 4ebd c0a2 a13d d267 f439
000002e0: 5e68 d1bc a317 8cbc 7666 5a3c 8757 c4bc
000002f0: a0cd 9c3b 5e4a 603d 30c7 d93b 145f ff3c
00000300: 14d8 a23c f8bf e3bc 7678 293d 0c7a 1dbd
00000310: 4a0d 98bc 64e7 8c3c 3583 cf3c fd57 733d
00000320: a01f 83bc 8f06 b8bb c42b b1bb cf7d 81bc
00000330: fb2f 5f3d 7732 77bd 9147 1abd f3e4 3ebd
00000340: 1bc2 1b3d a038 5c3d b099 61bd f9df 233c
00000350: 5248 f23b 33e8 03bd a8f6 243b b13d 973c
00000360: c27a 21bd 640b 3e3c 0aac 973d 612c 773d
00000370: afb3 b53c f6e1 38bd 76e3 17bd c8e2 643d
00000380: ad80 6d3d 50d6 8c3d 5376 313d df9f edbc
00000390: fc6a dc39 96e7 583d b5a4 883d fe09 833c
000003a0: fd11 c4bd da24 943c 7982 263b 3c16 973b
000003b0: debe ebbc bd8d 7fbd 2b8b 2ebc 8f3d 09bc
000003c0: baab 653d 059c a83d a8e1 b63b 7751 fbbb
000003d0: daca a63c b961 583d 9e71 a63d 2dd5 77bd
000003e0: 2d7b eabc 1f20 b23d 82dc d63c cc9c 5e3c
000003f0: 5465 0b3d 03eb 27bd 0ad0 97bc db71 23bd

fc1.bias f4 [120]
0.05235305 0.017374586 0.021673257 0.067088 0.008503143 0.07345094 -0.019452332 0.05564741
-0.04487574 -0.02695948 -0.022186581 -0.013449279 0.09514874 -0.0043442934 -0.05353939 0.02464752
0.03193 0.09075759 -0.056457255 0.03665372 -0.01955123 0.15166807 -0.02513295 0.03657928
0.043635666 -0.022060998 0.045006767 0.040311623 -0.03598602 -0.006871638 0.050933912 -0.013850822
-0.023232453 0.117240116 0.04245202 -0.06935706 -0.012948317 -0.05034485 -0.014267016 0.016251925
-0.05112772 0.008600547 0.0044211997 0.02531172 -0.012583825 -0.038841568 0.08753965 0.00348298
-0.026647279 0.010672614 0.050849114 -0.011112794 -0.03747652 0.07144781 0.00018798145 -0.0032698687
-0.032843843 -0.050788485 0.013512631 -0.055067353 -0.011094152 0.03963783 0.037465885 0.009105946
0.039565183 0.011795779 0.009836292 0.010687302 -0.027004704 -0.03944537 0.0420478 -0.0026317593
0.006181089 -0.04140974 0.052578107 -0.022889266 -0.03452133 -0.027723912 -0.010793821 0.03417631
0.107493326 -0.009966981 0.030378452 -0.008473255 -0.02016348 0.09239545 0.051676013 -0.007725369
0.01635537 0.009071333 -0.018638536 -0.009998544 0.061170124 0.008467244 0.065968834 0.030175066
-0.0052916515 -0.022658946 -0.032957375 0.0026248465 -0.028818855 0.0201672 0.05978848 -0.005761092
0.032397997 -0.012468333 -0.04459481 -0.021823283 -0.016584788 -0.0033528726 0.016577635 -0.002841289
-0.00058305945 0.07722246 0.050160456 0.02454628 -0.01701334 -0.023721848 0.05308342 -0.024429198
00000000: 2770 563d 2655 8e3c 1d8c b13c 6f65 893d
00000010: c450 0b3c 726d 963d 7f5a 9fbc 8aee 633d
00000020: a0cf 37bd 21da dcbc a2c0 b5bc 5d5a 5cbc
00000030: 58dd c23d 935a 8ebb 1f4c 5bbd 99e9 c93c
00000040: 08c9 023d 1edf b93d b93f 67bd 3622 163d
00000050: e729 a0bc e04e 1b3e 9ee3 cdbc 28d4 153d
00000060: 50bb 323d 44b9 b4bc 0459 383d cd1d 253d
00000070: 1466 13bd 7a2b e1bb 14a0 503d 8fee 62bc
00000080: fc51 bebc 961b f03d 2be2 2d3d 130b 8ebd
00000090: 2e25 54bc 6736 4ebd 34c0 69bc c222 853c
000000a0: 4d6b 51bd 4fe9 0c3c b6df 903b 865a cf3c
000000b0: 632c 4ebc 5618 1fbd fd47 b33d b542 643b
000000c0: 654b dabc 30dc 2e3c 2947 503d 7012 36bc
000000d0: fb80 19bd 3b53 923d e31c 4539 4b4b 56bb
000000e0: 4487 06bd 9607 50bd 1564 5d3c 4e8e 61bd
000000f0: 3fc4 35bc 475b 223d d475 193d 1b31 153c
00000100: 1a0f 223d 1543 413c 6628 213c cb19 2f3c
00000110: f838 ddbc 7891 21bd 503a 2c3d 9879 2cbb
00000120: bc8a ca3b 429d 29bd 245c 573d 4582 bbbc
00000130: 3d66 0dbd 421d e3bc 91d8 30bc 75fc 0b3d
00000140: 7625 dc3d 8c4c 23bc 3bdc f83c 68d3 0abc
00000150: e22d a5bc d339 bd3d 3aaa 533d 1825 fdbb
00000160: b2fb 853c ee9f 143c d8af 98bc efd0 23bc
00000170: 868d 7a3d 32ba 0a3c ab1a 873d b331 f73c
00000180: 9765 adbb 419f b9bc 50fe 06bd 9e05 2c3b
00000190: 8515 ecbc af35 a53c c4e4 743d 8bc7 bcbb
000001a0: c3b3 043d fb47 4cbc 0ca9 36bd bec6 b2bc
000001b0: d2dc 87bc debb 5bbb d2cd 873c eb34 3abb
000001c0: 75d8 18ba cf26 9e3d 0d75 4d3d 4815 c93c
000001d0: 8f5f 8bbc 5254 c2bc 006e 593d be1f c8bc

fc2.weight f4 [84, 120]
-0.14279848 0.1317333 0.019369446 0.16940297 0.047212485 -0.08328565 -0.008041739 -0.17096172
0.01635668 -0.057501752 -0.044837166 -0.034801718 0.047176626 0.059151277 -0.07417436 0.03800041
-0.02178236 0.12047054 0.08596011 -0.03591049 0.050535657 -0.032108206 -0.095947556 -0.09522052
-0.0792123 0.061007723 0.115797505 0.13829692 -0.012827194 -0.02341576 -0.09767879 0.03158484
0.121608 0.03614236 0.06352074 0.03734089 0.09264235 0.07090109 -0.027748235 0.077730775
0.037661154 -0.016162248 -0.019998109 -0.011997922 -0.10245265 -0.0013240019 -0.12785374 -0.086620875
0.0621509 0.0676274 -0.09516238 -0.037196074 0.036319494 0.066066764 0.1084127 0.102913015
0.05047614 0.014959615 -0.050291173 0.10515756 0.04426371 0.0657893 0.0044192113 0.032437775
-0.07298995 0.02415755 0.080546685 0.046981372 0.028165882 0.08042732 0.086249255 -0.05706153
-0.087714285 -0.02284694 -0.02322714 0.0630654 -0.019472308 -0.013887267 -0.109353565 -0.15957995
0.009248474 0.060977217 -0.028734375 0.08970189 0.09656791 -0.11475922 0.08688449 0.098922335
0.045398884 -0.011325885 0.08413411 -0.057563398 0.0024638504 0.093124546 0.103380054 -0.12070206
-0.08514423 0.176402 0.046092525 0.08685665 -0.06579354 -0.12489739 0.058639217 -0.029883813
0.008302118 -0.03772663 0.05907411 0.022023864 -0.04908717 0.0345739 -0.020661538 -0.026535194
-0.058439713 0.04486225 -0.10219076 0.023528434 -0.06275106 0.005023067 -0.03764409 -0.052168313
0.10854027 -0.1273447 0.050243277 -0.027797475 0.011755239 -0.009445463 -0.07894771 0.06476129
-0.037877485 0.04021156 -0.08426987 0.050108004 -0.12318827 -0.11899792 -0.043181434 0.0038857271
-0.04817534 -0.05643652 -0.076671064 -0.08481046 0.06367551 0.0019619318 0.036775835 -0.005131233
0.008830816 0.044855297 -0.008584852 -0.0903366 0.03992594 0.030148255 0.09444086 -0.014170817
0.041707996 0.1528551 -0.09021269 0.04981895 -0.08028729 -0.018879097 -0.022386067 0.0010870293
0.050144907 -0.115302764 -0.08875617 0.12740655 0.15492283 0.038407434 -0.026201522 -0.032622214
-0.008303535 -0.060462784 0.028860716 -0.0049325195 -0.014341039 -0.013309644 -0.15900359 -0.18392304
-0.03563399 0.08185157 -0.09934289 -0.0051939096 -0.014223495 0.047205 -0.067500554 0.059723157
0.1279246 0.11629163 0.04717575 -0.044743795 -0.20837526 0.04292675 -0.081319995 -0.02652989
0.040867265 0.08886936 0.14973164 -0.04178514 -0.03477426 -0.104208805 0.11555507 0.16325858
0.14741458 0.047470108 0.08633182 0.018628756 -0.025070172 -0.0046974113 -0.17693314 0.07272528
-0.037920084 -0.09546696 0.035348188 0.06093073 0.15792271 -0.10344214 -0.04157647 0.02784081
0.02864327 -0.06781227 -0.0024063166 -0.10924665 -0.005536217 0.047988124 0.051049367 0.0656328
-0.039219882 0.04232682 0.03113579 0.081010126 -0.12422938 0.0198062 0.055563934 -0.014199857
-0.08057612 0.09902031 -0.07275189 -0.10185366 0.068683915 0.019781874 0.013256328 -0.09252221
-0.112505995 -0.0702646 -0.011302035 0.046786197 0.023769794 -0.024900844 -0.011964319 0.08569813
0.034732293 -0.061845187 -0.073488265 0.056149185 0.021298513 0.046131924 -0.01495253 0.0010262461
00000000: c439 12be 18e5 063e acac 9e3c f977 2d3e
00000010: e161 413d ab91 aabd 80c1 03bc 9710 2fbe
00000020: 72fe 853c f586 6bbd 2da7 37bd 3f8c 0ebd
00000030: 473c 413d 9c48 723d bae8 97bd 51a6 1b3d
00000040: eb70 b2bc 42b9 f63d db0b b03d e116 13bd
00000050: 7afe 4e3d e583 03bd 2780 c4bd fa02 c3bd
00000060: 0f3a a2bd 3ce3 793d 3e27 ed3d b59d 0d3e
00000070: 2729 52bc 68d2 bfbc d10b c8bd 1b5f 013d
00000080: 9d0d f93d 030a 143d 2917 823d c3f2 183d
00000090: 46bb bd3d 9734 913d 4450 e3bc 5031 9f3d
000000a0: 9542 1a3d b166 84bc 13d3 a3bc ef92 44bc
000000b0: b2d2 d1bd 228a adba 17ec 02be 4966 b1bd
000000c0: f191 7e3d 3c80 8a3d 7ee4 c2bd e95a 18bd
000000d0: c0c3 143d 034e 873d 7a07 de3d 0fc4 d23d
000000e0: 12c0 4e3d 2c19 753c 1efe 4dbd d95c d73d
000000f0: dd4d 353d 8abc 863d 08cf 903b 79dd 043d
00000100: c17b 95bd 0ee6 c53c a9f5 a43d 8a6f 403d
00000110: 23bc e63c 14b7 a43d 73a3 b03d 5ab9 69bd
00000120: 8ca3 b3bd 8229 bbbc d846 bebc 6f28 813d
00000130: 6484 9fbc 6b87 63bc c3f4 dfbd ed68 23be
00000140: e986 173c 3fc3 793d 5a64 ebbc a0b5 b73d
00000150: 65c5 c53d e206 ebbd 7ff0 b13d cb97 ca3d
00000160: 2ef4 393d 3490 39bc 814e ac3d 99c7 6bbd
00000170: 8d78 213b 15b8 be3d ecb8 d33d a432 f7bd
00000180: 1960 aebd baa2 343e 84cb 3c3d e6e1 b13d
00000190: c3be 86bd 34ca ffbd ad2f 703d e6ce f4bc
000001a0: 9b05 083c 3d87 1abd b2f7 713d 646b b43c
000001b0: a10f 49bd 5d9d 0d3d 6342 a9bc 5660 d9bc
000001c0: 7b5e 6fbd 7bc1 373d 6449 d1bd b4be c03c
000001d0: a183 80bd 8a98 a43b b030 1abd 71ae 55bd
000001e0: 5c4a de3d a666 02be e5cb 4d3d 88b7 e3bc
000001f0: 0c99 403c 25c1 1abc 56af a1bd 91a1 843d
00000200: 6c25 1bbd e0b4 243d ae95 acbd 0d3e 4d3d
00000210: 224a fcbd 2eb5 f3bd 04df 30bd afa7 7e3b
00000220: 8153 45bd fb29 67bd b805 9dbd 1bb1 adbd
00000230: 4e68 823d c193 003b 42a2 163d e723 a8bb
00000240: 20af 103c 30ba 373d 7ba7 0cbc 6502 b9bd
00000250: 6289 233d 79f9 f63c 366a c13d b72c 68bc
00000260: 01d6 2a3d 0c86 1c3e 6ec1 b8bd f50e 4c3d
00000270: aa6d a4bd 56a8 9abc fc62 b7bc a77a 8e3a
00000280: bf64 4d3d db23 ecbd cbc5 b5bd dd76 023e
00000290: 17a4 1e3e 1d51 1d3d 93a4 d6bc df9e 05bd
000002a0: 8d0b 08bc d3a7 77bd 4f6d ec3c f9a0 a1bb
000002b0: adf6 6abc b110 5abc d6d1 22be 5256 3cbe
000002c0: f2f4 11bd cca1 a73d 4974 cbbd ac31 aabb
000002d0: a909 69bc 085a 413d bb3d 8abd 45a0 743d
000002e0: abfe 023e 4e2a ee3d 5c3b 413d 4545 37bd
000002f0: 5360 55be f6d3 2f3d 198b a6bd 3655 d9bc
00000300: 6f64 273d 2401 b63d 4053 193e e526 2bbd
00000310: 746f 0ebd 6d6b d5bd 23a8 ec3d 422d 273e
00000320: d9f3 163e 0470 423d bdce b03d 559b 983c
00000330: f65f cdbc beec 99bb f62d 35be fef0 943d
00000340: 1752 1bbd 2e84 c3bd 43c9 103d 8092 793d
00000350: 7eb6 213e 79d9 d3bd 174c 2abd 6912 e43c
00000360: 4aa5 ea3c 29e1 8abd 4bb3 1dbb b5bc dfbd
00000370: 2769 b5bb 328f 443d 2419 513d 7d6a 863d
00000380: 07a5 20bd e35e 2d3d 7c10 ff3c a3e8 a53d
00000390: f96b febd 9d40 a23c 0297 633d 84a6 68bc
000003a0: 1805 a5bd 29cb ca3d f1fe 94bd a798 d0bd
000003b0: 27aa 8c3d 990d a23c 1231 593c 497c bdbd
000003c0: 8b69 e6bd e3e6 8fbd 2c2c 39bc e2a2 3f3d
000003d0: dfb8 c23c dbfc cbbc fe05 44bc 8082 af3d
000003e0: 7343 0e3d 6151 7dbd 0481 96bd b0fc 653d
000003f0: 387a ae3c d4f4 3c3d 75fb 74bc 1b83 863a

fc2.bias f4 [84]
0.035144355 0.0943489 0.0053110374 -0.0034970825 0.09815833 -0.06175058 -0.08708941 0.037600458
0.038925666 0.12934506 -0.044204522 -0.053776484 -0.046268836 0.033503897 0.0058697914 -0.07428642
0.082845174 -0.042108025 0.02132386 0.1172483 -0.06131637 0.26148522 -0.039789565 0.19329974
0.14873372 0.20373976 0.076244995 0.017740801 0.07630082 -0.06300091 0.067962795 -0.046851065
-0.058305506 0.14170149 0.026259422 -0.044851594 0.23727739 0.005417911 0.021857277 0.051691044
-0.039776213 0.038510997 0.050376546 -0.058075406 0.028143456 -0.04930474 0.0228962 0.10412361
-0.06398437 0.16150221 -0.016076645 -0.0046262364 -0.06639697 0.026198966 -0.08982062 -0.055056334
0.0062613604 0.18323433 0.06768884 0.011192361 -0.02508523 0.0347629 0.09234338 0.0775588
0.060030032 0.20027988 0.05636058 -0.008152164 -0.0910912 0.06306424 -0.013280977 0.015688192
-0.06000651 0.024013843 -0.08535115 0.10133506 -0.05249014 0.026228452 0.076724626 -0.07577527
0.07422988 -0.07325269 0.12695496 0.0045399964
00000000: 87f3 0f3d ff39 c13d 3608 ae3b 4f2f 65bb
00000010: 3c07 c93d 2dee 7cbd ef5b b2bd f002 1a3d
00000020: 8570 1f3d 0873 043e cd0f 35bd bb44 5cbd
00000030: 6484 3dbd 623b 093d 6157 c03b 7b23 98bd
00000040: bbaa a93d 7779 2cbd 60af ae3c e01f f03d
00000050: e026 7bbd 64e1 853e 62fa 22bd 5ef0 453e
00000060: a74d 183e 28a1 503e 5626 9c3d 2855 913c
00000070: 9b43 9c3d 9f06 81bd 1430 8b3d e7e6 3fbd
00000080: c1d1 6ebd 321a 113e 001e d73c 4eb6 37bd
00000090: d8f8 723e bb88 b13b 080e b33c fdb9 533d
000000a0: 62ec 22bd b5bd 1d3d a357 4e3d 7ae0 6dbd
000000b0: 1b8d e63c c4f3 49bd d090 bb3c c23e d53d
000000c0: 3d0a 83bd d660 253e 2bb3 83bc af97 97bb
000000d0: 22fb 87bd 379f d63c e0f3 b7bd c082 61bd
000000e0: 192c cd3b c8a1 3b3e 72a0 8a3d 2a60 373c
000000f0: 8a7f cdbc 8b63 0e3d 871e bd3d 26d7 9e3d
00000100: 0de2 753d 2b16 4d3e 5ada 663d a790 05bc
00000110: 068e babd d327 813d 7498 59bc 8684 803c
00000120: 63c9 75bd aeb8 c43c 95cc aebd c288 cf3d
00000130: e7ff 56bd 0ddd d63c cd21 9d3d 1130 9bbd
00000140: d605 983d 8205 96bd 7b00 023e 40c4 943b

fc3.weight f4 [19, 84]
-0.02032338 0.24015087 -0.16524942 -0.0060834023 -0.14148687 -0.002216242 -0.28988045 -0.18626669
-0.003109312 -0.08774556 -0.20522587 0.14481364 0.048999283 0.2694657 -0.01848009 0.20345223
-0.19282946 0.0891296 0.071077555 -0.009967756 0.024487972 -0.11516558 0.13259321 -0.11273598
-0.01968903 -0.22840887 -0.094181985 0.19441356 -0.13146375 -0.062141776 0.059503317 0.040447734
0.014288667 -0.091321476 -0.062060524 0.09934489 -0.22800013 -0.028265653 -0.043213695 0.1625963
-0.06977689 -0.07484918 -0.10900881 -0.08370592 0.18746173 -0.108313404 -0.24884878 0.18644787
-0.045822144 0.00081785675 0.14514765 0.33208346 -0.1744995 -0.09581304 -0.03514234 0.037999213
0.115525335 0.2745105 0.01947054 0.0742592 0.081705905 -0.22559933 -0.11763629 0.1680267
0.27053532 0.023459587 0.046498433 0.035967138 0.057216473 0.0748144 0.024558993 -0.038850207
0.015718624 0.052273795 0.042425055 -0.2255059 -0.014783356 0.24807672 -0.026155384 0.08642332
-0.093644634 -0.01389077 -0.05823542 0.10445847 -0.1202585 0.03277009 -0.09572032 0.079138294
-0.12392974 0.109993905 -0.054785233 0.062176377 -0.0052941465 -0.1518886 0.1394781 0.0585405
-0.010148126 0.26791346 -0.046993818 -0.18984002 -0.012590138 -0.08546311 0.0012731238 0.1299995
-0.15634504 -0.26982957 0.18021521 -0.11232961 -0.039733287 -0.18738297 0.08523589 0.30297256
-0.12964045 -0.02016735 -0.027079938 0.08853967 0.13824075 -0.068154514 0.06976637 0.056640483
-0.29957697 0.04438385 -0.060080554 -0.18753329 0.097917184 -0.25873733 -0.06921533 -0.027313383
0.011546448 -0.08116876 0.18809909 -0.04276103 -0.036422256 -0.16129369 0.09092736 0.16483833
-0.0066027264 -0.0070141377 0.02825246 -0.038455095 0.08537489 0.24308386 0.34386307 0.052606143
-0.020156777 0.17991629 0.1025065 0.110475875 0.16296045 -0.017924882 -0.14427471 -0.13559455
-0.1183946 -0.12996532 0.17432034 -0.008189509 0.022250017 -0.11845625 0.022813661 -0.12673013
-0.042783454 0.22869627 -0.014491349 0.043939475 -0.11004041 -0.12378111 -0.1297011 -0.1341365
-0.09054486 0.20146559 0.039959498 -0.10594704 -0.0545008 0.016963806 -0.16070877 0.27336776
-0.17854416 -0.05852458 -0.0033046363 0.10786036 -0.10996283 0.06576181 -0.08167601 0.014341254
-0.03286605 0.02818569 0.07641158 0.02606671 -0.13548252 -0.15759397 0.043578453 -0.043966617
-0.0680826 -0.09635479 -0.13358174 -0.042871065 -0.25064552 0.074647225 0.32203618 -0.050771564
-0.0031466049 -0.17578666 -0.1044983 0.20106317 -0.2148263 -0.094923906 -0.062437 -0.020204645
0.064863764 -0.13175566 -0.15548116 -0.0064205425 0.12551223 -0.050513834 0.044527017 0.1518893
0.05395127 0.01243732 0.058883946 0.007405356 -0.055166733 0.12964651 0.012962158 -0.031825718
0.26563814 0.22979815 -0.18291256 -0.10061943 -0.121740386 -0.16006121 0.12577088 0.10722721
-0.055795144 -0.12154518 -0.12566769 0.11937084 -0.060827386 -0.14939035 0.10851933 -0.014601915
0.082763344 0.27725446 -0.05384725 -0.105649 -0.064526096 0.18541537 0.16808033 -0.1346198
-0.13848679 -0.015715625 0.07807521 -0.13906969 -0.12591864 0.21792978 -0.03135054 -0.039037842
00000000: 387d a6bc 1cea 753e 2537 29be 4757 c7bb
00000010: efe1 10be 5f3e 11bb 366b 94be b2bc 3ebe
00000020: 99c5 4bbb f2b3 b3bd bb26 52be 074a 143e
00000030: 79b3 483d 69f7 893e 8f63 97bc c855 503e
00000040: 1675 45be 9489 b63d 1c91 913d cd4f 23bc
00000050: 009b c83c eedb ebbd 84c6 073e 1fe2 e6bd
00000060: e34a a1bc 04e4 69be 7ce2 c0bd 5914 473e
00000070: 6f9e 06be 6088 7ebd c0b9 733d 86ac 253d
00000080: 031b 6a3c c106 bbbd 2d33 7ebd 5575 cb3d
00000090: de78 69be 5f8d e7bc d800 31bd a57f 263e
000000a0: 30e7 8ebd 874a 99bd 0340 dfbd 026e abbd
000000b0: f8f5 3f3e 6bd3 ddbd 37d2 7ebe 31ec 3e3e
000000c0: 00b0 3bbd 7065 563a 96a1 143e d806 aa3e
000000d0: ffaf 32be a139 c4bd 6af1 0fbd 10a5 1b3d
000000e0: 8c98 ec3d a48c 8c3e af80 9f3c 3515 983d
000000f0: 6d55 a73d 8303 67be 4ceb f0bd 310f 2c3e
00000100: 9b83 8a3e 522e c03c 2475 3e3d 4752 133d
00000110: d25b 6a3d 4b38 993d f12f c93c 6521 1fbd
00000120: 58c4 803c 0c1d 563d e5c5 2d3d 05eb 66be
00000130: e435 72bc d307 7e3e d143 d6bc b6fe b03d
00000140: c2c8 bfbd 1d96 63bc 4488 6ebd 53ee d53d
00000150: 174a f6bd ee39 063d 0409 c4bd 4213 a23d
00000160: e0ce fdbd 7c44 e13d 7b66 60bd a8ac 7e3d
00000170: 857a adbb af88 1bbe 59d3 0e3e 2ac8 6f3d
00000180: 5344 26bc f42b 893e 977c 40bd 6c65 42be
00000190: de46 4ebc 4807 afbd f2de a63a 971e 053e
000001a0: ea18 20be 1a27 8abe 568a 383e 110d e6bd
000001b0: 5fbf 22bd 52e1 3fbe 2790 ae3d 381f 9b3e
000001c0: 77c0 04be 0036 a5bc bfd6 ddbc 4954 b53d
000001d0: fc8e 0d3e 9894 8bbd ace1 8e3d daff 673d
000001e0: 2762 99be d7cb 353d 0717 76bd ba08 40be
000001f0: ce88 c83d 3879 84be c4c0 8dbd 51c0 dfbc
00000200: 502d 3d3c cf3b a6bd 0c9d 403e 3126 2fbd
00000210: 812f 15bd 2c2a 25be 2038 ba3d 61cb 283e
00000220: af5b d8bb dad6 e5bb b471 e73c 1783 1dbd
00000230: 08d9 ae3d faea 783e d20e b03e 8a79 573d
00000240: d31f a5bc fa3b 383e eeee d13d 2d41 e23d
00000250: 1bdf 263e 34d7 92bc c0bc 13be 4cd9 0abe
00000260: de78 f2bd a115 05be 0881 323e 4a2d 06bc
00000270: ab45 b63c 3199 f2bd b7e3 ba3c 8bc5 01be
00000280: b43d 2fbd 5b2f 6a3e 206d 6dbc e1f9 333d
00000290: de5c e1bd f380 fdbd 5dd0 04be 145b 09be
000002a0: 956f b9bd ff4c 4e3e 92ac 233d c3fa d8bd
000002b0: 3b3c 5fbd aef7 8a3c d790 24be dcf6 8b3e
000002c0: 48d4 36be 78b7 6fbd 9992 58bb e4e5 dc3d
000002d0: 3134 e1bd 21ae 863d c045 a7bd 94f7 6a3c
000002e0: 8d9e 06bd ade5 e63c ad7d 9c3d da89 d53c
000002f0: eebb 0abe 5060 21be 527f 323d 5716 34bd
00000300: e46e 8bbd a955 c5bd a7c9 08be 9299 2fbd
00000310: 9c54 80be a5e0 983d ede1 a43e d8f5 4fbd
00000320: 4537 4ebb 6b01 34be 3403 d6bd 81e3 4d3e
00000330: 6dfb 5bbe 7767 c2bd f1bd 7fbd 3684 a5bc
00000340: 4bd7 843d f5ea 06be 7436 1fbe 6a63 d2bb
00000350: 4786 003e 98e7 4ebd f661 363d de88 1b3e
00000360: 02fc 5c3d e7c5 4b3c 4b30 713d a1a8 f23b
00000370: 83f6 61bd 0ec2 043e 3b5f 543c af5b 02bd
00000380: b901 883e 3550 6b3e 6e4d 3bbe 8f11 cebd
00000390: 0653 f9bd 16e7 23be 15ca 003e f199 db3d
000003a0: 7389 64bd aeec f8bd 08af 00be b378 f43d
000003b0: 2326 79bd c9f9 18be 623f de3d df3c 6fbc
000003c0: d47f a93d 4cf4 8d3e ef8e 5cbd 815e d8bd
000003d0: 4226 84bd 87dd 3d3e 401d 2c3e c6d9 09be
000003e0: 7bcf 0dbe 0ebe 80bc e5e5 9f3d 4968 0ebe
000003f0: d1f0 00be fc28 5f3e 6d69 00bd 25e6 1fbd

fc3.bias f4 [19]
-0.27192217 -0.10276805 0.047631867 -0.011035969 -0.23496489 0.15811671 -0.2828693 -0.0005421656
-0.25220037 -0.08126775 0.30496114 -0.056329086 0.22665697 0.0034327433 0.086099856 0.12342269
-0.014781975 0.2420373 -0.07885335
00000000: 6239 8bbe 0e78 d2bd a219 433d 35d0 34bc
00000010: a39a 70be 59e9 213e 3fd4 90be 1e20 0eba
00000020: 6820 81be b56f a6bd de23 9c3e 54b9 66bd
00000030: c418 683e e0f7 603b 1f55 b03d 09c5 fc3d
00000040: 1930 72bc a0d8 773e dd7d a1bd
