python/CNN5.pth (torch_old, 252622 bytes, 10 tensors)

conv1.weight f4 [6, 3, 5, 5]
000000 ed 70 aa 3e 57 a4 ea 3e 13 94 f4 3e 0f f4 ad 3e
       0.3328928 0.45828506 0.47769222 0.33975264
000010 33 08 fa 3e 2f 97 05 bd 13 8d 72 3d 6e e3 0c 3d
       0.4883438 -0.032614883 0.05921657 0.03439658
000020 cc 00 55 3e 39 21 2f 3e db c6 ed 3a 74 e8 2e be
       0.20801085 0.17102517 0.0018140929 -0.17080861
000030 46 83 09 be 29 70 1a be 3e 55 d0 bd 07 58 ca 3d
       -0.13428983 -0.15081848 -0.10172509 0.09880071
000040 df 6c d1 3d 91 50 0a bb 23 30 83 3d da 04 83 3c
       0.10225844 -0.002110515 0.06405666 0.015993524
000050 b7 64 86 3e b9 01 e7 3e 25 5b 78 3e 32 9f 4c 3e
       0.26248714 0.45118502 0.24253519 0.19982603
000060 80 0b b1 bd 4b d2 4f bd 9e 8f b6 3d c5 71 34 3e
       -0.086447716 -0.05073766 0.089141116 0.17621525
000070 10 de 68 3e d3 00 8b 3e 5f 9d 3c be 08 cd 48 be
       0.2274096 0.27149066 -0.18419407 -0.19609463
000080 51 1e 16 be c5 4f 85 bc ca 3f a6 bd bc 00 80 be
       -0.14660002 -0.016273389 -0.081176355 -0.2500056
000090 b8 1c f9 be 5c c2 bd be d6 89 fe be 61 83 73 be
       -0.48654723 -0.37062347 -0.49714535 -0.23780586
0000a0 e9 8d 12 be c3 b0 72 bd bc 40 5b be 21 91 a4 be
       -0.14311947 -0.059250604 -0.21411413 -0.32141975
0000b0 a4 23 62 be c8 37 05 3e 7f fe 5b 3e 7b b3 2a 3e
       -0.22083908 0.1300956 0.21483801 0.16670029
0000c0 0f 46 2b be 1c 2f 89 be 5a 03 b9 bc 32 5e 6b 3a
       -0.16725944 -0.26793754 -0.022584606 0.0008978575
0000d0 84 99 7a 3e 1a 08 49 3e fe e5 13 3e 8b c2 1f be
       0.24472624 0.19631997 0.14443204 -0.15601556
0000e0 eb 9d 29 be 6d 95 17 be 62 12 b3 3c c4 ea 6c 3d
       -0.16564147 -0.14803095 0.021859352 0.057841077
0000f0 16 da 75 be c2 f1 eb be 07 97 04 bf 4e af c8 be
       -0.24008974 -0.46082884 -0.5179295 -0.39196247
000100 98 1e a2 be 78 7a 1d bd d9 c9 14 be 4e 1b 68 be
       -0.31663966 -0.038446873 -0.14530124 -0.22666666
000110 60 b1 87 be 97 74 53 be 6e 8e b6 3e 98 35 4d 3e
       -0.26502514 -0.20649944 0.3565554 0.20039976
000120 10 fd cb 3c 3e 19 51 bd cc 47 6e be 0f fb 20 bd
       0.024900943 -0.051049463 -0.23269576 -0.039301928
000130 9a 0e 5e 3b fc 04 62 bd f6 68 36 3c 1a f2 bd 3c
       0.0033883215 -0.055180535 0.011133423 0.023186732
000140 14 2b 00 3e 23 bd f7 3d 4b 89 a3 3d a3 64 2a 3e
       0.12516433 0.12096622 0.07985171 0.16639952
000150 6a bb 14 3e 62 4d c0 bd d9 8a 2f 3e 7d 64 e8 3d
       0.14524618 -0.093897596 0.1714281 0.113472916
000160 89 f9 40 3e 68 e3 86 3e 63 95 2c be d6 4b c0 bd
       0.1884519 0.26345372 -0.16853862 -0.093894646
000170 7e d7 fb bc 8b c3 08 3d 2f bb 0c 3e 73 bc 84 bd
       -0.030742403 0.03338961 0.1374328 -0.06481256
000180 8b 36 52 bd 19 d0 8f be 11 c8 f7 bd ad 14 09 be
       -0.051321547 -0.28088453 -0.120987065 -0.13386793
000190 2d 10 d1 bc 95 c5 9f bd fc f0 0e bd ff db 2a bd
       -0.025520409 -0.07801358 -0.03489779 -0.04171371
0001a0 18 2a 11 bd 8e 82 13 3d 00 3b 60 3e bc f5 29 3e
       -0.035440534 0.03601318 0.21897507 0.16597646
0001b0 6a 4d 61 3e 85 7e cc 3d 67 88 f0 3d 8e 0d 15 3e
       0.22002187 0.09985069 0.11744767 0.14555952
0001c0 d2 ec 48 3e 7d 76 98 3e 31 0b 98 3e a5 3e 06 be
       0.1962159 0.297779 0.29696038 -0.13109834
0001d0 96 8c d8 bd e0 5a 35 be 2e fd e1 bc e1 c4 8c 3c
       -0.1057369 -0.17710447 -0.027586546 0.017183723
0001e0 8f de e8 bb 76 6b 46 bd dd 89 d7 bd 0e 58 9b bd
       -0.007106609 -0.048442326 -0.10524342 -0.075851545
0001f0 70 0d bf bd 38 5a 0b be 3c d8 db bc 6c 74 0e be
       -0.09328735 -0.13608634 -0.026836507 -0.13911599
000200 f7 44 1c 3d 85 2b 27 bd 5b a5 19 be 27 9e 91 bc
       0.038151708 -0.040812988 -0.15004484 -0.017775608
000210 1e 9e eb 3d bd 3c 33 bd 54 71 2f 3c 07 93 02 be
       0.11504768 -0.043759096 0.010708172 -0.12751399
000220 c6 e0 ea 3c 08 1e a2 bc c9 45 3a 3e c5 26 3d 3e
       0.028671633 -0.01978971 0.18190683 0.1847182
000230 98 80 26 be cb 4b 49 be a6 18 8a be fb 3d 2a be
       -0.16259992 -0.19657819 -0.2697193 -0.16625206
000240 60 f7 99 3c 9e 67 c7 bd 8a e7 8d be e9 0a 81 be
       0.018794715 -0.0973656 -0.27715713 -0.25203636
000250 dd b2 af be cb df 35 be 4d 42 14 3e 86 b7 37 3e
       -0.3431615 -0.17761151 0.14478417 0.17941102
000260 1f a3 b4 3d 81 c9 5a bd c7 59 e2 bd d3 b3 38 3e
       0.088201754 -0.053414825 -0.1105228 0.18037347
000270 25 0d 47 3d 62 46 37 be 2d 7e 75 be 86 6c 7b be
       0.04859652 -0.17897943 -0.23973913 -0.24553117
000280 85 07 8e 3e 1d 6f 2c bd 0c 40 90 be 61 06 cf be
       0.27740112 -0.042098153 -0.28173864 -0.40434554
000290 fd f3 75 be 7a 21 8f 3e b7 0d 40 3e cb 10 a0 be
       -0.24018855 0.27955228 0.18755232 -0.31262812
0002a0 8b 45 b3 be e4 13 02 be 29 10 17 3f cc 3b 98 3e
       -0.35013995 -0.127029 0.59009033 0.2973312
0002b0 44 9f 13 3c 0b 88 7d be 1a 89 ed bd 5e 3d 75 bc
       0.00901014 -0.24758928 -0.11598416 -0.014968244
0002c0 9c 2a 20 3e 84 ef de bd 51 67 84 be 29 fd 29 be
       0.15641254 -0.10885528 -0.25860074 -0.16600479
0002d0 85 a1 3f bd 01 5c ca 3c b0 05 90 be 8b a6 94 be
       -0.046784896 0.024702074 -0.2812934 -0.29033312
0002e0 d3 b0 ae be 14 cc 2d be 95 30 95 3c 18 d4 94 be
       -0.3411928 -0.16972381 0.018211642 -0.29068065
0002f0 9c 31 80 be d3 d2 9f be b8 91 d2 3d 9f 10 39 3c
       -0.2503785 -0.31215534 0.102817 0.011295467
000300 14 2d 46 be 34 fd d7 be a5 b0 1f be 0a 90 b7 3d
       -0.19353133 -0.42185366 -0.15594728 0.0896302
000310 06 50 16 3d 6d a3 4b be 78 38 d1 be 5d 83 07 be
       0.03669741 -0.1988656 -0.40863395 -0.13233705
000320 51 52 80 3e 7d ae c0 3e e7 f9 ae 3e 1d 15 64 3d
       0.25062802 0.37633124 0.34175035 0.055684198
000330 0a 34 98 3d 59 da a9 3d 26 c9 31 3e 97 80 20 3e
       0.07431801 0.082936 0.17361888 0.15674053
000340 28 58 bc 3c b6 b5 dc 3d 1b 9b 9d 3d 16 72 7c 3e
       0.022991255 0.10776846 0.076956 0.24652895
000350 d1 8b 37 3c 10 0b a2 bd b4 54 49 3e 66 2d 64 3e
       0.011202768 -0.07912266 0.19661218 0.22282943
000360 e0 47 56 3e 55 61 25 bd e6 bb bd 3d 6b b9 a2 3e
       0.20925856 -0.040376026 0.092643544 0.31782088
000370 26 15 da 3e 50 4f 89 3e c8 5a 88 3d 26 7b d6 3c
       0.4259426 0.26818323 0.0665794 0.026181769
000380 f1 70 4f 3e 3d 9b fe 3c 21 73 dd 3d d9 cf 84 bd
       0.20257927 0.031079883 0.10812975 -0.06484956
000390 b9 c2 16 3e c1 fc 36 3e cb 7b 07 bd d5 f6 33 3d
       0.14722718 0.17869855 -0.033077043 0.04393657
0003a0 b1 4c f6 3d cd f2 fa ba d2 c2 61 3e df 64 eb bd
       0.120263465 -0.0019145847 0.22046974 -0.11493849
0003b0 00 65 d8 bc b2 18 00 be 29 59 a4 bd a2 cf 02 bd
       -0.026415348 -0.1250942 -0.080248185 -0.031936295
0003c0 4d aa 1e be 77 4a bd bd d0 16 18 bd 82 a9 81 3d
       -0.15494652 -0.09242719 -0.03713113 0.06331159
0003d0 8c 35 88 3d 90 3e 26 be 46 0d 05 bd 7a 2f d2 bd
       0.06650838 -0.16234803 -0.03248336 -0.10262962
0003e0 bb 92 7a bd d1 22 c8 3d a4 65 82 be 91 80 7b be
       -0.06117509 0.09772266 -0.2546817 -0.24560763
0003f0 19 b8 4e be 15 a2 3e be 24 54 87 3b 95 90 f0 bd
       -0.20187415 -0.18616517 0.0041299034 -0.11746327

conv1.bias f4 [6]
000000 c2 d5 c2 3e c4 c6 dc 3d ca 34 9d 3e f8 21 cc be
       0.3805371 0.10780099 0.30704337 -0.39869666
000010 d1 dd e8 bd 35 3a 11 3e
       -0.11370433 0.1418236

conv2.weight f4 [16, 6, 5, 5]
000000 9f 6f de bd 55 a1 80 bd 84 c3 f5 3c e0 7f 15 3e
       -0.10861134 -0.06280772 0.030000456 0.14599562
000010 d8 4b 22 3e ed 6c 20 bd 7f 00 09 bb 95 33 31 3e
       0.15849245 -0.03916638 -0.0020904837 0.17304833
000020 30 9d d2 3d 11 df e6 3b d9 df 8f bc 74 5e 82 bd
       0.102838874 0.0070456346 -0.017562794 -0.06365672
000030 de 0f ed 3d 75 cb 3b 3e 1d db 89 3d b1 c1 d7 bd
       0.11575292 0.18339331 0.06731246 -0.105349906
000040 bf 58 9f bd 29 66 e7 bd 00 51 0d be 86 7e 27 bd
       -0.07780599 -0.112987824 -0.1380043 -0.040892147
000050 a2 9f f4 bd 8b 9b 32 3d 15 3a 0e 3d ce 09 fa bd
       -0.1194451 0.04360537 0.03472336 -0.12208901
000060 2f c4 63 be f4 1a 88 bd 41 83 6d 3d 50 1f 01 3e
       -0.22242807 -0.06645766 0.0579865 0.12609601
000070 d5 5d 1d bd a4 04 85 3d ba b0 f1 bc 92 ad e5 bc
       -0.038419563 0.06495026 -0.029503215 -0.028036866
000080 45 91 3b 3e b3 57 c0 3d fa 8b 1f 3e df 10 04 3e
       0.18317135 0.09391727 0.1558074 0.12897061
000090 2c 3b 27 3d 1b 69 d1 3d ba 32 da 3a 57 3f c0 bc
       0.040827915 0.102251254 0.0016647198 -0.023467703
0000a0 d7 7d c3 3d 5d 1d 07 3e a0 15 0d 3e 6d a4 37 3d
       0.095454864 0.13194795 0.1377778 0.044834543
0000b0 59 19 8f bd a3 b2 96 3d cd 48 9b bd b2 87 61 bb
       -0.069872566 0.07358291 -0.07582245 -0.0034413156
0000c0 5a 8f 36 bc 67 77 b9 bd 7a ee 9f 3e 74 a1 04 3e
       -0.011142576 -0.09055977 0.3123663 0.12952214
0000d0 d4 7d 13 3e ee 86 b1 3d e7 ae 34 b9 f3 83 1c 3e
       0.14403468 0.08668314 -0.00017231294 0.1528471
0000e0 62 f4 a7 3d fd ea b1 3d 23 5b ae bd 23 0a ce bd
       0.08200909 0.086873986 -0.08513477 -0.10060527
0000f0 78 96 9c 3b 4a f8 1c 3d 02 c9 ac bd 6d c2 be bd
       0.0047786795 0.038322724 -0.08436777 -0.093144275
000100 20 dc 0f be e2 ca 69 bd 92 83 58 be 66 26 7e be
       -0.14048815 -0.05707825 -0.2114394 -0.24819335
000110 96 fa 81 be 4b 1b 47 be 78 9e 22 be 17 d2 40 be
       -0.25386494 -0.19444005 -0.15880764 -0.18830143
000120 ee 93 1b be f9 a7 3b be 9e 71 6d bd d8 86 53 3e
       -0.1519315 -0.18325795 -0.057969682 0.20656908
000130 e0 3c 50 3e d1 e9 d6 3d 9e 0a 3a 3d 6a e9 c1 3d
       0.20335722 0.10493816 0.04542028 0.09468348
000140 ae 5f 5e 3e ad e2 72 3e d3 d5 2e 3e aa 60 a2 3d
       0.21716186 0.23719282 0.17073755 0.079285935
000150 cc 8a 0b bd a4 ba 98 3d 1c f8 e4 bd 92 4a 1e 3d
       -0.034067914 0.07457474 -0.111801356 0.038645335
000160 11 5a 0a be 86 70 4b bd db d8 42 bd 0c 6e 11 be
       -0.1351092 -0.049667858 -0.04757009 -0.14202136
000170 e6 fa 02 bd e1 90 cc bd 39 02 cf bd 11 5e b1 3c
       -0.031977557 -0.09988571 -0.10107846 0.0216513
000180 76 c7 59 be a0 13 09 be 85 fc 1c be c7 3e 25 be
       -0.21267495 -0.13386393 -0.15330704 -0.16137229
000190 be 93 de 3d 80 77 2c 3e 1c a6 c2 3d 3b e0 be 3d
       0.10868023 0.1684246 0.09504339 0.09320112
0001a0 02 ce 15 3e 48 87 50 3e 80 62 0a 3e e5 d8 aa 3c
       0.14629367 0.20364106 0.13514137 0.020855376
0001b0 fa 3c 4e bd 58 6a 46 bd 6f e1 21 3d ef e0 fc bd
       -0.05035112 -0.04844126 0.03952163 -0.1234759
0001c0 0e ce 3a bd 78 0e c8 bd f9 46 14 be 56 88 82 bd
       -0.045606665 -0.09768385 -0.14480199 -0.0637366
0001d0 c4 52 03 be 78 b3 07 be 23 c7 dc bd d2 26 fa bd
       -0.12824541 -0.13252056 -0.1078017 -0.12214436
0001e0 40 27 34 bd 8b 83 37 bd ed c0 35 bd 38 89 b1 bd
       -0.043982744 -0.044803184 -0.04437344 -0.086687505
0001f0 03 55 ce bd bb 14 03 bd b4 5c 35 3e 70 0e 71 3d
       -0.100748084 -0.032002192 0.17711145 0.05885166
000200 b0 c4 b2 bc 74 df 8e 3d 80 83 16 3e c0 c6 28 3e
       -0.021822304 0.06976214 0.14698601 0.16482067
000210 9d fb ff 3d 89 7a 95 3d f1 d1 73 3c 80 24 bc 3d
       0.12499163 0.07298762 0.014881597 0.09186649
000220 7c 00 a0 3d a5 b1 34 3e cd 9d f8 3c 80 2e 06 3d
       0.078125924 0.17645891 0.030348683 0.03275919
000230 6a aa e0 3d 79 de 81 bd 69 b8 c8 bc b6 84 8d bd
       0.10970004 -0.063412614 -0.024501996 -0.06910078
000240 d2 d7 1a be 4a 18 06 3e c9 a0 74 3c f0 3c 4a bd
       -0.15121391 0.13095203 0.014930912 -0.04937452
000250 57 97 1b be c2 7b 60 bd 8f 89 28 be 7d 76 2c bd
       -0.1519445 -0.054805525 -0.16458724 -0.042105187
000260 34 12 8f 3d f7 16 a5 3d 86 c4 87 3e 25 cf 8e bc
       0.06985894 0.08061021 0.26517123 -0.017432759
000270 0e a3 69 bd a3 c6 cb bd 84 63 db 3b fe 5b 8e bd
       -0.057040267 -0.09949996 0.006695213 -0.0695114
000280 69 44 40 3e d9 6a 99 3d 9f 51 a8 bd 61 d9 11 bc
       0.18776096 0.07491083 -0.08218693 -0.008901925
000290 92 6f 05 bd 3a 2b b9 bc 2d 1e b9 3d 90 3c ae 3a
       -0.032577105 -0.02260362 0.09038959 0.0013293196
0002a0 57 c8 3e bb 8b bf 47 3c fd c4 55 3c 76 1a 19 be
       -0.002911111 0.0121916635 0.013047454 -0.149515
0002b0 1a 22 1b be 15 bd f1 bd 78 35 a1 bd b7 a5 a4 bd
       -0.15149727 -0.11803643 -0.078715265 -0.0803942
0002c0 ec 05 0a be e7 4c a0 bd 67 be c2 bd 8f af 21 3d
       -0.13478822 -0.07827168 -0.095089726 0.039474066
0002d0 59 21 9f 3d e0 8f 6a 3d f9 1d dc bd f3 a0 fe bc
       0.077700324 0.057266116 -0.10747904 -0.031082606
0002e0 7b 4d cb 3d d9 d5 55 3d f0 a8 88 bd 36 1e 37 3d
       0.099268876 0.052205894 -0.06672847 0.044706546
0002f0 1e d6 1f bd 83 70 10 3d 1b b4 04 be 31 58 e6 bd
       -0.039022557 0.03526355 -0.1295933 -0.1124729
000300 9e c1 8c bd 5c 61 c2 bd 82 74 3c 3d 66 a9 9e bc
       -0.06872867 -0.09491226 0.046009548 -0.019367885
000310 9f da cd bd 64 26 9e bd 6c 08 e0 bd 21 de 87 3d
       -0.10051464 -0.07722166 -0.10939106 0.066341646
000320 e5 a8 4f bd 6d bc 8d be f5 e3 e9 bd 9c 80 dc 3d
       -0.05069818 -0.2768282 -0.114204325 0.10766718
000330 97 c1 ba bd 3f dd 35 be 42 24 48 be e4 12 df bc
       -0.091189556 -0.1776018 -0.19545081 -0.027230687
000340 7b 35 1e 3c 15 77 6d bd e2 57 51 3c 74 b2 f3 3d
       0.009656305 -0.057974894 0.012777301 0.118992716
000350 b9 91 6f 3d c1 87 35 bd 50 27 f6 bd 53 02 d1 bb
       0.05848858 -0.04431892 -0.12019217 -0.006378451
000360 3f ab 71 3e f2 5e 54 3e 63 c0 91 3e 98 08 75 bd
       0.23600481 0.20739344 0.28467092 -0.05982265
000370 aa df 9b 3d 1d 45 48 3e f3 9e 87 3e 4c 05 94 3e
       0.0761102 0.19557615 0.26488456 0.2891029
000380 52 2c 87 bd 0b 02 65 be 69 ee 52 be 99 17 81 be
       -0.0660025 -0.2236406 -0.20598759 -0.25213316
000390 87 18 ff bd 19 42 8b bd 39 3c 1a bd 84 ac b6 bc
       -0.1245585 -0.067997165 -0.03765509 -0.022299059
0003a0 19 9b 65 3b 59 2d 1d 3b c6 bf 01 3c 39 b9 c7 bd
       0.0035035072 0.0023983328 0.0079192575 -0.09752125
0003b0 c1 48 4c 3d 1c b7 aa 3d 23 c4 b4 3d 6e 15 56 3d
       0.04987407 0.083357066 0.088264726 0.05226653
0003c0 3d d2 66 3c a5 37 0c 3d 75 fc 2a 3e 3b 5c 31 3e
       0.014088211 0.034232754 0.16697867 0.1732034
0003d0 89 a8 3d 3e 56 1f 06 3e 26 ac 0b 3e c5 cf a3 3d
       0.18521322 0.13097891 0.13639888 0.07998613
0003e0 1a 76 24 3e 4e b1 2f 3e 73 c7 0b be 97 d8 48 be
       0.16060677 0.1715748 -0.13650303 -0.19613872
0003f0 8d 8b 84 be c6 87 29 be 2c 4c a3 bd 2f 1a 9b bd
       -0.2588772 -0.165557 -0.07973513 -0.075733535

conv2.bias f4 [16]
000000 8e 21 35 3c 32 32 06 bd 80 ac 61 3d 84 65 c0 bc
       0.011055363 -0.032762714 0.05509615 -0.023485906
000010 6f e5 c5 bc 56 81 03 3e 36 53 da bc 05 76 9f 3d
       -0.024157254 0.12842306 -0.026651006 0.07786182
000020 3f e0 97 bd ac 53 b7 bc 27 a1 0b 3d b8 1d 37 bc
       -0.074158184 -0.022378765 0.034089234 -0.011176519
000030 ca 90 20 bd ca de 50 bd 1d de b0 bb da 75 d3 bd
       -0.03920058 -0.05099372 -0.0053975717 -0.10325213

fc1.weight f4 [120, 400]
000000 11 0d 41 bd da 95 bf bc 9f 85 d1 3c 13 01 a0 bd
       -0.0471316 -0.023386884 0.02557641 -0.07812705
000010 b6 da 90 bd e9 59 85 bd bf e9 05 3c 32 39 a9 3c
       -0.07072966 -0.065112896 0.008173405 0.020657156
000020 6b 23 04 bd 69 66 fd bc 9e 51 37 bd df 05 45 3c
       -0.03226034 -0.030932622 -0.04475557 0.012025326
000030 30 d1 46 3d c2 99 10 3d 97 28 4e bd 43 2b 59 bd
       0.04853934 0.035302885 -0.05033168 -0.053019773
000040 cf a4 12 ba 37 5f 4b bc a2 78 1c 3c 28 2d ae 3c
       -0.00055940164 -0.012412838 0.0095502455 0.021261767
000050 bd 85 87 bd 54 1b d2 bc a4 11 42 bc 0f 0a a0 3b
       -0.066173054 -0.025647797 -0.011845026 0.0048840116
000060 5f 8b 5e bd ea 9d 40 3c 33 ba 81 3c ac f7 da bc
       -0.054332133 0.0117564 0.015835857 -0.026729427
000070 d0 b1 d8 bc 21 d7 0d bc 89 09 c4 3c 58 96 2e bc
       -0.026451975 -0.008657248 0.023930328 -0.010655962
000080 ff ac f7 3b 8c ab c2 3b fe da 8b bb f3 79 20 bd
       0.0075584645 0.00594086 -0.0042680493 -0.0391788
000090 b3 1f 74 bd 08 1c 21 bd 89 1f d5 bc 3c 69 ed bb
       -0.059600543 -0.039333373 -0.026016014 -0.007245211
0000a0 11 34 9a 3d c3 43 62 3d 76 1a 27 3d 05 61 3e 3d
       0.07529462 0.055240404 0.04079672 0.046479244
0000b0 0d 26 32 3d 81 93 4d 3c 73 e5 af 3d 48 cb 5c 3a
       0.04349332 0.012547375 0.08588686 0.0008422625
0000c0 75 ba d0 3d 79 2c 63 3d ae b9 90 bd 84 4e 29 bd
       0.10191814 0.055462334 -0.070666656 -0.041334644
0000d0 43 99 35 bd 8e 4a 95 bd c6 9a e4 bc 23 cc 1e bc
       -0.044335615 -0.07289611 -0.027905833 -0.009692225
0000e0 47 4c d6 bd 4a 24 3a bd 62 cb 8e bd 75 30 87 bd
       -0.104637675 -0.045444764 -0.06972386 -0.06601039
0000f0 a7 61 90 bd 28 6e 04 bc ea 1f b6 bb 25 3d 50 bd
       -0.07049876 -0.008082904 -0.0055580037 -0.050839562
000100 80 0e 50 bd e4 45 55 3c 1c 1d 5b bd 59 87 8a bd
       -0.05079508 0.0130171515 -0.053494558 -0.06764097
000110 e9 67 bf bd a1 f9 42 bd f0 15 a7 bd 28 e6 a5 bd
       -0.09345991 -0.047601346 -0.08158481 -0.081005394
000120 0a b2 b0 3c 95 ff 85 3c 78 bd 60 bd fd e2 75 bb
       0.02156927 0.016357223 -0.05486819 -0.0037519329
000130 08 1c bd 3c 7d be 63 3c a4 4e b2 ba 6c dc 89 bb
       0.023084655 0.013900396 -0.0013603759 -0.0042071845
000140 8b c8 4a bc 31 69 ed bb 02 3d fa 3c 71 6f 20 bd
       -0.012376915 -0.007245206 0.030546669 -0.03916878
000150 7c 45 0c 3d ca 4b 31 3d 0a 6b ff 3c b8 bc 1f bd
       0.034245953 0.04328517 0.03117897 -0.038998336
000160 23 8f 2b 3c 19 46 55 bc e7 ab 24 3d 50 78 1a 3d
       0.010471138 -0.013017201 0.040203 0.037712395
000170 73 c9 12 3c 09 01 9c bc 63 fe 1f 3d a5 2d 89 bb
       0.008959162 -0.019043462 0.03906096 -0.0041863495
000180 5c 93 05 3d a4 a3 9d 3c 69 fb 30 bd 7f d1 13 3d
       0.032611236 0.019243069 -0.043208513 0.036088463
000190 63 7a 80 bc a5 9d 51 bd 62 2e f6 3c e2 83 21 3d
       -0.015683359 -0.051175732 0.030051414 0.039432414
0001a0 55 36 1d bd 77 ed b9 3a dc 4e bc 3c f4 0f 2e 3c
       -0.038381893 0.001418515 0.022986822 0.010623921
0001b0 00 48 25 3d 20 5f 10 3c 94 f8 5b 3d 2c b5 1c 3d
       0.040351868 0.008811742 0.05370386 0.038258716
0001c0 9c d4 a8 bc eb ef 0d bd 44 95 06 3c 91 d6 31 bd
       -0.020609193 -0.03465263 0.008214299 -0.043417517
0001d0 43 ad b2 3c 57 00 98 3c 7f 9f 9f 3c a4 01 4f 3c
       0.021811133 0.01855485 0.019485233 0.0126346685
0001e0 9b 8a 0f 3d d1 6d 9f bc 3e 40 4d 3d 20 23 20 bd
       0.035044294 -0.019461544 0.050110094 -0.039095998
0001f0 49 aa 15 3d 23 88 95 3d a5 16 15 3c 99 1c f3 3b
       0.03653935 0.07301357 0.009099637 0.0074191806
000200 c0 e3 23 3d 06 34 ae bc 62 00 81 3c 35 87 ae bc
       0.04001212 -0.021265041 0.015747253 -0.021304706
000210 48 a2 5a 3b 9a a9 31 bc 66 b3 0e bd 3f 92 a4 3c
       0.0033360887 -0.010843659 -0.034839056 0.020089267
000220 4b 49 a8 3c 69 ef f9 bc fd 69 19 bd a6 ab 21 3d
       0.020542761 -0.030509667 -0.037454594 0.039470337
000230 d6 14 85 3d 99 d3 9d 3c fd 65 1f bd 4c ec c0 bc
       0.06498115 0.019265937 -0.038915623 -0.023550175
000240 94 73 4b 3b 00 1c ca 3d f1 96 0d bd 75 2d 3a 3c
       0.0031044232 0.09868622 -0.034567777 0.011363377
000250 4c e3 80 3d fe 06 b6 3d 31 42 4f 3c 3d ec 39 bd
       0.062933534 0.088880524 0.012650059 -0.04539131
000260 a5 83 0e 3d a5 3a 9b 3c ea c3 8b 3c 9c 7f 63 3d
       0.034793515 0.018948862 0.017061193 0.05554162
000270 21 f0 ab 3c e0 1c 03 3c 99 30 a4 bc 6b df bd 38
       0.020988526 0.00800249 -0.020042704 9.053837e-05
000280 ba 7e ec 3c 38 de 2b bc a6 d4 ba bc 0c 88 30 3d
       0.028869022 -0.010489993 -0.022806477 0.043098494
000290 ba 4b 53 bd 13 0d 47 3b b6 fd 00 3c 7f 52 3d 3d
       -0.05158589 0.0030372783 0.007872989 0.046221253
0002a0 b6 a6 de bc 22 62 72 bd 21 f0 5f 3b 08 4e f0 3c
       -0.027179103 -0.059175618 0.0034170228 0.029334083
0002b0 1f 7f a7 bc 0b 72 08 3c 8d 15 e7 bc da 41 b8 bb
       -0.020446358 0.008327971 -0.028208518 -0.0056230845
0002c0 4d 59 1a 3d 20 f9 2f 3c 4f cd 45 bc b9 5a 81 3c
       0.03768282 0.010740548 -0.012072875 0.01579033
0002d0 20 fc b6 3a b2 c4 51 bd f4 1d b3 3d c1 34 0d b8
       0.0013960637 -0.051212974 0.087459475 -3.366615e-05
0002e0 56 7d 01 bd 45 9b 9c bc b4 60 2d 3c 88 9d a0 bc
       -0.03161367 -0.019117007 0.010582138 -0.019606367
0002f0 2f 84 ef ba 30 fa 60 3d 40 0c 38 3b d8 51 eb 3c
       -0.0018273647 0.054926097 0.0028083473 0.02872555
000300 fb 7f a1 3c d9 5a fc bc 8b 71 3a 3d 9e af 22 bd
       0.019714346 -0.030805038 0.04551844 -0.039718263
000310 77 a3 bd bc 5e fb b1 3c ac 5d d3 3c f7 4c 6e 3d
       -0.023149235 0.021726307 0.025801502 0.05817887
000320 5b a4 a7 bc ad 16 84 bc 4d a6 26 bc de c2 b1 bc
       -0.020464113 -0.016124094 -0.010171485 -0.021699365
000330 2b a1 3c 3d dc df 86 bd e0 46 38 bd f7 93 4e bd
       0.04605214 -0.065856665 -0.044989467 -0.05043408
000340 71 f0 f8 3c 61 27 69 3d 03 73 73 bd ad e0 14 3b
       0.030388089 0.05692232 -0.059435856 0.0022716925
000350 50 ad 28 3c 9a 42 05 bd d7 2d 9e 3b f3 14 66 3c
       0.010295227 -0.03253422 0.004827242 0.014043081
000360 03 04 2d bd ac 50 51 3c a5 05 9c 3d 12 21 7e 3d
       -0.042240154 0.012775581 0.07618264 0.062043257
000370 6c 27 de 3c 9c 62 48 bd 28 05 0c bd 86 15 61 3d
       0.027118407 -0.048922166 -0.034184605 0.054952167
000380 c1 b4 49 3d 20 a8 8f 3d c5 8a 35 3d e7 18 18 bd
       0.049244646 0.07014489 0.044321794 -0.037133124
000390 61 3f 7f bb b8 55 3c 3d aa a8 8e 3d e6 dc e1 3b
       -0.003894769 0.045980185 0.06965764 0.006892788
0003a0 6b e6 c8 bd 06 c9 ab 3c d4 0e a5 3a 33 7b c8 3b
       -0.09809574 0.020969879 0.001259292 0.006118202
0003b0 81 09 16 bd 59 71 8a bd d5 b1 41 bc 94 c7 13 bc
       -0.036630157 -0.067599006 -0.011822184 -0.009019751
0003c0 96 c7 72 3d a8 db a3 3d 74 5a 80 bb 7b 19 7c bc
       0.05927237 0.080008805 -0.003917033 -0.015386934
0003d0 d7 e8 81 3c d3 58 62 3d b5 12 9e 3d 13 d0 99 bd
       0.015858097 0.05526049 0.07718412 -0.0751039
0003e0 3b 9a 16 bd 03 3e b1 3d ed 25 d6 3c 43 f3 a1 3a
       -0.03676818 0.08654406 0.026141131 0.0012355823
0003f0 30 e1 e3 3c 43 ab 2e bd 75 92 08 bc f4 18 2b bd
       0.027817339 -0.042643797 -0.008335699 -0.041771844

fc1.bias f4 [120]
000000 11 a6 53 3d 53 11 71 3c 0a 96 b9 3c f3 18 88 3d
       0.051672045 0.014713603 0.022654552 0.06645384
000010 5c e8 20 3c e2 b1 9a 3d 93 aa a5 bc 55 38 7c 3d
       0.009821024 0.0755346 -0.020222938 0.06157716
000020 cb c4 38 bd 63 ce d3 bc a4 05 c6 bc be d7 5c bc
       -0.04510955 -0.025855249 -0.024172612 -0.013479171
000030 36 bf c7 3d 23 3e 86 bb 9c a9 5b bd 71 21 bf 3c
       0.097532675 -0.0040967627 -0.05362855 0.023331376
000040 0f 6d 18 3d 1b 82 bd 3d e9 9b 6c bd 35 f9 13 3d
       0.03721338 0.09253331 -0.057765875 0.036126334
000050 98 03 9d bc 74 af 22 3e 68 8f ce bc e7 d5 16 3d
       -0.019166753 0.15887243 -0.025214866 0.036825087
000060 96 54 47 3d 6d c9 ac bc 94 15 3e 3d e3 f4 2b 3d
       0.04866465 -0.021092141 0.046407297 0.04198159
000070 34 c0 0d bd 79 25 8c bb df a8 5a 3d b0 8e 58 bc
       -0.034607127 -0.004276928 0.053383704 -0.013217613
000080 33 24 be bc c5 7e f9 3d c6 32 35 3d b2 82 85 bd
       -0.02321062 0.121823825 0.044237874 -0.06519069
000090 a5 74 59 bc 35 79 50 bd ce 73 7b bc a0 a3 82 3c
       -0.013272439 -0.050896842 -0.015347434 0.015947163
0000a0 5c 33 50 bd 10 10 12 3c 7d b0 f2 3a 41 19 c2 3c
       -0.05083023 0.008914962 0.0018515732 0.023693683
0000b0 c7 08 77 bc fe e7 20 bd e9 7d bb 3d 95 80 84 3b
       -0.015077776 -0.039283745 0.09154875 0.0040436485
0000c0 9a bd d9 bc e4 75 13 3c 3b 84 5a 3d 02 8a 5a bc
       -0.026579667 0.009000275 0.05334876 -0.013338568
0000d0 29 34 2a bd 53 b4 9e 3d fe 26 66 b9 80 cf 94 bb
       -0.04155365 0.07749238 -0.00021949035 -0.0045413375
0000e0 85 d1 00 bd 9f 5e 56 bd 12 1b 5a 3c 2f 03 5e bd
       -0.031449813 -0.05233633 0.013312118 -0.054202255
0000f0 c5 d4 1b bc d2 25 38 3d cc 83 36 3d a0 a9 93 3c
       -0.009511177 0.044957943 0.044559285 0.01802522
000100 d3 22 33 3d c4 aa 52 3c fd cd d3 3b ff 13 3b 3c
       0.043734383 0.0128580965 0.0064637647 0.011418342
000110 0b 06 df bc 73 4e 24 bd 51 cf 28 3d 81 7a 1d bb
       -0.027224561 -0.040113878 0.041213337 -0.0024029317
000120 65 ae 96 3b 42 ee 27 bd 90 83 5a 3d 2b d4 b6 bc
       0.004598426 -0.040998705 0.053348124 -0.022317966
000130 1a 6b 10 bd 73 64 cc bc b0 c5 f8 bb 7f 36 ff 3c
       -0.03525839 -0.024950242 -0.0075919256 0.031153915
000140 2e ba e9 3d fc 30 28 bc de e6 dc 3c 02 ff e0 bb
       0.11412464 -0.010265585 0.026965555 -0.006866337
000150 04 2b bd bc b5 39 cd 3d f0 6d 57 3d 01 69 45 bc
       -0.0230918 0.10020772 0.05259508 -0.012048961
000160 ac e6 8a 3c cc f2 2d 3c 92 e8 73 bc 5e 75 08 bc
       0.016955696 0.010616969 -0.014886992 -0.008328764
000170 21 11 85 3d 0b 21 80 3b e2 d1 89 3d 4c a9 0f 3d
       0.06497408 0.003910189 0.06729485 0.035073563
000180 d0 b3 86 bb 37 6b c7 bc a4 c2 0b bd bf fe 32 3b
       -0.004110791 -0.024343116 -0.03412117 0.0027312485
000190 84 a6 ec bc a6 33 ab 3c 36 ea 6e 3d b2 11 bd bb
       -0.028887995 0.020898651 0.05832883 -0.0057699317
0001a0 0a a3 02 3d c7 99 4e bc 7b bc 38 bd 17 0b b5 bc
       0.031893767 -0.012609906 -0.045101624 -0.022100015
0001b0 a1 b0 7d bc 2f fc 95 bb e8 fc 8b 3c 87 bf f2 39
       -0.015484006 -0.004577182 0.017088369 0.00046300536
0001c0 e4 fa ba 3a c0 86 9e 3d 80 e9 4d 3d db c6 d1 3c
       0.0014265445 0.07740545 0.05027151 0.025607517
0001d0 e9 e1 3c bc aa 0a ca bc bd d4 5b 3d bf 70 e2 bc
       -0.011528471 -0.024663288 0.05366968 -0.027641652

fc2.weight f4 [84, 120]
000000 32 2e 18 be ea 75 01 3e 4b fd 72 3c 97 aa 29 3e
       -0.14861372 0.12642637 0.014830898 0.16568981
000010 cc 78 3d 3d 10 1d a9 bd 49 ae 8f bb 21 8c 34 be
       0.04625778 -0.08257496 -0.00438479 -0.1763158
000020 ac 21 86 3c 24 a9 61 bd dd 80 f0 bc 61 77 0e bd
       0.016373478 -0.055092946 -0.029358322 -0.034781817
000030 4e c0 1b 3d 58 7f 69 3d b5 f0 98 bd 33 a0 36 3d
       0.038025193 0.05700621 -0.07467786 0.04458637
000040 7e 59 c7 bc 3a cc ea 3d 37 bd c5 3d fa 39 31 bd
       -0.024334665 0.114647344 0.096552305 -0.04326818
000050 17 3c 33 3d 76 2e f9 bc cd 72 c5 bd 09 17 e1 bd
       0.043758478 -0.030417662 -0.09641037 -0.10990722
000060 a2 7c aa bd ef a7 72 3d c6 c8 e9 3d 2a ae 0f 3e
       -0.08324553 0.059242185 0.114152476 0.14031282
000070 cf 28 74 bc 6a 67 ba bc c4 9d e7 bd 26 5b f8 3c
       -0.014902308 -0.02275439 -0.11309388 0.0303169
000080 2d 0f f9 3d cc b2 14 3d 24 64 90 3d fd 0b 02 3d
       0.12161098 0.036303326 0.0705035 0.031749714
000090 99 88 b3 3d 37 7c 95 3d 78 fc fc bc 2b d0 b6 3d
       0.08766288 0.07299083 -0.030882105 0.08926424
0000a0 fd e7 32 3d 3c d6 90 bc 75 69 f7 bc f8 2c 3d bc
       0.043678273 -0.01768028 -0.030201653 -0.011546366
0000b0 93 8b e3 bd 8e 43 d3 3a e3 cb 05 be 55 4a b1 bd
       -0.11110606 0.0016118155 -0.13066058 -0.08656756
0000c0 3d 7c 94 3d 59 03 91 3d 32 47 c4 bd dc 1f 1f bd
       0.07250259 0.07080717 -0.09583892 -0.038848743
0000d0 b8 6e 02 3d eb 54 80 3d 6e c5 e8 3d 38 fd cf 3d
       0.03184387 0.06266197 0.11365782 0.101557195
0000e0 61 27 1a 3d ac 93 8e 3c 90 c1 71 bd 14 65 e1 3d
       0.03763521 0.0174044 -0.059022486 0.11005607
0000f0 f4 4d 39 3d 64 33 94 3d 0c 01 ee 3a a5 37 07 3d
       0.045240358 0.072363645 0.0018158271 0.03301205
000100 a4 8c a1 bd 54 8b 76 3c 2b c2 c2 3d a9 67 48 3d
       -0.07888153 0.015047867 0.09509691 0.048926983
000110 38 9c 9a 3c bb 1c a4 3d 90 76 b0 3d a2 3e 7e bd
       0.018873319 0.080132924 0.08616364 -0.06207145
000120 f8 1a c3 bd fb 55 a9 bc 76 ef 0e bd a7 4f 7a 3d
       -0.09526628 -0.020670881 -0.034896336 0.06111112
000130 2b 82 b2 bc 97 90 8f bb d4 d9 03 be 9e e8 25 be
       -0.021790585 -0.00438125 -0.12876064 -0.16202018
000140 e3 ba d0 3b 53 a4 79 3d 80 ae fb bc a3 2f c6 3d
       0.006369935 0.060947727 -0.030722857 0.09677055
000150 d0 4e c8 3d 1f 4d f2 bd 42 60 ad 3d c0 03 d7 3d
       0.09780657 -0.11831116 0.08465625 0.10498762
000160 be 84 37 3d a5 d2 bf bc f2 9e c2 3d 21 81 6f bd
       0.044804327 -0.023415873 0.09502973 -0.058472756
000170 41 81 93 3b 42 9e c0 3d 80 6f e3 3d 20 eb 01 be
       0.0045014923 0.09405185 0.11105251 -0.1268735
000180 e7 fc b5 bd 3b 08 40 3e 7c ff 1a 3d 85 67 b6 3d
       -0.08886128 0.1875314 0.037841305 0.089064635
000190 b4 c4 86 bd 4b 9e 06 be d0 e9 6c 3d 64 ce f4 bc
       -0.06580487 -0.13146321 0.05784017 -0.029883571
0001a0 03 b2 6b 3c 7b 92 1a bd 72 15 68 3d c8 0b aa 3c
       0.014385703 -0.03773735 0.056661077 0.02075757
0001b0 43 76 52 bd 1b f9 ff 3c f9 9e ae bc 86 ab e4 bc
       -0.051382314 0.031246712 -0.021316038 -0.02791382
0001c0 e6 ca 73 bd 85 4c 2c 3d 70 2e da bd 83 df 43 3c
       -0.05951967 0.042065162 -0.106533885 0.011955145
0001d0 c3 ab 2e bd 0a 70 c2 3a 38 fb 44 bd 22 ab 6b bd
       -0.042644273 0.0014834416 -0.048091143 -0.05753625
0001e0 0f 12 f2 3d 61 6f 03 be b5 c6 41 3d 71 81 da bc
       0.11819851 -0.12835456 0.047308642 -0.02667305
0001f0 d5 e3 2f 3c be 9a 58 bc d6 20 a3 bd 3e 56 88 3d
       0.010735472 -0.013220487 -0.07965247 0.066570744
000200 5e 89 1e bd d5 c4 1d 3d a4 dd b4 bd e4 3f 4c 3d
       -0.038705222 0.03851779 -0.08831337 0.04986562
000210 ad cd 00 be da 8a f7 bd b7 67 19 bd f6 71 92 3c
       -0.12578459 -0.12087031 -0.037452426 0.017876606
000220 5d 03 73 bd 69 f3 5d bd 18 3f a1 bd d8 06 b9 bd
       -0.05932938 -0.054187212 -0.07873362 -0.090345085
000230 28 2e 81 3d 0b f6 95 3b d8 0b 13 3d 28 4d 99 3a
       0.06307632 0.0045764497 0.035899967 0.0011695968
000240 1f 9f d4 3c 78 3f 3c 3d 75 18 80 ba a6 f3 c9 bd
       0.025954781 0.045958966 -0.0009772914 -0.098609254
000250 22 52 30 3d e8 06 ea 3c 23 4c be 3d 8c 42 60 bc
       0.043047078 0.028567746 0.09291866 -0.013687741
000260 55 c1 36 3d 41 54 25 3e ee 05 a0 bd 5d a8 75 3d
       0.04461797 0.16145422 -0.07813631 0.059975017
000270 88 e0 97 bd 67 4d 92 bc 57 10 24 bc fd d6 0b 3b
       -0.07415873 -0.017859174 -0.010013661 0.002133786
000280 bc 27 63 3d 28 eb e9 bd 05 f5 a6 bd fa 84 0a 3e
       0.055457816 -0.114218056 -0.081522025 0.13527289
000290 ee e7 28 3e b2 9e 28 3d 10 1f c6 bc d9 f7 0f bd
       0.16494724 0.04116697 -0.024184734 -0.035148475
0002a0 d4 a7 91 bc 4b 75 5f bd 17 32 18 3d 88 6b 5c bb
       -0.017780222 -0.05455522 0.037157144 -0.003363343
0002b0 5a 6e 84 bc f2 b7 96 bc 6f 7f 21 be 89 39 48 be
       -0.016165901 -0.018398259 -0.15771268 -0.19553198
0002c0 24 d6 a5 bc 92 0e af 3d f3 79 cb bd 1c 84 cb bb
       -0.020243712 0.08547701 -0.09935369 -0.006210817
0002d0 68 94 97 bc df 42 50 3d 89 51 84 bd bb ff 86 3d
       -0.018503383 0.050845023 -0.06460864 0.065917455
0002e0 8b a7 0d 3e 43 af ef 3d 45 a6 26 3d eb 30 38 bd
       0.13833444 0.117033504 0.04068591 -0.044968527
0002f0 5f 87 55 be 4b 06 2e 3d 5f 4f a7 bd 2b 5c db bc
       -0.20852421 0.04248647 -0.08169436 -0.026777348
000300 f8 d8 30 3d c6 ea c9 3d 71 91 1d 3e 3d 4f 1d bd
       0.043175668 0.098592326 0.15387513 -0.038405646
000310 d1 fb 1c bd 4e a1 de bd 55 99 f1 3d 8b fb 28 3e
       -0.03832609 -0.1087061 0.11796824 0.16502206
000320 ce 14 20 3e d7 15 43 3d 99 d9 b8 3d 3d 18 c3 3b
       0.15632936 0.04762825 0.090258785 0.005953817
000330 eb ee 98 bc a3 7c 50 bb 26 57 41 be a2 c5 8e 3d
       -0.018668612 -0.003181257 -0.188809 0.06971289
000340 85 49 0d bd 6b 5d cb bd ca 6f 43 3d 3a 6d 81 3d
       -0.03449394 -0.099299274 0.047714032 0.063196614
000350 71 a6 24 3e a9 f7 c4 bd dc d5 25 bd 1a f3 dd 3c
       0.16079117 -0.0961755 -0.040487155 0.027093459
000360 75 d2 f7 3c 1f fc 9b bd 59 8a 3d ba e4 cf d3 bd
       0.03025172 -0.07616448 -0.0007230393 -0.10342386
000370 37 50 98 bb 2d a5 65 3d 88 00 51 3d 7d 6a 86 3d
       -0.004648234 0.056065727 0.051025897 0.0656328
000380 3e 22 1d bd ef a7 2d 3d d0 de ec 3c 72 c5 a6 3d
       -0.038362734 0.042396482 0.028914839 0.081431285
000390 3b d5 fd bd 68 87 ad 3c 0b 0c 5f 3d 0f 83 e9 bb
       -0.12394186 0.02118273 0.054454844 -0.007126219
0003a0 3c 96 b5 bd aa 70 ca 3d ba 58 8e bd 5b 50 c5 bd
       -0.088665456 0.0988477 -0.06950517 -0.09634467
0003b0 ce 47 9d 3d a8 89 93 3c af 59 83 3c 66 19 b5 bd
       0.07679711 0.018009976 0.016033975 -0.08842735
0003c0 1d 52 e3 bd dd ca a2 bd 1d bb b0 bb 32 62 13 3d
       -0.11099646 -0.07948849 -0.0053933994 0.03598232
0003d0 b9 23 b0 3c 84 ac 92 bc 85 ae 32 bc 8b 52 b0 3d
       0.021501409 -0.017904527 -0.0109058665 0.08609494
0003e0 05 3c 0f 3d 03 d3 7c bd 7e b4 a0 bd 80 ee 65 3d
       0.03496935 -0.061724674 -0.07846926 0.056135654
0003f0 9f d8 ad 3c 2b 36 4a 3d d4 47 57 bc c5 f3 5b ba
       0.021221457 0.049368065 -0.013139684 -0.00083905115

fc2.bias f4 [84]
000000 6e 6a 02 3d 30 01 c5 3d 59 e1 0e 3c 21 5f 73 bb
       0.03183978 0.09619367 0.008720719 -0.0037135559
000010 7f 0b c9 3d a0 ba 77 bd 53 10 b5 bd e6 5c 17 3d
       0.09816646 -0.060480714 -0.08841004 0.03695383
000020 a5 c3 31 3d b0 d9 0d 3e c1 27 3b bd 33 eb 5c bd
       0.04339947 0.13852572 -0.04569221 -0.05393524
000030 38 52 45 bd 9a fa e4 3c a8 69 09 3c ba a5 9a bd
       -0.048174113 0.027951527 0.008387007 -0.07551141
000040 65 5e ad 3d ec ec 30 bd 23 11 8c 3c 6e c6 f6 3d
       0.0846527 -0.043194696 0.017098015 0.12049566
000050 f7 0e 7a bd f4 c3 89 3e e3 9a 1e bd 8b af 48 3e
       -0.061049428 0.26907313 -0.03872193 0.19598214
000060 ae 6d 1d 3e 37 1a 52 3e 9f 67 9b 3d 98 68 d4 3c
       0.1537387 0.20517813 0.075881235 0.02592878
000070 c5 14 a5 3d 2c 27 7b bd 3f af 95 3d 8c 7b 42 bd
       0.08060602 -0.061316654 0.07308816 -0.047481105
000080 56 5e 66 bd 2f b8 11 3e f9 c5 d8 3c e2 92 40 bd
       -0.05624231 0.14230417 0.026461588 -0.04701508
000090 5f de 73 3e 8b 21 90 3b f3 0f ba 3c 7d 65 3c 3d
       0.23815297 0.00439853 0.022712683 0.045995224
0000a0 fa e5 26 bd 49 95 15 3d cb 6b 63 3d d8 43 65 bd
       -0.040746666 0.036519323 0.05552272 -0.055972904
0000b0 05 76 01 3d e4 48 47 bd 1f f5 c6 3c 16 7e d5 3d
       0.031606693 -0.0486535 0.024286805 0.104244396
0000c0 64 c2 80 bd f7 40 25 3e 5a 90 64 bc 1c 86 d0 3a
       -0.06287077 0.16138063 -0.013950432 0.0015909108
0000d0 53 30 83 bd bb 36 cd 3c 77 99 be bd 0e 24 61 bd
       -0.064057015 0.025050512 -0.09306615 -0.054966025
0000e0 2e c4 bb 3a f2 b4 41 3e 10 37 94 3d a5 be 2e 3c
       0.0014325434 0.18916681 0.07237065 0.01066557
0000f0 1d f7 c9 bc ef 35 01 3d b0 38 ba 3d 62 d9 a5 3d
       -0.024653966 0.031545576 0.090928435 0.08098103
000100 5c 17 85 3d 55 f6 57 3e 66 eb 6b 3d 93 c0 09 bc
       0.06498596 0.21090062 0.05759754 -0.00840773
000110 28 4d bb bd 01 63 87 3d d7 34 29 bc f4 de 82 3c
       -0.09145576 0.0661068 -0.010327539 0.015975453
000120 ae bc 78 bd 63 43 ea 3c 8d 6f ad bd 4d 19 d7 3d
       -0.060726814 0.028596586 -0.08468542 0.105028726
000130 51 23 50 bd 42 fb c6 3c b0 76 a2 3d af 8f 9b bd
       -0.05081493 0.024289731 0.07932794 -0.07595765
000140 15 47 9e 3d 04 43 93 bd 57 ee 03 3e c0 47 9b 3b
       0.077284016 -0.071905166 0.12883888 0.004738778

fc3.weight f4 [19, 84]
000000 95 1b bb bc eb 46 7f 3e f1 a3 35 be 7e 5e c7 bb
       -0.0228403 0.24929397 -0.1773832 -0.0060842624
000010 b2 df 1c be f6 93 22 bc 30 23 9c be d5 34 5d be
       -0.15319708 -0.009922972 -0.30495596 -0.21602185
000020 f5 a6 14 bb c4 10 ba bd 1f b8 73 be ac 41 15 3e
       -0.0022682522 -0.09085229 -0.23800705 0.14575833
000030 6f cd 46 3d 12 04 86 3e 5f 31 27 bc 73 b8 5c 3e
       0.04853576 0.2617498 -0.010204642 0.21554737
000040 12 41 4b be 9a 9f b2 3d c2 02 a0 3d ee a0 a4 bc
       -0.19849041 0.08721848 0.07813026 -0.020096269
000050 81 8a ef 3c 26 11 e0 bd b7 5d 06 3e c1 ac ec bd
       0.029240848 -0.10940771 0.13121687 -0.11556388
000060 11 25 fd bc 4e 39 6e be f0 5e 00 be a3 f5 51 3e
       -0.030901464 -0.23264048 -0.12536216 0.20503859
000070 6a 69 09 be 13 3b 7a bd d8 ef 16 3d be 53 25 3d
       -0.13419119 -0.061091494 0.036849827 0.040363066
000080 9c 4f bf 36 8a ec c4 bd 24 f3 80 bd b5 d8 a9 3d
       5.7015113e-06 -0.09615429 -0.062963754 0.08293287
000090 95 f2 6c be 39 d6 09 bd 76 d9 3a bd 4e 1e 2e 3e
       -0.23139413 -0.033651564 -0.045617543 0.17003748
0000a0 c3 5b 8e bd da 5a a5 bd 5a 32 e3 bd 43 b4 b5 bd
       -0.06951096 -0.08073969 -0.11093588 -0.08872273
0000b0 50 a5 43 3e d0 84 dd bd 9a 0d 8e be e9 b3 3e 3e
       0.1910603 -0.108163476 -0.27744752 0.18623318
0000c0 92 39 37 bd 62 73 54 bb 2a 83 19 3e 11 e2 b0 3e
       -0.044732638 -0.0032417406 0.14991441 0.34547475
0000d0 2b 4e 41 be 0f 45 e8 bd ee 10 52 bd 0c 7d 1b 3d
       -0.18877475 -0.11341297 -0.051285677 0.03796105
0000e0 8f 57 d3 3d 8e 30 83 3e fc da b4 3b 31 8e 96 3d
       0.10319435 0.25622982 0.005519269 0.073513396
0000f0 e2 7a af 3d d9 b1 76 be a3 23 07 be b4 87 22 3e
       0.0856836 -0.24091281 -0.13197188 0.15872079
000100 46 94 8d 3e 7f 8f ba 3c 20 65 17 3d 17 29 e6 3c
       0.27652186 0.022773502 0.036961675 0.028095765
000110 de 98 71 3d 62 01 b7 3d fb 1f 4c 3c 45 61 1f bd
       0.058983676 0.089358106 0.012458797 -0.038911123
000120 a4 33 61 3c d6 98 11 3d fb 5c 2d 3d bd d3 71 be
       0.013745222 0.035546146 0.042325 -0.23615928
000130 98 c1 75 bc dc 8e 74 3e 58 13 de bc 51 48 ac 3d
       -0.01499977 0.23882622 -0.027108833 0.08412231
000140 4b 74 c6 bd 4c 47 a2 bc d4 31 7c bd b8 4a eb 3d
       -0.0969015 -0.019809388 -0.061570957 0.11488861
000150 dc a6 f1 bd 66 9f 03 3d 21 ed e7 bd fc 12 a2 3d
       -0.11799404 0.032134436 -0.113245256 0.07913777
000160 a8 4b 09 be 67 a4 eb 3d eb 39 4e bd 9e 9a 98 3d
       -0.13407767 0.11505967 -0.050348204 0.07451366
000170 15 e8 45 bc 14 63 28 be f6 80 2a 3e 64 ab 82 3d
       -0.012079258 -0.16444045 0.16650757 0.063803464
000180 3f 07 2f bc f1 66 8e 3e 38 3f 56 bd ed 58 52 be
       -0.01068288 0.27812913 -0.052306384 -0.20541735
000190 13 6f 71 bc 71 f6 ad bd 4d 97 25 bc 3e cd 05 3e
       -0.014735955 -0.084942706 -0.010106874 0.13066575
0001a0 77 27 25 be ac e7 93 be 45 1a 51 3e bd 75 ee bd
       -0.16128336 -0.2888769 0.20420177 -0.116435505
0001b0 51 cb 4a bd 54 f7 3e be 6d 4d d8 3d 26 32 a5 3e
       -0.049510304 -0.18649036 0.10561643 0.32264823
0001c0 a7 f1 f8 bd 68 1c e9 bc 75 5a c6 bc f5 a5 b5 3d
       -0.121554665 -0.028455928 -0.024213055 0.088695444
0001d0 c6 f0 16 3e 58 78 94 bd 7e 57 8f 3d 0c 75 68 3d
       0.14740285 -0.07249516 0.0699911 0.05675225
0001e0 59 65 9c be a7 97 14 3d 4a ca 71 bd 7e 61 47 be
       -0.30546072 0.03627744 -0.05903081 -0.19470784
0001f0 5e d9 c6 3d 89 d2 89 be 01 09 ac bd 35 f4 8f bc
       0.09709428 -0.26918438 -0.08400155 -0.017572502
000200 0d c2 ab 3c d3 89 a6 bd 69 42 59 3e e3 73 3e bd
       0.020966554 -0.08131757 0.2121674 -0.046497237
000210 9d c5 19 bd a1 1a 2f be e0 b1 b7 3d d9 72 21 3e
       -0.037541974 -0.17100002 0.08969474 0.15766467
000220 8e a7 8a bb e6 ec a9 ba 8f 71 d1 3c 00 e1 1f bd
       -0.0042314 -0.0012964278 0.025566844 -0.039032936
000230 34 ab b9 3d 1d b2 81 3e af af ab 3e 84 52 4c 3d
       0.090658575 0.25331202 0.33532473 0.04988338
000240 ba e9 ad bc bd 25 3e 3e fd 62 08 3e 0c f9 f0 3d
       -0.021229614 0.18569084 0.13319011 0.11766252
000250 3d f5 1e 3e ae 09 bb bc 20 59 1b be 44 ee 0b be
       0.15523238 -0.022831764 -0.15170717 -0.1366511
000260 b1 3d 01 be 2c e2 1a be 0a 27 52 3e 56 e0 07 bc
       -0.1262119 -0.1512534 0.20522705 -0.008293232
000270 22 2b 93 3c 3c c7 f4 bd d3 19 b7 3c ac 21 ee bd
       0.017964903 -0.119520634 0.022351181 -0.11627516
000280 f7 83 34 bd f9 78 75 3e 5e 17 80 bc 71 e0 21 3d
       -0.044071164 0.23971929 -0.015636142 0.039520685
000290 7e 91 ef bd 34 ce 07 be 84 c4 05 be 55 ab 0a be
       -0.11697672 -0.13262254 -0.13063246 -0.1354192
0002a0 0a f1 b5 bd e8 08 51 3e 3f 83 67 3d 2a fb d8 bd
       -0.08883865 0.20413554 0.05652165 -0.10594781
0002b0 3f ca 17 bd db 98 68 3c 2f ea 15 be b4 cb 96 3e
       -0.03705811 0.0141966 -0.14640115 0.29452288
0002c0 12 33 2f be 0e 90 4b bd 6d 6f fd 3c 96 9d da 3d
       -0.17109326 -0.049697928 0.030936921 0.106745884
0002d0 d6 04 e2 bd f3 ea 87 3d 68 52 ad bd 7c 0d ce 3a
       -0.11036079 0.0663661 -0.08462983 0.0015720571
0002e0 dd ea 0e bd 37 74 06 3d f0 11 86 3d be af 97 3c
       -0.03489195 0.032825675 0.0654639 0.018516418
0002f0 b7 36 10 be a8 15 2a be 27 ee bd 3c b9 39 43 bd
       -0.14083372 -0.16609824 0.023184849 -0.04766247
000300 98 7c 90 bd 2a 41 df bd a2 70 f3 bd c4 99 82 bd
       -0.07055014 -0.10901101 -0.118867174 -0.06376985
000310 e0 3d 7e be 41 de 9f 3d 74 b1 b7 3e 74 f6 4f bd
       -0.24828291 0.078060634 0.35877573 -0.050772145
000320 98 57 ad bb 82 cd 3a be 58 dd d7 bd 9f 78 64 3e
       -0.005289983 -0.18242458 -0.10540265 0.22311638
000330 5e 78 5d be 11 ac bf bd 16 90 8a bd 41 02 ad bc
       -0.21627948 -0.09358991 -0.067657635 -0.021119239
000340 0d 1f 84 3d c6 be 08 be 27 46 0a be 73 31 83 bc
       0.06451235 -0.13354024 -0.13503323 -0.01601479
000350 37 c0 06 3e 2e f3 4f bd d8 73 52 3d 17 04 21 3e
       0.13159262 -0.050769024 0.05138001 0.15724216
000360 30 cb 69 3d f3 12 fa 3b f2 92 73 3d 07 07 68 3b
       0.05707854 0.0076316535 0.05946631 0.003540458
000370 65 00 4a bd ec 57 24 3e 77 dc a4 3c d9 61 02 bd
       -0.049316783 0.16049165 0.020124657 -0.031831596
000380 68 76 91 3e 3d 26 60 3e 74 a3 39 be 07 d9 d2 bd
       0.2841065 0.21889587 -0.18128759 -0.10295301
000390 24 8c 00 be ee 08 19 be 3e 91 f7 3d 90 b7 d7 3d
       -0.1255346 -0.14944813 0.120882496 0.10533059
0003a0 c1 64 62 bd 08 9f fd bd ca 02 0d be 44 f3 01 3e
       -0.055271868 -0.123838484 -0.13770595 0.12690455
0003b0 e2 fc 77 bd a0 77 1d be cf a8 d2 3d ee a2 6f bc
       -0.060543902 -0.15377665 0.10286104 -0.014626248
0003c0 fe 8a ae 3d db b1 8d 3e de b0 5e bd fb 97 d8 bd
       0.085226044 0.27674755 -0.054367892 -0.10575863
0003d0 56 fb 87 bd 3b 0b 48 3e 52 e8 27 3e 51 de 16 be
       -0.066397354 0.19535534 0.16397217 -0.14733244
0003e0 35 37 1c be 49 6f 72 bc 55 db 95 3d e0 4c 1c be
       -0.15255435 -0.01479704 0.07317225 -0.152637
0003f0 d6 ef 02 be 48 4d 6b 3e 8f d0 d7 bc f9 e9 1f bd
       -0.12786803 0.22978699 -0.026344566 -0.039041493

fc3.bias f4 [19]
000000 6e 65 8f be 80 4b d4 bd 96 d4 38 3d 7d f5 f5 bb
       -0.28007072 -0.10365963 0.045124613 -0.007506071
000010 ee 04 71 be d1 fb 23 3e 0d 9d 96 be d2 d2 00 3c
       -0.23537037 0.16014029 -0.29416695 0.0078627635
000020 81 0a 84 be 08 a4 ae bd 7d ec 9e 3e 8f 0a 79 bd
       -0.25789264 -0.0852738 0.310398 -0.060801085
000030 9d fe 70 3e 1c 18 c6 bb 85 9e af 3d bd c0 15 3e
       0.23534627 -0.0060453545 0.08575157 0.14624305
000040 10 07 33 bc 3c b3 72 3e 43 96 a6 bd
       -0.010926977 0.23701185 -0.08134129
