python/CNN6.pth (torch_old, 252622 bytes, 10 tensors)

conv1.weight f4 [6, 3, 5, 5]
0	0x3eb79c6a	0.35861522
1	0x3ef8a10c	0.4856037
2	0x3f03dd85	0.51509887
3	0x3ec05a52	0.3756891
4	0x3f04459f	0.51668733
5	0xbc946adf	-0.018117366
6	0x3d80914a	0.06277712
7	0x3d44ec36	0.04807683
8	0x3e6fb720	0.234097
9	0x3e47783b	0.19479458
10	0x3c3e0324	0.0115974285
11	0xbe33f1f1	-0.17572762
12	0xbe166a21	-0.14688922
13	0xbe247e93	-0.16063909
14	0xbdde9167	-0.10867577
15	0x3de55912	0.111986294
16	0x3dee7d7a	0.116450265
17	0xba913eb8	-0.0011081314
18	0x3d51616d	0.051118303
19	0xb9f192c6	-0.00046076457
20	0x3e8edf41	0.27904704
21	0x3ef56a70	0.47932768
22	0x3e872741	0.26397136
23	0x3e4ad759	0.19808711
24	0xbdcaeb6b	-0.09908184
25	0xbd3fe230	-0.04684657
26	0x3dca6609	0.09882743
27	0x3e4e36c9	0.20138086
28	0x3e83d9e9	0.2575219
29	0x3e99534c	0.29946363
30	0xbe3cba04	-0.18430334
31	0xbe52124f	-0.20514797
32	0xbe11a872	-0.14224413
33	0x3bb959da	0.005656463
34	0xbd60a7bf	-0.054847475
35	0xbe7cf378	-0.24702251
36	0xbefd42df	-0.4946508
37	0xbec4d9d2	-0.38447434
38	0xbf015ccf	-0.5053224
39	0xbe74ce6d	-0.2390687
40	0xbe0644d8	-0.131122
41	0xbd31432d	-0.043276954
42	0xbe5615f0	-0.20906806
43	0xbea880a7	-0.32910654
44	0xbe6af459	-0.22944774
45	0x3e180ab2	0.1484783
46	0x3e798f07	0.24370967
47	0x3e428344	0.18995386
48	0xbe2a46b6	-0.16628537
49	0xbe8cc518	-0.2749412
50	0xbbd9a194	-0.006641576
51	0x3caa3457	0.02077691
52	0x3e8ecc3c	0.27890193
53	0x3e713b54	0.23557788
54	0x3e3ca5a9	0.1842257
55	0xbe136eee	-0.14397785
56	0xbe28fd11	-0.16502787
57	0xbe0bc262	-0.1364837
58	0x3d51f258	0.051256508
59	0x3dbf9cc8	0.093560755
60	0xbe65b767	-0.22433244
61	0xbeeb6bab	-0.45980582
62	0xbf062c6e	-0.52411544
63	0xbec8b0a8	-0.39197278
64	0xbe9dfb85	-0.30855957
65	0xbc370d6e	-0.0111726355
66	0xbdf26b4a	-0.1183687
67	0xbe597851	-0.21237303
68	0xbe867882	-0.26263815
69	0xbe515336	-0.20441899
70	0x3ec91134	0.39270937
71	0x3e79ae12	0.24382809
72	0x3d76b1b9	0.060228083
73	0xbd1d9cc9	-0.0384796
74	0xbe695310	-0.22785592
75	0xbd25ef39	-0.040511344
76	0x39e50140	0.00043679215
77	0xbd713fa1	-0.058898572
78	0x3bde1b97	0.0067781913
79	0x3cc0cb65	0.023534486
80	0x3e030bc2	0.12797454
81	0x3e04cfbb	0.12969868
82	0x3dbb23b4	0.09137669
83	0x3e312aff	0.17301558
84	0x3e1eba96	0.15500864
85	0xbdc4d0c0	-0.096101284
86	0x3e31452c	0.17311543
87	0x3df9e907	0.122026496
88	0x3e4c70f2	0.1996496
89	0x3e8e378f	0.27776763
90	0xbe328767	-0.17434464
91	0xbdd45d1c	-0.10369322
92	0xbd2029e0	-0.039102435
93	0x3d015d2b	0.031582993
94	0x3e13afad	0.14422484
95	0xbd90ce57	-0.07070606
96	0xbd7bbebe	-0.061461203
97	0xbe95c21c	-0.29249656
98	0xbe048a25	-0.12943323
99	0xbe081609	-0.13289656
100	0xbcd036e3	-0.025416797
101	0xbdaa7400	-0.083229065
102	0xbd2f1d27	-0.04275241
103	0xbd4b521f	-0.049638864
104	0xbd1f7c8b	-0.038937133
105	0x3d21d53f	0.039510008
106	0x3e669025	0.22515924
107	0x3e324334	0.17408448
108	0x3e65c80a	0.2243959
109	0x3ddd3572	0.108012095
110	0x3defe542	0.11713649
111	0x3e1749c4	0.14774233
112	0x3e51f6de	0.20504329
113	0x3e9eb9ec	0.31001222
114	0x3ea0c2e7	0.313987
115	0xbe0629de	-0.13101909
116	0xbde2ef88	-0.11080843
117	0xbe38ec8f	-0.1805899
118	0xbcc6445a	-0.024202514
119	0x3cf03fe7	0.029327346
120	0xbb803352	-0.003912368
121	0xbd4b09bf	-0.04956984
122	0xbdddac6a	-0.10823901
123	0xbd9b0612	-0.07569517
124	0xbdacfa68	-0.08446199
125	0xbe0f87cc	-0.14016646
126	0xbd1cec71	-0.038311426
127	0xbe1f0627	-0.1552969
128	0x3ca9694c	0.020680092
129	0xbd5dee8e	-0.05418258
130	0xbe1cdac4	-0.15317827
131	0xbc99e6ec	-0.01878687
132	0x3dea3a54	0.114369065
133	0xbd482f7a	-0.048873402
134	0x3c0f6236	0.008751443
135	0xbe0b4943	-0.13602166
136	0x3cbbb444	0.022913106
137	0xbca06851	-0.019580992
138	0x3e3dc24c	0.1853115
139	0x3e44c5bd	0.19216056
140	0xbe2da281	-0.16956522
141	0xbe561423	-0.20906119
142	0xbe8fccb9	-0.28085878
143	0xbe2f0c4c	-0.17094535
144	0x3cb5afb8	0.022178516
145	0xbdcd5ad8	-0.10027093
146	0xbe91db7b	-0.28487763
147	0xbe862497	-0.2619979
148	0xbeb38cd4	-0.3506838
149	0xbe3522e9	-0.17689098
150	0x3e19e091	0.15027072
151	0x3e40922b	0.18805759
152	0x3db15168	0.08658105
153	0xbd588380	-0.052859783
154	0xbdbb4400	-0.09143829
155	0x3e451e3d	0.19249816
156	0x3d71e23b	0.05905364
157	0xbe3b3058	-0.1828016
158	0xbe7ada4f	-0.2449734
159	0xbe7a6947	-0.24454223
160	0x3e9b9a1d	0.30391017
161	0xbcd17d3c	-0.025572412
162	0xbe900a23	-0.28132734
163	0xbed18e57	-0.4092891
164	0xbe75538a	-0.23957649
165	0x3ea0177e	0.31267923
166	0x3e55228e	0.20813963
167	0xbe9ed693	-0.31023082
168	0xbeb57ee9	-0.35448387
169	0xbdf59fff	-0.119934075
170	0x3f1de423	0.61676234
171	0x3ea407af	0.32037112
172	0x3ca0dd34	0.019636728
173	0xbe73d00e	-0.23809835
174	0xbdc49e17	-0.09600466
175	0xbce694a8	-0.028147057
176	0x3e17e602	0.14833835
177	0xbe01666e	-0.1263673
178	0xbe8c5b66	-0.2741348
179	0xbe247c3f	-0.16063021
180	0xbd6844cb	-0.05670623
181	0x3c7f3b36	0.015578082
182	0xbe9b7e70	-0.30369902
183	0xbea03437	-0.31289837
184	0xbeb6b72f	-0.35686633
185	0xbe28a1c7	-0.16467963
186	0x3c7980e1	0.015228481
187	0xbe9ddb39	-0.30831316
188	0xbe8c142f	-0.2735915
189	0xbea91ba1	-0.33028892
190	0x3ded14c0	0.115762234
191	0x3c5d92e9	0.013523796
192	0xbe54b91b	-0.20773737
193	0xbee3349b	-0.44376072
194	0xbe2d4e9b	-0.16924517
195	0x3dc853d1	0.09781612
196	0x3d2e572e	0.04256361
197	0xbe51bbcf	-0.204818
198	0xbed632b1	-0.4183555
199	0xbe0cd7b1	-0.13754155
200	0x3e720bdb	0.23637335
201	0x3ebe7461	0.37198165
202	0x3eaa5646	0.33268946
203	0x3d5166a3	0.051123273
204	0x3dbbc02d	0.09167514
205	0x3d8d93ca	0.06912954
206	0x3e2a43c7	0.16627418
207	0x3e106d2f	0.1410415
208	0x3c1a7b43	0.009428802
209	0x3dce2eb8	0.10067505
210	0x3d95e9b8	0.07319969
211	0x3e778dc7	0.24175178
212	0xbb58efa1	-0.0033101814
213	0xbdc6a8df	-0.09700178
214	0x3e3afe46	0.1826106
215	0x3e65dc8e	0.22447416
216	0x3e549035	0.20758136
217	0xbd5f5e69	-0.054533396
218	0x3d9444d3	0.0723969
219	0x3e9c1a7c	0.30488956
220	0x3ed89036	0.42297524
221	0x3e89442a	0.26809818
222	0x3d6509ff	0.055917736
223	0x3c416ce5	0.011805748
224	0x3e45270d	0.19253178
225	0x3d08cdac	0.03339927
226	0x3de2d9ce	0.11076699
227	0xbd87b71b	-0.066267215
228	0x3e11c07e	0.14233586
229	0x3e33295b	0.17496245
230	0xbcc6eead	-0.024283731
231	0x3d613e76	0.054991208
232	0x3e0294ee	0.12752125
233	0x3af89e32	0.0018968044
234	0x3e65958f	0.22420333
235	0xbde3618f	-0.11102592
236	0xbc98932a	-0.01862486
237	0xbdeeee44	-0.11666539
238	0xbd959f61	-0.0730579
239	0xbcb09024	-0.021553107
240	0xbe1c2b53	-0.15250902
241	0xbdaa79af	-0.083239906
242	0xbcc0f496	-0.023554128
243	0x3da1479b	0.07874986
244	0x3da6a8aa	0.08137639
245	0xbe27a6da	-0.16372243
246	0xbcf18027	-0.029480053
247	0xbdba6500	-0.091012955
248	0xbd355a11	-0.044275347
249	0x3de789c8	0.113055766
250	0xbe840187	-0.25782415
251	0xbe804c5d	-0.2505826
252	0xbe598bbe	-0.21244714
253	0xbe4e31e1	-0.20136215
254	0xbc18cae4	-0.009325717
255	0xbdeb9fa5	-0.11505059

conv1.bias f4 [6]
0	0x3eba1647	0.3634512
1	0x3dc4d02d	0.09610019
2	0x3ea8e735	0.32988897
3	0xbed33bb6	-0.41256493
4	0xbe1a5cac	-0.15074414
5	0x3e10b0f8	0.14130008

conv2.weight f4 [16, 6, 5, 5]
0	0xbdf9cbae	-0.12197052
1	0xbda90a8b	-0.08253964
2	0x3d30b8fe	0.043145172
3	0x3e21dc35	0.15806659
4	0x3e39f96f	0.18161558
5	0xbd1473b1	-0.036243144
6	0xbb667885	-0.003516705
7	0x3e30f261	0.1727996
8	0x3de06b53	0.109579705
9	0x3c95348a	0.01821353
10	0xbcd7f14c	-0.026360177
11	0xbd7aa966	-0.061196707
12	0x3df3e933	0.119097136
13	0x3e4f4181	0.20239832
14	0x3d5d3039	0.054001067
15	0xbdf15c1e	-0.11785148
16	0xbdc74e35	-0.09731714
17	0xbdeca92f	-0.11555707
18	0xbe08c8fe	-0.13357922
19	0xbd12339d	-0.035693754
20	0xbe101755	-0.140714
21	0x3cca34ca	0.024683375
22	0x3cf9a48d	0.030473972
23	0xbe029a2e	-0.12754127
24	0xbe6ffb46	-0.23435697
25	0xbd978683	-0.07398703
26	0x3d377341	0.04478765
27	0x3deacfd0	0.11465418
28	0xbcf911d2	-0.030404005
29	0x3d809129	0.06277687
30	0xbcfb6080	-0.030685663
31	0xbce1dccb	-0.027571103
32	0x3e380d6a	0.17973867
33	0x3dd7687c	0.10517976
34	0x3e1ff3d7	0.15620361
35	0x3e00ad69	0.1256615
36	0x3d175270	0.036943853
37	0x3dd54433	0.104133986
38	0x3c7579a9	0.014982619
39	0xbc7fc5e9	-0.01561115
40	0x3dbab459	0.0911643
41	0x3e04001c	0.12890667
42	0x3e0e4f2a	0.13897386
43	0x3d386cc6	0.04502561
44	0xbd9c6718	-0.07636851
45	0x3da0a157	0.07843273
46	0xbd9a59df	-0.07536673
47	0xbbc3df53	-0.00597755
48	0xbbe23945	-0.0069037997
49	0xbdb94d89	-0.09047992
50	0x3e9c5ddb	0.30540356
51	0x3e106000	0.14099121
52	0x3e189ac0	0.14902782
53	0x3d299813	0.041404795
54	0xbc3d80f4	-0.011566389
55	0x3e21ddbb	0.1580724
56	0x3db3a296	0.08771245
57	0x3da96947	0.08272033
58	0xbdf864b9	-0.12128586
59	0xbddcd190	-0.107821584
60	0x3c958ab4	0.018254615
61	0x3d08809e	0.033325784
62	0xbdd44f3d	-0.10366676
63	0xbdf1744f	-0.11789762
64	0xbe1f8f79	-0.15582074
65	0xbd312467	-0.043247607
66	0xbe621f95	-0.2208236
67	0xbe8369e4	-0.25666726
68	0xbe86f4b3	-0.26358566
69	0xbe4f65f9	-0.20253743
70	0xbe1b8a70	-0.15189528
71	0xbe49b819	-0.19699134
72	0xbe175437	-0.14778219
73	0xbe3c8433	-0.18409805
74	0xbd6c0212	-0.057619162
75	0x3e668c83	0.22514538
76	0x3e60de4c	0.219598
77	0x3dfa7d6b	0.12230953
78	0x3d706f88	0.058700114
79	0x3ddd83cd	0.10816155
80	0x3e73e97d	0.23819537
81	0x3e861c52	0.26193482
82	0x3e4a86f8	0.19778049
83	0x3dc43740	0.095808506
84	0xbccb6504	-0.024828441
85	0x3db09c14	0.086235195
86	0xbdc7d0b8	-0.09756607
87	0x3d6501c8	0.0559099
88	0xbe04fd29	-0.12987198
89	0xbd503ebb	-0.050841074
90	0xbd23839e	-0.03992044
91	0xbe0c9f4e	-0.13732645
92	0xbcd82302	-0.02638388
93	0xbdb3d8ee	-0.087816104
94	0xbdca11ee	-0.09866701
95	0x3d08c788	0.033393413
96	0xbe59e66e	-0.21279308
97	0xbe0ae966	-0.13565597
98	0xbe1b8dcd	-0.15190811
99	0xbe29134c	-0.16511267
100	0x3dea0b2b	0.11427911
101	0x3e305dd3	0.17223291
102	0x3dcb8448	0.0993734
103	0x3dc56ca9	0.09639866
104	0x3e151f3f	0.145627
105	0x3e63187d	0.2217731
106	0x3e1bc280	0.15210915
107	0x3d00a239	0.031404708
108	0xbd48b481	-0.049000267
109	0xbd66fee5	-0.05639543
110	0x3d63d0ff	0.055619236
111	0xbddced4e	-0.1078745
112	0xbd2de364	-0.042453185
113	0xbdd2807d	-0.102784134
114	0xbe21ff3a	-0.15820017
115	0xbd5b0264	-0.053469077
116	0xbe007cde	-0.12547633
117	0xbe089341	-0.13337423
118	0xbddf9b68	-0.10918313
119	0xbe0746c7	-0.13210593
120	0xbd246bf4	-0.040142015
121	0xbd43c9e0	-0.047799945
122	0xbd3070b3	-0.04307623
123	0xbd9a043c	-0.07520339
124	0xbdcfd1b5	-0.1014742
125	0xbd8300b5	-0.06396619
126	0x3e12de2d	0.14342566
127	0x3d22efe7	0.03977957
128	0xbca4fe2f	-0.020140735
129	0x3d474902	0.04865361
130	0x3e076bae	0.1322467
131	0x3e191a32	0.14951399
132	0x3dec8aa3	0.1154988
133	0x3da52bc5	0.08064989
134	0xbb334fd7	-0.002736082
135	0x3dc97d50	0.098383546
136	0x3dc8f9f1	0.098132975
137	0x3e37cf6a	0.17950216
138	0x3cfc9c6e	0.03083631
139	0xbb38c961	-0.0028196203
140	0x3df65496	0.12027852
141	0xbd1d166d	-0.038351465
142	0xbcd6e3c3	-0.026231652
143	0xbd706581	-0.05869055
144	0xbe2ee092	-0.17077854
145	0x3e09b5fe	0.13448331
146	0x3cee6fcc	0.029106043
147	0xbd92e053	-0.07171693
148	0xbe140c34	-0.1445778
149	0xbd6723e6	-0.05643072
150	0xbe3305a4	-0.1748262
151	0xbd4079af	-0.046991047
152	0x3d893bd8	0.067008674
153	0x3daca7e2	0.084304586
154	0x3e7c7f27	0.2465788
155	0xbcc88457	-0.024477167
156	0xbd6772b2	-0.056505866
157	0xbde9a7af	-0.11408936
158	0x3c41062f	0.011781259
159	0xbd832e5a	-0.06405325
160	0x3e5e1ac0	0.21689892
161	0x3dafc2e6	0.08582096
162	0xbdd93aa2	-0.106068864
163	0xbcfc8b42	-0.030828122
164	0xbd5ef921	-0.054436807
165	0xbcb746af	-0.022372572
166	0x3dbdf265	0.09274749
167	0xbba2319b	-0.004949761
168	0xbc3464df	-0.011010378
169	0xbcb2854d	-0.021792078
170	0x3d080345	0.033206243
171	0xbe1400a1	-0.14453365
172	0xbe1d2d5d	-0.15349336
173	0xbdf543f2	-0.1197585
174	0xbdb8574f	-0.09001028
175	0xbda2e190	-0.07953179
176	0xbe052f9b	-0.13006441
177	0xbda190a9	-0.0788892
178	0xbdb772d6	-0.0895745
179	0x3d3e8fd8	0.0465239
180	0x3dcceaee	0.10005747
181	0x3d88a2da	0.066716865
182	0xbde6bb30	-0.11266172
183	0xbd4e5b61	-0.050380114
184	0x3dc2bb9c	0.0950844
185	0x3d7663e5	0.06015386
186	0xbd74e344	-0.05978705
187	0x3d4e5c06	0.05038073
188	0xbd3f3e5f	-0.04669034
189	0x3cc1c8cc	0.023655318
190	0xbdfd640a	-0.123725966
191	0xbde8d304	-0.11368373
192	0xbd8b737a	-0.06809135
193	0xbdd0dc6a	-0.10198291
194	0x3d0e6298	0.034761995
195	0xbc976ced	-0.018484557
196	0xbdde2acc	-0.108480066
197	0xbd9a7cd8	-0.07543343
198	0xbdec6d73	-0.11544313
199	0x3d8c817a	0.06860633
200	0xbc890fb2	-0.016731117
201	0xbe8c1481	-0.27359393
202	0xbdc80003	-0.09765627
203	0x3e03be8d	0.12865658
204	0xbdd0c656	-0.101940796
205	0xbe1d2062	-0.15344384
206	0xbe361fba	-0.1778554
207	0xbc246185	-0.010033016
208	0x3bff68cb	0.0077944747
209	0xbd6a9498	-0.057270616
210	0x3ce58610	0.028018028
211	0x3e15f35c	0.14643615
212	0x3d5219e3	0.05129422
213	0xbd4b8e13	-0.04969604
214	0xbdf71f45	-0.12066511
215	0x3b500b5e	0.0031745057
216	0x3e834c4f	0.25644156
217	0x3e40edea	0.18840757
218	0x3e970088	0.29492593
219	0xbd8b5d67	-0.068049245
220	0x3dbda32b	0.092596374
221	0x3e4a11d3	0.19733362
222	0x3e78c1df	0.24292706
223	0x3e97721d	0.2957925
224	0xbdae03f5	-0.084968485
225	0xbe6f421b	-0.23365061
226	0xbe5e58f3	-0.21713619
227	0xbe861728	-0.26189542
228	0xbdf98d42	-0.12185146
229	0xbd8d8848	-0.06910759
230	0xbd252df9	-0.040327046
231	0xbce22f8c	-0.027610563
232	0x3beaf3c9	0.0071701747
233	0x3c4f880b	0.0126667125
234	0x3c5c5557	0.013448081
235	0xbdeaabe8	-0.1145857
236	0x3d212afd	0.039347637
237	0x3dbf5a6e	0.0934342
238	0x3dcac9bb	0.09901758
239	0x3d833784	0.06407073
240	0x3b8be9ce	0.004269815
241	0x3d106213	0.03524978
242	0x3e3544f2	0.17702082
243	0x3e36fd5f	0.17870091
244	0x3e43bfcf	0.19116138
245	0x3e06a29a	0.13147965
246	0x3e1682c4	0.1469832
247	0x3da1b266	0.07895355
248	0x3e1d133b	0.15339367
249	0x3e2fcb43	0.17167382
250	0xbe06bcd1	-0.13157965
251	0xbe5099a8	-0.20371115
252	0xbe85fa58	-0.2616756
253	0xbe1d8831	-0.15383984
254	0xbda7c086	-0.08191018
255	0xbd8fae15	-0.070156254

conv2.bias f4 [16]
0	0x3c661cc9	0.014044949
1	0xbd19d142	-0.03755308
2	0x3d906005	0.07049564
3	0xbcb12ba1	-0.02162725
4	0xbccfc1b2	-0.025360916
5	0x3e09a952	0.13443497
6	0xbceda015	-0.029006997
7	0x3da3fa91	0.08006776
8	0xbd94a806	-0.072586104
9	0xbc8b4578	-0.017000899
10	0x3d2be269	0.04196397
11	0xbc96df6b	-0.01841708
12	0xbd0fcfba	-0.035110213
13	0xbd38679e	-0.045020692
14	0x3b893faa	0.0041884976
15	0xbdcd672e	-0.100294456

fc1.weight f4 [120, 400]
0	0xbd3eb254	-0.046556786
1	0xbc90c596	-0.017672341
2	0x3cd96d48	0.026541367
3	0xbda7b4fc	-0.08188817
4	0xbd8d2a84	-0.06892875
5	0xbd823f57	-0.06359737
6	0x3c44a07f	0.012001156
7	0x3ca9b391	0.020715507
8	0xbd0b0cad	-0.033947635
9	0xbd01d78b	-0.0316997
10	0xbd217f70	-0.039428174
11	0x3cb1d3e6	0.021707486
12	0x3d555d50	0.052090943
13	0x3cf207b9	0.029544698
14	0xbd6c8b96	-0.057750307
15	0xbd545a13	-0.051843714
16	0x3b7131db	0.0036803398
17	0xbc77e2ab	-0.015129725
18	0x3c092472	0.008370506
19	0x3c816cdf	0.015798984
20	0xbd82ce9a	-0.06387062
21	0xbcbc0f48	-0.022956505
22	0xbc8f6ff5	-0.01750944
23	0x3af24729	0.0018484342
24	0xbd554c29	-0.052074585
25	0x3c723f38	0.01478558
26	0x3ba6ae01	0.005086661
27	0xbd141112	-0.036149092
28	0xbccdf320	-0.025140345
29	0xbc298e08	-0.010348804
30	0x3cf458a3	0.029827422
31	0xbb91eb7c	-0.0044531208
32	0x3c5d1ec3	0.013496104
33	0x3b55bcc6	0.0032613738
34	0xbbf71dd3	-0.007541397
35	0xbd29d8b4	-0.04146643
36	0xbd847a6b	-0.06468662
37	0xbd3503c5	-0.044193048
38	0xbcc5a508	-0.024126545
39	0xbbe93f4f	-0.0071181427
40	0x3d8ccaf2	0.06874646
41	0x3d592091	0.053009573
42	0x3d4ffa48	0.050775796
43	0x3d490143	0.04907347
44	0x3d25d91a	0.040490247
45	0x3baa13f3	0.0051903664
46	0x3da97d75	0.08275882
47	0x3bd9eb1b	0.006650341
48	0x3de7b0ce	0.1131302
49	0x3d7132fb	0.05888651
50	0xbd9360bb	-0.07196184
51	0xbd2756ba	-0.040854193
52	0xbd429f85	-0.04751541
53	0xbd8f2c19	-0.06990833
54	0xbcce5b2b	-0.025189957
55	0xbc1cbb55	-0.009566148
56	0xbddb5cd4	-0.10711065
57	0xbd44e486	-0.0480695
58	0xbd9142df	-0.07092833
59	0xbd906943	-0.07051327
60	0xbd8e33ff	-0.06943511
61	0xbc2e7ec8	-0.010650344
62	0xbc412c10	-0.0117902905
63	0xbd648e55	-0.0557998
64	0xbd5f5595	-0.054524977
65	0x3c5868a7	0.013208545
66	0xbd60c683	-0.054876816
67	0xbd8c3ac7	-0.068471484
68	0xbdbc21c0	-0.09186125
69	0xbd43d127	-0.047806885
70	0xbdb38dd3	-0.08767285
71	0xbdafb941	-0.08580256
72	0x3ca7b800	0.02047348
73	0x3c4149b5	0.011797358
74	0xbd801c9a	-0.06255455
75	0xbb7a90c2	-0.0038233255
76	0x3cb68372	0.022279475
77	0x3c51d3f7	0.012806884
78	0xbb042071	-0.0020160938
79	0xbbbc7d47	-0.005752239
80	0xbc314bf3	-0.01082133
81	0xbbd5ae90	-0.0065210536
82	0x3cf8358f	0.030298976
83	0xbd21c059	-0.039490078
84	0x3d0afd50	0.033932984
85	0x3d331739	0.04372332
86	0x3d023976	0.03179308
87	0xbd20e77a	-0.039283253
88	0x3c424a0a	0.011858473
89	0xbc5cb95a	-0.013471926
90	0x3d276a4a	0.04087285
91	0x3d1b69cd	0.037942696
92	0x3c0a1b46	0.008429354
93	0xbca0816e	-0.019592967
94	0x3d1df6c4	0.038565412
95	0xbb340564	-0.0027469033
96	0x3d04dce1	0.03243721
97	0x3c9e22f3	0.019303774
98	0xbd2cf288	-0.042223483
99	0x3d101f15	0.035185892
100	0xbc919fe9	-0.017776446
101	0xbd4a8263	-0.049440753
102	0x3d001224	0.0312673
103	0x3d2cff3b	0.042235594
104	0xbd271012	-0.04078681
105	0x3a967984	0.0011480306
106	0x3cc72d50	0.024313599
107	0x3bd2564f	0.00641898
108	0x3d1d2c47	0.038372304
109	0x3bf3bcb3	0.007438266
110	0x3d709b26	0.05874171
111	0x3d38e5b9	0.045140956
112	0xbca842fa	-0.02053975
113	0xbd0cd605	-0.034383792
114	0x3b5e0717	0.0033878738
115	0xbd0d697f	-0.034524437
116	0x3ccb2031	0.024795623
117	0x3c7258e0	0.014791697
118	0x3cc9120e	0.024544742
119	0x3c4a0958	0.012331329
120	0x3d1386a4	0.036017075
121	0xbc5f8d6c	-0.013644557
122	0x3d4ad419	0.04951868
123	0xbd37c518	-0.044865698
124	0x3d2a2bb7	0.041545596
125	0x3d9722fd	0.0737972
126	0x3c195bb5	0.009360244
127	0x3bf29068	0.0074024685
128	0x3d24264e	0.040075593
129	0xbca7004d	-0.020385886
130	0x3c30e2aa	0.010796228
131	0xbc909896	-0.017650884
132	0x3b95471b	0.0045555956
133	0xbc117bff	-0.008879661
134	0xbcf08f05	-0.029365072
135	0x3c9ce190	0.019150525
136	0x3cad52db	0.021157673
137	0xbd08b3a8	-0.03337446
138	0xbd180465	-0.037113566
139	0x3d371767	0.044700053
140	0x3d97e7ed	0.07417283
141	0x3cd92617	0.02650742
142	0xbd20aa87	-0.039225128
143	0xbcb112dc	-0.021615438
144	0x3b8d0b78	0.0043043457
145	0x3df6b5ba	0.1204638
146	0xbcc73e08	-0.024321571
147	0x3c2d2014	0.01056673
148	0x3d916840	0.07099962
149	0x3dcf3a54	0.10118547
150	0x3c7e9f98	0.01554098
151	0xbd32b330	-0.043627918
152	0x3d0babf4	0.034099534
153	0x3ca80122	0.020508353
154	0x3c7bf2fa	0.015377754
155	0x3d5da739	0.054114554
156	0x3cba447a	0.02273773
157	0x3c22111a	0.009891773
158	0xbc98764c	-0.018611096
159	0xbb072275	-0.0020619903
160	0x3cfcedb7	0.03087507
161	0xbc33e7e1	-0.010980577
162	0xbcb66d44	-0.022268899
163	0x3d345258	0.04402384
164	0xbd520117	-0.05127057
165	0x3b9e2a2f	0.004826806
166	0x3bb7dc18	0.005610954
167	0x3d3d9aca	0.046290196
168	0xbcd5508c	-0.026039384
169	0xbd788bd6	-0.060680233
170	0x3baa11f1	0.005190127
171	0x3ce411e2	0.027840558
172	0xbc96a2e7	-0.018388225
173	0x3bcb2310	0.006199248
174	0xbce57acd	-0.028012658
175	0xbb4df25a	-0.003142497
176	0x3d2ec448	0.042667657
177	0x3c8bad7a	0.017050494
178	0xbc16ffdb	-0.009216274
179	0x3cc71611	0.024302514
180	0x3b5db983	0.0033832497
181	0xbd59d1dc	-0.053178653
182	0x3dc21442	0.0947652
183	0x3bacfcb0	0.005279146
184	0xbd053fbc	-0.032531485
185	0xbc854d4c	-0.01627221
186	0x3bb194d5	0.0054193535
187	0xbc7fd678	-0.015615098
188	0xbb917f44	-0.00444022
189	0x3d5ecb15	0.054392893
190	0xbb6dbcb3	-0.0036275804
191	0x3cdf81fc	0.027283661
192	0x3cc221d8	0.023697779
193	0xbd043bff	-0.03228378
194	0x3d4348c2	0.04767681
195	0xbd262ef2	-0.040572114
196	0xbcc413e5	-0.023935268
197	0x3cf9fb97	0.030515475
198	0x3ce3808c	0.027771257
199	0x3d7c6b71	0.0616259
200	0xbce12bb7	-0.027486665
201	0xbcdba2f9	-0.02681111
202	0xbc403738	-0.011731915
203	0xbca4ea38	-0.020131215
204	0x3d21fe41	0.039549116
205	0xbd8e8c53	-0.069603585
206	0xbd6f6f7b	-0.058455925
207	0xbd6b1c7e	-0.05740022
208	0x3cd958cf	0.026531605
209	0x3d60cf48	0.05488518
210	0xbd7a8afb	-0.0611677
211	0xbb9f2a4a	-0.004857336
212	0x3c456d4a	0.012049982
213	0xbceea48c	-0.029131196
214	0x3b7f2014	0.0038929032
215	0x3c84660c	0.016161941
216	0xbd1ef1f2	-0.038804956
217	0x3c6e1333	0.014530945
218	0x3d981a00	0.07426834
219	0x3d8b0b81	0.067893036
220	0x3c9cd78a	0.019145746
221	0xbd5a96f1	-0.053366605
222	0xbce37e80	-0.02777028
223	0x3d5d3f26	0.0540153
224	0x3d28094f	0.041024502
225	0x3d8f58e4	0.069993764
226	0x3d2e0041	0.04248071
227	0xbd32bbdd	-0.04363619
228	0xbc1c81e6	-0.009552455
229	0x3d29491b	0.041329484
230	0x3d9ac54a	0.07557161
231	0x3b25d230	0.0025302283
232	0xbdd51b60	-0.10405612
233	0x3cb27fef	0.02178952
234	0x3b626caf	0.0034549644
235	0x3c037efe	0.008025883
236	0xbd22f643	-0.039785635
237	0xbd9341dd	-0.07190297
238	0xbc750585	-0.014954929
239	0xbbb0ec22	-0.005399243
240	0x3d701591	0.058614317
241	0x3d94ab07	0.072591834
242	0xbbf073ce	-0.0073380237
243	0xbc9dcf3f	-0.019263862
244	0x3c7a97e4	0.015295003
245	0x3d5220ef	0.05130094
246	0x3d9d0311	0.076666005
247	0xbd9c6499	-0.07636375
248	0xbd02c122	-0.031922467
249	0x3dbbf27b	0.09177109
250	0x3ceb7cc0	0.028746009
251	0xba256724	-0.00063096196
252	0x3cfc352a	0.03078707
253	0xbd2d1e6b	-0.042265337
254	0x3c11eebe	0.008907018
255	0xbd432c9e	-0.047649972

fc1.bias f4 [120]
0	0x3d57dc8e	0.05270057
1	0x3c78eb24	0.015192781
2	0x3cbf9054	0.02338425
3	0x3d885592	0.06656946
4	0x3c454010	0.0120391995
5	0x3d9e7ff0	0.07739246
6	0xbc9e9b63	-0.019361204
7	0x3d85ee1f	0.065395586
8	0xbd328d8f	-0.043592032
9	0xbce2189c	-0.027599625
10	0xbcbad694	-0.022807397
11	0xbc61461c	-0.0137496255
12	0x3dcc9ad5	0.09990469
13	0xbb9c55d0	-0.004770972
14	0xbd679f00	-0.05654812
15	0x3cb698b0	0.022289604
16	0x3d10160c	0.035177276
17	0x3dbe744f	0.09299528
18	0xbd6d4203	-0.05792428
19	0x3d1f2a2b	0.038858574
20	0xbc949b21	-0.018140377
21	0x3e29f7ed	0.16598482
22	0xbccabc20	-0.024747908
23	0x3d1905d6	0.03735908
24	0x3d5205dd	0.051275123
25	0xbca88a11	-0.020573648
26	0x3d518c21	0.051159028
27	0x3d34e220	0.044160962
28	0xbd03b9e4	-0.0321597
29	0x39702f23	0.00022905743
30	0x3d647885	0.055779
31	0xbc58f382	-0.013241651
32	0xbcc5ad3b	-0.024130454
33	0x3e01af7c	0.12664598
34	0x3d4085b8	0.047002524
35	0xbd7b0985	-0.061288375
36	0xbc77ed77	-0.0151323
37	0xbd649813	-0.05580909
38	0xbc821a0f	-0.015881566
39	0x3c85b0e0	0.016319692
40	0xbd59ec40	-0.05320382
41	0x3c772b45	0.015086
42	0x3b35b032	0.0027723429
43	0x3cc18441	0.023622634
44	0xbc859cb9	-0.016310083
45	0xbd21c58c	-0.039495036
46	0x3dbf72e5	0.09348086
47	0x3ba5c398	0.005058717
48	0xbcfc21f6	-0.030777913
49	0x3bfd399b	0.0077278144
50	0x3d5d5d97	0.054044332
51	0xbc6a9631	-0.014318035
52	0xbd29575f	-0.04134309
53	0x3d9d4dfa	0.076808885
54	0x3ab2844c	0.001361975
55	0xbb8f330a	-0.004370098
56	0xbd0250b9	-0.031815264
57	0xbd59d1b0	-0.05317849
58	0x3c68354a	0.014172861
59	0xbd65e7cc	-0.05612926
60	0xbc13ec36	-0.009028485
61	0x3d4a815c	0.049439773
62	0x3d47dc94	0.048794344
63	0x3cab3926	0.020901274
64	0x3d45a922	0.048257
65	0x3c43f388	0.011959918
66	0x3c008e3f	0.007846414
67	0x3c3a4389	0.011368641
68	0xbcbd947f	-0.023142098
69	0xbd28abde	-0.04117953
70	0x3d2806b9	0.041022036
71	0xbb964f75	-0.0045871087
72	0x39d0b722	0.00039809296
73	0xbd233a70	-0.039850652
74	0x3d5ceb36	0.053935252
75	0xbca9584b	-0.020671984
76	0xbd110143	-0.035401594
77	0xbcb6793a	-0.022274602
78	0xbc004451	-0.007828788
79	0x3cbbac22	0.022909228
80	0x3de71d8a	0.11284931
81	0xbc297c93	-0.010344642
82	0x3cd2cb0a	0.025731582
83	0xbb8564a4	-0.004070835
84	0xbcce0354	-0.025148071
85	0x3ddaf2ee	0.106908664
86	0x3d681fb5	0.056670863
87	0xbc7d36ae	-0.015454931
88	0x3c58c3f9	0.013230317
89	0x3c4851bc	0.012226518
90	0xbc0f53bd	-0.008747992
91	0xbc09d78c	-0.008413207
92	0x3d85dbc2	0.06536056
93	0x3c2cb919	0.010542178
94	0x3d84483b	0.06459089
95	0x3d0f7120	0.035019994
96	0xbb81dc8a	-0.003963058
97	0xbccdc567	-0.025118543
98	0xbd0f1155	-0.03492864
99	0x3b1a681b	0.0023560587
100	0xbceca163	-0.028885549
101	0x3cb05a05	0.0215273
102	0x3d65a5c8	0.056066304
103	0xbbc190a9	-0.0059071374
104	0x3d0884ba	0.033329703
105	0xbc504d96	-0.01271381
106	0xbd3a55f3	-0.045492124
107	0xbcb57dde	-0.022154745
108	0xbc6712f2	-0.014103638
109	0xbb94d746	-0.004542264
110	0x3c8ce3a8	0.017198399
111	0x3b9de957	0.004819076
112	0x3aa4be44	0.0012568911
113	0x3da0c56a	0.07850154
114	0x3d4fb9f5	0.05071445
115	0x3cd403f3	0.02588079
116	0xbc2c7849	-0.010526725
117	0xbcbde405	-0.023180017
118	0x3d58fd9f	0.052976247
119	0xbcef2656	-0.029193085

fc2.weight f4 [84, 120]
0	0xbe1a2108	-0.15051663
1	0x3df3ef02	0.119108215
2	0x3c3fad05	0.011698966
3	0x3e21c3ed	0.15797396
4	0x3d1fb9cb	0.038995545
5	0xbdb58493	-0.08863177
6	0xbc0d667d	-0.008630392
7	0xbe379bf8	-0.17930591
8	0x3c8d250c	0.01722958
9	0xbd4bbab4	-0.0497386
10	0xbce513d4	-0.027963556
11	0xbd0eaac6	-0.03483083
12	0x3cc30ec7	0.023810757
13	0x3d62b3e6	0.055347346
14	0xbdaa5f7a	-0.08318992
15	0x3d45f632	0.048330493
16	0xbc6437ee	-0.01392935
17	0x3e0c03c5	0.13673313
18	0x3db90388	0.09033877
19	0xbd56a8d4	-0.0524071
20	0x3d24af7a	0.04020641
21	0xbcf1962c	-0.029490553
22	0xbdcf91e7	-0.101352505
23	0xbde2748c	-0.11057386
24	0xbdab1c65	-0.08355025
25	0x3d70167c	0.058615193
26	0x3ddc6896	0.10762136
27	0x3e19cf55	0.15020497
28	0xbc8aba71	-0.016934605
29	0xbccd269c	-0.025042824
30	0xbdf69a74	-0.12041178
31	0x3cf8df0a	0.03037979
32	0x3dfe72f7	0.124242716
33	0x3d0de8ee	0.034645967
34	0x3d982360	0.07428622
35	0x3c9bd200	0.019021034
36	0x3dc0d6ea	0.094159916
37	0x3d919f76	0.07110493
38	0xbd083e13	-0.033262324
39	0x3db5e137	0.08880847
40	0x3d4010d6	0.046891056
41	0xbc77ead6	-0.015131673
42	0xbd109015	-0.035293657
43	0xbca8f90c	-0.020626567
44	0xbdf6f3d6	-0.12058227
45	0x3b54b34f	0.003245551
46	0xbe0a2080	-0.1348896
47	0xbdb06901	-0.08613778
48	0x3d8bac63	0.068199895
49	0x3d98da79	0.07463545
50	0xbdc72254	-0.097233444
51	0xbd1b8961	-0.03797281
52	0x3ce246df	0.027621685
53	0x3d71a111	0.058991496
54	0x3df079d1	0.11741985
55	0x3dd28453	0.10279145
56	0x3d33dc1f	0.043911096
57	0x3c959699	0.018260287
58	0xbd67d758	-0.056601852
59	0x3de0262a	0.10944779
60	0x3d3850cc	0.04499893
61	0x3d8bd69d	0.068280436
62	0x3a956558	0.0011398001
63	0x3ce01316	0.02735285
64	0xbda3d840	-0.08000231
65	0x3c25c879	0.010118597
66	0x3dc70f65	0.09719733
67	0x3d4d2750	0.05008632
68	0x3cc7c586	0.024386179
69	0x3da77706	0.08176999
70	0x3db1c4e2	0.086801305
71	0xbd60e067	-0.054901507
72	0xbdbf69ee	-0.09346376
73	0xbca98ec7	-0.020697964
74	0xbcfa2d4a	-0.030539174
75	0x3d730b33	0.059336852
76	0xbccb9306	-0.02485038
77	0xbaa54843	-0.0012610037
78	0xbe07f137	-0.1327561
79	0xbe2e069e	-0.16994712
80	0x3bd3456d	0.006447485
81	0x3d79a206	0.060945533
82	0xbcf893e5	-0.03034396
83	0x3dc45548	0.095865786
84	0x3dd38438	0.10327953
85	0xbde9d02c	-0.11416659
86	0x3d960b0f	0.07326328
87	0x3dd3c4d1	0.10340274
88	0x3d344dc3	0.04401947
89	0xbcd20ef3	-0.025641894
90	0x3dae33ac	0.085059494
91	0xbd484fdc	-0.048904285
92	0x3c1a3515	0.00941207
93	0x3db79281	0.0896349
94	0x3dd16ef0	0.10226238
95	0xbe06b556	-0.13155112
96	0xbdaf05d2	-0.08546032
97	0x3e424d3e	0.18974778
98	0x3d13f66c	0.036123678
99	0x3db8c5ee	0.09022127
100	0xbd869937	-0.06572192
101	0xbe09afbf	-0.13445948
102	0x3d759a9a	0.059961893
103	0xbcf4e422	-0.029893938
104	0x3ca04c01	0.019567491
105	0xbd1a9619	-0.0377408
106	0x3d573c46	0.052547716
107	0x3ca98171	0.020691605
108	0xbd48b0ef	-0.048996862
109	0x3d01575b	0.03157745
110	0xbc9ff37f	-0.019525288
111	0xbcf6cc28	-0.030126646
112	0xbd7093b6	-0.058734618
113	0x3d186e91	0.03721482
114	0xbde31e3d	-0.11089752
115	0x3c91ba18	0.017788932
116	0xbcf8b862	-0.030361358
117	0xba010c9a	-0.0004922837
118	0xbd4ad882	-0.049522884
119	0xbd82bd29	-0.06383736
120	0x3e02b052	0.12762573
121	0xbe05a82e	-0.13052437
122	0x3d2fb9b3	0.042901706
123	0xbc9cc36b	-0.019136151
124	0x3be17b88	0.006881181
125	0xbc1e1df4	-0.009650696
126	0xbd9b4d40	-0.07583094
127	0x3d8ee877	0.06977933
128	0xbd22b10d	-0.03971963
129	0x3cc91fee	0.024551358
130	0xbdb2028b	-0.08691891
131	0x3d4d423a	0.050111987
132	0xbe05fb43	-0.1308413
133	0xbe014890	-0.12625337
134	0xbcb98d71	-0.022650452
135	0x3ca2d67d	0.019877667
136	0xbd8557c3	-0.0651088
137	0xbd86eea0	-0.06588483
138	0xbda54222	-0.080692545
139	0xbdad4113	-0.084596775
140	0x3d61e5ab	0.05515067
141	0x3b944de8	0.0045258887
142	0x3d1aed3a	0.037823893
143	0xbc34d1d7	-0.011036358
144	0x3d3500ec	0.044190332
145	0x3d614f13	0.05500705
146	0x3a6e654c	0.0009094074
147	0xbdbfa545	-0.093576945
148	0x3d4a425c	0.04937969
149	0x3cfb1905	0.030651579
150	0x3dcbc4a1	0.09949613
151	0xbc3975a7	-0.011319554
152	0x3d383497	0.04497203
153	0x3e281e2e	0.16417763
154	0xbd7a8598	-0.06116256
155	0x3d75b022	0.059982426
156	0xbdadd6b7	-0.08488219
157	0xbd0fd534	-0.035115436
158	0xbc81a91b	-0.015827706
159	0x3bcd70ee	0.006269566
160	0x3d870e1b	0.06594487
161	0xbdff95b4	-0.124797255
162	0xbdb9ca15	-0.09071747
163	0x3e07d262	0.13263848
164	0x3e3c02b4	0.18360406
165	0x3d3d8e59	0.04627833
166	0xbc8986da	-0.016787935
167	0xbd163716	-0.036673628
168	0xbcf570c1	-0.029960992
169	0xbd5f07dc	-0.054450855
170	0x3d295c75	0.04134794
171	0xbb370e07	-0.0027931945
172	0xbc90091a	-0.017582465
173	0xbcd92ed5	-0.026511589
174	0xbe20906b	-0.15680091
175	0xbe4ceeee	-0.2001302
176	0xbcab7122	-0.02092797
177	0x3db25e89	0.087094374
178	0xbdc74995	-0.097308315
179	0xbb564ff6	-0.003270147
180	0xbc985d1a	-0.018599082
181	0x3d58cee7	0.052931692
182	0xbd86650b	-0.06562241
183	0x3da72483	0.08161261
184	0x3e20b59d	0.1569428
185	0x3df39376	0.1189336
186	0x3d29c9b7	0.041452136
187	0xbd380c68	-0.044933707
188	0xbe64f80e	-0.2236025
189	0x3d328661	0.043585185
190	0xbda6aaef	-0.08138072
191	0xbcddf91d	-0.027096326
192	0x3cbe5409	0.02323343
193	0x3ddcdd19	0.107843585
194	0x3e25431e	0.16138884
195	0xbd0bd5c4	-0.03413941
196	0xbd365fc8	-0.044524938
197	0xbdd4735b	-0.10373565
198	0x3dc72b58	0.09725064
199	0x3e275486	0.16340837
200	0x3e1589b8	0.14603317
201	0x3d42f1ad	0.04759376
202	0x3db4d1c8	0.08829075
203	0x3b14e850	0.0022721477
204	0xbd3578f5	-0.044304807
205	0x3c84e828	0.016223982
206	0xbe4448b6	-0.19168362
207	0x3d954789	0.07289035
208	0xbd39dfba	-0.045379378
209	0xbde273ce	-0.11057244
210	0x3d77dfcc	0.060516164
211	0x3d85568f	0.0651065
212	0x3e2744d4	0.1633485
213	0xbdd30a1c	-0.103046626
214	0xbd35c367	-0.044375803
215	0x3c9df7f1	0.019283267
216	0x3cebc304	0.028779514
217	0xbd9b694f	-0.075884454
218	0x3a85ab79	0.0010198198
219	0xbdda9d7a	-0.106745675
220	0xbba65ad5	-0.005076746
221	0x3d889d1f	0.066705935
222	0x3d26f00b	0.040756267
223	0x3d866a7d	0.0656328
224	0xbcdce707	-0.026965631
225	0x3d2dce0d	0.042432833
226	0x3d025961	0.03182352
227	0x3da52f2b	0.08065637
228	0xbdf8789d	-0.1213238
229	0x3c9f3a27	0.019436909
230	0x3d568d8d	0.052381087
231	0x3c045201	0.008076192
232	0xbdc4b71a	-0.09605236
233	0x3dcb41a2	0.09924628
234	0xbd939ef9	-0.07208056
235	0xbdbe1654	-0.092816025
236	0x3da6bf26	0.081419274
237	0x3c86cf24	0.016456194
238	0x3c5778e1	0.013151378
239	0xbdc975fe	-0.09836958
240	0xbe01cc8d	-0.12675686
241	0xbda5f405	-0.08103184
242	0xbb9e884f	-0.0048380266
243	0x3cf83cdb	0.030302456
244	0x3cb68044	0.022277959
245	0xbc306798	-0.010766886
246	0xbbce5281	-0.0062964563
247	0x3da64089	0.08117778
248	0x3d0f8f39	0.035048697
249	0xbd867efe	-0.065671906
250	0xbd9dd16f	-0.07705962
251	0x3d65b1dd	0.056077827
252	0x3d0b4239	0.0339987
253	0x3d4ed830	0.05049914
254	0xbcc234e5	-0.023706863
255	0xbb9cf327	-0.004789728

fc2.bias f4 [84]
0	0x3d03e3df	0.032199737
1	0x3dc8516b	0.09781154
2	0x3c4ca8cb	0.012491415
3	0xbb6afb6e	-0.003585543
4	0x3dc8922a	0.097935036
5	0xbd6e55bd	-0.058187235
6	0xbdacd52f	-0.08439099
7	0x3d157972	0.036492772
8	0x3d513e9d	0.051085103
9	0x3e14117c	0.14459795
10	0xbd34a1af	-0.044099506
11	0xbd5a4ed9	-0.05329785
12	0xbd4822b2	-0.048861213
13	0x3cf49d36	0.02986012
14	0x3c0c75f7	0.008573047
15	0xbd99ca9e	-0.07509349
16	0x3db82e34	0.089931875
17	0xbd3498b6	-0.04409095
18	0x3c892b08	0.016744152
19	0x3df91012	0.12161268
20	0xbd791af4	-0.06081672
21	0x3e8c25a7	0.27372476
22	0xbd144650	-0.036199868
23	0x3e4c8dad	0.1997592
24	0x3e1e59ac	0.15463895
25	0x3e53d26b	0.20685737
26	0x3da2b3f1	0.07944477
27	0x3d03ee80	0.032209873
28	0x3da37ea8	0.07983142
29	0xbd79b623	-0.060964715
30	0x3d922a0c	0.07136926
31	0xbd3fbec1	-0.046812776
32	0xbd58c232	-0.052919574
33	0x3e0fb984	0.14035612
34	0x3cded4bf	0.027201055
35	0xbd38f6a9	-0.04515711
36	0x3e7819c5	0.2422858
37	0x3b871c1c	0.004123224
38	0x3cb6bd75	0.022307137
39	0x3d40a330	0.047030628
40	0xbd2d0205	-0.042238254
41	0x3d14d538	0.036336154
42	0x3d7f1e75	0.062284905
43	0xbd679403	-0.05653764
44	0x3d0b2fc3	0.033981096
45	0xbd45e07f	-0.0483098
46	0x3cb8369d	0.02248698
47	0x3dd6a33e	0.10480355
48	0xbd7fbe97	-0.06243762
49	0x3e234962	0.15945962
50	0xbc27aaa1	-0.010233552
51	0x3b9bd1de	0.0047552427
52	0xbd83ba66	-0.06432037
53	0x3cb6d149	0.022316592
54	0xbdbbf2d1	-0.09177173
55	0xbd63f1c1	-0.055650476
56	0x3b538177	0.0032273212
57	0x3e450f8f	0.19244216
58	0x3d9f650b	0.07782944
59	0x3c36f055	0.011165698
60	0xbcc13c2b	-0.02358826
61	0x3d1000c8	0.035156995
62	0x3dbc8339	0.09204716
63	0x3da3adfe	0.07992171
64	0x3d8b4238	0.067997396
65	0x3e593698	0.21212232
66	0x3d776c4d	0.060406018
67	0xbbf57c2f	-0.0074916105
68	0xbdb96057	-0.090515785
69	0x3d8f320c	0.069919676
70	0xbc248d98	-0.010043524
71	0x3c836f14	0.016044177
72	0xbd76b920	-0.060235143
73	0x3cf7366b	0.030177316
74	0xbdae0036	-0.08496134
75	0x3dd8b875	0.105820574
76	0xbd518eb8	-0.051161498
77	0x3cd071a1	0.025444807
78	0x3d9da6c7	0.07697826
79	0xbd9516bc	-0.07279727
80	0x3d9d4ebc	0.07681033
81	0xbd93fc80	-0.07225895
82	0x3e08b10c	0.13348788
83	0x3b88f1f4	0.0041792337

fc3.weight f4 [19, 84]
0	0xbcc4c82f	-0.024021236
1	0x3e92a7bb	0.28643593
2	0xbe41f706	-0.18941888
3	0xbbc76336	-0.006084825
4	0xbe260de7	-0.16216241
5	0xbcc7884e	-0.024356987
6	0xbea4ebfd	-0.32211295
7	0xbe6af7b0	-0.22946048
8	0xbc4c5920	-0.012472421
9	0xbdbd369a	-0.0923893
10	0xbe838925	-0.2569057
11	0x3e20e3b3	0.1571186
12	0x3d4524c4	0.048130766
13	0x3e906c49	0.28207615
14	0xbbc6e5d6	-0.006069879
15	0x3e7044ed	0.23463793
16	0xbe5396f8	-0.20663059
17	0x3db06913	0.08613791
18	0x3dc08123	0.09399631
19	0xbc7d0337	-0.015442661
20	0x3d182cb4	0.037152007
21	0xbdb84e57	-0.08999317
22	0x3e188422	0.14894155
23	0xbdf04f32	-0.11733855
24	0xbd1f1629	-0.038839493
25	0xbe708618	-0.23488653
26	0xbe1979e1	-0.149879
27	0x3e51b53e	0.20479295
28	0xbe0c150a	-0.13679901
29	0xbd7e80bc	-0.06213449
30	0x3d20ae68	0.039228827
31	0x3d25253d	0.040318716
32	0x3b0966eb	0.0020965885
33	0xbdc99932	-0.09843673
34	0xbd836499	-0.06415672
35	0x3dd759b5	0.10515157
36	0xbe6e1c9a	-0.23253098
37	0xbcf91eef	-0.030410258
38	0xbd483f50	-0.048888505
39	0x3e300477	0.17189203
40	0xbd8acaf8	-0.067769945
41	0xbdb15fa5	-0.08660821
42	0xbdf35780	-0.11881924
43	0xbdc24c05	-0.09487156
44	0x3e43b894	0.1911338
45	0xbddd5167	-0.10806542
46	0xbe9d44c5	-0.3071653
47	0x3e4ff9fd	0.20310207
48	0xbd299641	-0.04140306
49	0xbb5c0caf	-0.0033576896
50	0x3e2866be	0.16445443
51	0x3eb7f466	0.3592865
52	0xbe484011	-0.1955569
53	0xbdf2edfb	-0.118617974
54	0xbd6f3745	-0.05840232
55	0x3d1b1cac	0.03786914
56	0x3e04e8e0	0.1297946
57	0x3e8e2510	0.2776265
58	0x3c7cf92e	0.015440268
59	0x3d98812b	0.07446512
60	0x3db48dbf	0.088160984
61	0xbe804b8b	-0.25057635
62	0xbe0e744f	-0.13911556
63	0x3e1f9ee5	0.15587957
64	0x3e938a72	0.28816563
65	0x3ce07bc0	0.027402759
66	0x3d0ee5c0	0.034887075
67	0x3cae13c8	0.021249667
68	0x3d831940	0.064013004
69	0x3dcc122c	0.099644035
70	0xbaf5f188	-0.0018763999
71	0xbd1f876c	-0.038947508
72	0x3c52d444	0.012867991
73	0x3d18a499	0.037266348
74	0x3d2cdc63	0.042202365
75	0xbe78c86d	-0.24295206
76	0xbc6bfac0	-0.014403045
77	0x3e880676	0.2656743
78	0xbc838bba	-0.016057838
79	0x3dc01551	0.09379066
80	0xbdd36fc7	-0.10324054
81	0xbcd11b48	-0.025525704
82	0xbd858568	-0.06519586
83	0x3e066aae	0.13126633
84	0xbdf4dce1	-0.11956192
85	0x3ce932cb	0.028466603
86	0xbdf3a2f0	-0.11896312
87	0x3da2122a	0.07913621
88	0xbe146509	-0.14491667
89	0x3deaa8cc	0.11457977
90	0xbd318cc2	-0.043347128
91	0x3dc5cb74	0.09657946
92	0xbba25292	-0.004953691
93	0xbe333f14	-0.17504531
94	0x3e2bdb9b	0.16782992
95	0x3d8a4d20	0.06752992
96	0xbc37bf86	-0.011215096
97	0x3e8da7f4	0.276672
98	0xbd5b18f3	-0.05349059
99	0xbe6ccb5a	-0.23124447
100	0xbc5908ab	-0.0132466955
101	0xbda764b9	-0.08173508
102	0xbcbc64f7	-0.022997363
103	0x3e056688	0.13027394
104	0xbe26d7c3	-0.16293244
105	0xbe94cef2	-0.29064137
106	0x3e4ba88f	0.19888519
107	0xbdf46b7e	-0.11934565
108	0xbd6e45fd	-0.058172215
109	0xbe3bd9b9	-0.18344773
110	0x3dd33d4d	0.103144266
111	0x3ead54ba	0.33853704
112	0xbde86d9e	-0.11349033
113	0xbd070003	-0.032958996
114	0xbc6455b0	-0.013936445
115	0x3db616eb	0.0889109
116	0x3e0e7add	0.13914056
117	0xbd975cda	-0.07390757
118	0x3d8ecdab	0.06972822
119	0x3d58fef2	0.05297751
120	0xbe9ec497	-0.3100936
121	0x3cd20cde	0.025640901
122	0xbd7ff6eb	-0.06249134
123	0xbe490f15	-0.1963466
124	0x3dc51b53	0.09624352
125	0xbe8b11a8	-0.27161908
126	0xbdc67eb9	-0.09692139
127	0xbc6b6f3a	-0.01436978
128	0x3cc7a73b	0.024371734
129	0xbda6d801	-0.08146668
130	0x3e56bde0	0.20970869
131	0xbd4c3ea1	-0.049864415
132	0xbd2e07a8	-0.04248777
133	0xbe3005a5	-0.17189653
134	0x3db9b972	0.09068574
135	0x3e23ebd7	0.16007935
136	0xbb45683a	-0.0030121938
137	0x3c1a0736	0.009401133
138	0x3c168f8f	0.0091895005
139	0xbd20c384	-0.03924896
140	0x3dbdc3e7	0.09265881
141	0x3e84354e	0.25821918
142	0x3eb3cbb5	0.35116354
143	0x3d424300	0.047427177
144	0xbd03d006	-0.03218081
145	0x3e4b06ff	0.19826888
146	0x3e1d5eda	0.15368214
147	0x3dedbe38	0.11608547
148	0x3e2aa3f7	0.1666411
149	0xbcc11b8c	-0.023572706
150	0xbe24f1f9	-0.1610793
151	0xbe1996d9	-0.1499895
152	0xbe09530a	-0.13410583
153	0xbe24742a	-0.16059938
154	0x3e4fd846	0.20297346
155	0xbc0bffeb	-0.008544902
156	0x3c80d32e	0.015725698
157	0xbde323d8	-0.11090821
158	0x3cb4b5a9	0.022059279
159	0xbde311ab	-0.11087354
160	0xbd3b6bac	-0.04575698
161	0x3e7948ec	0.24344224
162	0xbc4f6cd6	-0.012660226
163	0x3cccbf24	0.024993487
164	0xbdf5fff1	-0.120117076
165	0xbe1179e0	-0.14206648
166	0xbe063732	-0.13106993
167	0xbe14cdd1	-0.14531638
168	0xbdba3aa4	-0.09093216
169	0x3e3b5cd1	0.18297125
170	0x3d7fd5b9	0.06245968
171	0xbdd8fbd7	-0.1059491
172	0xbcdb5925	-0.026775906
173	0x3cac8fb0	0.02106461
174	0xbe140149	-0.14453615
175	0x3e94403f	0.28955266
176	0xbe320257	-0.17383705
177	0xbd57b15e	-0.052659385
178	0x3d36ac6b	0.044598024
179	0x3dce05e4	0.10059717
180	0xbde2a4c3	-0.11066582
181	0x3d78bfba	0.06072972
182	0xbdaf0a7b	-0.08546921
183	0x3b26a5b2	0.0025428352
184	0xbced44ca	-0.028963465
185	0x3d01471c	0.031561956
186	0x3d71dfdc	0.05905138
187	0x3bbadd10	0.0057026222
188	0xbe18457d	-0.14870258
189	0xbe341049	-0.17584337
190	0x3b01f584	0.0019830177
191	0xbd53bebc	-0.05169557
192	0xbd918b3d	-0.07106636
193	0xbdf896a7	-0.1213811
194	0xbde4bcef	-0.11168849
195	0xbd90086b	-0.070328556
196	0xbe8363aa	-0.25661975
197	0x3d9f260e	0.0777093
198	0x3eb00aac	0.34383142
199	0xbd4fe800	-0.05075836
200	0xbbc75ddb	-0.0060841865
201	0xbe41cfaf	-0.18926881
202	0xbdd8aae3	-0.10579469
203	0x3e6574c9	0.22407831
204	0xbe64a440	-0.22328281
205	0xbdb5e09a	-0.0888073
206	0xbd8b7dc7	-0.068110995
207	0xbcb8cd95	-0.022558967
208	0x3d853450	0.065041184
209	0xbe1590cb	-0.14606015
210	0xbe0f0922	-0.13968328
211	0xbcc975fa	-0.024592388
212	0x3e0ccc12	0.13749722
213	0xbd4f82b0	-0.050661743
214	0x3d88b167	0.06674462
215	0x3e14e5a1	0.14540721
216	0x3d76b185	0.06022789
217	0x3b99f7f4	0.004698748
218	0x3d7e256a	0.0620474
219	0x3bce81f6	0.0063021136
220	0xbd43a26b	-0.047762316
221	0x3e258e9e	0.16167685
222	0x3cee8643	0.029116755
223	0xbd0268e8	-0.031838328
224	0x3e8fe880	0.2810707
225	0x3e4c9026	0.19976863
226	0xbe405b29	-0.18784775
227	0xbdd7c1d2	-0.10535015
228	0xbdfebf23	-0.124388
229	0xbe1c5335	-0.15266116
230	0x3decb7c6	0.115584895
231	0x3dd5847a	0.104256585
232	0xbd7d49c8	-0.06183794
233	0xbe003385	-0.12519653
234	0xbe122fb0	-0.14276004
235	0x3df6d3cc	0.12052116
236	0xbd89c394	-0.06726757
237	0xbe2917b6	-0.16512951
238	0x3ddf699d	0.10908816
239	0xbc702b80	-0.014658809
240	0x3dad9cb2	0.08477153
241	0x3e8145be	0.25248522
242	0xbd62688e	-0.055275492
243	0xbdd78a09	-0.10524375
244	0xbd8931be	-0.06698941
245	0x3e470d8b	0.1943876
246	0x3e2278c3	0.1586638
247	0xbe232ca8	-0.15935004
248	0xbe2812fe	-0.16413495
249	0xbc4a65d5	-0.01235338
250	0x3d871008	0.065948546
251	0xbe2413cb	-0.16023175
252	0xbe03b733	-0.12862854
253	0x3e681b45	0.22666653
254	0xbca99f48	-0.020705834
255	0xbd1feeed	-0.039046217

fc3.bias f4 [19]
0	0xbe8e4309	-0.2778552
1	0xbdd6021a	-0.104496196
2	0x3d2a4c10	0.041576445
3	0xbbba121c	-0.0056784283
4	0xbe723a5d	-0.23655076
5	0x3e1ddeff	0.15417098
6	0xbe99d8c2	-0.30048186
7	0x3c526071	0.012840376
8	0xbe874401	-0.2641907
9	0xbda9635b	-0.08270904
10	0x3e9df3a9	0.3084996
11	0xbd7baef3	-0.06144614
12	0x3e77159e	0.2412934
13	0xbc105e83	-0.008811596
14	0x3daa7595	0.08323208
15	0x3e1f90b8	0.1558255
16	0xbc1936a8	-0.00935141
17	0x3e781459	0.24226512
18	0xbdaa9dcf	-0.08330881
