python/CNN7.pth (torch_old, 252622 bytes, 10 tensors)

conv1.weight f4 [6, 3, 5, 5]
000000 6c bf c1 3e 27 73 ff 3e c4 79 06 3f 85 bc c4 3e
       0.37841356 0.49892542 0.5252955 0.3842508
000010 5a cb 04 3f ac 77 2d bb 8c 9d 81 3d 73 1e 39 3d
       0.5187279 -0.0026469035 0.06328878 0.045195054
000020 8e 93 71 3e 06 e7 3f 3e 33 39 da 3b 8e 2c 42 be
       0.23591444 0.18740472 0.0066596507 -0.18962309
000030 b4 9c 2a be 5e 75 38 be b7 3e 08 be 1e 73 e3 3d
       -0.1666134 -0.18013522 -0.13305174 0.11105941
000040 88 52 f1 3d 12 0c 2a bb fc c8 28 3d 5e 93 8a bc
       0.1178332 -0.0025947136 0.0412073 -0.016915973
000050 c4 80 94 3e 32 0b fc 3e 9d aa 8a 3e 03 51 43 3e
       0.2900449 0.4922729 0.27083293 0.19073872
000060 57 09 e7 bd 00 0f 2d bd 7d e5 d2 3d 06 d0 5a 3e
       -0.11281078 -0.042250633 0.10297678 0.21368417
000070 1e 47 8e 3e 72 e2 a1 3e 35 9d 3b be 84 73 5d be
       0.27788633 0.31618077 -0.18321688 -0.21626097
000080 25 1b 17 be 57 27 5e 3c ba c8 4f bd 67 05 86 be
       -0.14756449 0.013559184 -0.050728537 -0.26175997
000090 c3 3e 04 bf bc ef d0 be 58 06 06 bf bb 49 83 be
       -0.51658267 -0.40807903 -0.5235343 -0.2564219
0000a0 59 69 09 be aa a6 32 bd 3b d9 57 be 72 c1 ac be
       -0.13419093 -0.043615974 -0.2107896 -0.33741337
0000b0 de 8f 76 be 63 2b 25 3e 76 a1 83 3e 23 51 4b 3e
       -0.24078318 0.16129832 0.25709122 0.1985517
0000c0 3e 69 2f be 06 ae 91 be 7a f4 ba 3b fa 6c 03 3d
       -0.1712999 -0.28453082 0.0057054134 0.03208635
0000d0 dd df 98 3e 81 19 87 3e 12 ac 58 3e b7 0c 0b be
       0.29858294 0.26386645 0.2115939 -0.13579069
0000e0 23 11 2d be 1c 15 0a be 54 7d 88 3d d2 56 dc 3d
       -0.16901068 -0.13484615 0.066645294 0.10758747
0000f0 e4 b3 6e be 96 ea f3 be 1e bb 0a bf 01 7b ce be
       -0.2331081 -0.47639912 -0.5419177 -0.4032822
000100 32 37 a2 be c7 a0 12 bc c8 55 ea bd a0 99 56 be
       -0.31682736 -0.008949465 -0.11442143 -0.20957041
000110 c2 0b 88 be 3c fe 55 be af 91 d2 3e 4c ee 85 3e
       -0.2657147 -0.20897764 0.41126773 0.2615837
000120 2c 31 94 3d b0 71 1f bd bd ce 6c be 6a e6 2f bd
       0.07235941 -0.03892678 -0.2312574 -0.04294435
000130 8b 67 6e 3b a3 41 5e bd 38 0e 3e 3b 6c 99 83 3c
       0.0036377634 -0.054261815 0.0029000174 0.016064368
000140 ee 8a 05 3e b4 bc 10 3e 01 a3 d9 3d ff 5c 35 3e
       0.13041279 0.14134485 0.10626794 0.17711256
000150 25 76 1b 3e 75 69 c6 bd 63 b9 37 3e 94 77 09 3e
       0.15181787 -0.09688083 0.17941813 0.13424522
000160 e4 ce 54 3e b8 fe 8e 3e 9b e7 3a be e8 c5 e5 bd
       0.20782048 0.2792871 -0.18252413 -0.11219388
000170 16 ec 31 bd ff 29 f1 3c cd f1 0f 3e 6a 8d a2 bd
       -0.04343804 0.02943897 0.14057083 -0.07937129
000180 f1 b2 96 bd 6a 9c 9a be 2a 3c 0b be ed 04 12 be
       -0.07358349 -0.3019746 -0.1359717 -0.14259692
000190 d2 1f e3 bc ca 5b a4 bd 8d 31 1e bd 05 07 57 bd
       -0.027725134 -0.0802532 -0.038621474 -0.05249693
0001a0 d6 33 36 bd f7 92 22 3d e3 33 6f 3e ed 73 3f 3e
       -0.04448303 0.039690938 0.23359637 0.18696566
0001b0 4b 85 6b 3e c9 53 dd 3d f7 56 e5 3d 0c 44 18 3e
       0.23000066 0.108069964 0.11198228 0.14869708
0001c0 8b ea 5b 3e 08 c9 a3 3e 11 c8 a3 3e ce d7 0f be
       0.2147619 0.31989312 0.31988576 -0.14047167
0001d0 b0 d6 fc bd 99 92 3f be 19 51 c6 bc 8e 60 fd 3c
       -0.12345636 -0.18708266 -0.024208592 0.03092983
0001e0 25 5c fa bb f4 37 78 bd 4a 4f f1 bd 61 b1 a3 bd
       -0.007640379 -0.060600236 -0.11782701 -0.07992817
0001f0 bf 0f b6 bd 2e fe 11 be fa c3 16 bd 24 28 1d be
       -0.08889722 -0.14257118 -0.03680799 -0.15347344
000200 cd b4 79 3c d3 24 7b bd c8 43 1e be ec fb 41 bc
       0.01524086 -0.061314415 -0.15455544 -0.011839848
000210 b4 c4 ff 3d 68 db 3a bd b0 13 f1 3b 1a 84 12 be
       0.1248869 -0.0456194 0.0073570833 -0.14308205
000220 0a fe b7 3c aa b2 47 bc 98 25 45 3e 68 c4 48 3e
       0.022460002 -0.012188593 0.19252622 0.19606173
000230 2a 4e 39 be e7 c7 64 be 29 35 94 be 58 65 31 be
       -0.18096223 -0.22341882 -0.28946808 -0.17323816
000240 d2 94 b0 3c 3b d4 da bd 01 df 98 be 30 5a 8c be
       0.021555338 -0.10685011 -0.29857638 -0.27412558
000250 66 be b6 be 53 7a 3b be 08 09 18 3e a7 c1 44 3e
       -0.35692137 -0.18308382 0.14847195 0.19214498
000260 b8 45 a7 3d 45 5c 7a bd 9b 4b bd bd 8d 79 3e 3e
       0.08167595 -0.06112315 -0.09242936 0.18601055
000270 05 b8 4f 3d 20 b3 4a be 5c 81 84 be 9f 1e 84 be
       0.050712604 -0.19794893 -0.25879943 -0.25804612
000280 60 56 9a 3e f6 50 0f bd 39 e7 99 be 77 d3 da be
       0.30144024 -0.03498932 -0.3005922 -0.4273946
000290 f7 eb 81 be 4f c4 a5 3e 7a 3a 52 3e b2 61 a8 be
       -0.2537534 0.32376334 0.2053012 -0.32887036
0002a0 2a 7a c0 be c6 33 04 be 56 70 21 3f 08 13 a5 3e
       -0.37593204 -0.12910375 0.63062036 0.32241082
0002b0 d8 c1 ed 3b 59 09 81 be 57 5e cc bd 87 7a c8 bc
       0.007255774 -0.25202444 -0.099789314 -0.024472488
0002c0 93 67 25 3e c1 83 f9 bd 87 f1 8c be da ec 1d be
       0.16152792 -0.12183333 -0.2752802 -0.15422383
0002d0 2e ac 62 bd 11 82 94 3c 18 4a 9d be c5 e4 a1 be
       -0.055339985 0.018128427 -0.30720592 -0.3161985
0002e0 80 9b b8 be c5 0b 20 be 57 7f 8c 3c 8d 49 a1 be
       -0.36056137 -0.1562949 0.017150564 -0.31501427
0002f0 c0 c4 8e be 57 f6 aa be 41 41 0e 3e 39 85 bb 3c
       -0.27884483 -0.33391067 0.1389208 0.022890674
000300 17 d1 5a be db 8a e7 be d3 cc 2c be 58 f5 f9 3d
       -0.21368824 -0.45223126 -0.16875009 0.12204999
000310 81 f8 66 3d f4 b1 53 be 0f 8b d8 be bc fd 09 be
       0.056389336 -0.20673352 -0.42293593 -0.13475698
000320 2b 74 71 3e 86 62 c4 3e ad c3 ad 3e 13 2f 60 3d
       0.23579471 0.38356417 0.3393835 0.054732393
000330 b5 76 d6 3d 32 c5 89 3d 6c c7 2d 3e 36 fd 11 3e
       0.1047186 0.06727065 0.16970605 0.14256749
000340 17 08 58 3c 30 2d d4 3d 8f 06 9e 3d e2 2f 7b 3e
       0.0131855225 0.10360181 0.07716095 0.24529985
000350 b8 83 4c bb 2a 9c be bd 4e 05 3f 3e 0c 5a 77 3e
       -0.003120644 -0.0930713 0.18654367 0.24155444
000360 81 3e 5e 3e 47 9c 62 bd 2a 7f 92 3d d3 92 9f 3e
       0.21703531 -0.05532482 0.07153161 0.31166705
000370 f4 5e e2 3e af a0 90 3e f0 7f 6f 3d 30 87 49 3c
       0.44213068 0.28247592 0.05847162 0.012300298
000380 d1 58 4c 3e 3d 60 08 3d f2 3a da 3d 7c bb 90 bd
       0.19955756 0.033294905 0.10655774 -0.0706701
000390 1d c3 0f 3e 29 45 38 3e 12 7d 89 bc 03 4e 79 3d
       0.14039274 0.17995133 -0.016783271 0.060865413
0003a0 e1 6f 05 3e 51 2e 9a 3a 0e 2e 69 3e de ae dc bd
       0.1303096 0.0011763071 0.22771475 -0.10775541
0003b0 06 15 5a bc 13 4e e8 bd 35 4e 93 bd e8 ed 95 bc
       -0.013310676 -0.113430165 -0.07192651 -0.01830192
0003c0 d9 24 1c be 8b 5e a2 bd b4 82 ab bc 5c 17 a9 3d
       -0.15248431 -0.07928189 -0.020936348 0.082564086
0003d0 2b d1 a7 3d f8 f3 2f be 1c d5 0d bd 02 dc c1 bd
       0.081941925 -0.1718291 -0.034627065 -0.09465791
0003e0 ca d7 42 bd 21 41 d8 3d 9f 7a 85 be 89 59 85 be
       -0.047569074 0.10559297 -0.26070115 -0.26044872
0003f0 80 8d 66 be b7 98 57 be 0e c5 23 bc dc ad dd bd
       -0.22514915 -0.2105435 -0.009995712 -0.10824177

conv1.bias f4 [6]
000000 59 79 b5 3e ba e1 9e 3d e3 e5 ae 3e e6 fb e3 be
       0.35444143 0.07757898 0.34159765 -0.4452812
000010 b9 82 2b be ab 80 fd 3d
       -0.16749085 0.12378057

conv2.weight f4 [16, 6, 5, 5]
000000 a9 fa 06 be b9 d9 cc bd bf dd c4 3c ef d3 1b 3e
       -0.13181557 -0.10002465 0.024031518 0.15217565
000010 e7 7c 3d 3e a3 96 4e bd a4 b1 90 bb 8c dc 2a 3e
       0.18504678 -0.050436627 -0.0044157077 0.16685694
000020 3a be ad 3d 04 ab f6 bb 34 ed 02 bd ff d0 75 bd
       0.084835485 -0.007527711 -0.031964496 -0.060013767
000030 bd 3b 0d 3e 6c e2 63 3e eb 07 2b 3d 88 52 dd bd
       0.1379232 0.22254342 0.041755598 -0.10806757
000040 f8 48 c0 bd 5c f8 04 be 7e c0 08 be 8d c7 44 bd
       -0.09388918 -0.12985367 -0.1335468 -0.04804187
000050 d4 c4 11 be ff 47 54 3d d2 71 5c 3d 70 76 ed bd
       -0.1423524 0.051826473 0.053819485 -0.11594856
000060 60 31 6b be 99 a0 a6 bd ba 6c 16 3d f2 e0 cf 3d
       -0.22968054 -0.081361 0.036724783 0.10150327
000070 99 d6 44 bd 12 f0 40 3d 0a f7 f6 bc 94 2a e5 bc
       -0.04805622 0.04710395 -0.030147094 -0.027974404
000080 89 3a 40 3e 2e ac e2 3d e1 58 1d 3e c2 fc 05 3e
       0.1877233 0.11067997 0.15365936 0.130847
000090 ad 9c 0a 3d 19 68 c7 3d d8 43 5e 3c e8 b2 94 bc
       0.033840824 0.09736652 0.01356598 -0.018151715
0000a0 44 5c cf 3d 46 67 15 3e 1d a9 18 3e c6 f3 25 3d
       0.1012502 0.14590177 0.14908262 0.040515684
0000b0 05 20 9e bd 5a 86 90 3d 60 cb b5 bd 02 90 2e bc
       -0.07720951 0.070568755 -0.08876681 -0.010654451
0000c0 88 54 23 bc 0c 90 ba bd 9c 63 99 3e 38 bb 15 3e
       -0.009968884 -0.09109506 0.29958808 0.146222
0000d0 68 e2 14 3e c5 6f 1f 3d ce 10 df bb cd 59 11 3e
       0.14539492 0.03892495 -0.006807423 0.14194413
0000e0 7d a7 b4 3d ac 23 99 3d 92 fe 0f be a0 5e e2 bd
       0.08821008 0.07477507 -0.14061955 -0.110532045
0000f0 bf c7 e5 3b 32 7b 0c 3d a2 ce e3 bd ae 04 01 be
       0.007012337 0.034297176 -0.111233965 -0.12599441
000100 7b 06 24 be 45 07 34 bd d4 a8 69 be 45 dd 8c be
       -0.16018097 -0.043952245 -0.22818309 -0.27512565
000110 1b fa 8a be 45 3a 4d be bc 02 1c be 5b cd 46 be
       -0.2714394 -0.2004176 -0.15235418 -0.19414274
000120 09 f8 21 be 29 dc 33 be 8c ff 10 bd ee de 71 3e
       -0.15817274 -0.17564453 -0.03539996 0.23620197
000130 e1 95 70 3e 92 f9 08 3e f5 45 75 3d a9 7f e0 3d
       0.23494674 0.13376454 0.05988117 0.10961849
000140 28 e3 76 3e 0a ed 8c 3e 09 68 51 3e 76 01 c9 3d
       0.2411009 0.27524596 0.20449843 0.09814732
000150 85 8c b6 bc a6 dd 9b 3d 16 86 c3 bd b1 e2 79 3d
       -0.022283802 0.076106355 -0.09547059 0.061007205
000160 74 3a 04 be b7 19 3d bd be 4b 23 bd 0c e7 0a be
       -0.12912923 -0.0461671 -0.039867155 -0.135647
000170 bf b5 d6 bc f7 39 b8 bd 60 54 c5 bd f1 50 20 3d
       -0.02620971 -0.08995431 -0.09635234 0.03913969
000180 43 22 58 be 6d ef 0f be 82 e5 21 be ab 5d 2c be
       -0.2110682 -0.14056177 -0.15810207 -0.16832606
000190 1d 46 f3 3d 5e 1c 36 3e 2a 44 c7 3d 72 43 b4 3d
       0.118786074 0.17784259 0.09729798 0.08801927
0001a0 26 9e 12 3e 15 a7 6e 3e 6e 9d 24 3e f5 d6 05 3d
       0.14318141 0.23305924 0.1607568 0.032675702
0001b0 cc 8e 85 bd 02 f3 8a bd 48 36 80 3d 1f b0 da bd
       -0.06521377 -0.06784631 0.06260353 -0.10678124
0001c0 be 15 41 bd 30 83 ef bd 18 c2 29 be 55 ff 62 bd
       -0.047139876 -0.11694944 -0.16577947 -0.055419285
0001d0 bf 0a 08 be e9 90 10 be e2 32 f7 bd 7f 95 07 be
       -0.1328535 -0.14117779 -0.12070252 -0.13240622
0001e0 cf c0 0a bd 11 b5 3f bd 5f a5 2d bd b6 d0 a9 bd
       -0.033875283 -0.046803538 -0.04239404 -0.082917616
0001f0 04 7f c4 bd c8 aa a7 bd 68 c9 09 3e 6d 33 25 3d
       -0.09594539 -0.08186871 0.13455737 0.040332247
000200 73 5f e3 bc fb c8 61 3d 81 0a 01 3e 41 4b 07 3e
       -0.027755475 0.05512331 0.12601663 0.13212301
000210 83 f3 b7 3d 03 6d 4b 3d f5 52 31 bc d6 6d b2 3d
       0.08981993 0.04966451 -0.010823001 0.08712356
000220 26 15 a7 3d e8 92 32 3e 14 19 31 3b c4 21 63 bc
       0.081583306 0.17438853 0.0027023004 -0.013863031
000230 a2 c9 d9 3d 43 80 87 bd 44 ce f0 bc c6 4b 99 bd
       0.106341615 -0.06616261 -0.02939523 -0.07485156
000240 01 15 33 be 48 61 0f 3e 7f bf 1b 3d ab a7 9a bd
       -0.17488481 0.14001954 0.03802442 -0.075515114
000250 94 fe 28 be 6d fb 35 bd e7 1f 2d be 67 a6 25 bd
       -0.16503364 -0.04442923 -0.16906701 -0.040441897
000260 eb 05 99 3d 77 f5 c7 3d 57 8d 8c 3e ec 7b 4e 3b
       0.07471832 0.097636156 0.27451584 0.0031506969
000270 9f 5a 36 bd 5d 23 e5 bd b0 4d e6 3b ca 86 6e bd
       -0.044520017 -0.11188386 0.007028304 -0.058234014
000280 40 00 6d 3e 44 7a ce 3d 1a bb dd bd d6 36 13 bd
       0.23144627 0.10081914 -0.108267024 -0.035940968
000290 3a 7f 9c bd 10 8f c9 bc 20 b4 dc 3d 40 09 8b 3b
       -0.07641454 -0.02460435 0.107765436 0.004243046
0002a0 70 1d fe 38 27 08 3a bc 99 3b 1b 3d 08 66 1a be
       0.00012117147 -0.011354483 0.037898634 -0.15077984
0002b0 ba 6a 1b be f7 93 f4 bd 83 52 c4 bd 0f 2e 70 bd
       -0.15177432 -0.119422846 -0.0958605 -0.058637675
0002c0 eb db f5 bd 8e 25 a1 bd 37 c2 b2 bd 54 39 55 3d
       -0.12004837 -0.07868491 -0.0872845 0.052056625
0002d0 e4 bb e7 3d 03 65 9a 3d 6f 29 ec bd 3a af 47 bd
       0.11315134 0.07538798 -0.1153134 -0.048751093
0002e0 73 e9 bb 3d 61 17 67 3d b8 99 5d bd cb b0 77 3d
       0.09175386 0.05641878 -0.054101676 0.060471337
0002f0 e2 cb 0e bd 69 c5 08 3d aa 5f f6 bd e6 2b e6 bd
       -0.034862407 0.03339139 -0.12029965 -0.11238842
000300 09 79 76 bd df be cc bd 1e 80 1d 3d 8f 87 30 bc
       -0.060174022 -0.09997343 0.03845226 -0.010774507
000310 3b 8d f3 bd 68 c7 b2 bd 8f 3e e9 bd bf 30 a1 3d
       -0.11892172 -0.0872944 -0.11388885 0.07870626
000320 30 31 00 bd 58 09 96 be e2 07 c0 bd 4d d8 01 3e
       -0.03129691 -0.29304004 -0.093765035 0.12680168
000330 f2 30 ed bd 14 b0 25 be b6 8e 4d be d4 34 7c bc
       -0.11581601 -0.1618045 -0.20073971 -0.015393455
000340 38 93 5d bc b8 a7 b0 bd 48 9f 90 3c 8b 56 07 3e
       -0.013523869 -0.0862574 0.017654076 0.13216607
000350 b5 ef 0d 3d 2c de 96 bd 65 92 1d be 7c bd 06 bc
       0.03465243 -0.07366595 -0.15387876 -0.0082238875
000360 e4 2f 82 3e e3 78 2e 3e 96 b8 92 3e 2c 40 b2 bd
       0.25427163 0.17038302 0.28656453 -0.08703646
000370 2f 38 9c 3d 5b 9a 42 3e 6a 04 63 3e 5f b3 91 3e
       0.07627904 0.19004194 0.22169653 0.28457162
000380 5b 5b c4 bd 18 49 6d be c7 f3 63 be 46 2f 8c be
       -0.09587737 -0.23172414 -0.22260962 -0.27379817
000390 d0 b8 fb bd c4 2c 8d bd f1 cb 31 bd e6 e5 0a bd
       -0.122911096 -0.06893304 -0.043407384 -0.033910654
0003a0 94 ce 48 39 07 84 08 3c a6 db 78 3b 70 3d 06 be
       0.00019150443 0.008332259 0.0037972718 -0.13109374
0003b0 e3 0b de 3c d7 ce af 3d 10 4b bb 3d 63 14 44 3d
       0.027105277 0.085843734 0.091451764 0.047871005
0003c0 b2 1b 09 bc fa 43 eb 3c 59 f2 34 3e a4 ba 35 3e
       -0.0083684195 0.028718937 0.17670573 0.17746979
0003d0 d4 52 39 3e 4e 9b 01 3e e8 45 12 3e 9d af 9f 3d
       0.18098003 0.126569 0.1428448 0.077971675
0003e0 a2 61 1b 3e 3e 30 31 3e 29 08 0f be 34 e2 60 be
       0.15173963 0.17303559 -0.13967957 -0.2196129
0003f0 4e 4b 89 be 26 8b 19 be 60 46 b2 bd 03 0b 88 bd
       -0.26815265 -0.14994487 -0.08704829 -0.06642725

conv2.bias f4 [16]
000000 1f f2 18 3c 6e 85 11 bd 64 f8 96 3d 6b 13 a4 bc
       0.00933507 -0.03552764 0.073715955 -0.02002879
000010 29 da eb bc 49 ca 0e 3e 0d ac fd bc 8b 06 a9 3d
       -0.02879055 0.13944353 -0.03096583 0.08253201
000020 41 5e 8e bd 43 5d 62 bc 6c 3a 5c 3d da 46 9d bc
       -0.06951571 -0.013816181 0.053766653 -0.019198824
000030 f2 7e 17 bd 33 10 4d bd ae bf 1f 3c ec 91 d4 bd
       -0.0369863 -0.050064277 0.00975029 -0.10379395

fc1.weight f4 [120, 400]
000000 7c 01 6a bd d1 d0 8b bc 10 ac d4 3c e4 4e ac bd
       -0.05713032 -0.017067345 0.025960952 -0.08413485
000010 9b 74 91 bd 32 3a 83 bd 71 87 6a 3c f8 c1 8d 3c
       -0.07102319 -0.06407584 0.014314518 0.017304406
000020 ab 2e 14 bd ff b4 16 bd 87 e4 22 bd dc 49 d2 3c
       -0.03617732 -0.036793705 -0.039768722 0.025669985
000030 d8 27 60 3d 13 9b f9 3c 3b 4d 7b bd f3 3b 56 bd
       0.054725498 0.030469453 -0.06135295 -0.052303266
000040 d4 b4 ce 3b a9 2d 54 bc 72 6d d4 3b 9f a8 61 3c
       0.0063081775 -0.012950339 0.0064827735 0.013773113
000050 f6 ed 8d bd 03 a7 9e bc 05 99 91 bc c3 dc a9 3a
       -0.06930153 -0.019366747 -0.01777316 0.0012959469
000060 a1 5c 50 bd 47 be d5 3c c8 a1 cd ba 09 4a 1a bd
       -0.050869588 0.026091708 -0.0015688473 -0.03766826
000070 60 61 bc bc e8 20 4d bb 0b 4b e6 3c de 61 e6 ba
       -0.02299565 -0.0031300131 0.028111955 -0.0017576774
000080 39 4b 7b 3c d2 68 b2 3b ee ef 5c bc 4c ec 38 bd
       0.015337759 0.0054446245 -0.013484938 -0.045147225
000090 b5 d0 7b bd 78 17 36 bd 5a d5 b6 bc 40 4c 8f bc
       -0.061478335 -0.044455975 -0.02231853 -0.017492414
0000a0 8b 98 8e 3d 01 26 6b 3d 8f 3a 3d 3d 9b a0 3f 3d
       0.06962689 0.05740929 0.046198424 0.046784025
0000b0 8c de 1c 3d 9b ad 8c 3b 23 11 b0 3d 95 01 04 3c
       0.038298175 0.0042931563 0.085970186 0.008057018
0000c0 0f ec ff 3d b4 b8 81 3d e5 29 8f bd 0b 92 21 bd
       0.124961965 0.063340575 -0.069904126 -0.039445918
0000d0 51 3d 45 bd 8d ab 86 bd 22 98 98 bc 32 04 2f bc
       -0.04815418 -0.065756895 -0.01862723 -0.010682153
0000e0 d1 b3 e4 bd 44 94 51 bd 91 b2 96 bd f9 b3 96 bd
       -0.1116711 -0.051166788 -0.073582776 -0.07358546
0000f0 78 a2 95 bd 70 38 3a bc 26 2e 81 bc bd ec 69 bd
       -0.07306379 -0.011365995 -0.015769076 -0.057110537
000100 78 05 71 bd e6 8c 23 3c 77 60 6c bd 41 fe 90 bd
       -0.058843106 0.009982323 -0.057709184 -0.07079745
000110 2c 03 c1 bd e0 cf 4c bd b8 24 c1 bd 41 67 b9 bd
       -0.09424433 -0.050002933 -0.09430832 -0.09052897
000120 63 2d 93 3c b6 c1 0e 3c b5 4d 88 bd 86 2c 71 bb
       0.017965978 0.0087131765 -0.066554464 -0.003680022
000130 fc fe ab 3c ab a6 20 3c c7 71 88 bb f1 ff d9 bb
       0.02099561 0.009805362 -0.004163954 -0.006652825
000140 3a 7f 35 bc b2 9e ec bb 75 fc f1 3c 35 67 26 bd
       -0.011077696 -0.0072210664 0.029539326 -0.04062577
000150 99 43 03 3d bd 09 30 3d e1 aa fd 3c 1f 58 25 bd
       0.032046888 0.042978037 0.03096527 -0.040367242
000160 98 da 45 3c d8 98 77 bc 66 97 29 3d 74 d5 1a 3d
       0.012076043 -0.015112124 0.04140415 0.03780122
000170 47 71 d6 3b 7e 6a a0 bc dd 27 18 3d 66 5d 1e bb
       0.0065442654 -0.01958203 0.03714739 -0.0024164557
000180 d0 e2 02 3d c8 15 8b 3c 22 a1 2f bd 43 f4 0f 3d
       0.031954587 0.01697816 -0.042878278 0.035145056
000190 b8 fc 98 bc 9c 36 3a bd e7 1b 10 3d 7a 22 3f 3d
       -0.018675193 -0.045462236 0.03518286 0.04666374
0001a0 d7 47 29 bd b8 bf 95 3b 19 9c c0 3c 1c 7c 94 3b
       -0.041328277 0.004569974 0.023511933 0.0045313966
0001b0 94 46 25 3d 7b 43 ed 3b 06 42 6e 3d 14 61 40 3d
       0.04035051 0.0072407103 0.058168434 0.04696758
0001c0 0a d0 9d bc 7c 2e dc bc de ba e9 3b d6 1a 0f bd
       -0.01926424 -0.026877634 0.007132872 -0.034937702
0001d0 98 f9 e6 3c e8 ae 8b 3c 60 1f c7 3c 7f ac 32 3c
       0.028195187 0.017051175 0.024306953 0.010905384
0001e0 81 08 07 3d 6a 5e fa bb 93 68 4a 3d 0d cc 4d bd
       0.032967094 -0.0076406496 0.049416136 -0.050243426
0001f0 f2 66 2b 3d 68 a0 8c 3d be 6e f9 3b 4b b9 37 3b
       0.041846223 0.068665326 0.0076120785 0.0028034027
000200 3e 54 1b 3d 89 b5 ae bc 8f 4f 9b 3b c6 6e a1 bc
       0.037922136 -0.021326797 0.0047397087 -0.019706141
000210 03 38 69 3b 9f bc 23 bc 64 a7 c9 bc db 0f 7b 3c
       0.0035586364 -0.009993701 -0.02461595 0.015323604
000220 79 23 7e 3c cb a3 17 bd d1 31 22 bd 85 b4 42 3d
       0.015511387 -0.03702144 -0.03959829 0.047535438
000230 e7 d8 90 3d e4 fa 94 3c b1 0a 30 bd 36 61 bb bc
       0.07072621 0.01818604 -0.042978946 -0.022873502
000240 c3 10 ba 3b 3a f6 ef 3d ee 01 d2 bc 3b 9c 61 3b
       0.0056782677 0.11716886 -0.025635686 0.0034425396
000250 24 88 8f 3d 7b 43 d7 3d b9 72 a4 3c 84 a8 2f bd
       0.07008389 0.10510918 0.020074235 -0.04288532
000260 1d b1 0f 3d b4 2c 9f 3c fb 09 48 3c de aa 6d 3d
       0.035081018 0.019430496 0.012209411 0.05802428
000270 94 ce a6 3c 47 e7 0d 3c 2d 58 9c bc 7b 0c 55 bb
       0.020362176 0.008661098 -0.019085014 -0.003250866
000280 10 54 02 3d 51 3a 29 bc 9e 08 ac bc 87 43 3c 3d
       0.03181845 -0.010328845 -0.021000203 0.045962837
000290 ca 1a 53 bd ff aa 02 3a dd c1 b3 3b f3 f4 48 3d
       -0.05153922 0.0004984587 0.005485757 0.049061727
0002a0 bf 2e ce bc 0e 70 80 bd 58 cf 8f 3b 1a db e2 3c
       -0.025168775 -0.06271373 0.004388731 0.027692366
0002b0 15 c9 8e bc 32 ef ee 3b c9 0e ef bc 60 87 f2 ba
       -0.017429868 0.007291698 -0.029181855 -0.001850348
0002c0 d4 20 19 3d b2 13 a9 3c 0a 96 18 bc a6 d3 a6 3c
       0.037384823 0.020639274 -0.009313116 0.020364594
0002d0 78 6a 24 3b 88 c5 61 bd d0 a8 d1 3d 0c f8 0a 3c
       0.0025087874 -0.05512002 0.102372766 0.008481991
0002e0 de 90 04 bd f7 b9 7f bc 84 f6 2b 3b d7 74 55 bc
       -0.03236472 -0.015608302 0.0026239464 -0.013028345
0002f0 10 83 91 bb a1 fe 72 3d 9d 44 c6 ba 2b dc f8 3c
       -0.0044406727 0.059324864 -0.001512665 0.030378422
000300 1d 99 b7 3c c5 17 0d bd 68 1f 63 3d f3 b7 2a bd
       0.022411877 -0.034446497 0.055449873 -0.041679334
000310 0c b7 d5 bc 6e fc 0f 3d db a5 ee 3c ab 8c 86 3d
       -0.02608826 0.035152845 0.02913182 0.06569799
000320 db 4f cd bc c1 56 14 bd 86 de 5e bc a2 6d 84 bc
       -0.025062492 -0.036215547 -0.013602858 -0.016165558
000330 23 63 25 3d 7b 6b 92 bd 82 e6 7d bd fc a1 7a bd
       0.040377747 -0.071494065 -0.061987408 -0.061189637
000340 34 fc b8 3c 9c 99 7d 3d 5a 9f 84 bd 61 69 ce bb
       0.022581197 0.06191407 -0.064757064 -0.0062991832
000350 d6 fc 53 3c ec 9b 01 bd 23 1e b8 3b 46 08 76 3c
       0.012938699 -0.03164284 0.005618827 0.015016621
000360 dc a8 25 bd 72 21 8c 3c 6d 07 90 3d 1c 18 8d 3d
       -0.04044424 0.017105792 0.07032666 0.06889364
000370 3f 1f 70 3c 14 71 7d bd 25 a9 b6 bc e7 55 5e 3d
       0.014655887 -0.061875418 -0.022297451 0.05428114
000380 32 40 0b 3d 21 53 9e 3d 4c 59 3a 3d 60 c9 39 bd
       0.03399677 0.07730699 0.045495316 -0.04535806
000390 77 cb 4e bc 5f 12 35 3d f1 90 a5 3d 11 06 8d ba
       -0.012621752 0.044206973 0.08084286 -0.0010759254
0003a0 ca d3 d1 bd ff 5f da 3c 27 96 9a 3b a3 21 2b 3c
       -0.10245474 0.026657103 0.0047176066 0.010445031
0003b0 e9 b8 2c bd 1e 9b 99 bd dd 2b 83 bc 37 51 d6 bb
       -0.04216853 -0.075002894 -0.016012127 -0.0065404433
0003c0 ac 15 83 3d 8e 8e 9f 3d 79 dc 55 bc ec 12 af bc
       0.06400618 0.07790862 -0.013053053 -0.021371327
0003d0 4d 7a 76 3c 70 79 7c 3d e8 77 9b 3d ce 9a a9 bd
       0.015043807 0.06163925 0.0759123 -0.0828148
0003e0 ca e3 0d bd 12 40 c9 3d 9b 29 da 3c 97 de e8 bb
       -0.034641065 0.098266736 0.026631167 -0.007106613
0003f0 4d 4d 17 3d be b9 0d bd d2 11 20 3c d3 c3 3a bd
       0.036938954 -0.034600966 0.009769874 -0.04559691

fc1.bias f4 [120]
000000 8e 06 5a 3d b3 da 7f 3c 89 e0 ca 3c 9a 0d 85 3d
       0.053228907 0.015616107 0.02476527 0.06496735
000010 5f 08 4c 3c 6a 1a a5 3d 52 2f 9d bc a4 fa 89 3d
       0.012453168 0.08061679 -0.019187603 0.06737259
000020 58 0e 31 bd ba 68 d9 bc e7 13 b1 bc 35 ed 62 bc
       -0.04322657 -0.026539195 -0.021615935 -0.0138505
000030 d8 00 cc 3d 4b 6b 8a bb f0 3b 56 bd 32 48 a1 3c
       0.099610984 -0.004224216 -0.052303255 0.019687746
000040 54 50 16 3d c1 8d c2 3d 12 2c 74 bd c8 26 2d 3d
       0.0366977 0.09499694 -0.05961234 0.042273313
000050 ed 58 8d bc 54 bb 2e 3e a6 0f c6 bc 85 de 16 3d
       -0.017254317 0.17063648 -0.024177384 0.036833305
000060 36 9a 5f 3d 6d 33 a7 bc 2d 3f 54 3d 80 89 40 3d
       0.054590426 -0.020410264 0.05181806 0.04700613
000070 43 8a 00 bd 89 0a c8 3a 04 52 77 3d c9 a2 57 bc
       -0.031381857 0.0015261929 0.06038095 -0.01316137
000080 48 5a c6 bc a0 8f 04 3e 66 f6 40 3d 78 9a 75 bd
       -0.024212971 0.12945414 0.047109984 -0.059961766
000090 99 df 82 bc 3b 9a 75 bd 2f 9f 8d bc e7 8a 7f 3c
       -0.01597576 -0.05996154 -0.017287819 0.015597082
0000a0 79 7e 51 bd a4 af 88 3c 74 c4 06 3a 9f 7e c9 3c
       -0.051146004 0.016685314 0.0005140968 0.02459651
0000b0 88 0a 96 bc 30 1c 1b bd a2 7d c3 3d 57 12 8a 3b
       -0.018315569 -0.03786868 0.09545447 0.004213612
0000c0 3c a5 f6 bc da fb f3 3b 04 8d 67 3d 18 e4 69 bc
       -0.030108087 0.0074457945 0.056530967 -0.014275573
0000d0 aa 5d 34 bd 7e 72 a1 3d 84 f2 98 38 92 96 3f bb
       -0.044034638 0.07883166 7.293097e-05 -0.0029234034
0000e0 19 60 e5 bc 52 de 5f bd 0c ef 6e 3c e0 a7 60 bd
       -0.027999924 -0.05465538 0.01458336 -0.054847598
0000f0 45 8b 0b bc e4 3b 52 3d fe f7 4f 3d b8 b2 cd 3c
       -0.008517091 0.051326647 0.050773613 0.025109634
000100 85 fc 47 3d 83 05 5d 3c 4b eb 07 3c fc 69 28 3c
       0.048824806 0.013490084 0.008295844 0.010279175
000110 a5 38 c2 bc cf 85 2e bd d8 0f 27 3d 3e e1 3a bb
       -0.02370865 -0.04260808 0.040786594 -0.0028515602
000120 bd ea 97 39 81 f7 1f bd a5 f8 5c 3d 37 f9 ab bc
       0.00028975858 -0.039054397 0.053948063 -0.020992858
000130 57 03 16 bd 79 b9 b4 bc d2 a8 11 bc a2 dd 9d 3c
       -0.03662428 -0.022061097 -0.008890348 0.019270722
000140 b7 11 e8 3d 70 97 2e bc b6 d9 cd 3c 46 5f 23 bb
       0.11331504 -0.010656223 0.025128227 -0.0024928614
000150 05 cf f1 bc e2 49 e3 3d a2 0e 6c 3d 44 64 5f bc
       -0.02951766 0.110980764 0.057631142 -0.013634745
000160 f1 17 60 3c 66 b0 57 3c ea 1c da bb 07 19 1a bc
       0.013677583 0.013164615 -0.006656279 -0.009405381
000170 09 cd 87 3d 3b 69 25 3c 5b b7 81 3d 47 db 12 3d
       0.06630904 0.01009589 0.063338004 0.03585365
000180 ab bc a6 bb b4 ce d4 bc d1 b4 11 bd 73 a1 6d 3b
       -0.005088409 -0.02597747 -0.03557283 0.0036259561
000190 1c 07 ed bc 13 cf b3 3c 80 7e 6c 3d bc 96 c3 bb
       -0.028934054 0.021949327 0.057737827 -0.0059688967
0001a0 48 a0 17 3d 24 ea 51 bc 54 8c 36 bd bf 44 b6 bc
       0.03701809 -0.012812171 -0.04456742 -0.022249578
0001b0 72 03 65 bc 1a 52 b5 bb 52 d9 80 3c e8 f9 fa 3b
       -0.013977872 -0.005533469 0.015728626 0.0076591857
0001c0 ae 3f f1 3a 3b 17 a3 3d cb 40 53 3d 5b 91 d4 3c
       0.0018405819 0.07963415 0.051575463 0.025948217
0001d0 8e 81 16 bc 31 0c bf bc 65 2b 67 3d 29 22 f3 bc
       -0.009186162 -0.023321243 0.05643787 -0.029679375

fc2.weight f4 [84, 120]
000000 41 b9 1d be d7 8a fa 3d 3f b0 b6 3b 65 56 1d 3e
       -0.154027 0.12233513 0.0055752094 0.15364988
000010 70 db 20 3d fc 0e b2 bd 89 96 35 bc c4 3a 3a be
       0.039271772 -0.08694264 -0.011083254 -0.1818648
000020 97 b1 91 3c 3d 4b 61 bd 69 89 c2 bc 05 86 0e bd
       0.017784877 -0.055003393 -0.023747163 -0.03479578
000030 cf 65 8e 3c bf 38 66 3d 62 07 b3 bd 10 b5 19 3d
       0.01738253 0.05620646 -0.087416425 0.03752619
000040 b5 28 94 bc b8 7b 05 3e 09 5f bf 3d 99 ee 6a bd
       -0.018085817 0.13035476 0.093442984 -0.05735645
000050 1f fe 10 3d da e6 95 bc ef 9e d6 bd 7f 46 f7 bd
       0.0353986 -0.018298555 -0.10479533 -0.12073993
000060 0a 5f ae bd b6 56 55 3d 07 97 ce 3d f1 7d 23 3e
       -0.08514221 0.052084647 0.100874 0.15966012
000070 b6 6a 9d bc 3a cf e1 bc 84 d1 07 be 3a 7d f7 3c
       -0.019215923 -0.027564634 -0.13263518 0.03021108
000080 04 cb 01 3e df cc e6 3c 32 fe ab 3d 54 fc 02 3d
       0.126751 0.028173862 0.08398093 0.03197892
000090 6e 83 9f 3d 81 92 82 3d df d8 39 bd dd 11 b5 3d
       0.0778874 0.063756 -0.04537284 0.08841298
0000a0 97 fb 49 3d eb 32 83 bc c3 83 1b bd 8d 1e cc bc
       0.0493122 -0.01601549 -0.037967455 -0.024916911
0000b0 3c 00 fe bd ec 50 03 3c 5e fd 0e be 70 4e b0 bd
       -0.124023885 0.008014899 -0.1396384 -0.08608711
0000c0 0f 24 8a 3d 45 e6 8e 3d 4b e7 c3 bd a8 24 27 bd
       0.06745159 0.06977514 -0.095656 -0.040806442
0000d0 a5 76 dc 3c 2f 33 67 3d 7f 96 f8 3d 54 8c c4 3d
       0.026912043 0.056445297 0.1213808 0.09597078
0000e0 10 b6 fd 3c 19 ff 40 3c d4 13 88 bd 82 8c e4 3d
       0.030970603 0.01177957 -0.06644407 0.11159612
0000f0 d8 2a 46 3d ad cc 8c 3d 8d 28 af bb af a9 ec 3c
       0.048380703 0.06874976 -0.00534541 0.028889505
000100 a7 2a a1 bd af 1b c9 3b 6e b4 c7 3d 18 8a 4c 3d
       -0.078694634 0.0061373333 0.09751211 0.049936384
000110 4a 2f a2 3c e9 e4 af 3d 65 75 b1 3d b3 77 80 bd
       0.01979794 0.08588583 0.08664969 -0.06272831
000120 2f 67 cf bd b6 6c df bc b2 a2 07 bd 09 39 6d 3d
       -0.101271026 -0.027273517 -0.033114143 0.05791572
000130 f7 c4 ed bc c5 6c 0d 3b 13 49 1b be 87 35 31 be
       -0.029024584 0.0021579724 -0.15164594 -0.17305575
000140 4a 84 03 3c 04 96 79 3d 20 39 01 bd 7e f0 ca 3d
       0.008027146 0.06093408 -0.03154862 0.099091515
000150 b5 82 b9 3d 89 3c e1 bd 29 92 8c 3d df b3 d1 3d
       0.090581335 -0.10997874 0.06863815 0.10239386
000160 8f 51 2a 3d bc 80 c0 bc 35 fa ba 3d f7 c1 44 bd
       0.041581687 -0.023498885 0.091297545 -0.04803654
000170 e3 0a 87 3c c6 be b8 3d ce 58 d8 3d 1f 5d 07 be
       0.016484683 0.09020762 0.10563813 -0.13219117
000180 a5 1d b0 bd 73 83 54 3e 2f c3 00 3d fd 07 be 3d
       -0.08599404 0.20753269 0.03143614 0.092788674
000190 53 6a 86 bd 14 e5 0a be fe 16 63 3d 22 e4 f4 bc
       -0.065632485 -0.13563949 0.05544185 -0.029893938
0001a0 d3 d3 ad 3c 69 90 1a bd 6f 3f 4c 3d fb 2a a4 3c
       0.02121917 -0.037735377 0.049865182 0.020040026
0001b0 f2 9e 64 bd 69 07 f0 3c 53 6c 9c bc 63 5f f9 bc
       -0.055815645 0.029300408 -0.019094622 -0.030440992
0001c0 c5 0f 80 bd c4 6c 25 3d 60 e8 da bd 62 cf ad 3c
       -0.06253008 0.04038693 -0.10688853 0.021217052
0001d0 1e e7 de bc 30 b2 fd bb 1e 3f 79 bd bf f6 9d bd
       -0.027209815 -0.007742189 -0.06085121 -0.07713079
0001e0 3a 00 07 3e ee 1b 08 be 88 d4 22 3d fd 90 2b bc
       0.1318368 -0.13291904 0.039753467 -0.01047158
0001f0 02 20 61 3c f3 f2 36 bc e9 d2 91 bd 36 2a 88 3d
       0.013740541 -0.011166322 -0.07120306 0.06648676
000200 64 b7 29 bd 18 69 bb 3c a7 21 9a bd f6 d8 4c 3d
       -0.04143466 0.022877261 -0.0752595 0.050011598
000210 f1 79 06 be 96 8b 09 be 93 fc 5c bc eb 47 05 3d
       -0.13132454 -0.13432154 -0.013487953 0.03253929
000220 67 b9 88 bd ee 24 6e bd 92 28 9d bd 60 8c a1 bd
       -0.06675988 -0.058140688 -0.07673754 -0.078881025
000230 5a 11 56 3d 7a d8 c5 bb ed 79 28 3d 4f 75 5f bb
       0.05226264 -0.006037769 0.041131902 -0.003409702
000240 9f 54 4c 3d 4b df 78 3d 69 e9 0d 3b 73 3e cf bd
       0.04988539 0.060759824 0.0021654016 -0.10119333
000250 86 79 49 3d 23 96 f1 3c 21 04 d8 3d 34 53 29 bc
       0.04918816 0.029490536 0.105476625 -0.010334779
000260 21 2c 41 3d 01 7e 32 3e dd 02 78 bd c9 13 5c 3d
       0.047161225 0.17430879 -0.060549606 0.053729806
000270 e1 c8 ab bd d3 4d 26 bd 7d e6 66 bc ef 05 4e 3c
       -0.08387924 -0.040601563 -0.014093039 0.012574657
000280 ec 78 97 3d 53 8e fc bd 59 cb b6 bd 17 36 0a 3e
       0.07396111 -0.12331834 -0.08925504 0.13497196
000290 5d 44 40 3e d3 60 40 3d 29 3a aa bc 24 79 19 bd
       0.18776079 0.04696734 -0.020779686 -0.037469044
0002a0 7d c5 d8 bc 64 53 3f bd 60 d0 36 3d bc 00 32 3b
       -0.026461357 -0.046710387 0.044632316 0.0027161082
0002b0 ff a9 89 bc 7c 1a 13 bd e6 42 1f be 55 94 4a be
       -0.016804693 -0.03591393 -0.15552863 -0.19783147
0002c0 aa 53 5a bc 23 77 c6 3d 7b 6a c8 bd d5 91 d8 3a
       -0.013325611 0.09690692 -0.097859345 0.0016522954
0002d0 b5 05 b9 bc 86 6b 43 3d 66 46 86 bd 31 0e 9f 3d
       -0.02258573 0.047709964 -0.06556396 0.07766379
0002e0 eb a0 27 3e a6 fd ee 3d 49 3b 1f 3d 99 0a 38 bd
       0.16369979 0.11669473 0.038874898 -0.04493198
0002f0 a0 2c 68 be f5 56 29 3d 31 fb a7 bd 44 e1 8f bc
       -0.22673273 0.041342694 -0.08202208 -0.01756347
000300 0d db 59 3c f1 db e7 3d f4 39 21 3e 09 a5 fc bc
       0.013296855 0.11321247 0.15744764 -0.030840414
000310 ab 32 43 bd f5 db d8 bd 45 06 cb 3d 02 50 25 3e
       -0.047655743 -0.105888285 0.09913305 0.16143802
000320 8e 35 15 3e ec 61 43 3d 65 32 b3 3d 10 50 98 b9
       0.1457121 0.047700807 0.08749846 -0.0002905135
000330 57 ac 7a bd 21 eb bb 3c ca f4 3f be 31 7b a2 3d
       -0.061199512 0.022939267 -0.18745723 0.07933653
000340 45 68 5e bd 11 74 f3 bd 94 a5 4c 3d 5c 1b 98 3d
       -0.054298658 -0.11887372 0.049962595 0.074270934
000350 c2 df 1d 3e 7b 5a e3 bd d0 bc 4a bd e4 48 06 3c
       0.15417388 -0.11101242 -0.049496472 0.008196089
000360 a5 22 f9 3c 4a a4 a1 bd 8e 3c 91 3b 81 97 d5 bd
       0.030412028 -0.07892664 0.0044322675 -0.10429288
000370 79 e9 b6 bb 3e 23 93 3d e6 a5 10 3d 7d 6a 86 3d
       -0.0055820313 0.07184456 0.035314463 0.0656328
000380 be 88 72 bc 49 cb 2d 3d 56 d9 01 3d cb 5f a5 3d
       -0.01480311 0.042430196 0.03170141 0.08074912
000390 c8 b2 f0 bd fe 12 81 3c 53 70 49 3d fc 73 de 3b
       -0.1175285 0.015756126 0.049179386 0.0067887288
0003a0 1d 77 d0 bd ea ce c2 3d a9 e9 94 bd 7a ed be bd
       -0.10178969 0.09512122 -0.0727113 -0.09322639
0003b0 04 e7 a1 3d d0 f4 b8 3c 38 f9 ae 3c ba b5 d0 bd
       0.07905391 0.022577673 0.021359071 -0.101909116
0003c0 eb 76 0f be b9 e7 a7 bd 2b a7 d8 bb eb a9 d2 3c
       -0.14010207 -0.081984945 -0.006611725 0.025715789
0003d0 b3 4f 6b 3c 52 7b 33 bc b7 f5 8f bb d6 f1 9e 3d
       0.0143622635 -0.010954695 -0.004393305 0.0776097
0003e0 b2 b3 10 3d 32 5c 88 bd 28 a2 a8 bd ad b7 65 3d
       0.03532762 -0.0665821 -0.08234054 0.05608337
0003f0 19 d5 1b 3d 29 f1 4f 3d 69 f6 07 bd cf dd 03 bc
       0.038045023 0.050767098 -0.03319398 -0.008048489

fc2.bias f4 [84]
000000 4a 39 f3 3c 53 31 ca 3d 3a c3 5e 3c 03 25 5d bb
       0.029690403 0.09872689 0.01359635 -0.0033743985
000010 c9 73 cc 3d bc 36 68 bd 51 6e aa bd b0 f8 11 3d
       0.09983022 -0.056692824 -0.083218224 0.035637558
000020 ca 1a 63 3d 29 80 15 3e 95 50 34 bd 00 44 5a bd
       0.05544547 0.1459967 -0.04402216 -0.053287506
000030 50 e5 49 bd 3a e3 e1 3c 4e 6c 14 3c fb 2c 9e bd
       -0.049290955 0.02757417 0.009059025 -0.07723423
000040 80 c9 be 3d 5c e2 33 bd fe cf 9d 3c b7 4f ff 3d
       0.09315777 -0.043917045 0.019264217 0.12466376
000050 d2 7b 6d bd be dd 8f 3e 31 7a 12 bd 44 42 4e 3e
       -0.057979412 0.28098863 -0.035761062 0.20142466
000060 79 8b 1e 3e 3e 4a 54 3e 00 9c ac 3d 82 d1 16 3d
       0.15482892 0.20731446 0.08428192 0.036820896
000070 4f fc a9 3d 86 ae 75 bd 13 85 95 3d d2 7b 41 bd
       0.08300077 -0.05998089 0.073007725 -0.047237225
000080 95 65 53 bd 0a f6 11 3e 9e 78 f0 3c cf 5e 46 bd
       -0.051610548 0.14254013 0.02935439 -0.04843026
000090 39 07 80 3e 18 5f c6 3b c3 d8 c0 3c b3 42 41 3d
       0.2500551 0.0060538165 0.02354086 0.04718275
0000a0 26 2e 26 bd fb 0d 0f 3d 42 57 8e 3d cf 94 58 bd
       -0.040571354 0.034925442 0.06950237 -0.05287629
0000b0 ff ad 11 3d d6 68 42 bd 75 08 ab 3c 30 d0 d6 3d
       0.035566326 -0.04746326 0.020878056 0.10488927
0000c0 fe 2c 7b bd 1f fd 23 3e c7 ea 1f bc 1d d0 03 3c
       -0.061322205 0.16014527 -0.009760565 0.008045224
0000d0 7d 4d 84 bd 9e ca b3 3c a5 bc c0 bd 1f e0 63 bd
       -0.06460092 0.021947201 -0.09410981 -0.05563366
0000e0 07 42 2b 3b 22 3e 46 3e fb ce aa 3d 5c b0 4e 3c
       0.0026131885 0.1935964 0.0834026 0.01261529
0000f0 44 66 c5 bc d5 9b 19 3d 8d 88 c7 3d 40 c8 a5 3d
       -0.024096616 0.03750213 0.09742842 0.08094835
000100 38 b1 88 3d a7 57 60 3e c4 08 84 3d c7 88 c4 bb
       0.06674427 0.21908437 0.064469844 -0.0059977504
000110 30 7f b7 bd a0 f5 98 3d 9f f5 c8 bb 2c 3d 7e 3c
       -0.08959806 0.07468724 -0.006132796 0.015517514
000120 bb 49 80 bd 6c 5d 0b 3d 02 3b b0 bd b0 0c de 3d
       -0.06264063 0.03402464 -0.08605005 0.10842264
000130 c5 aa 58 bd a8 60 c2 3c ef 19 9d 3d 22 77 95 bd
       -0.052897234 0.02372773 0.07670962 -0.072981134
000140 ed c5 a2 3d 17 8f 8f bd 51 0a 0a 3e 7d 2e 0d 3b
       0.079479076 -0.07009714 0.13480498 0.0021542602

fc3.weight f4 [19, 84]
000000 ad 30 d0 bc 59 ee 95 3e ad c4 4c be 13 80 c7 bb
       -0.025413835 0.29283407 -0.19996901 -0.0060882657
000010 f2 5f 26 be 9d 77 e7 bc 5b 76 a8 be 8e 6a 7d be
       -0.16247538 -0.028255278 -0.32902798 -0.24747679
000020 63 4a bc bc 80 18 b3 bd 9e 0d 89 be 57 3b 21 3e
       -0.02298469 -0.087449074 -0.26768202 0.15745293
000030 45 74 43 3d ba 71 95 3e cc a0 4b bb c7 f7 7c 3e
       0.047718305 0.2918833 -0.0031071184 0.24703895
000040 08 5c 62 be 7d 05 af 3d aa 9e e0 3d 2a b9 77 bc
       -0.2210542 0.08545969 0.10967763 -0.01511983
000050 20 d1 15 3d ee 60 b3 bd e4 bc 17 3e b4 a7 f4 bd
       0.03657639 -0.08758722 0.1481815 -0.11946049
000060 10 71 32 bd 8d 02 73 be 13 a2 26 be a1 83 50 3e
       -0.043564856 -0.23731442 -0.16272764 0.20362712
000070 ce 47 11 be a2 d2 82 bd c7 25 cb 3c 85 e4 24 3d
       -0.14187548 -0.06387831 0.024798287 0.040256996
000080 8d 95 5f 3a 24 01 d2 bd 8c bb 81 bd 30 4f dc 3d
       0.00085290597 -0.10254124 -0.063346 0.10757291
000090 da 78 69 be de fd ee bc 75 cb 50 bd a0 6d 33 3e
       -0.22800007 -0.029173788 -0.05097528 0.17522287
0000a0 ad 34 8c bd 16 e8 b9 bd 4b 10 01 be ff a0 d0 bd
       -0.068459846 -0.0907747 -0.12603872 -0.101869576
0000b0 a2 cc 46 3e 1b fe dd bd 70 d4 a9 be 81 28 4d 3e
       0.19413999 -0.108394824 -0.3316989 0.20034982
0000c0 ee a1 24 bd d6 f7 b4 ba f9 ec 31 3e 53 cc c0 3e
       -0.04019349 -0.0013806771 0.17375554 0.37655887
0000d0 ac ec 4d be ed 36 02 be d9 35 81 bd 93 1c 1b 3d
       -0.20109814 -0.12716265 -0.06309099 0.037869047
0000e0 d4 d4 0f 3e 88 1e 93 3e a3 c8 a2 3c 80 e1 96 3d
       0.14046031 0.2873423 0.019871062 0.073672295
0000f0 9f 5d bb 3d 78 39 84 be 2a 36 20 be 8f de 21 3e
       0.09148716 -0.25825095 -0.15645662 0.15807556
000100 d8 d6 97 3e 06 f0 96 3c 36 15 1a 3d d4 27 2f 3c
       0.296561 0.018424999 0.037617885 0.010690648
000110 6a 08 89 3d 05 1e ef 3d 65 fa 92 bc bd 9b 1f bd
       0.06691058 0.11675648 -0.017941663 -0.038966883
000120 6c 68 52 3c c1 b6 c8 3c 8b aa 2c 3d a6 7b 80 be
       0.012842279 0.024501206 0.04215483 -0.25094336
000130 33 07 78 bc e2 d7 8b 3e 08 72 df bb 3c 1b c1 3d
       -0.015138435 0.27313143 -0.0068190135 0.09429023
000140 51 2b d4 bd d3 98 f6 bc 04 8e 8d bd 09 75 0f 3e
       -0.103598244 -0.03010217 -0.06911853 0.14009489
000150 54 f0 f1 bd 43 27 ee 3c 99 79 05 be 07 0e a2 3d
       -0.11813417 0.029071456 -0.13034667 0.07912832
000160 c5 ba 0f be 7d 4f e7 3d 07 52 18 bd b1 5b cf 3d
       -0.1403609 0.11294458 -0.037187602 0.101249106
000170 a7 2b 4e bb 2d 6f 3b be 83 bd 31 3e a4 85 9d 3d
       -0.0031459124 -0.18304129 0.17357449 0.076915056
000180 1a 90 2f bc 77 bf 8e 3e b7 d5 56 bd a0 62 7e be
       -0.010715509 0.2788045 -0.052449908 -0.2484231
000190 6a f7 5a bc 0e 1d a6 bd 9a dd 04 bd de 7b 15 3e
       -0.013364652 -0.081110105 -0.0324379 0.14598033
0001a0 75 b7 28 be e4 7b 99 be 21 3c 60 3e c2 d3 f9 bd
       -0.16476233 -0.29977334 0.21897937 -0.12198593
0001b0 54 86 9a bd 19 6e 3c be 2f f8 e2 3d e6 8a ba 3e
       -0.07545152 -0.18401374 0.110824935 0.36434096
0001c0 3d a1 e5 bd 16 47 14 bd ea d1 3c bc 54 fd b5 3d
       -0.112123944 -0.036200605 -0.011524657 0.08886209
0001d0 1d 00 0b 3e 50 33 9f bd 06 75 8e 3d cc 59 67 3d
       0.13574262 -0.07773459 0.06955914 0.05648212
0001e0 10 33 a0 be 27 af 97 3c dc 1e 88 bd fc 90 4f be
       -0.31288958 0.018516136 -0.06646511 -0.20270151
0001f0 01 92 c4 3d f2 98 8d be 4a 32 cd bd 22 ea 40 bc
       0.095981605 -0.2765575 -0.100193575 -0.011774572
000200 bd 57 ce 3c c7 c4 a6 bd a6 a4 5e 3e ba 14 5f bd
       0.025188321 -0.08143001 0.21742496 -0.054463126
000210 d4 5b 38 bd 90 80 35 be c0 2e d0 3d 03 71 2f 3e
       -0.04500945 -0.17724824 0.10165167 0.17132954
000220 5f b3 97 bb db 20 70 3c af 81 56 3c 36 3b 21 bd
       -0.004629537 0.014656271 0.013092442 -0.03936311
000230 4b 51 cb 3d 2d 8d 8c 3e 11 e1 ba 3e d0 ee 3c 3d
       0.09927615 0.2745146 0.36499837 0.046126187
000240 f2 b7 18 bd 3d b7 60 3e 9c aa 2a 3e 6d ba e9 3d
       -0.0372848 0.219449 0.16666645 0.11412511
000250 58 d3 35 3e 00 4b 57 bc b6 8d 2e be 63 f2 2a be
       0.17756402 -0.01314044 -0.17046246 -0.16694026
000260 f8 9c 11 be 8f 51 31 be 6d db 56 3e 0b 74 0e bc
       -0.14220035 -0.17316268 0.20982142 -0.008694659
000270 da d8 47 3c ee 1a f3 bd ea 0f b1 3c db 4d d9 bd
       0.012197698 -0.11870371 0.021614034 -0.10610553
000280 a1 a7 3e bd bb 5a 85 3e 4d 2b 61 bc 61 10 97 3c
       -0.046546582 0.26045784 -0.013743234 0.018440427
000290 c3 ee 05 be 3e b3 17 be 9d e0 0a be 44 6a 1e be
       -0.13079362 -0.14814469 -0.13562246 -0.15470225
0002a0 3d 78 bc bd 80 e5 2c 3e b8 0b a0 3d 02 bf d8 bd
       -0.09202621 0.16884422 0.07814735 -0.10583307
0002b0 25 13 e6 bc 4c 97 05 3d c9 44 14 be 8d 21 97 3e
       -0.0280853 0.03261499 -0.14479364 0.29517785
0002c0 99 08 2b be 93 23 6a bd 6b a3 7f 3d 60 e9 cb 3d
       -0.16702498 -0.057162832 0.062411707 0.09956622
0002d0 34 39 e3 bd f3 f5 5b 3d 43 3f b5 bd 68 bf 26 3b
       -0.11094895 0.053701352 -0.08849957 0.0025443677
0002e0 08 cf af bc 3d 4f 05 3d 4a 85 67 3d 98 52 28 bb
       -0.021461025 0.03254627 0.0565236 -0.0025683995
0002f0 4a 01 1e be 74 0a 40 be c1 9c a2 bc ec b9 5e bd
       -0.15430179 -0.18753988 -0.019850137 -0.054376528
000300 57 01 77 bd c5 b1 0a be fb 54 d2 bd 5c b4 8e bd
       -0.060304012 -0.13544376 -0.10270115 -0.069679946
000310 86 a0 85 be c8 0b a3 3d 73 88 b6 3e 48 81 4f bd
       -0.26099032 0.079612315 0.35650977 -0.0506604
000320 4f 1c 96 3b e4 ef 45 be 48 ce d8 bd 6d 43 6f 3e
       0.0045810114 -0.19329792 -0.1058622 0.23365565
000330 29 a9 6b be 26 9c b7 bd 65 66 8a bd 83 07 b8 bc
       -0.23013748 -0.0896533 -0.067578115 -0.02246452
000340 24 4d 8a 3d b7 26 12 be a7 40 0b be db 18 0a bd
       0.06752995 -0.14272581 -0.13598882 -0.03371511
000350 e8 5d 19 3e c4 ee 50 bd a0 fa a8 3d 17 e6 0d 3e
       0.14977229 -0.051008955 0.08250928 0.13857304
000360 07 42 86 3d 8c c7 44 3b c3 4f 73 3d 2c c3 47 3b
       0.065555625 0.0030026166 0.05940224 0.0030481322
000370 59 77 28 bd cb 0b 27 3e 16 34 1d 3d 3d 6a 02 bd
       -0.041129444 0.16313092 0.03837975 -0.031839598
000380 2e ff 8d 3e 35 db 51 3e db 25 41 be 42 19 dc bd
       0.2773375 0.20493777 -0.18862097 -0.10747005
000390 4a 4f 01 be 7f 67 1e be 02 e7 ce 3d b5 ad dd 3d
       -0.12627903 -0.15469168 0.10102655 0.108241476
0003a0 22 27 82 bd 52 80 09 be e4 47 23 be 4d 99 0b 3e
       -0.0635512 -0.13427857 -0.15945393 0.13632698
0003b0 6f 46 8c bd 7f ae 2a be 86 c8 fd 3d 11 40 70 bc
       -0.06849372 -0.16668127 0.123917624 -0.014663712
0003c0 66 ce b3 3d 5d c3 85 3e 1f 4a 6c bd 10 16 f1 bd
       0.08779602 0.26125613 -0.057687875 -0.11771786
0003d0 04 7b 8c bd ec a5 47 3e 88 38 1b 3e 5e e1 29 be
       -0.06859401 0.19496888 0.15158284 -0.16589877
0003e0 6c e2 38 be 13 16 f3 bb 7e 3c 8a 3d cc 1e 31 be
       -0.18055123 -0.007418403 0.06749819 -0.17296904
0003f0 f3 2e 07 be 85 1e 68 3e fc f8 3f bc 86 1c 20 bd
       -0.13201503 0.22667892 -0.011717077 -0.039089702

fc3.bias f4 [19]
000000 ec ae 90 be 3c ca d1 bd cb da 2f 3d a6 ef ad bb
       -0.28258455 -0.10243651 0.042933267 -0.0053081093
000010 c1 70 73 be bd 39 1e 3e 05 0c 9c be 9e e6 8b 3c
       -0.23773481 0.15451713 -0.3047792 0.01707774
000020 29 26 8a be 9c a7 a6 bd ad 53 9f 3e dc 6f 7d bd
       -0.2698224 -0.08137438 0.31118527 -0.061874256
000030 c6 6c 7b 3e 7e 5f d4 bb b1 e0 a6 3d 53 1d 27 3e
       0.24553213 -0.00648111 0.08148325 0.1631978
000040 8d 06 09 bc 65 99 70 3e cf b3 ae bd
       -0.008363378 0.23496015 -0.085303895
