python/CNN8.pth (torch_old, 252622 bytes, 10 tensors)

conv1.weight f4 [6, 3, 5, 5]
0	0x3ecce6cf	0.40019843
1	0x3f0404a4	0.5156958
2	0x3f0afab6	0.54288805
3	0x3ecc89a2	0.39948756
4	0x3f074bd0	0.52850056
5	0x3cca1700	0.02466917
6	0x3dae0483	0.08496954
7	0x3d8a5569	0.06754572
8	0x3e85793d	0.2606906
9	0x3e534d7d	0.20635028
10	0x3ce6e361	0.028184595
11	0xbe350340	-0.17677021
12	0xbe2321a5	-0.15930803
13	0xbe33f6a6	-0.17574558
14	0xbe083a40	-0.1330347
15	0x3e02308f	0.12713836
16	0x3e02763d	0.12740417
17	0x3b74b446	0.0037338897
18	0x3d27397b	0.040826302
19	0xbcb89f1b	-0.022536805
20	0x3e9c6c8a	0.3055156
21	0x3f0200f6	0.50782716
22	0x3e9160d1	0.28394178
23	0x3e4e0d08	0.20122159
24	0xbdd2c4b1	-0.10291422
25	0xbd4241f0	-0.047426164
26	0x3dc59126	0.096468255
27	0x3e5bb04c	0.2145397
28	0x3e9004b8	0.281286
29	0x3ea22c63	0.3167449
30	0xbe360c53	-0.17778139
31	0xbe5ae6fb	-0.21377175
32	0xbe0e0d7e	-0.13872334
33	0x3cf011a7	0.029305292
34	0xbd1ace6e	-0.037794523
35	0xbe836be5	-0.25668254
36	0xbf048455	-0.5176442
37	0xbed2315f	-0.41053292
38	0xbf06b575	-0.5262063
39	0xbe8627fd	-0.26202384
40	0xbe04a1c9	-0.12952341
41	0xbd36764b	-0.044546407
42	0xbe596e1f	-0.21233414
43	0xbeb0c90f	-0.34528396
44	0xbe826bd4	-0.2547289
45	0x3e2b0412	0.16700771
46	0x3e85e926	0.2615444
47	0x3e4e696b	0.20157401
48	0xbe3027dd	-0.17202707
49	0xbe92b26a	-0.28651744
50	0xb8d9f55c	-0.00010393068
51	0x3cbf06e2	0.023318712
52	0x3e96c3e0	0.29446316
53	0x3e85cb24	0.26131546
54	0x3e54c219	0.20777167
55	0xbe08eb20	-0.13370943
56	0xbe3135dc	-0.17305702
57	0xbe0aa2dd	-0.1353869
58	0x3d93b3b0	0.07212007
59	0x3de49aa3	0.11162307
60	0xbe70b642	-0.23507026
61	0xbef92ef3	-0.48668632
62	0xbf0e57d5	-0.5560277
63	0xbed61f42	-0.41820723
64	0xbeaad2a4	-0.3336383
65	0xbc692326	-0.014229571
66	0xbe01e644	-0.12685496
67	0xbe656715	-0.22402604
68	0xbe928db9	-0.2862375
69	0xbe705c60	-0.23472738
70	0x3ed093e1	0.40737823
71	0x3e8232cf	0.2542939
72	0x3d7fbfa1	0.06243861
73	0xbd543931	-0.051812354
74	0xbe7a29f6	-0.2443007
75	0xbd1c73e4	-0.03819646
76	0x3bf07454	0.007338086
77	0xbd544374	-0.05182214
78	0x3b448386	0.002998562
79	0x3c8f14cc	0.017465971
80	0x3e0df26f	0.13862012
81	0x3e18a683	0.14907269
82	0x3de8e981	0.11372662
83	0x3e37ddbb	0.17955677
84	0x3e2058f4	0.15658933
85	0xbdc5b0ab	-0.09652837
86	0x3e3761d3	0.1790841
87	0x3e0bd112	0.13653973
88	0x3e577171	0.21039368
89	0x3e91e60f	0.28495833
90	0xbe3e4dee	-0.18584415
91	0xbdf76fbe	-0.1208186
92	0xbd5385b0	-0.051641166
93	0x3cd3c554	0.02585093
94	0x3e11ed2f	0.14250635
95	0xbda2d178	-0.07950109
96	0xbd9c5ba3	-0.07634666
97	0xbe9c3533	-0.30509338
98	0xbe0af555	-0.13570149
99	0xbe1163b1	-0.14198186
100	0xbcbd3f1d	-0.023101384
101	0xbd9abf9d	-0.075560786
102	0xbd11c940	-0.035592318
103	0xbd5562cb	-0.05209617
104	0xbd2eb05d	-0.042648662
105	0x3d323b36	0.0435135
106	0x3e74106d	0.23834391
107	0x3e458fc8	0.1929313
108	0x3e6e1ee8	0.23253977
109	0x3de7a943	0.11311581
110	0x3dd85eae	0.10564934
111	0x3e126499	0.14296187
112	0x3e5bb3c8	0.214553
113	0x3ea4d45f	0.32193276
114	0x3ea6c6a4	0.32573426
115	0xbe18956f	-0.14900754
116	0xbe0cb255	-0.13739903
117	0xbe4ac3bd	-0.1980123
118	0xbceea8ec	-0.029133283
119	0x3d023474	0.031788304
120	0xbc20566c	-0.00978623
121	0xbd864d3b	-0.06557699
122	0xbdfb1ffe	-0.122619614
123	0xbda5a7a1	-0.08088613
124	0xbdb77f9a	-0.08959885
125	0xbe11e2f0	-0.14246726
126	0xbd1d9600	-0.03847313
127	0xbe220e16	-0.15825686
128	0x3bec6872	0.0072145993
129	0xbd8be6da	-0.06831141
130	0xbe20209a	-0.15637437
131	0xbc6c9ac1	-0.014441193
132	0x3dfa588c	0.1222392
133	0xbd560bce	-0.05225735
134	0x3b3b690b	0.0028596546
135	0xbe1f8ed3	-0.15581827
136	0x3c19145e	0.009343235
137	0xbcafbf72	-0.021453593
138	0x3e3da37d	0.18519397
139	0x3e454099	0.19262923
140	0xbe495186	-0.19660005
141	0xbe7a8669	-0.24465336
142	0xbe9e5887	-0.30926916
143	0xbe408f5e	-0.1880469
144	0x3c4d8b99	0.01254549
145	0xbdf10605	-0.11768726
146	0xbe9fe980	-0.31232834
147	0xbe9392e8	-0.28823018
148	0xbebc78ef	-0.36811015
149	0xbe467501	-0.19380571
150	0x3e33ec44	0.17570597
151	0x3e5f3d91	0.2180083
152	0x3dc377af	0.09544312
153	0xbd780cb4	-0.06055899
154	0xbda45579	-0.08024115
155	0x3e4e54a3	0.20149474
156	0x3d6dfb7c	0.058101162
157	0xbe49a920	-0.19693422
158	0xbe885a0f	-0.2663121
159	0xbe867b2e	-0.26265854
160	0x3ea1da00	0.31611633
161	0xbd03b4bf	-0.032154795
162	0xbe9a594e	-0.3014626
163	0xbedcd50a	-0.43131286
164	0xbe80a467	-0.2512543
165	0x3eb2326e	0.348041
166	0x3e5b8361	0.21436836
167	0xbea9185a	-0.3302639
168	0xbec0af1f	-0.37633607
169	0xbdf4bc30	-0.119499564
170	0x3f29b440	0.66290665
171	0x3eacca69	0.33748177
172	0x3c4dbebe	0.0125576835
173	0xbe7803ac	-0.2422015
174	0xbdb034c7	-0.086038165
175	0xb9b75b16	-0.00034972344
176	0x3e3c81fb	0.18408959
177	0xbde242f5	-0.11047927
178	0xbe8d49db	-0.2759541
179	0xbe120401	-0.1425934
180	0xbd342dd8	-0.043989033
181	0x3caf638b	0.02140977
182	0xbe9e5680	-0.3092537
183	0xbea68a60	-0.32527447
184	0xbebaf448	-0.36514497
185	0xbe144103	-0.14477925
186	0x3c86a9ed	0.016438449
187	0xbea364a9	-0.31912735
188	0xbe9212b3	-0.2852989
189	0xbeaa6931	-0.3328338
190	0x3e2406a0	0.16018152
191	0x3cf36476	0.02971099
192	0xbe5d3b16	-0.21604571
193	0xbee839e2	-0.4535666
194	0xbe24e9d5	-0.16104825
195	0x3e1c5234	0.15265733
196	0x3d9115d6	0.07084243
197	0xbe4d85b0	-0.20070529
198	0xbed3c20e	-0.4135899
199	0xbdfe6195	-0.12420956
200	0x3e872522	0.26395518
201	0x3ed3b1da	0.41346627
202	0x3eb9ea02	0.36311346
203	0x3d8db9c5	0.06920198
204	0x3e069970	0.1314447
205	0x3da6a1fa	0.08136363
206	0x3e385c36	0.18003926
207	0x3e1b601d	0.15173383
208	0x3c9417a8	0.018077686
209	0x3de414a2	0.11136748
210	0x3db8e55a	0.0902812
211	0x3e810277	0.25197193
212	0x3b7cb9da	0.0038562925
213	0xbdb0d78d	-0.08634863
214	0x3e4b04b6	0.19826016
215	0x3e871231	0.26381066
216	0x3e6bd506	0.2303048
217	0xbd44fdb2	-0.048093505
218	0x3da47783	0.080306076
219	0x3ea78002	0.3271485
220	0x3ef37418	0.4754951
221	0x3e9bb7ef	0.30413768
222	0x3d946747	0.07246261
223	0x3ce2c783	0.027683025
224	0x3e5a8993	0.21341543
225	0x3d0b3e33	0.033994865
226	0x3dcd3791	0.10020364
227	0xbd9149bf	-0.07094144
228	0x3e1889c4	0.14896303
229	0x3e4512f8	0.19245517
230	0xbc2c0d5e	-0.010501234
231	0x3d6f516b	0.058427256
232	0x3e05d0b1	0.1306789
233	0x3be045fc	0.0068442803
234	0x3e72a9d7	0.23697601
235	0xbddf23ef	-0.10895526
236	0xbc864cfb	-0.016394129
237	0xbde85a6d	-0.11345372
238	0xbd85e880	-0.065384865
239	0xbbd75fef	-0.0065727155
240	0xbe23a810	-0.1598208
241	0xbda47ff7	-0.0803222
242	0xbc3614e8	-0.011113383
243	0x3dcddfb6	0.10052435
244	0x3dc70fb9	0.09719796
245	0xbe3acd2a	-0.18242326
246	0xbd195607	-0.037435558
247	0xbda4d62a	-0.08048661
248	0xbccc6b4d	-0.024953509
249	0x3e0175b8	0.12642562
250	0xbe85bda0	-0.26121235
251	0xbe8a2c18	-0.26986766
252	0xbe6c4bd1	-0.23075797
253	0xbe53e89a	-0.20694199
254	0xba76b97f	-0.00094117963
255	0xbdd7ed0f	-0.10543262

conv1.bias f4 [6]
0	0x3eb23e88	0.34813333
1	0x3d8842da	0.06653376
2	0x3eaa08a2	0.3320971
3	0xbee74db2	-0.45176464
4	0xbe2d0068	-0.16894686
5	0x3dd38a35	0.10329095

conv2.weight f4 [16, 6, 5, 5]
0	0xbdf7ddf4	-0.12102881
1	0xbdbe4c1c	-0.092918605
2	0x3c91e228	0.017808035
3	0x3e29caf0	0.16581321
4	0x3e40f681	0.18844034
5	0xbd75c17a	-0.059998967
6	0xbbda465e	-0.0066612205
7	0x3e24320f	0.16034721
8	0x3da6821b	0.081302844
9	0xbc2cd1e8	-0.010548092
10	0xbcd0b631	-0.0254775
11	0xbccc93f4	-0.024972893
12	0x3e32c380	0.1745739
13	0x3e78c179	0.24292554
14	0x3d349a0d	0.044092227
15	0xbdcf250b	-0.10114487
16	0xbdc9fc23	-0.098625444
17	0xbde4d17c	-0.111727685
18	0xbdef681d	-0.1168978
19	0xbd85d832	-0.065353766
20	0xbdfbc6b0	-0.12293756
21	0x3d74b4bd	0.059742678
22	0x3d524b04	0.05134107
23	0xbddba44b	-0.10724696
24	0xbe605f2e	-0.21911308
25	0xbdd82034	-0.10553017
26	0x3c8becf3	0.01708076
27	0x3db7353d	0.08945701
28	0xbd6283d8	-0.055301517
29	0x3d34c09b	0.044128995
30	0xbd09b574	-0.033620313
31	0xbc8ff315	-0.017571965
32	0x3e5193ff	0.20466612
33	0x3df41835	0.119186796
34	0x3e2cdef0	0.16881919
35	0x3e0202c2	0.12696365
36	0x3ce88b15	0.028386632
37	0x3dd6ffae	0.10497986
38	0x3c91de42	0.017806176
39	0xbc996578	-0.018725142
40	0x3ddd47cd	0.108047105
41	0x3e13c48c	0.14430445
42	0x3e12ced9	0.14336719
43	0x3d49b529	0.049245033
44	0xbd9160b3	-0.07098522
45	0x3da439e2	0.08018853
46	0xbda0f818	-0.0785982
47	0xbc88f164	-0.016716667
48	0xbc853645	-0.01626123
49	0xbdbd6d88	-0.09249407
50	0x3eaa7563	0.33292684
51	0x3e3a2db8	0.18181503
52	0x3e18c5c9	0.14919199
53	0x3d0665d5	0.03281196
54	0xbc5e8243	-0.0135808615
55	0x3e3727f8	0.1788634
56	0x3df55e14	0.119808346
57	0x3d93ccad	0.07216773
58	0xbe149794	-0.14510947
59	0xbe04526a	-0.12922063
60	0x3d1565d1	0.036474053
61	0x3d8ed21c	0.06973669
62	0xbdcf4c71	-0.10122002
63	0xbe07c0ad	-0.13257094
64	0xbe41a221	-0.18909504
65	0xbce806fc	-0.028323643
66	0xbe618187	-0.22022067
67	0xbe87d34a	-0.26528388
68	0xbe8ed11b	-0.2789391
69	0xbe68985a	-0.22714368
70	0xbe1e7250	-0.15473294
71	0xbe46b4ce	-0.19404909
72	0xbe133173	-0.14374332
73	0xbe30c95e	-0.17264315
74	0xbd3da642	-0.046301134
75	0x3e80508d	0.25061455
76	0x3e7d51c7	0.24738227
77	0x3e112a3d	0.14176269
78	0x3d94a120	0.07257295
79	0x3e068c52	0.13139465
80	0x3e783566	0.2423912
81	0x3e9428b3	0.289373
82	0x3e611a0d	0.21982594
83	0x3de34fdd	0.11099217
84	0xbbd259f2	-0.0064194137
85	0x3d7cbb14	0.06170185
86	0xbdba3844	-0.09092763
87	0x3d943146	0.07235961
88	0xbdf8746c	-0.12131581
89	0xbd0b5ee5	-0.034026045
90	0xbd6b5b7e	-0.0574603
91	0xbe182fcf	-0.14861988
92	0xbcebac46	-0.02876867
93	0xbdaa849b	-0.08326074
94	0xbdad57ac	-0.08463988
95	0x3cdda3ed	0.027055705
96	0xbe6c7f98	-0.23095548
97	0xbe23e49b	-0.16005175
98	0xbe26a1c3	-0.16272645
99	0xbe2be40d	-0.16786213
100	0x3e07b57f	0.13252829
101	0x3e3ccf58	0.1843847
102	0x3dc6f323	0.097143434
103	0x3dc94cdd	0.09829114
104	0x3e1f3bf3	0.15550213
105	0x3e7d88ce	0.24759218
106	0x3e2ec206	0.17066202
107	0x3d0c81b3	0.03430338
108	0xbd875aae	-0.06609093
109	0xbd8220ec	-0.063539356
110	0x3d8f05b9	0.069835134
111	0xbdc1e155	-0.09466807
112	0xbd28f8a0	-0.041252732
113	0xbdfd3057	-0.12362736
114	0xbe327ec1	-0.17431165
115	0xbd7d6791	-0.061866347
116	0xbe146c4a	-0.14494434
117	0xbe1a9511	-0.15095927
118	0xbe00e56b	-0.12587516
119	0xbe12879b	-0.14309542
120	0xbd317cd4	-0.043331936
121	0xbd88e1f4	-0.06683722
122	0xbd677954	-0.056512192
123	0xbdaabeab	-0.08337148
124	0xbdc30191	-0.09521783
125	0xbdb37743	-0.08762982
126	0x3e08f94b	0.13376348
127	0x3d55c5ab	0.052190464
128	0xbc585257	-0.013203225
129	0x3da96fe0	0.082732916
130	0x3e06606a	0.13122717
131	0x3e09b599	0.1344818
132	0x3d9bc21e	0.07605384
133	0x3d1aacff	0.03776264
134	0xbb9b9cf0	-0.004748933
135	0x3dae1942	0.08500911
136	0x3dbb81df	0.0915563
137	0x3e414dd8	0.18877351
138	0x3be2eb32	0.00692501
139	0xbc5c656d	-0.013451916
140	0x3dcd48db	0.10023662
141	0xbd591d91	-0.053006712
142	0xbc89ef83	-0.01683784
143	0xbd8a3533	-0.06748428
144	0xbe32f9ee	-0.17478153
145	0x3e05588a	0.13022056
146	0x3d136800	0.035987854
147	0xbda736b0	-0.08164728
148	0xbe158990	-0.14603257
149	0xbd0986f1	-0.033575956
150	0xbe329836	-0.17440876
151	0xbd4fd2ac	-0.05073802
152	0x3d7ddac9	0.061976228
153	0x3dbdaebc	0.092618436
154	0x3e96697d	0.29377356
155	0xbc8d3fca	-0.017242331
156	0xbd4c6407	-0.04990008
157	0xbdfec4d5	-0.124398865
158	0x3a01f1b2	0.0004956975
159	0xbd6a3509	-0.057179485
160	0x3e64ebd1	0.22355582
161	0x3dea07f6	0.114273
162	0xbdef074f	-0.11671316
163	0xbd69097c	-0.05689381
164	0xbdd38ded	-0.103298046
165	0xbd1979d1	-0.03746969
166	0x3ddf224e	0.10895215
167	0x3be17f93	0.006881663
168	0x3c06c009	0.008224496
169	0xbcfc3b5e	-0.030790027
170	0x3cf3cf48	0.029761925
171	0xbe35de68	-0.17760623
172	0xbe3507be	-0.17678735
173	0xbe13c8fb	-0.14432137
174	0xbe060cd9	-0.13090838
175	0xbd833fa6	-0.06408624
176	0xbdfd791f	-0.12376618
177	0xbda81ef4	-0.08209029
178	0xbda985e3	-0.0827749
179	0x3d6d138f	0.05787998
180	0x3de67021	0.11251856
181	0x3d965b2b	0.07341608
182	0xbdf476ac	-0.11936697
183	0xbd6eaaa9	-0.058268223
184	0x3db23bba	0.08702798
185	0x3d57381f	0.052543756
186	0xbd736e42	-0.059431322
187	0x3d7a11c6	0.061052106
188	0xbd002d1a	-0.031293012
189	0x3d08aa86	0.03336575
190	0xbdfd8c37	-0.123802595
191	0xbe0144da	-0.12623921
192	0xbd919f6f	-0.07110488
193	0xbde12042	-0.10992481
194	0x3cd9ee84	0.02660299
195	0x3aa2ef9c	0.0012431028
196	0xbdfc1555	-0.12308756
197	0xbdc9bee2	-0.09850861
198	0xbe0864f6	-0.13319764
199	0x3d8d46c7	0.06898265
200	0xbccad953	-0.024761831
201	0xbe8e1909	-0.27753475
202	0xbda18e33	-0.078884505
203	0x3e0c67a8	0.13711417
204	0xbdeb67fc	-0.11494443
205	0xbe20d5cd	-0.15706559
206	0xbe3415a4	-0.1758638
207	0x3ae95482	0.0017801675
208	0xbc80884f	-0.015689997
209	0xbdc7eda8	-0.09762126
210	0x3b843705	0.004034879
211	0x3e2cef22	0.16888097
212	0x3d61eda6	0.05515828
213	0xbd8bb9b3	-0.06822529
214	0xbe26a808	-0.16275036
215	0xbcc4d312	-0.024026427
216	0x3e9546bd	0.29155532
217	0x3e3f90a8	0.18707526
218	0x3ea54a19	0.32283095
219	0xbdae4401	-0.085090645
220	0x3d80b896	0.06285207
221	0x3e535f99	0.20641936
222	0x3e617aa3	0.22019438
223	0x3ea450ae	0.32092804
224	0xbde1d6c9	-0.11027295
225	0xbe7057b9	-0.23470964
226	0xbe651f5e	-0.22375247
227	0xbe8c6201	-0.2741852
228	0xbdf4c83f	-0.119522564
229	0xbd836042	-0.06414844
230	0xbd3d1ff4	-0.04617305
231	0xbd13858d	-0.036016036
232	0x3b0207cb	0.001984107
233	0x3c253e7e	0.0100857
234	0x3b3c4520	0.0028727725
235	0xbe0e92ff	-0.13923262
236	0x3c9b5582	0.018961672
237	0x3dc1ab5c	0.09456512
238	0x3dd05865	0.1017311
239	0x3d523064	0.05131568
240	0xbc818c7c	-0.015814058
241	0x3cb807ff	0.02246475
242	0x3e3a1b0f	0.18174385
243	0x3e3d2d28	0.18474257
244	0x3e38c29e	0.1804299
245	0x3e04939b	0.12946932
246	0x3e1140f4	0.14184934
247	0x3d91c2eb	0.07117256
248	0x3e115a82	0.14194682
249	0x3e2adb91	0.1668532
250	0xbe15df07	-0.1463586
251	0xbe6aa4c6	-0.22914419
252	0xbe89e08b	-0.26929125
253	0xbe185585	-0.14876373
254	0xbdab43cd	-0.08362541
255	0xbd8fee09	-0.070278235

conv2.bias f4 [16]
0	0x3c85a2a5	0.016312907
1	0xbcd0b9b7	-0.02547918
2	0x3d9ac795	0.075575985
3	0xbca4621f	-0.020066319
4	0xbd05a748	-0.032630235
5	0x3e12be77	0.14330469
6	0xbcfafebf	-0.03063905
7	0x3daf1f5b	0.085509025
8	0xbd8a4497	-0.06751364
9	0xbab55657	-0.0013834935
10	0x3d68da54	0.05684884
11	0xbcc68114	-0.024231471
12	0xbd1d6a5b	-0.038431507
13	0xbd2aef92	-0.04173238
14	0x3c2b4c72	0.010455238
15	0xbdd9d3ac	-0.10636076

fc1.weight f4 [120, 400]
0	0xbd91998e	-0.07109366
1	0xbcb4eb49	-0.022084849
2	0x3cc35460	0.023843944
3	0xbdb3af33	-0.08773651
4	0xbd931d67	-0.071833424
5	0xbd820d0a	-0.06350143
6	0x3c79f95a	0.015257204
7	0x3c624e6f	0.013812645
8	0xbd3333e6	-0.043750666
9	0xbd30f11c	-0.04319869
10	0xbd27cf4c	-0.040969178
11	0x3ccad440	0.024759412
12	0x3d572ae4	0.052531138
13	0x3c9a39f5	0.018826464
14	0xbd8c2dfc	-0.06844708
15	0xbd73fe6f	-0.05956882
16	0xbad06cbe	-0.0015901548
17	0xbccd5ac3	-0.025067693
18	0xbb662e9c	-0.0035122996
19	0x3c2552d3	0.010090548
20	0xbd8c81fe	-0.068607315
21	0xbc5a9fa5	-0.013343726
22	0xbc8d6300	-0.017259121
23	0x3b01bf01	0.0019797685
24	0xbd4b79db	-0.049676757
25	0x3cca7c91	0.024717601
26	0xbbd0c322	-0.006370918
27	0xbd1a8bf1	-0.037731115
28	0xbcdf861f	-0.027285634
29	0xbbbdaa13	-0.0057880967
30	0x3cb7c55a	0.022432972
31	0xb98ca6b0	-0.00026827073
32	0x3c7c8903	0.0154135255
33	0x3c7e3def	0.015517696
34	0xbc522e1d	-0.012828377
35	0xbd32c15e	-0.04364144
36	0xbd6258c7	-0.055260446
37	0xbd2545c2	-0.04034973
38	0xbc80e98e	-0.015736368
39	0xbc8993aa	-0.016794045
40	0x3d934aec	0.071920246
41	0x3d8e166d	0.06937871
42	0x3d55f814	0.05223854
43	0x3d45b8c8	0.048271924
44	0x3ce1950a	0.027536888
45	0xba03327c	-0.0005004776
46	0x3d982a81	0.07429982
47	0xbb06be7b	-0.0020560313
48	0x3e008670	0.12551284
49	0x3d4b3f69	0.04962102
50	0xbd9938b6	-0.0748152
51	0xbd0e804b	-0.03479032
52	0xbd3f112e	-0.046647243
53	0xbd6d538a	-0.057940997
54	0xbc0722b2	-0.008248018
55	0xbc84d8c5	-0.016216645
56	0xbdf37c3c	-0.1188893
57	0xbd5dce43	-0.054151785
58	0xbd9c2740	-0.07624674
59	0xbda44b30	-0.080221534
60	0xbd95df2d	-0.07317958
61	0xbc8f3931	-0.017483326
62	0xbcbfcc69	-0.0234129
63	0xbd785050	-0.060623467
64	0xbd7fa3b1	-0.062411968
65	0x3c41c2c4	0.011826221
66	0xbd75650b	-0.059910815
67	0xbd975c6c	-0.07390675
68	0xbdcb5a8c	-0.0992938
69	0xbd62193e	-0.055199854
70	0xbdce03b2	-0.100592986
71	0xbdc1b017	-0.094574146
72	0x3c7725d6	0.015084704
73	0x3b96ade0	0.0045983642
74	0xbd9a6126	-0.07538061
75	0xbb24eca2	-0.0025165458
76	0x3caa13f4	0.020761468
77	0x3c16f371	0.009213314
78	0xbba1e10b	-0.0049401573
79	0xbbfa942b	-0.0076470575
80	0xbc1ca564	-0.009560917
81	0xbbcca381	-0.006245077
82	0x3ce8173b	0.02833139
83	0xbd261796	-0.040549837
84	0x3d05ad80	0.032636166
85	0x3d342f3a	0.04399035
86	0x3d0514bd	0.03249048
87	0xbd26e648	-0.040746957
88	0x3c51bb37	0.012800983
89	0xbc6ec1eb	-0.014572601
90	0x3d2d6227	0.042329933
91	0x3d1f6f79	0.038924668
92	0x3c014903	0.0078909425
93	0xbc9d301e	-0.019187983
94	0x3d144eb1	0.03620786
95	0xba70e9ff	-0.00091901416
96	0x3d04a2ce	0.032381825
97	0x3c8882f4	0.016664006
98	0xbd2e5716	-0.04256352
99	0x3d112d31	0.03544349
100	0xbcd6e8eb	-0.02623411
101	0xbd4a0e40	-0.049329996
102	0x3d071885	0.032982368
103	0x3d3f421c	0.046693906
104	0xbd2e5e77	-0.042570557
105	0x3b5014d1	0.0031750689
106	0x3ca6681d	0.020313317
107	0xbb143f85	-0.0022620868
108	0x3d024260	0.03180158
109	0x3b5690b2	0.0032740054
110	0x3d666048	0.056244165
111	0x3d37401b	0.04473887
112	0xbcad780f	-0.021175412
113	0xbcd7cd79	-0.026343094
114	0x3bd4b222	0.0064909616
115	0xbd04d133	-0.03242607
116	0x3ccf8bb1	0.025335165
117	0x3c3cddda	0.011527503
118	0x3c8f2051	0.017471464
119	0x3c0efc6e	0.008727176
120	0x3d0f545e	0.03499257
121	0x3b6ffb72	0.003661838
122	0x3d5c1288	0.05372861
123	0xbd548f31	-0.05189437
124	0x3d4477fd	0.047965992
125	0x3d8827b6	0.06648199
126	0xbb08a06b	-0.002084757
127	0xb852a552	-5.0221868e-05
128	0x3d1d99aa	0.038476624
129	0xbcaa2e38	-0.020773992
130	0x3b714833	0.0036816716
131	0xbcb9ade6	-0.022665929
132	0xbb48c1ae	-0.003063302
133	0xbc6f10a1	-0.014591367
134	0xbcac65cb	-0.021044632
135	0x3c616844	0.013757769
136	0x3cb4d11a	0.022072364
137	0xbd1b888a	-0.03797201
138	0xbd315efe	-0.043303482
139	0x3d3b0119	0.045655344
140	0x3d852a74	0.06502238
141	0x3cac9954	0.021069206
142	0xbd253f75	-0.04034372
143	0xbcbfa832	-0.023395631
144	0x3b9f52bb	0.004862157
145	0x3ded9918	0.11601466
146	0xbd027829	-0.031852875
147	0x3b8eecd9	0.0043617305
148	0x3d990d1c	0.074732035
149	0x3dec6cd7	0.11544197
150	0x3ca14973	0.019688344
151	0xbd274ff8	-0.04084775
152	0x3d06fd36	0.032956325
153	0x3c92424f	0.017853884
154	0x3c28985b	0.010290231
155	0x3d61d041	0.055130247
156	0x3cac731b	0.02105098
157	0x3c119b19	0.008887076
158	0xbcaa526f	-0.02079126
159	0xbbd616bc	-0.006533472
160	0x3d0183a3	0.03161968
161	0xbc22b727	-0.009931362
162	0xbca9aa54	-0.020711102
163	0x3d3ebac9	0.04656485
164	0xbd496afe	-0.0491743
165	0x3aa4b6c9	0.0012566681
166	0x3b88bffa	0.004173276
167	0x3d53f7eb	0.051750105
168	0xbcc45316	-0.0239654
169	0xbd83ae2f	-0.06429707
170	0x3bf52160	0.0074807853
171	0x3ceda291	0.029008182
172	0xbc809f56	-0.015700977
173	0x3bfeafda	0.007772428
174	0xbd02266d	-0.031774927
175	0xbb12e654	-0.0022415118
176	0x3d10bc0b	0.03533558
177	0x3ca548c2	0.020176295
178	0xbc21932d	-0.00986175
179	0x3ca4d062	0.020118896
180	0x3acd15d6	0.0015646766
181	0xbd5a7c5e	-0.053341262
182	0x3dd3ca30	0.103412986
183	0x3c316eaa	0.010829607
184	0xbd0ccbb3	-0.03437395
185	0xbc469771	-0.012121067
186	0xb9517152	-0.00019974008
187	0xbc677ed9	-0.014129364
188	0xba8481c4	-0.0010109474
189	0x3d4b329a	0.049608804
190	0xba1cf726	-0.0005987756
191	0x3cd51ec8	0.026015654
192	0x3c8d761b	0.017268231
193	0xbd0de42d	-0.034641434
194	0x3d411744	0.04714133
195	0xbd13af4a	-0.03605584
196	0xbccbb598	-0.024866864
197	0x3d2d4a33	0.04230709
198	0x3ce7758b	0.028254291
199	0x3d6dc21b	0.05804644
200	0xbd077f39	-0.033080313
201	0xbd15cef0	-0.036574304
202	0xbc5195ce	-0.012792064
203	0xbc841ba4	-0.016126461
204	0x3d0c56d1	0.034262482
205	0xbd9b67a8	-0.0758813
206	0xbd8ddaa4	-0.06926468
207	0xbd848596	-0.06470792
208	0x3ca6df62	0.02037019
209	0x3d60460f	0.054754313
210	0xbd816edf	-0.06319975
211	0xbc3d5036	-0.011554768
212	0x3c239fe5	0.009986852
213	0xbcc3122f	-0.023812382
214	0x3af70924	0.0018847329
215	0x3cdcc932	0.026951406
216	0xbd040434	-0.03223057
217	0x3cac836f	0.021058766
218	0x3d9012fe	0.070348725
219	0x3d821a4a	0.063526705
220	0x3bc58b36	0.006028558
221	0xbd6f384a	-0.05840329
222	0xbc4d3e4d	-0.012527061
223	0x3d7573ae	0.059924774
224	0x3cbf476e	0.02334949
225	0x3d991741	0.074751385
226	0x3d3b11d0	0.045671284
227	0xbd3ecec5	-0.04658391
228	0xbc921cbf	-0.017835973
229	0x3d314e14	0.04328735
230	0x3db0f58e	0.08640586
231	0xbbad937b	-0.005297122
232	0xbdccd8f9	-0.10002322
233	0x3d070ba7	0.032970097
234	0x3c1d6e81	0.009608866
235	0x3bbea42f	0.005817912
236	0xbd26c79f	-0.040717717
237	0xbd98e122	-0.07464816
238	0xbc27710d	-0.0102198245
239	0x3bd9c1da	0.0066454234
240	0x3d80f5a3	0.062968515
241	0x3da3b999	0.07994384
242	0xbc6681d6	-0.014069041
243	0xbc6a7d88	-0.014312156
244	0x3c880489	0.016603725
245	0x3d74eb2a	0.059794582
246	0x3d9edfe7	0.0775755
247	0xbdaa5501	-0.083169945
248	0xbcf9604d	-0.030441428
249	0x3dd08ff1	0.10183705
250	0x3ced1a0c	0.028943084
251	0xbc23aae8	-0.009989478
252	0x3cde269c	0.02711802
253	0xbd0675d0	-0.0328272
254	0x3c57edaf	0.013179227
255	0xbd538721	-0.05164254

fc1.bias f4 [120]
0	0x3d58cb3a	0.052928187
1	0x3c289d45	0.010291402
2	0x3cd6afe7	0.026206924
3	0x3d8b204e	0.06793271
4	0x3c5693c0	0.01309675
5	0x3da55802	0.08073427
6	0xbc8fe503	-0.017565256
7	0x3d9085a6	0.070567414
8	0xbd33a8ca	-0.04386214
9	0xbce30b9e	-0.0277155
10	0xbcc35f95	-0.023849288
11	0xbc646f15	-0.0139425
12	0x3dc9a4bc	0.09845874
13	0xbb85968f	-0.004076786
14	0xbd57ce28	-0.05268684
15	0x3c936387	0.017991794
16	0x3d29f98c	0.041497752
17	0x3dc3afc7	0.09555011
18	0xbd788c6c	-0.06068079
19	0x3d2aed4f	0.04173022
20	0xbc97ddb6	-0.018538337
21	0x3e312b23	0.17301612
22	0xbcce3b09	-0.025174635
23	0x3d1827bc	0.03714727
24	0x3d5c98ea	0.053856768
25	0xbca3e35e	-0.020005878
26	0x3d5ce2ea	0.05392734
27	0x3d3b737b	0.045764428
28	0xbcf1bd38	-0.029509172
29	0x3b999cbc	0.0046878736
30	0x3d8007d3	0.06251492
31	0xbc557112	-0.013027446
32	0xbcd77015	-0.026298562
33	0x3e068ed7	0.13140427
34	0x3d473b4c	0.048640534
35	0xbd6d7396	-0.05797156
36	0xbc92765d	-0.017878706
37	0xbd805431	-0.06266058
38	0xbca97d31	-0.020689579
39	0x3c80d549	0.015726702
40	0xbd4ca72e	-0.049964122
41	0x3c944745	0.01810039
42	0x3ba1c7a8	0.004937131
43	0x3c93226b	0.017960748
44	0xbca79e02	-0.020461086
45	0xbd2142a3	-0.03937019
46	0x3dcc2fcf	0.09970056
47	0x3ba97f20	0.005172625
48	0xbcf1f845	-0.02953733
49	0x3c0106b9	0.007875138
50	0x3d6dacfb	0.058026295
51	0xbc6d58df	-0.014486521
52	0xbd3a0bba	-0.04542134
53	0x3da653e8	0.081214726
54	0xbb177da7	-0.0023115666
55	0xbb9cfabd	-0.0047906325
56	0xbcf9ae5c	-0.030478649
57	0xbd611e17	-0.054960337
58	0x3c8221c5	0.015885243
59	0xbd6c4db6	-0.0576913
60	0xbc0c8a26	-0.008577859
61	0x3d55a42c	0.05215852
62	0x3d6607d1	0.056159798
63	0x3ce5cf32	0.0280529
64	0x3d54c6d0	0.051947415
65	0x3c3fb546	0.011700934
66	0x3beff4a1	0.007322863
67	0x3c374413	0.011185664
68	0xbcc8f133	-0.024529075
69	0xbd2b9bd5	-0.04189666
70	0x3d235739	0.039878104
71	0xbb1a566a	-0.0023550042
72	0x3a43eaf6	0.00074736716
73	0xbd1b2490	-0.037876666
74	0x3d661fb8	0.056182593
75	0xbca4b734	-0.02010689
76	0xbd18a41c	-0.037265882
77	0xbc97102f	-0.018440334
78	0xbbda13d9	-0.006655198
79	0x3caee952	0.02135149
80	0x3dedb579	0.11606879
81	0xbc2ec872	-0.010667907
82	0x3cce7473	0.025202012
83	0xba747c2b	-0.0009326364
84	0xbd02b72c	-0.031912968
85	0x3deeb41d	0.11655448
86	0x3d6ce656	0.057836853
87	0xbc9ce6ba	-0.019152988
88	0x3c2bf909	0.010496386
89	0x3c71343c	0.014721926
90	0xbb523d2d	-0.003207992
91	0xbc0dfa84	-0.008665685
92	0x3d8bc0da	0.06823893
93	0x3c233bb7	0.009962968
94	0x3d81e170	0.06341827
95	0x3d1b2381	0.037875656
96	0xbba2de76	-0.004970367
97	0xbce367b5	-0.027759412
98	0xbd0f07ee	-0.03491967
99	0x3af45940	0.0018642321
100	0xbcebc7f2	-0.028781865
101	0x3cb77270	0.022393435
102	0x3d6d7795	0.05797537
103	0xbbc465f8	-0.005993601
104	0x3d1d294d	0.038369466
105	0xbc5284fe	-0.012849091
106	0xbd3723f4	-0.044712022
107	0xbcb8327d	-0.022485012
108	0xbc211fa6	-0.009834206
109	0xbbbb5001	-0.0057163243
110	0x3c88ae04	0.01668454
111	0x3c08afaf	0.0083426675
112	0x3b6a735b	0.0035774324
113	0x3da50515	0.0805761
114	0x3d54cf0b	0.051955264
115	0x3cd7fe5b	0.026366403
116	0xbc0a8046	-0.008453434
117	0xbcbf8cf5	-0.023382643
118	0x3d609fad	0.05483978
119	0xbcfa1c5d	-0.030531103

fc2.weight f4 [84, 120]
0	0xbe22bdd3	-0.15892725
1	0x3dedb8f3	0.11607542
2	0x39f39122	0.00046456704
3	0x3e18dc82	0.14927867
4	0x3cb9ae29	0.022666054
5	0xbdbd4e9c	-0.09243509
6	0xbbfc5430	-0.0077004656
7	0xbe44dfbb	-0.19225971
8	0x3c9c62a1	0.019089999
9	0xbd59b840	-0.05315423
10	0xbd0078f6	-0.031365357
11	0xbd0e5210	-0.03474623
12	0x3be51068	0.006990481
13	0x3d549f4d	0.051909734
14	0xbdc54e10	-0.0963403
15	0x3d021604	0.031759277
16	0xbcc104e8	-0.02356191
17	0x3e098522	0.13429692
18	0x3da5552e	0.08072887
19	0xbd8aa414	-0.06769577
20	0x3d05d5d5	0.03267463
21	0xbc45f53f	-0.012082397
22	0xbdd5a87a	-0.10432525
23	0xbe00caa3	-0.125773
24	0xbdbb2bca	-0.091392115
25	0x3d47d837	0.048790183
26	0x3db072af	0.08615624
27	0x3e2c7783	0.16842465
28	0xbcb2b98a	-0.021816988
29	0xbcffa2f6	-0.031205636
30	0xbe0d205d	-0.13781877
31	0x3cd2d23d	0.025735015
32	0x3e080f1a	0.13287011
33	0x3cd23d7e	0.025664087
34	0x3da0db08	0.07854277
35	0x3cfbab2f	0.030721275
36	0x3db4e47f	0.08832645
37	0x3d96107d	0.07327364
38	0xbd553c75	-0.05205961
39	0x3dba0711	0.09083379
40	0x3d432bd1	0.04764921
41	0xbc635c15	-0.013876935
42	0xbd2b2a5c	-0.041788444
43	0xbd225566	-0.039632224
44	0xbe078102	-0.13232806
45	0x3c67f2ea	0.014157036
46	0xbe145a12	-0.14487484
47	0xbdb2795f	-0.08714556
48	0x3d640094	0.055664614
49	0x3d88e1a8	0.066836655
50	0xbdc90be0	-0.09816718
51	0xbd3057a2	-0.043052323
52	0x3cc59950	0.024120957
53	0x3d7f9c7e	0.062405102
54	0x3df6ae45	0.12044958
55	0x3dc0cf56	0.09414546
56	0x3d04195d	0.03225075
57	0x3c615a58	0.01375445
58	0xbd90bd92	-0.07067408
59	0x3de6b6f2	0.11265363
60	0x3d3bce8a	0.045851268
61	0x3d7b79c5	0.061395425
62	0xbc495250	-0.012287691
63	0x3c89d057	0.016822977
64	0xbda72d13	-0.08162894
65	0x3b941086	0.0045185713
66	0x3dc272ac	0.09494528
67	0x3d4e858b	0.050420325
68	0x3cf45a67	0.029828263
69	0x3dac493a	0.08412404
70	0x3db00151	0.08594001
71	0xbd69099f	-0.05689394
72	0xbdcad5e1	-0.099040754
73	0xbd048f7e	-0.032363407
74	0xbd1688ea	-0.036751665
75	0x3d64cb0e	0.05585771
76	0xbcfa996c	-0.030590735
77	0xb8e76e43	-0.00011035476
78	0xbe2166a9	-0.15761818
79	0xbe4857fb	-0.19564812
80	0x3c238db1	0.009982512
81	0x3d799222	0.06093038
82	0xbd0b2182	-0.033967502
83	0x3dc400f7	0.095704965
84	0x3db7050e	0.08936511
85	0xbde2b663	-0.11069944
86	0x3d77bbf8	0.060481995
87	0x3dd19334	0.10233155
88	0x3d250d2d	0.04029577
89	0xbca8137c	-0.020517103
90	0x3da6f71c	0.08152601
91	0xbd48719a	-0.048936464
92	0x3cb2c345	0.021821627
93	0x3da24b35	0.07924501
94	0x3dc2351b	0.09482785
95	0xbe0aee0b	-0.13567369
96	0xbdb22fb7	-0.08700507
97	0x3e57034e	0.20997354
98	0x3d07295f	0.03299844
99	0x3db770cf	0.089570634
100	0xbd86558d	-0.06559286
101	0xbe0c8a60	-0.13724661
102	0x3d3d068c	0.04614882
103	0xbcf4ea26	-0.029896807
104	0x3c78d6de	0.015187947
105	0xbd1a82d8	-0.03772244
106	0x3d48abd7	0.048992004
107	0x3c9f20c6	0.019424807
108	0xbd55d6a6	-0.052206658
109	0x3cc7dfd7	0.024398727
110	0xbc92719f	-0.017876444
111	0xbd11ddf1	-0.03561205
112	0xbd87f6e9	-0.06638891
113	0x3d19345d	0.037403453
114	0xbde37298	-0.111058414
115	0x3ca6328d	0.020287776
116	0xbcf4f054	-0.029899754
117	0xbc598b4f	-0.013277843
118	0xbd82ddf1	-0.06389988
119	0xbdb0b06d	-0.086274005
120	0x3e072236	0.13196644
121	0xbe036c9c	-0.128344
122	0x3d361373	0.044452142
123	0x3add739e	0.0016895419
124	0x3c71db34	0.014761735
125	0xbab9d533	-0.0014177918
126	0xbd90b493	-0.07065692
127	0x3d83dcc7	0.06438594
128	0xbd2a9910	-0.041649878
129	0x3cbae93e	0.022816297
130	0xbd9c4aa7	-0.07631426
131	0x3d4ce845	0.050026197
132	0xbe08c7ea	-0.13357511
133	0xbe0b6c2a	-0.1361548
134	0xbc3a36a7	-0.011365569
135	0x3d26093f	0.04053616
136	0xbd8be0e9	-0.068300076
137	0xbd63878e	-0.055549197
138	0xbd9205bb	-0.07129999
139	0xbd989904	-0.074510604
140	0x3d3e2f8b	0.04643206
141	0xbbfc619d	-0.007702066
142	0x3d14b687	0.036306884
143	0xb9c36eda	-0.0003727589
144	0x3d746b6e	0.059672765
145	0x3d808fa7	0.062773995
146	0x3b7c18f4	0.0038467022
147	0xbdc60e92	-0.09670748
148	0x3d5fe002	0.05465699
149	0x3d06f65e	0.032949798
150	0x3de9e2cd	0.11420212
151	0xbc0a2ef7	-0.008434049
152	0x3d436094	0.047699526
153	0x3e3a8629	0.1821524
154	0xbd664485	-0.05621769
155	0x3d70c245	0.05877902
156	0xbda4db2c	-0.08049616
157	0xbd1978e4	-0.037468806
158	0xbc60ef23	-0.01372889
159	0x3c8a6040	0.016891599
160	0x3da7ef8c	0.08199987
161	0xbdfcd647	-0.12345558
162	0xbdbe1ba5	-0.092826165
163	0x3e1379fe	0.14402005
164	0x3e4a5040	0.19757175
165	0x3d4df17e	0.050279133
166	0xbc93b8e0	-0.018032491
167	0xbd1edb53	-0.038783383
168	0xbce51cf1	-0.027967902
169	0xbd213df0	-0.03936571
170	0x3d530fc3	0.051528703
171	0x3c0bc990	0.008531943
172	0xbc924e81	-0.0178597
173	0xbd22d718	-0.03975591
174	0xbe20b01e	-0.15692183
175	0xbe4d7305	-0.20063408
176	0xbb3c6c1a	-0.0028750957
177	0x3dcac85f	0.09901499
178	0xbdc1ac54	-0.09456697
179	0xbbe604c4	-0.007019611
180	0xbc9ec7a9	-0.019382315
181	0x3d551c70	0.052029073
182	0xbd600928	-0.054696232
183	0x3db0f400	0.08640289
184	0x3e2d8aef	0.1694753
185	0x3df24966	0.11830406
186	0x3d377865	0.04479255
187	0xbd3a0c52	-0.045421906
188	0xbe66cc14	-0.22538787
189	0x3d38e8d7	0.04514393
190	0xbda922c5	-0.08258585
191	0xbc98145d	-0.018564397
192	0x3ca731e4	0.020409532
193	0x3df5ea89	0.12007625
194	0x3e27f8f4	0.16403562
195	0xbcf85f56	-0.030318897
196	0xbd39a5ef	-0.045324262
197	0xbdd2cbc6	-0.10292773
198	0x3de1d3b4	0.11026707
199	0x3e282027	0.16418515
200	0x3e1ad297	0.15119396
201	0x3d437140	0.047715425
202	0x3db0edb6	0.0863909
203	0xbbc8f18d	-0.0061323107
204	0xbd4c0368	-0.049807936
205	0x3d0b6df6	0.034040414
206	0xbe453897	-0.19259869
207	0x3da26e5d	0.079312064
208	0xbd5b3eab	-0.05352656
209	0xbdf6f7ec	-0.12059006
210	0x3d69c906	0.057076477
211	0x3d9f2494	0.077706486
212	0x3e27aecc	0.16375273
213	0xbde266e8	-0.11054784
214	0xbd3ca760	-0.04605806
215	0x3c86f2c3	0.01647318
216	0x3d044f54	0.032302216
217	0xbda77970	-0.08177459
218	0x3be3f91c	0.0069571864
219	0xbdd5c800	-0.104385376
220	0xbbb9afa0	-0.005666688
221	0x3d90fa29	0.07078964
222	0x3d2aa274	0.041658834
223	0x3d866a7d	0.0656328
224	0xbc278493	-0.010224479
225	0x3d2e2204	0.04251291
226	0x3d04dbd6	0.032436214
227	0x3da63801	0.08116151
228	0xbdf0f138	-0.11764759
229	0x3c8beead	0.017081583
230	0x3d42eaa3	0.04758705
231	0x3c98f4c9	0.01867141
232	0xbddd4520	-0.108042
233	0x3dca5ebb	0.0988135
234	0xbda37716	-0.07981698
235	0xbdbde648	-0.09272438
236	0x3da67e59	0.08129568
237	0x3cc206ab	0.02368482
238	0x3cbb54de	0.022867616
239	0xbdb8d35e	-0.0902469
240	0xbe11da62	-0.14243463
241	0xbd85028a	-0.06494625
242	0xbb691628	-0.0035566185
243	0x3ce0531f	0.027383385
244	0x3c4ecd6b	0.012622218
245	0xbc31df0d	-0.010856402
246	0xbaf950b1	-0.001902124
247	0x3d9f02f2	0.07764234
248	0x3d1199b2	0.035546966
249	0xbd87f36b	-0.06638225
250	0xbd9e4236	-0.077274725
251	0x3d6579e6	0.056024455
252	0x3d3266b8	0.04355499
253	0x3d5d3af8	0.054011315
254	0xbd1790a2	-0.037003167
255	0xbc132312	-0.008980529

fc2.bias f4 [84]
0	0x3cc92e87	0.024558319
1	0x3dcebe10	0.10094845
2	0x3c9e79a3	0.01934511
3	0xbb6c534d	-0.0036060393
4	0x3dc87d13	0.09789481
5	0xbd637d53	-0.05553944
6	0xbdacdc2a	-0.084404305
7	0x3d221924	0.039574757
8	0x3d6d714d	0.05796938
9	0x3e17501c	0.14776653
10	0xbd3779e7	-0.04479399
11	0xbd5578ba	-0.052117087
12	0xbd4c43a8	-0.04986921
13	0x3ce1d1fa	0.027565945
14	0x3c1b281f	0.009470015
15	0xbd9f5abf	-0.0778098
16	0x3dc67f2e	0.09692226
17	0xbd3128b3	-0.043251704
18	0x3c8b6579	0.01701616
19	0x3dfeb972	0.12437715
20	0xbd6c5253	-0.057695698
21	0x3e925996	0.28583974
22	0xbd0cf47f	-0.034412857
23	0x3e53a3db	0.20667975
24	0x3e21e40f	0.15809654
25	0x3e545ab7	0.2073773
26	0x3dab399c	0.083605975
27	0x3d313687	0.043264892
28	0x3dab67ea	0.083694294
29	0xbd76d94d	-0.060265828
30	0x3d9a87c5	0.07545427
31	0xbd4353bd	-0.04768728
32	0xbd5412c5	-0.051775713
33	0x3e0ec137	0.13940893
34	0x3cf16791	0.02946833
35	0xbd45ad5d	-0.048261035
36	0x3e807ef4	0.25096858
37	0x3b1d04e2	0.002395921
38	0x3cbdd323	0.023171967
39	0x3d3f90e4	0.046769038
40	0xbd258304	-0.04040815
41	0x3cfd52a2	0.030923191
42	0x3d8ddf0d	0.06927309
43	0xbd4b96ce	-0.049704365
44	0x3d1c0753	0.038092922
45	0xbd44303c	-0.047897562
46	0x3cb0e6d3	0.02159444
47	0x3ddfd62d	0.10929523
48	0xbd78031c	-0.06054984
49	0x3e251980	0.16123009
50	0xbc3fcd82	-0.011706712
51	0x3c2c4e69	0.010516741
52	0xbd7e6c11	-0.06211478
53	0x3cc21bf7	0.023694975
54	0xbdbe99e3	-0.09306695
55	0xbd63d50b	-0.055623095
56	0x3bd4736a	0.006483485
57	0x3e47f169	0.19525684
58	0x3db8a1f6	0.090152666
59	0x3c44ed28	0.012019433
60	0xbcbc1faa	-0.022964317
61	0x3d1d5760	0.038413405
62	0x3dc91c86	0.098198935
63	0x3dae12e6	0.08499698
64	0x3d837702	0.06419183
65	0x3e622fb5	0.22088511
66	0x3d868bd5	0.065696396
67	0xbb7b2dcd	-0.003832686
68	0xbdba89f9	-0.091083474
69	0x3da2d0b4	0.07949963
70	0xbb3560e5	-0.0027676162
71	0x3c8597ff	0.016307829
72	0xbd86bb69	-0.065787144
73	0x3d17420a	0.036928214
74	0xbdb02d61	-0.08602405
75	0x3dd2ec01	0.102989204
76	0xbd5f680b	-0.054542582
77	0x3cce3778	0.025172934
78	0x3da4a564	0.08039358
79	0xbd936398	-0.071967304
80	0x3d9e8e72	0.07742013
81	0xbd8ce981	-0.06880475
82	0x3e0de704	0.13857657
83	0x3ade7ca3	0.00169744

fc3.weight f4 [19, 84]
0	0xbcd49ebe	-0.0259546
1	0x3e9dc0e6	0.30811232
2	0xbe509f1a	-0.20373192
3	0xbbc784ca	-0.0060888277
4	0xbe2719b4	-0.16318399
5	0xbcaeaa4c	-0.021321438
6	0xbeaad0bc	-0.33362377
7	0xbe84d0bb	-0.259405
8	0xbccaeb71	-0.02477047
9	0xbda4a8dd	-0.080400206
10	0xbe86eded	-0.26353398
11	0x3e236c76	0.15959343
12	0x3d42d585	0.04756691
13	0x3e9e31df	0.30897424
14	0x3b107c78	0.0022046845
15	0x3e8695eb	0.26286253
16	0xbe6396ff	-0.22225569
17	0x3dadef13	0.084928654
18	0x3dedebf4	0.1161727
19	0xbc923adc	-0.017850332
20	0x3d509ff9	0.05093381
21	0xbdb7198b	-0.08940419
22	0x3e26144e	0.16218683
23	0xbdf8a10e	-0.12140094
24	0xbd4cc80b	-0.049995463
25	0xbe749639	-0.2388543
26	0xbe2b4a57	-0.16727577
27	0x3e60c65e	0.21950671
28	0xbe104205	-0.14087684
29	0xbd8b46c9	-0.068006106
30	0x3cfc95d6	0.030833166
31	0x3d24caba	0.040232398
32	0x3b5dedcc	0.0033863662
33	0xbdd8c4dd	-0.10584424
34	0xbd80b8ba	-0.06285234
35	0x3ddcff0f	0.10790836
36	0xbe700596	-0.23439631
37	0xbce0fd86	-0.02746464
38	0xbd4cddbf	-0.05001616
39	0x3e2ea801	0.17056276
40	0xbd8e1176	-0.06936924
41	0xbdd20d87	-0.102564864
42	0xbe014789	-0.12624945
43	0xbdcea33e	-0.1008973
44	0x3e564345	0.20924099
45	0xbddcbfe0	-0.10778785
46	0xbeaf04da	-0.3418339
47	0x3e4fca5a	0.20292035
48	0xbd33e30e	-0.043917708
49	0xbbb8134c	-0.0056175347
50	0x3e3d3b1c	0.1847958
51	0x3ece38e6	0.40277785
52	0xbe4f6cf5	-0.20256408
53	0xbe0599a5	-0.13046892
54	0xbd7a9d06	-0.061184905
55	0x3d1b1bb1	0.037868205
56	0x3e159dd2	0.14610985
57	0x3e9c2cc6	0.3050291
58	0x3cf718da	0.030163217
59	0x3d978184	0.0739775
60	0x3dc26fd6	0.09493987
61	0xbe827996	-0.25483388
62	0xbe2cbba3	-0.16868453
63	0x3e34c788	0.1765424
64	0x3ea01175	0.3126332
65	0x3cc6c6a8	0.024264649
66	0x3d23190c	0.03981881
67	0x3c2cf24f	0.010555818
68	0x3d6e4004	0.05816652
69	0x3e0e16f6	0.13875946
70	0xbc551e07	-0.013007647
71	0xbd1fa5d7	-0.038976517
72	0x3c51e866	0.012811756
73	0x3cf6e754	0.030139603
74	0x3d2c0bcd	0.04200344
75	0xbe842936	-0.2581269
76	0xbc6eee48	-0.014583178
77	0x3e94622e	0.28981155
78	0xbbfc5634	-0.007700706
79	0x3ddd78a9	0.1081403
80	0xbdcddde7	-0.1005209
81	0xbd0da810	-0.034584105
82	0xbd9084b0	-0.07056558
83	0x3e1f3972	0.15549257
84	0xbdf38527	-0.11890631
85	0x3cf00c65	0.029302785
86	0xbe1680fe	-0.14697644
87	0x3da20d04	0.07912639
88	0xbe1ce5e8	-0.15322077
89	0x3ddeaff9	0.10873408
90	0xbd169165	-0.036759753
91	0x3de2fd55	0.110834755
92	0xbbc8d7b1	-0.006129228
93	0xbe4b7ea4	-0.19872528
94	0x3e36dbae	0.17857239
95	0x3da54f3f	0.080717556
96	0xbc3b801d	-0.011444119
97	0x3e93ee8d	0.28892937
98	0xbd6cbe92	-0.05779893
99	0xbe87235e	-0.2639417
100	0xbc7267aa	-0.014795223
101	0xbda6e8f8	-0.08149904
102	0xbd2be9b9	-0.041970942
103	0x3e186b80	0.14884758
104	0xbe2b065f	-0.16701649
105	0xbe9e58dc	-0.3092717
106	0x3e6956ca	0.22787014
107	0xbdffb5ac	-0.12485823
108	0xbda44a22	-0.08021952
109	0xbe3da3e0	-0.18519545
110	0x3de64185	0.112429656
111	0x3ebecdf3	0.37266502
112	0xbdf771ba	-0.120822385
113	0xbd0e9642	-0.034811266
114	0xbd17e1ff	-0.03708076
115	0x3db7fe90	0.08984101
116	0x3e08c18f	0.13355087
117	0xbda63bee	-0.081168994
118	0x3d8cb3d3	0.06870236
119	0x3d3c7d5b	0.046017986
120	0xbea55112	-0.32288414
121	0xba4acc59	-0.00077361387
122	0xbd7e40e0	-0.06207359
123	0xbe5e2581	-0.21693994
124	0x3dc10122	0.09424044
125	0xbe91e6ba	-0.28496343
126	0xbdf22f26	-0.11825399
127	0xbb06b024	-0.0020551765
128	0x3c62c0cf	0.013839914
129	0xbda74a86	-0.08168511
130	0x3e6ca3d3	0.23109369
131	0xbd889e80	-0.066708565
132	0xbd36df43	-0.044646513
133	0xbe3cfc6e	-0.1845567
134	0x3dc2887f	0.09498691
135	0x3e1806d5	0.14846356
136	0xbc90ec5a	-0.017690826
137	0x3c4d64c3	0.0125362305
138	0xbb8b5bc9	-0.004252885
139	0xbd232076	-0.03982588
140	0x3db91e97	0.09039038
141	0x3e85597f	0.26044843
142	0x3ebc9d5d	0.3683881
143	0x3d315ba1	0.043300275
144	0xbd411e49	-0.047148023
145	0x3e56640b	0.20936601
146	0x3e2ce8d8	0.16885698
147	0x3ddb22f0	0.10700023
148	0x3e2e9fe7	0.17053185
149	0xbcbd984d	-0.023143912
150	0xbe43d711	-0.1912501
151	0xbe334bbf	-0.17509364
152	0xbe169ed0	-0.1470902
153	0xbe3ddf1b	-0.18542139
154	0x3e5c524b	0.21515767
155	0xbc1375a6	-0.009000218
156	0x3bcfd93c	0.006343035
157	0xbdf86c0e	-0.12129985
158	0x3caed95c	0.02134388
159	0xbddd3b51	-0.10802329
160	0xbd4222d9	-0.047396515
161	0x3e82b47e	0.2552833
162	0xbca73c0c	-0.020414375
163	0x3c86a7e0	0.01643747
164	0xbe17ea45	-0.1483546
165	0xbe1c69c9	-0.15274729
166	0xbe0d41da	-0.13794652
167	0xbe21eda8	-0.15813315
168	0xbdc3e544	-0.09565213
169	0x3e2d8339	0.16944589
170	0x3db5e746	0.088820025
171	0xbdd8c0d6	-0.105836555
172	0xbca054a0	-0.019571602
173	0x3d00c3b9	0.031436656
174	0xbe167ad7	-0.14695297
175	0x3ea2e0c5	0.3181211
176	0xbe2c08f6	-0.16800293
177	0xbd80e5fb	-0.06293865
178	0x3d86e70e	0.06587039
179	0x3dd68037	0.10473674
180	0xbde3a0ac	-0.1111463
181	0x3d7d12a5	0.06178536
182	0xbdbe6c7d	-0.09298036
183	0xbc3b9309	-0.01144863
184	0xbc6c9baf	-0.014441415
185	0x3d06ebae	0.032939605
186	0x3d61b914	0.055108145
187	0xbc03c0dc	-0.008041587
188	0xbe28063f	-0.16408633
189	0xbe448cc0	-0.19194317
190	0xbcacfaf0	-0.02111575
191	0xbd665013	-0.05622871
192	0xbd67524b	-0.056474965
193	0xbe10a84c	-0.141267
194	0xbdcc3118	-0.099703014
195	0xbd9674db	-0.07346507
196	0xbe87a5e4	-0.26493752
197	0x3da39326	0.07987051
198	0x3ec5cdf3	0.3863369
199	0xbd4fc10d	-0.050721217
200	0x3c6f408c	0.0146027915
201	0xbe47749b	-0.19478075
202	0xbdd91c6a	-0.10601123
203	0x3e840bd5	0.25790277
204	0xbe6f352c	-0.23360127
205	0xbdacbc33	-0.08434334
206	0xbd8695b8	-0.06571525
207	0xbcf46a7e	-0.029835936
208	0x3d8e2930	0.0694145
209	0xbe0cc8bf	-0.13748454
210	0xbe0c02be	-0.13672921
211	0xbd1e930b	-0.03871445
212	0x3e1e9d1f	0.15489624
213	0xbd518b24	-0.051158085
214	0x3dbd9bee	0.09258257
215	0x3e1c0a7e	0.15238377
216	0x3d932d2d	0.07186351
217	0x3af84fa9	0.0018944639
218	0x3d70f105	0.058823604
219	0xba2526a5	-0.0006300009
220	0xbcebd340	-0.028787255
221	0x3e396675	0.1810549
222	0x3d40924e	0.047014527
223	0xbd026d83	-0.03184272
224	0x3e99be23	0.30027875
225	0x3e5f5363	0.21809153
226	0xbe46f5c5	-0.19429691
227	0xbdddf9c7	-0.10838657
228	0xbe042d98	-0.12908018
229	0xbe1a7ac3	-0.15085892
230	0x3ddbec29	0.10738403
231	0x3de75abd	0.11296604
232	0xbd9a1e63	-0.07525327
233	0xbe0f2600	-0.1397934
234	0xbe2b1ee6	-0.16711006
235	0x3e1a856a	0.15089956
236	0xbd864fda	-0.06558199
237	0xbe2cc429	-0.16871704
238	0x3e16bc41	0.1472025
239	0xbc70d247	-0.0146985715
240	0x3db65097	0.0890209
241	0x3e8d823c	0.27638423
242	0xbd7355f8	-0.059408158
243	0xbdd2b44b	-0.102882944
244	0xbd8daf5b	-0.06918212
245	0x3e568dd2	0.20952538
246	0x3e29cdc1	0.16582395
247	0xbe35be9b	-0.17748491
248	0xbe43b258	-0.19111001
249	0xbb7036d3	-0.0036653772
250	0x3d8ad92a	0.06779702
251	0xbe372e7f	-0.1788883
252	0xbe07422d	-0.13208838
253	0x3e6c5436	0.23078999
254	0xbbabcc66	-0.005242872
255	0xbd2024e6	-0.03909769

fc3.bias f4 [19]
0	0xbe9144b1	-0.2837272
1	0xbdd4d4f6	-0.103921816
2	0x3d404cb1	0.04694814
3	0xbbed6237	-0.007244374
4	0xbe741d0f	-0.2383921
5	0x3e184608	0.14870465
6	0xbe9ef800	-0.31048584
7	0x3cb2eda9	0.02184184
8	0xbe8ae074	-0.2712437
9	0xbda97d35	-0.082758345
10	0x3e9fa6e2	0.3118201
11	0xbd83b2b9	-0.06430573
12	0x3e83243e	0.25613588
13	0xbc17fb13	-0.009276169
14	0x3da0413d	0.07824943
15	0x3e30ea84	0.1727696
16	0xbba0609d	-0.0048943297
17	0x3e6888da	0.22708455
18	0xbda8eba5	-0.082480706
