python/CNN9.pth (torch_old, 252622 bytes, 10 tensors)

conv1.weight f4 [6, 3, 5, 5]
00000000: 6ff0 ca3e 9c0a 023f 2ecd 083f ac1c cd3e
00000010: a89f 093f 5e79 473c b036 7a3d e5fe 3a3d
00000020: bcf8 7f3e 146c 553e 902f 533c 460b 4ebe
00000030: 2e17 3fbe 28e9 48be eb02 0bbe 25bf fc3d
00000040: 2179 fe3d 0566 97bb cf73 013d 372a a2bc
00000050: a0a6 a03e 0b14 053f 5c68 943e ce1f 4c3e
00000060: 02a2 cebd 6139 6bbd db09 a73d 0090 4d3e
00000070: f361 8f3e 8c4f a63e 898f 45be 7846 78be
00000080: c216 2bbe 6764 393c adb3 2cbd 30e8 8bbe
00000090: 053d 0bbf 83b9 e2be c164 0dbf c82f 8bbe
000000a0: 1fe8 0abe a828 45bd 91cd 64be 217b b7be
000000b0: bb46 83be 9b74 313e ea77 8a3e 9eeb 503e
000000c0: e794 36be ae7b 94be a181 993a b673 a53c
000000d0: 2681 953e 28c6 8a3e a2ce 683e d6cf 0bbe
000000e0: 0b99 41be 5d3b 1bbe 6bed 873d 380a f43d
000000f0: 71ab 76be 5a84 00bf 80c0 13bf 3749 ddbe
00000100: e7eb a9be 2efd 37bc 3417 fabd b9e4 66be
00000110: 9c48 93be 874b 65be 1858 d73e bd63 8a3e
00000120: a7b7 953d 3055 42bd e174 70be 3d1e 3abd
00000130: c136 353c 0ee0 44bd a829 073b bdb1 893c
00000140: b3c9 0b3e fa2d 203e c624 fd3d 5ea6 3a3e
00000150: 0530 223e 0e6f d0bd 0bcf 353e 9f46 0f3e
00000160: 738b 593e b457 933e 898b 4cbe f120 0cbe
00000170: 9b5c 86bd 9815 6a3c e282 0c3e daec b5bd
00000180: a3fa b7bd 2df8 a3be 6be4 17be 2ea7 17be
00000190: 4ac0 abbc 0f6e 7ebd e5f9 b1bc e9c9 2cbd
000001a0: 946b 02bd cae9 553d 13bb 823e 95d8 593e
000001b0: f1c1 7b3e 7098 003e 90de e63d ec6a 1b3e
000001c0: adc4 683e 6f70 aa3e 49b2 ac3e d8c2 19be
000001d0: d9b7 11be a455 4ebe dcfb 00bd 9c98 0c3d
000001e0: 5864 febb d598 8abd 35cf 01be 2afc a8bd
000001f0: dc7c afbd 3aa0 11be 067a eabc 0a33 18be
00000200: 1cd6 5d3c cb5f 77bd 5bc9 19be 9641 1dba
00000210: 4bab 0d3e 9c3e 2cbd abbd 513c 900c 1bbe
00000220: 89a3 823c 17a1 34bc 8bca 463e 9bd6 4e3e
00000230: 6155 4dbe c3bd 80be 54e2 a0be da51 44be
00000240: 6388 5e3c 5749 f3bd 512c a2be ba6e 96be
00000250: e01a bebe 0125 44be 30c0 233e bbdc 553e
00000260: c8f7 a53d 7e8e 99bd 1b54 bfbd 6eb2 443e
00000270: 4178 503d 4d19 5abe 3f67 91be 19e5 8fbe
00000280: 2d05 a03e 5170 21bd 2d6d a4be bc65 e8be
00000290: 1351 8cbe 3087 af3e 8e9e 4c3e 50db b8be
000002a0: 7cb2 cfbe 47c1 0cbe 1319 263f 6158 a23e
000002b0: 1464 81bc 625c 87be b66b ccbd 7dc2 b8bc
000002c0: 0d53 2c3e d46d 05be ba8a 97be fd1e 25be
000002d0: 8e1c 67bd 8bb1 3c3c 3b5b a7be 6bc1 afbe
000002e0: 2d8f c3be 9e7e 15be add0 203c bfff acbe
000002f0: ee3a 9cbe 9241 b3be af00 263e 366a 973c
00000300: 7d4e 7bbe 50c2 f5be 7d8c 31be ecfa 183e
00000310: 8996 633d 5290 68be 093d debe a035 0bbe
00000320: bf88 743e b86e cc3e 47d7 b23e 15ab 713d
00000330: 1203 003e bbcd 893d ba2f 323e 03db 113e
00000340: 9ae7 443c 8524 db3d dfc2 b33d 5f70 803e
00000350: ae68 9ebb 7fc1 bebd 3d55 463e a4cf 873e
00000360: 2fb6 663e 391e 8abd 4e7a 843d fa1a a63e
00000370: ecfc f13e a12a 973e eb75 5d3d a95e 6b3c
00000380: 2894 543e 80f3 133d 83ad ce3d 538d 94bd
00000390: da4d 103e 1b75 423e 896f d2bb 1cbd 7a3d
000003a0: 42a5 083e 2f52 b73b 81db 773e 55fd debd
000003b0: 695a a1bc 9e77 edbd 5a47 8fbd 6c3e 1bbb
000003c0: 259b 20be 2fa5 a2bd 3fae 33bc 45f7 c83d
000003d0: 0d18 cd3d 3c0f 3cbe 2a27 17bd dc9b a0bd
000003e0: 362e b8bc fe99 043e d1ae 8bbe fe0a 90be
000003f0: caa0 7abe d340 65be 5b8d 0bbc 1683 e2bd
0.3963656 0.5079744 0.5343808 0.40060937 0.5375924 0.012174932 0.06108731 0.045653243
0.24997228 0.2084201 0.012889758 -0.20121488 -0.18661186 -0.19620192 -0.13575332 0.123411454
0.12425447 -0.004620316 0.031604584 -0.01979552 0.31377125 0.5198371 0.2898587 0.19934008
-0.10089494 -0.057427768 0.08156177 0.20074463 0.28004417 0.32482564 -0.19293036 -0.24245632
-0.167079 0.011315442 -0.04216354 -0.27325583 -0.54389983 -0.4428216 -0.55231863 -0.27184892
-0.1356511 -0.048134476 -0.22344042 -0.35836127 -0.256399 0.17329638 0.27044612 0.20402381
-0.17830239 -0.2900061 0.0011711606 0.020196777 0.29200095 0.27104306 0.22735074 -0.13653502
-0.18906038 -0.15159364 0.06637081 0.119160116 -0.24088837 -0.5020195 -0.57715607 -0.4321992
-0.33187792 -0.011229796 -0.12211457 -0.22548188 -0.28766334 -0.22392093 0.42059398 0.2702922
0.073104195 -0.047444522 -0.23482086 -0.045438994 0.011060418 -0.048065238 0.0020624194 0.016808385
0.13651161 0.15642539 0.123605296 0.18227527 0.1583863 -0.10177432 0.17754762 0.13991784
0.21244602 0.2877785 -0.19975103 -0.13684441 -0.06560632 0.014287375 0.13721803 -0.088830665
-0.08983352 -0.3202528 -0.14833228 -0.14809868 -0.020965714 -0.06211668 -0.021725604 -0.042184744
-0.031840876 0.05222491 0.2553335 0.21274026 0.24585702 0.1255815 0.11272919 0.15177506
0.22731276 0.33288905 0.3372977 -0.15015733 -0.14230289 -0.20149857 -0.03149019 0.034325227
-0.0077634268 -0.06767432 -0.126767 -0.082512215 -0.08568737 -0.14221278 -0.028622638 -0.1486322
0.013539817 -0.06039409 -0.15018217 -0.0005998848 0.13834874 -0.042051896 0.012801568 -0.15141511
0.01594712 -0.011024735 0.19413202 0.20199053 -0.200521 -0.25144777 -0.31422675 -0.19171849
0.013582322 -0.11879223 -0.31674436 -0.29381353 -0.3712988 -0.19154741 0.15991282 0.20884983
0.08103901 -0.07497881 -0.09342214 0.1920869 0.050895933 -0.21298714 -0.28399083 -0.28104475
0.3125395 -0.039413754 -0.32114545 -0.45390117 -0.27405605 0.34282827 0.19982359 -0.36104822
-0.4056586 -0.13745604 0.6488201 0.31708053 -0.015794791 -0.2643767 -0.09981482 -0.022553677
0.16828556 -0.13030177 -0.29598027 -0.16125102 -0.056423716 0.011516939 -0.3268679 -0.34327254
-0.38195172 -0.14599082 0.009815377 -0.3378887 -0.3051371 -0.35010964 0.16211198 0.018483263
-0.2454166 -0.4799981 -0.17338748 0.14939469 0.055563483 -0.22711304 -0.4340594 -0.13594675
0.2388029 0.39928222 0.3492987 0.059001047 0.12501171 0.06728693 0.17401019 0.14243703
0.012018109 0.10700325 0.08777403 0.25085732 -0.004834256 -0.0931425 0.19368453 0.26525605
0.22530435 -0.06744046 0.0646864 0.32442456 0.47263277 0.2952471 0.054067533 0.01436583
0.20759642 0.03612089 0.100916885 -0.07253518 0.14092198 0.18989985 -0.0064219874 0.061215505
0.13344291 0.005594514 0.24204828 -0.10888163 -0.019696431 -0.11595081 -0.06996031 -0.002368833
-0.15684183 -0.079416625 -0.0109668365 0.09812788 0.10014353 -0.18365186 -0.036902584 -0.07842228
-0.022482973 0.12949368 -0.27281812 -0.28133386 -0.24475399 -0.2238801 -0.0085175885 -0.11060159

conv1.bias f4 [6]
00000000: 2d71 a63e 5a3a 2f3d 12c8 ab3e c47f f3be
00000010: 8625 37be 9843 ad3d
0.3250822 0.042780258 0.3355108 -0.47558415 -0.17885408 0.08460158

conv2.weight f4 [16, 6, 5, 5]
00000000: 8df0 e7bd e161 b3bd 4208 173d 38c5 293e
00000010: f783 283e f7fc a2bd b7fb 87bb f747 303e
00000020: b588 c53d 1600 ef3b ba33 33bd 9ac8 1cbd
00000030: 3718 1f3e b4b3 783e 4591 273d 1673 f5bd
00000040: 1eb9 d9bd 1ee0 e2bd 8217 e9bd 54f1 9fbd
00000050: 50e5 04be b210 673d c3f3 7d3d 6e1a cfbd
00000060: 09fb 5bbe 91a8 dfbd 13d0 e53c 88cd d73d
00000070: 83c0 08bd 13ae 463d 84a4 0fbd 9e7c acbc
00000080: 1c91 433e 3ac8 eb3d 839f 293e bc8b 043e
00000090: 65b6 0d3d f385 e43d 885e a33c e867 c4bc
000000a0: 961b ef3d 79e3 203e 5a9f 203e acd9 673d
000000b0: 69ed 8cbd a557 be3d a525 91bd 43d3 98bc
000000c0: ca0f bcbc 91b4 d0bd 4027 ac3e 3ebb 2f3e
000000d0: 0c8d 193e 16f9 873b 2ed3 d1bc 782d 333e
000000e0: e651 eb3d 4eac 9c3d 6ece 26be b317 04be
000000f0: 4b84 dc3c b715 763d 0478 e7bd 0b99 15be
00000100: be8e 39be 4d29 13bd 9192 5ebe 5c50 8bbe
00000110: 14e2 8ebe 7f03 6bbe ec28 20be 5867 47be
00000120: 7863 15be 9d88 29be 69c6 37bd bfac 893e
00000130: 67ea 883e 9dae 1b3e 4867 a83d 75b0 0e3e
00000140: 53b9 823e 6f5a 9b3e 83b9 653e 2481 f53d
00000150: e43f 333b fd21 863d 0d77 b3bd ca89 953d
00000160: 0a29 f5bd d657 06bd eb43 53bd 2beb 18be
00000170: 069e c4bc 72dd 9abd fd48 a5bd e4e3 1d3d
00000180: eb94 68be 8fa7 20be 3518 1fbe 5a67 29be
00000190: 0192 113e 526e 403e 5477 ce3d ce25 d13d
000001a0: 4296 1d3e c729 853e 16da 3b3e 0761 393d
000001b0: a3ac 5dbd 6011 68bd 51ea 8f3d 6b5c babd
000001c0: 6b1e 31bd 77b2 fabd 63f1 30be c3d9 8cbd
000001d0: 6a33 17be 32b3 1dbe 16a2 febd 8e54 18be
000001e0: fdbe 3ebd c270 80bd dca7 47bd 860a 95bd
000001f0: 3649 b8bd a226 adbd 1041 f33d 9cfd 983c
00000200: 733f 04bd d59d 8c3d 3c33 193e 23c6 1d3e
00000210: b8c3 b83d 6e3e 823d 3de5 28bc 728a b33d
00000220: a8f8 ca3d 2238 483e 1a68 033c acda 24bd
00000230: 9e0c c83d fc07 5fbd 962a c3bc 5dad a5bd
00000240: 8ddc 40be 453d fc3d 3fbc 283d 729a aebd
00000250: 1161 10be cec8 09bd 8356 2bbe f613 61bd
00000260: 4c4b 873d b9e0 db3d 7e9c 9f3e d2c3 dfbc
00000270: c33c 3cbd 6e99 12be 6785 6bbc 17bc 72bd
00000280: 31b5 4e3e 7c83 d43d 427e d6bd 820d 18bd
00000290: bfbe adbd d97e 38bd defa ce3d 2a9d bf3b
000002a0: 9f0b 973b e4cc 38bd 9af8 293c ec71 3bbe
000002b0: 955d 2cbe 8fc4 13be 2121 0fbe 542f 8abd
000002c0: 3ada f5bd 1c2f b5bd 17e0 aabd cb0c 783d
000002d0: 9b89 cc3d 886b 9e3d d68e d4bd 31d8 39bd
000002e0: a40a da3d e1c8 4e3d afad 79bd d036 853d
000002f0: 9d0c cdbc 346f 1d3d 8afa 09be 98a2 04be
00000300: b4cb 90bd 0f8c dbbd bd72 e63c 7f67 0fbc
00000310: cad8 0abe d02a d8bd 5b24 08be fbb7 9f3d
00000320: 7e4a 26bd b9bc 93be 038b a7bd 32f6 fe3d
00000330: 3362 0fbe 28d6 2dbe 5fbe 3cbe 4d7c 46bc
00000340: 24cf 1bbd 1663 00be a50b 63bc 6086 263e
00000350: ca88 493d 543e 91bd c461 32be 4197 03bd
00000360: 8331 963e 1c95 313e 78e6 a63e db79 d1bd
00000370: da45 3d3d 3c7e 503e 5398 563e 911b a53e
00000380: 4055 01be e536 54be 6eb7 55be f942 88be
00000390: ef6f ddbd 66a4 6fbd 02fe d4bc 1108 a3bc
000003a0: e051 7b3c 8e2d d43c 8121 943c c9b0 01be
000003b0: 885c 003d ff1d f03d 8edb 033e 062f a23d
000003c0: b626 f4bb 479f 103d 95dd 503e f9c8 553e
000003d0: cf8e 513e 4759 113e d684 1b3e 5117 a23d
000003e0: fe18 213e 9ef6 403e e0f3 09be 1094 6fbe
000003f0: 97ca 87be d02e 11be 390f acbd 25d7 8dbd
-0.11325178 -0.08758903 0.03687311 0.16579139 0.1645659 -0.079584055 -0.00414988 0.17214952
0.096452154 0.0072937114 -0.043750502 -0.038277246 0.15536581 0.24287301 0.040910024 -0.119848415
-0.106310114 -0.11077903 -0.11381437 -0.078097016 -0.12978101 0.056412406 0.062000047 -0.10112463
-0.21482481 -0.10920823 0.02805332 0.10537249 -0.03338672 0.048505854 -0.035069004 -0.021055516
0.19098324 0.115127996 0.16564755 0.1294393 0.034597773 0.11158361 0.019942537 -0.023975328
0.116751835 0.15711774 0.15685788 0.056604072 -0.0688122 0.092940606 -0.07087258 -0.018655425
-0.022956748 -0.1019069 0.33623695 0.17161271 0.14995211 0.0041495664 -0.025613394 0.17497814
0.1149023 0.07650052 -0.16289684 -0.12899666 0.026918551 0.060079303 -0.11302188 -0.14609163
-0.18120858 -0.03592806 -0.21735598 -0.27209747 -0.2790686 -0.22950552 -0.1564061 -0.19473016
-0.14588726 -0.1655602 -0.044866953 0.26889607 0.26741335 0.15203328 0.08222824 0.139345
0.25532016 0.30342433 0.22434048 0.11987522 0.0027351314 0.065494515 -0.087629415 0.07301672
-0.11970718 -0.03279861 -0.051578443 -0.1493346 -0.024001133 -0.075617686 -0.08070562 0.03854741
-0.22713058 -0.15688919 -0.15536578 -0.16543332 0.14215852 0.18792084 0.10081354 0.10212289
0.1538935 0.26008436 0.18344912 0.045258548 -0.054119717 -0.056657195 0.07027114 -0.090996586
-0.0432419 -0.12241071 -0.17279582 -0.06877472 -0.14765707 -0.15400389 -0.12433259 -0.14876005
-0.04656886 -0.06271507 -0.048744068 -0.07277398 -0.08998339 -0.08454634 0.11877644 0.018675618
-0.032287072 0.068660416 0.1496095 0.15407614 0.090217054 0.06359564 -0.010308561 0.08766641
0.09910709 0.19552663 0.008020425 -0.040247604 0.097680315 -0.054450974 -0.023824017 -0.08089707
-0.18834133 0.12316374 0.04119515 -0.08525552 -0.14099528 -0.033638768 -0.1673222 -0.054950677
0.066061586 0.10736222 0.31174082 -0.027315054 -0.045956384 -0.14316341 -0.014375067 -0.059261408
0.20186307 0.10376641 -0.104733005 -0.037122257 -0.084836476 -0.045042846 0.10106443 0.005847593
0.0046095396 -0.045117274 0.010374213 -0.18305176 -0.16832574 -0.1443045 -0.13977481 -0.067473084
-0.12004514 -0.08846876 -0.08343523 0.060559075 0.09987184 0.07735354 -0.10378806 -0.04537219
0.10646561 0.05048454 -0.060956653 0.06504595 -0.025030429 0.03843613 -0.1347448 -0.1295265
-0.07070103 -0.107200734 0.028130883 -0.008752703 -0.13559261 -0.10555041 -0.13295119 0.07798763
-0.040598385 -0.2885492 -0.08180811 0.12449302 -0.14002304 -0.16976225 -0.18431996 -0.012114597
-0.03803934 -0.12537798 -0.013857757 0.16262197 0.049202718 -0.07091966 -0.17420107 -0.03212667
0.2933465 0.17342037 0.3259771 -0.1022832 0.046209194 0.20360655 0.20956545 0.32247594
-0.12630177 -0.20724066 -0.20870754 -0.26613596 -0.10812365 -0.058506392 -0.026000027 -0.019901307
0.015339345 0.025900628 0.018082382 -0.12665094 0.031338245 0.11724471 0.12876722 0.07919125
-0.0074509038 0.03530815 0.20397027 0.20877446 0.20464633 0.14194213 0.15187392 0.079146035
0.1573219 0.18844077 -0.13471937 -0.23396325 -0.2652175 -0.14178014 -0.08401341 -0.06925801

conv2.bias f4 [16]
00000000: beb1 973c 2e09 f9bc b0ea a03d 7e22 9abc
00000010: 303b 01bd c686 163e 6faa 08bd a158 bb3d
00000020: 0565 8ebd 67dc cb3b 3905 763d c911 0bbd
00000030: e81d 1cbd 9e5e 20bd fbdd 573c 5f37 d4bd
0.018517371 -0.030399885 0.07857263 -0.018815275 -0.031550586 0.1469985 -0.033365663 0.09147764
-0.06952862 0.0062213424 0.060063574 -0.033952508 -0.03811446 -0.039152734 0.013175483 -0.10362124

fc1.weight f4 [120, 400]
00000000: 4abb 99bd add5 c3bc 2a55 8a3c c676 bcbd
00000010: 2abf 8fbd a0c6 7fbd e411 2f3c c47b 063c
00000020: 5438 3bbd 130a 2fbd 0f38 20bd 9ae8 f53c
00000030: 0124 6c3d c08d 9e3c f701 89bd cd50 68bd
00000040: 94d6 d63a 2d6b d6bc f546 88bb 679c 273c
00000050: acaf 89bd 6ff1 68bc e31a adbc c874 ca3a
00000060: b766 52bd 7bb2 143d dcfa 9ebb 6d05 10bd
00000070: be9d 92bc 91dc 31bb a78c dc3c fb26 c93b
00000080: c02b 783c 4867 6a3c 80dd 7abc 1133 1fbd
00000090: 79cf 74bd dc12 2ebd 1f6d b3bc 3ef0 b0bc
000000a0: 96c2 8b3d a8e5 813d 808c 4d3d 69eb 583d
000000b0: 41a1 013d 0046 f0bb 875f 933d de2e fc3a
000000c0: a263 0c3e 05d8 6b3d 69de 99bd f237 10bd
000000d0: a06e 47bd 4741 7ebd 1f76 dcbb 3e7f 92bc
000000e0: e32a f7bd 35fe 5abd ad02 9dbd 13ef adbd
000000f0: fc2d 95bd abbd a1bc 6eb9 c4bc ee9f 80bd
00000100: 5fcf 83bd 63e1 333c 64b1 81bd 5c0d 97bd
00000110: 587f cbbd 8cc0 60bd 65f6 cbbd b132 c4bd
00000120: dad2 813c 2bc6 a03b 9af6 9ebd bd3f 0dbb
00000130: a584 a33c b58e df3b 163f d2bb 7e55 21bc
00000140: 0fe1 1abc 1b86 babb 7063 e53c f3da 27bd
00000150: 58ba 013d a1c8 323d b8d4 013d b6e7 28bd
00000160: 0d57 583c 2ac6 7abc 4833 2f3d 5947 1e3d
00000170: be51 cb3b 4bed 99bc d6b2 103d 0387 1cba
00000180: a67f 073d e500 813c 178b 31bd 8f49 103d
00000190: 6aec debc 7cf0 54bd bb0e ef3c 5af8 2d3d
000001a0: d602 2ebd d5c4 423a ed70 af3c 494f 17bb
000001b0: dcf2 f43c bbc0 b13b c347 643d d10d 453d
000001c0: 8b27 6cbc 9193 c1bc 9850 0e3c 0fb7 08bd
000001d0: ddc6 cc3c ac4d 613c ac3c 9e3c d790 2c3c
000001e0: 2339 0b3d 3c0f 713b ad9c 4d3d 7659 66bd
000001f0: 364f 3f3d 7107 8d3d 1f79 f2b9 5035 6c3a
00000200: f013 243d 5179 9ebc e3db 083c 6330 b7bc
00000210: 6b61 36bb b03d 76bc 91ca 7fbc 2f63 8d3c
00000220: 3d3c b93c 1649 2dbd a6d6 2dbd 40e7 423d
00000230: 81f9 983d 908c bf3c c0fa 2abd 7b9a d4bc
00000240: 34f5 633b 2da8 003e f7f4 d5bc 462a cf3b
00000250: e2f6 a43d 6d51 f43d 7f95 c03c 1a70 2fbd
00000260: c56d 083d c166 923c f488 103c ec64 5d3d
00000270: cf1e c53c 736d 023c 5e34 93bc 2c8d c0bb
00000280: 1ede 153d fc15 f5bb d1b7 92bc ad9b 483d
00000290: 634b 3cbd 8c95 5eb9 c61e 563b 6ba7 633d
000002a0: 446b bcbc fa06 84bd 1491 093c fbff ee3c
000002b0: 6bbc 74bc d42b c03b 6f4d 01bd a348 913b
000002c0: d40d 183d 73ab 9d3c 96e1 5bbc 4616 8f3c
000002d0: f1ec b83b e1ca 5dbd c599 d73d af05 383c
000002e0: 83ce 28bd a3bd 26bc de3a d7ba c2fa 4ebc
000002f0: b662 ecb9 be2e 4b3d c04a fa39 afe8 ca3c
00000300: e5f0 973c c569 11bd ef96 4c3d 3e62 13bd
00000310: ff0b e6bc 6ba0 3d3d a589 023d e945 763d
00000320: 697f 00bd f061 25bd 52c2 59bc 8835 2abc
00000330: 0c10 f83c c94f 94bd 60c9 8bbd 9aee 85bd
00000340: dc51 bc3c 25dc 723d 86ac 79bd 9798 5abc
00000350: f83c 343c 3a34 ccbc 8a1e 1f3b 43a0 0a3d
00000360: 62c5 15bd 93c3 973c d1c8 8c3d c0b7 803d
00000370: a3dd 703c cee4 65bd fdd8 19bc bdd4 6f3d
00000380: a9e8 943c b697 af3d bd02 653d 529c 22bd
00000390: 96f8 4cbc 35a4 3f3d b856 c03d b99d d73a
000003a0: dcc6 bebd d38d 253d f1e0 353c 5b70 4e3c
000003b0: ebe9 12bd 5a7b 95bd c5c9 28bc 9e7a dc3b
000003c0: 2e10 953d f795 b03d a2db 74bc 33b3 5bbc
000003d0: 55bb 693c a784 6f3d 2bd2 a43d 9c6b abbd
000003e0: 883e fcbc 1e3e d33d efab e33c d233 98bc
000003f0: a86c d93c b490 fbbc 79aa 7b3c 5160 4abd
-0.07506426 -0.0239056 0.016886313 -0.09202342 -0.070188835 -0.062445283 0.010685418 0.008208219
-0.045708016 -0.042734217 -0.03911596 0.03001814 0.057651524 0.019354701 -0.06689828 -0.056717683
0.0016390854 -0.026174152 -0.0041588494 0.01023016 -0.0672296 -0.0142177185 -0.021130985 0.001544618
-0.051367488 0.036303025 -0.004851682 -0.035161424 -0.017897483 -0.0027139524 0.026922537 0.00613868
0.01514715 0.014306851 -0.015311599 -0.03886706 -0.059768174 -0.042498454 -0.021902619 -0.021598931
0.06824224 0.063426316 0.05018282 0.05295888 0.031647924 -0.0073325634 0.07195955 0.0019240042
0.13709882 0.05757906 -0.075131245 -0.035209604 -0.048689485 -0.062073972 -0.0067279483 -0.01788294
-0.12068727 -0.053465087 -0.07666526 -0.084928654 -0.072841614 -0.019743761 -0.024014201 -0.06280504
-0.06436037 0.010979029 -0.06332663 -0.07375595 -0.09936398 -0.054871127 -0.099591054 -0.09579981
0.015847612 0.004906436 -0.07761879 -0.0021552884 0.01996071 0.006822432 -0.006416212 -0.009847043
-0.009453072 -0.005692256 0.028001517 -0.04098029 0.031671852 0.043648366 0.031697005 -0.0412366
0.013204348 -0.015306035 0.042773515 0.03864226 0.006204813 -0.018789908 0.0353268 -0.0005971046
0.03308072 0.015747497 -0.043345537 0.0352264 -0.02721234 -0.051987156 0.029181829 0.042473175
-0.042483173 0.0007429843 0.021416152 -0.002308803 0.02990096 0.0054245866 0.0557325 0.04810888
-0.014413725 -0.023629935 0.008686207 -0.033377703 0.02499717 0.013751429 0.01931604 0.010532579
0.033990037 0.0036782762 0.050198246 -0.05623766 0.0467064 0.06886185 -0.0004624808 0.000901063
0.040058076 -0.019344958 0.008353206 -0.02236194 -0.0027829062 -0.015029356 -0.01561226 0.017259208
0.022611732 -0.04230603 -0.042441033 0.04758382 0.07469464 0.023382455 -0.04174304 -0.025952568
0.0034783604 0.12564154 -0.026117785 0.006322178 0.08054902 0.11929593 0.023508785 -0.042831518
0.03330781 0.017871263 0.008821715 0.054051325 0.024062542 0.007960665 -0.017969307 -0.005876204
0.03658878 -0.0074794274 -0.017909916 0.04897659 -0.045970332 -0.0002122728 0.003267215 0.055579584
-0.023000367 -0.06446643 0.008396406 0.029174795 -0.0149375005 0.0058645997 -0.031567987 0.004433708
0.037122563 0.019246792 -0.013420483 0.017466675 0.00564348 -0.05414856 0.10527376 0.011231824
-0.04121257 -0.010177049 -0.0016420742 -0.0126330275 -0.00045086973 0.049605124 0.0004773941 0.024769155
0.018547485 -0.03550126 0.04994863 -0.035982363 -0.028081892 0.046295565 0.03186955 0.060125265
-0.031371508 -0.040376604 -0.0132909585 -0.010388739 0.03028109 -0.0724178 -0.068255186 -0.0653965
0.022988252 0.059291977 -0.060955547 -0.013342044 0.011000864 -0.024927247 0.0024279677 0.033844244
-0.036565192 0.018525874 0.0687424 0.062850475 0.01470128 -0.05612641 -0.009390113 0.058552492
0.018177347 0.085738584 0.055910815 -0.03969986 -0.012510439 0.04678746 0.0939154 0.0016450203
-0.09315273 0.040418457 0.0111009935 0.01260003 -0.035867613 -0.07298918 -0.010302012 0.0067284843
0.07278477 0.086223535 -0.014944943 -0.013409424 0.014265855 0.058476117 0.08047899 -0.08370134
-0.030791536 0.10314582 0.027791945 -0.018579397 0.02654107 -0.030708648 0.015360468 -0.04940826

fc1.bias f4 [120]
00000000: 8ecb 623d db1d e63b b5ef dd3c f2f8 8c3d
00000010: c374 503c 5778 a63d b82d 9abc c687 933d
00000020: 6332 30bd 5475 e7bc d5b6 b6bc b19a 64bc
00000030: 6ae8 cc3d 9d7e 7fbb 8743 61bd 0c82 483c
00000040: 460b 2b3d ed58 c53d 9915 7cbd cfe1 2f3d
00000050: ad33 92bc d142 333e 6d43 cdbc b587 1d3d
00000060: c09e 6f3d 0a3a 9cbc a35c 6a3d 74f8 453d
00000070: 7599 dfbc f37b a03b 4a80 833d a2fe 56bc
00000080: 2d68 dbbc f88f 073e 014f 513d ef0e 6fbd
00000090: 29bb a7bc ab4e 87bd 2d92 a2bc 0e99 673c
000000a0: fe78 4fbd 3217 a63c 81be 0c3b 102c 913c
000000b0: f6b9 b9bc f408 23bd d28c cb3d c2f9 ba3b
000000c0: 574e f9bc 7b1e 103c 3074 6f3d 177f 81bc
000000d0: 8056 38bd af71 a53d 8032 63ba 9c6e 6abb
000000e0: 8740 fdbc b164 68bd 910d 8c3c e6b4 61bd
000000f0: 1bf0 09bc 7442 5a3d e3fd 733d 41d1 043d
00000100: d59e 5b3d b82a 333c 323f 043c 1ec0 2c3c
00000110: 2388 e2bc 1329 33bd 1831 233d 47e6 27bb
00000120: 1c41 c938 8e70 16bd 042e 6f3d 860e adbc
00000130: c94f 1dbd 1ffd 8cbc cd31 d0bb cb11 943c
00000140: c4f1 ee3d 49e5 2ebc fb60 ca3c c733 ac39
00000150: a7c2 0ebd 92de f43d db6f 723d 0b6d 9bbc
00000160: 54aa 4c3c 127d 833c cb6d 3638 e189 1bbc
00000170: 148a 8a3d 575f 0f3c e594 823d c95b 253d
00000180: 166f a2bb 317c e3bc b6f6 0fbd af1b 133b
00000190: 460d ecbc e267 b23c c995 623d d03b c6bb
000001a0: d7e9 1b3d ec01 52bc f6f2 33bd 19fd b5bc
000001b0: 0e6f 23bc ce5b d2bb 1b39 883c 515d 343c
000001c0: 331e 843b db09 a73d d88a 5a3d 0ccb c93c
000001d0: dafc fabb eecc b7bc 1b6b 673d 8f8e f7bc
0.055369906 0.007022602 0.02709184 0.0688342 0.012723151 0.08128422 -0.018820629 0.07203631
-0.043016803 -0.028254189 -0.022303978 -0.013952897 0.10005267 -0.003898538 -0.05499604 0.012238037
0.041758798 0.09636102 -0.061544035 0.042939957 -0.017846907 0.17505957 -0.025056565 0.0384595
0.058501005 -0.019070644 0.05721725 0.048332646 -0.027294854 0.0048975884 0.064209536 -0.013122233
-0.026783073 0.13238513 0.051100735 -0.05836385 -0.020474987 -0.066068016 -0.019845093 0.014135612
-0.050652497 0.020274732 0.0021475854 0.017721206 -0.02267168 -0.03980346 0.09938969 0.005706043
-0.030432863 0.00879633 0.058460414 -0.015807671 -0.045004368 0.08078324 -0.0008666888 -0.0035771495
-0.030914558 -0.05673665 0.017096313 -0.05510416 -0.008419062 0.05328603 0.059568297 0.032426123
0.05361827 0.010935478 0.008071708 0.010543851 -0.027652806 -0.043740343 0.03984174 -0.0025619434
9.5965544e-05 -0.036728434 0.058393493 -0.02112509 -0.038406167 -0.017210541 -0.006353593 0.01807489
0.11667207 -0.010674783 0.024704447 0.00032844974 -0.034853604 0.119565144 0.059188705 -0.018972894
0.012491781 0.01605085 4.3494434e-05 -0.009493322 0.067646176 0.008750758 0.06376056 0.040370736
-0.00495709 -0.02776918 -0.03514739 0.002244692 -0.028814923 0.02177805 0.055318628 -0.0060496107
0.038064804 -0.012817841 -0.043932877 -0.022215413 -0.009975208 -0.0064196354 0.016628793 0.0110085765
0.0040319203 0.08156177 0.053355068 0.024632953 -0.007659537 -0.022436585 0.056498628 -0.030219344

fc2.weight f4 [84, 120]
00000000: 783f 25be 4183 f53d 7256 dfba cc4e 0e3e
00000010: 8747 943c 66fe c6bd ddbd f3bb f577 49be
00000020: 06e0 9b3c f6f1 5dbd dfd9 05bd d14b 0ebd
00000030: e98b c0bb 9cd9 453d 2a26 d5bd 993e b63c
00000040: d886 e8bc 102a 053e 8077 af3d 0bd7 8ebd
00000050: 31b8 f93c e201 2bbc 1ca6 d5bd 2304 07be
00000060: 4f38 aebd eb01 313d 5331 c13d f48b 313e
00000070: 3f29 cdbc 6e6c 02bd 0e26 15be 9ff3 da3c
00000080: fede 093e 57af dd3c 84bf b53d 8828 f33c
00000090: dab5 b53d 3165 9b3d 6b25 71bd 898f b83d
000000a0: 6882 323d dfc8 25bc abdd 11bd 0203 0ebd
000000b0: 0b27 08be 91e9 913c 90ad 1ebe ee6f b1bd
000000c0: f781 493d 9374 963d 616d c1bd c4e4 47bd
000000d0: 879f a43c 84eb 7a3d 1c88 f53d e640 c93d
000000e0: 6f11 123d 1fb1 2f3c fa76 a0bd f092 ec3d
000000f0: c4b9 383d 3943 7e3d 5c6a 61bc efc6 a73c
00000100: 9de4 a7bd cac4 dc39 c3ba ca3d 5514 4d3d
00000110: 664e 083d 9ab2 ae3d bf55 b03d 4693 62bd
00000120: 3003 cdbd c03f f1bc 62bb 0ebd b1fe 643d
00000130: 858f 01bd e366 9abb 9d9b 30be b804 5dbe
00000140: 9757 223b 1f90 793d 4b1b 14bd a004 bf3d
00000150: 4447 c53d 2944 dbbd bdc4 613d 53b9 c13d
00000160: 51f3 0f3d 4a0d 96bc 3481 aa3d a701 4bbd
00000170: 2563 963c 45a0 a23d 78eb be3d e44d 0dbe
00000180: 8933 b2bd a1bf 533e 65a4 033d 48c8 c43d
00000190: cf7a 86bd 87c0 10be 744b 353d 26ea f4bc
000001a0: 23fb 4b3c 6e93 1abd b5df 473d 7212 9e3c
000001b0: 360a 6fbd 6d90 c33c 2c12 8cbc 9a02 f5bc
000001c0: 8be4 93bd d8c9 f43c e1ca eabd 82bc 603c
000001d0: 0db3 aebc d8e4 a7bc 601e 90bd c92c b4bd
000001e0: f73a 063e 91dc 03be 0f66 303d 1a33 543b
000001f0: 2bb1 d23b 7000 37bb 560e 8dbd c83d 743d
00000200: ff93 2cbd cb38 aa3c 1855 a1bd 26fe 4c3d
00000210: d227 0dbe 0239 12be 134f 56bc f077 253d
00000220: 77b5 89bd 4095 5abd 41aa 8bbd d987 9cbd
00000230: 57df 263d b439 17bc 3aa3 093d 0ef1 24bb
00000240: 2a5e 693d 33d4 873d f26b 8c3b 0878 d1bd
00000250: 8f52 703d 1b5e 193d b443 e93d 87cc 13bc
00000260: 7645 463d 9287 313e 1a2a 6dbd 4fc2 4f3d
00000270: 7b94 a3bd c621 16bd 83a9 12bc 0eb0 ac3c
00000280: 218c aa3d 97d9 0bbe d26a d2bd c254 103e
00000290: 0298 493e 979f 613d 89da c6bc 2a67 37bd
000002a0: 2fad 40bd ba0a 21bd 3d7a 433d 3cea 473c
000002b0: 37af 73bc 2920 4bbd bb64 23be c170 4bbe
000002c0: 4128 83ba 99c6 c63d 8320 c2bd 9f45 f2bb
000002d0: f4a6 94bc 47ce 393d 4145 62bd c569 b03d
000002e0: 445c 303e e405 e23d a605 0f3d a873 3bbd
000002f0: 2051 6dbe f455 293d c8b8 abbd 8874 9cbc
00000300: 3db1 7a3c 78e9 ec3d cbe4 283e 8eb6 efbc
00000310: ba9b 4dbd e298 cfbd 2fd2 dd3d 0fc7 203e
00000320: 908d 1e3e 6c7a 433d b9f6 a03d e27d 43bc
00000330: d38b 50bd 19fa f73c 0fc9 4ebe 3fff a43d
00000340: 2275 66bd 855c 03be 7d4c 433d 91a7 a43d
00000350: f5d6 273e 2a98 efbd 063a 37bd 0cea 903b
00000360: 21e5 073d a9f3 a9bd af0f 52bb 8a6a d4bd
00000370: 4aca d5bb a1ab 873d 6152 e43c 7d6a 863d
00000380: af60 63bc 9c48 2e3d e766 f73c 6951 a63d
00000390: 0d72 dcbd 80f0 6f3c 78fc 493d cf4e a03c
000003a0: f2f9 eebd 83c8 d03d 3dc8 a8bd 770b b2bd
000003b0: 9318 a23d a261 cb3c 8bf8 d83c 815f cfbd
000003c0: aced 0ebe d2b9 98bd b7df 8c39 0154 8c3c
000003d0: c660 a33c cd8f acbb 26d8 ccba 0159 a23d
000003e0: aa1d 123d 133b 8bbd 99b7 a5bd 356d 653d
000003f0: fe2e 453d f619 683d a880 03bd ebd0 11bc
-0.16137493 0.11987925 -0.0017039313 0.13897246 0.018100513 -0.097164914 -0.007438405 -0.19674666
0.019027721 -0.05418583 -0.03267848 -0.034740273 -0.0058760536 0.04830323 -0.1040767 0.022246646
-0.028384611 0.13004327 0.08567715 -0.0697461 0.030483337 -0.010437461 -0.104320735 -0.13185172
-0.08506834 0.04321472 0.09433236 0.17338544 -0.025044082 -0.031841688 -0.14565298 0.026727496
0.13463971 0.027061148 0.08874419 0.029682413 0.08872576 0.0758766 -0.058873575 0.09011752
0.043581396 -0.010118692 -0.03561179 -0.034670837 -0.13296144 0.017811568 -0.15495896 -0.08663927
0.04919621 0.073464535 -0.094446905 -0.048802152 0.0200956 0.06125976 0.119888514 0.098268315
0.035661157 0.010723381 -0.07835193 0.115514636 0.045099035 0.062075827 -0.013758268 0.020480601
-0.081979014 0.0004210829 0.09898903 0.05006822 0.03327789 0.08530159 0.08610105 -0.055316232
-0.100103736 -0.029449344 -0.03484667 0.055906955 -0.03163101 -0.004711972 -0.17246862 -0.21583831
0.0024771446 0.06092846 -0.03615884 0.09327054 0.096327335 -0.1070636 0.055119265 0.09459176
0.035144154 -0.018316884 0.08325425 -0.049562123 0.018357823 0.07940725 0.09322256 -0.13799244
-0.08701236 0.2067857 0.0321392 0.09608513 -0.06566393 -0.14135943 0.04426141 -0.029896807
0.012450012 -0.037738256 0.048797328 0.019295905 -0.058359347 0.023872579 -0.017098509 -0.029908467
-0.072213255 0.029881403 -0.11464477 0.013716819 -0.021325612 -0.020494863 -0.070370436 -0.087976046
0.13108431 -0.12877108 0.04306608 0.0032379092 0.0064298115 -0.0027923845 -0.068875 0.05962923
-0.042133328 0.020779034 -0.078775585 0.050047062 -0.13784721 -0.14279559 -0.013080376 0.040397584
-0.06724065 -0.053364992 -0.06819583 -0.076430984 0.040740337 -0.009230066 0.03360293 -0.0025168094
0.056974567 0.06632271 0.004285329 -0.10227972 0.058672484 0.03744326 0.113898665 -0.009020931
0.048406087 0.17336872 -0.05790148 0.050722416 -0.07987305 -0.036653303 -0.008951548 0.021080043
0.08327509 -0.13657223 -0.102742806 0.14094833 0.19686893 0.055083837 -0.024274128 -0.04477612
-0.04704016 -0.03931687 0.047723997 0.012201842 -0.014873317 -0.049591217 -0.15956394 -0.19867231
-0.0010006503 0.09705848 -0.09478857 -0.0073935534 -0.018146016 0.045362737 -0.055241827 0.08613924
0.17222697 0.1103628 0.034917496 -0.045764595 -0.23175478 0.041341737 -0.083848536 -0.019098535
0.015301046 0.11567968 0.16493528 -0.029261854 -0.05019734 -0.10136582 0.10831105 0.15700935
0.1548369 0.047724172 0.078595586 -0.011931868 -0.050914597 0.030270623 -0.20193885 0.08056497
-0.05626405 -0.12828262 0.047680367 0.08039773 0.16390593 -0.11698945 -0.04473307 0.004422432
0.0331775 -0.082984276 -0.0032052805 -0.10371883 -0.006524359 0.066245325 0.027871313 0.0656328
-0.013878032 0.042549714 0.030200435 0.081209965 -0.10763941 0.014644742 0.04931304 0.019568829
-0.11668767 0.101944946 -0.082413174 -0.08693593 0.079148434 0.024826828 0.026485702 -0.10125638
-0.13957852 -0.074573174 0.0002686956 0.0171299 0.019943606 -0.005266166 -0.0015628382 0.079271324
0.03567282 -0.06798377 -0.08091659 0.05601235 0.04814052 0.056665383 -0.032105118 -0.008899908

fc2.bias f4 [84]
00000000: 734b c73c ce70 c73d 950c b43c a896 64bb
00000010: 06de c23d be17 5dbd 21d1 a8bd e785 2f3d
00000020: 519e 7a3d b3ae 163e db2c 2ebd 0eb1 5abd
00000030: 30eb 4bbd c59b cf3c 4c8f 413c 7b13 96bd
00000040: 9bc4 c73d 7c0a 2ebd 5cae 853c f677 053e
00000050: 66af 70bd f7b2 933e 8921 0bbd 0282 563e
00000060: 8059 283e 9e5d 553e 73d1 a93d 2b63 3c3d
00000070: 7a2c b13d 8002 70bd ebf9 9b3d 6b2a 43bd
00000080: f080 41bd 4813 0f3e fe6a f43c 2ba6 3ebd
00000090: 9055 813e 66ff b3ba 9e44 bd3c 3ab7 393d
000000a0: b836 23bd 9f50 073d 90d9 973d 729e 46bd
000000b0: e859 1a3d a36a 44bd 916c cb3c e233 e03d
000000c0: 5155 75bd 32f1 253e 6961 28bc d62b 373c
000000d0: 0d38 7abd 2d74 c03c 1c06 c6bd 3912 63bd
000000e0: 23ec c63b d89e 4a3e 7501 c13d 59bf 1d3c
000000f0: da17 bcbc 4bbd 233d 6620 cb3d c1d6 ad3d
00000100: 86b4 853d a5f9 653e a4b3 813d 1525 dcba
00000110: feca b8bd 4d08 a53d 6010 ccba cf0a 853c
00000120: 6baf 84bd 93dc 1f3d 3f09 b2bd 441d d83d
00000130: 75f5 63bd 3f25 c83c b2fd a23d 0644 93bd
00000140: d96f 9f3d 60b3 95bd 227e 0f3e 2715 ae3a
0.02432797 0.09738313 0.021978656 -0.0034879837 0.09515004 -0.05397772 -0.08243013 0.04285231
0.06118614 0.1471508 -0.042523246 -0.05339151 -0.04978484 0.025342831 0.01181395 -0.07327934
0.097542964 -0.042490467 0.016318493 0.13034043 -0.058761023 0.28847477 -0.03396753 0.20948032
0.16440392 0.20836493 0.082919024 0.04599301 0.08651061 -0.058596134 0.076160274 -0.047647875
-0.047242105 0.13972199 0.029836174 -0.04654519 0.25260592 -0.0013732731 0.023104008 0.045340754
-0.039847106 0.03303587 0.07414544 -0.04849095 0.037683398 -0.04795326 0.024832042 0.10947396
-0.059895817 0.1620529 -0.010277131 0.011179885 -0.06108861 0.023492897 -0.09669134 -0.0554373
0.00607063 0.19787157 0.09424106 0.00962814 -0.022960592 0.039975446 0.09918289 0.08488227
0.06528573 0.22458513 0.06333092 -0.0016795719 -0.09023093 0.08058224 -0.0015568845 0.016240506
-0.06478771 0.039028715 -0.0869317 0.10552457 -0.055654008 0.024431823 0.07958545 -0.07190709
0.07785005 -0.07309604 0.1401296 0.001328145

fc3.weight f4 [19, 84]
00000000: e1b9 d9bc 4332 923e e94b 58be 3187 c7bb
00000010: b46c 30be 70f8 98bc 5bf7 b2be 845a 88be
00000020: 9f12 fbbc 4424 b3bd 9feb 8bbe f6c9 233e
00000030: b2f9 443d 4695 8e3e a93c abba e4ed 8c3e
00000040: 3379 6fbe ddf4 ac3d b155 d73d 72c5 eebc
00000050: 0026 393d 72e3 d3bd b9b5 223e 71b8 fabd
00000060: 27bc 6ebd cf4a 76be b871 2fbe 5c20 673e
00000070: 3d9d 10be 1685 9bbd ef25 473c 18b6 243d
00000080: 15b0 44bc baa8 e7bd 5e24 84bd 4fb5 9e3d
00000090: cd87 70be 561f 21bd 51a2 50bd 22b7 223e
000000a0: b08a 91bd 535d d7bd 00df 0cbe 9b5f d5bd
000000b0: be3c 553e 72e5 dcbd a6f1 b8be cabb 503e
000000c0: cdd9 36bd 8704 75bc 7e14 293e 7d0d cc3e
000000d0: bbbd 4dbe 1f38 0ebe f492 a0bd 6f12 1b3d
000000e0: 5b17 f33d 44f0 933e 51ac 023c 51f1 943d
000000f0: 9f03 bb3d b3d8 8bbe 74a2 35be 247b 353e
00000100: f42f 953e 8fe3 ab3c 2c66 bf3c 58d6 1a3c
00000110: 1cf4 483d 1e06 093e e659 c139 aa02 20bd
00000120: ad2f 413c a90a 0d3d e852 2b3d 98ea 85be
00000130: 0d90 66bc 7eeb 8a3e 66dc 1abc b7ec b03d
00000140: 7c57 e9bd cb0c 21bd 55dc 94bd 73db 193e
00000150: 3813 f1bd baf5 d53c 91de 1ebe 780c a23d
00000160: fdf5 21be b0ff da3d a935 24bd 1fd8 f23d
00000170: 712b 5ebb f6ac 4dbe 35a4 483e 0962 a23d
00000180: 7395 3cbc 7319 9b3e 5907 76bd a648 90be
00000190: 05c9 94bb 1562 a7bd 7fb4 4bbd 357d 1f3e
000001a0: bdcf 2dbe e055 a1be 6c69 763e b2e8 02be
000001b0: 524c b7bd 413b 3dbe 19b4 fa3d 376a c83e
000001c0: 4c2b f8bd 6104 15bd a646 31bd b1fe b73d
000001d0: a0cf 0f3e b651 a9bd f43f 8b3d 5561 4d3d
000001e0: b20a a7be 71b7 833b 14a6 82bd fea9 5fbe
000001f0: 6143 c53d c1c0 92be a37d fabd 054a 63bb
00000200: 2e8b 933c 3a22 a6bd 2420 803e 5219 a0bd
00000210: 0782 2ebd 1ed3 3fbe f0cc ce3d 3c85 263e
00000220: ab85 6dbc 343c 823c a4c9 ca3b 1e78 23bd
00000230: a77d c73d 3962 863e 2643 c73e 8c52 293d
00000240: b9c0 49bd b368 6b3e 67c8 313e 82d0 cf3d
00000250: f90e 383e 9523 8cbc 4cfc 46be 0e6e 39be
00000260: fb2f 1ebe fa5a 45be 80f4 5c3e 9e92 16bc
00000270: 4237 bc3b 795f 06be 53ca ac3c 6d79 d8bd
00000280: 5b1e 45bd 1558 8a3e e6ad debc cda6 c63c
00000290: 5142 1fbe 3c85 1dbe 269b 10be a129 22be
000002a0: 671f c8bd 5f90 283e 424b c83d 3fc2 d8bd
000002b0: 18c8 edbc e95f 1f3d 9aea 1abe b1e6 a23e
000002c0: 0ea1 28be 3586 85bd aa67 8a3d fedb d43d
000002d0: a2f2 e3bd b807 683d 1221 c2bd 088d 76bc
000002e0: 255b 3abc 46c3 043d 4887 523d fe40 a5bb
000002f0: 451c 2ebe 548b 47be 5087 d6bc bb10 6ebd
00000300: ad23 54bd 8fd2 16be 29cb cebd 3545 8bbd
00000310: 8ade 88be 4d6f a13d 5dc1 c73e 3ae6 4fbd
00000320: d8a2 793c 937c 47be 1a55 d9bd 4201 853e
00000330: 8b24 71be 146d bfbd 1c2c 88bd 0d6d 11bd
00000340: bdd2 913d ec91 0cbe d4fb 0abe ef3c 1fbd
00000350: d767 253e 384e 52bd cd02 d03d 645c 133e
00000360: 0ba0 983d 1c47 903b e63c 5f3d c780 05bc
00000370: 9585 f7bc 2197 353e e851 3d3d fc75 02bd
00000380: 92e1 963e 71f7 623e ada7 47be 3c6f e0bd
00000390: 9659 08be 12b0 17be d2db c33d 4130 f33d
000003a0: b54e 9fbd 8d42 14be 1cf6 34be 8542 173e
000003b0: 91ed 88bd d3d7 34be e27b 183e 49cb 71bc
000003c0: 31cc b63d b4f2 903e 192e 73bd 7c47 d2bd
000003d0: 10da 8abd 5dea 503e da48 283e e5a6 3bbe
000003e0: 9dea 4cbe 25bb 163a 6873 973d 48f5 42be
000003f0: 83de 07be 403a 833e e8c2 56bb 6e2d 20bd
-0.026577892 0.28553972 -0.21122707 -0.006089114 -0.17228967 -0.018673152 -0.34954342 -0.26631558
-0.030648528 -0.087471515 -0.27328202 0.1599501 0.04808969 0.27848262 -0.0013064343 0.27525246
-0.23386078 0.084451415 0.10514391 -0.029146884 0.045202255 -0.10346116 0.15889634 -0.12242211
-0.058284905 -0.24051975 -0.17133224 0.22570938 -0.14122482 -0.075937435 0.01215504 0.04021272
-0.012004872 -0.11311479 -0.06452249 0.077494256 -0.23489304 -0.039336525 -0.050936047 0.15890172
-0.07106531 -0.10515847 -0.13756943 -0.10418626 0.20823953 -0.10785951 -0.36121863 0.20384136
-0.044641305 -0.014954693 0.16511723 0.3985404 -0.20091908 -0.13888596 -0.07840529 0.037859377
0.11869689 0.28894246 0.007975654 0.0727259 0.0913155 -0.27313766 -0.17737752 0.17722756
0.29138148 0.020982532 0.023364149 0.009450518 0.049060926 0.1338124 0.00036878808 -0.03906504
0.011791152 0.034433994 0.041827112 -0.26155543 -0.01407243 0.2713279 -0.009451961 0.086389
-0.113936394 -0.03931884 -0.072685875 0.1502512 -0.11771244 0.026118148 -0.1551459 0.079125345
-0.15816493 0.106933 -0.040090237 0.11857628 -0.0033900405 -0.2008551 0.1959389 0.07928855
-0.011510241 0.30292854 -0.0600656 -0.28180426 -0.004540565 -0.081730045 -0.04973268 0.15575106
-0.16973777 -0.3151083 0.24063653 -0.12784079 -0.08950104 -0.18479635 0.12241382 0.39143535
-0.12117633 -0.03638113 -0.043280266 0.089841254 0.14044046 -0.08267538 0.067993075 0.05014165
-0.32625347 0.0040196707 -0.06379333 -0.2184219 0.09631992 -0.28662685 -0.122309946 -0.003468157
0.018010702 -0.08111997 0.2502452 -0.078173295 -0.042604472 -0.18732879 0.100976825 0.16261762
-0.014497201 0.015897848 0.006188588 -0.039909475 0.09740763 0.26246813 0.38918418 0.04133849
-0.04925606 0.22989158 0.17361604 0.101471916 0.17974462 -0.01710681 -0.19432181 -0.18108389
-0.1544799 -0.19272986 0.21577644 -0.00919023 0.005743892 -0.13122357 0.02109257 -0.10570035
-0.048124652 0.27020326 -0.02718253 0.024249459 -0.15552641 -0.15382856 -0.14121684 -0.15836193
-0.097716145 0.16461323 0.09779979 -0.105839245 -0.029026076 0.038909826 -0.15128556 0.3181663
-0.16467687 -0.065197386 0.067580536 0.10393523 -0.11130263 0.056647986 -0.09478964 -0.015048273
-0.01137427 0.03241279 0.051398546 -0.005043148 -0.17002971 -0.19486743 -0.026187569 -0.058121424
-0.051791836 -0.14728759 -0.100973435 -0.068003096 -0.26732284 0.07882557 0.39014712 -0.05075667
0.015236579 -0.19481115 -0.10611935 0.25977522 -0.23549096 -0.09346977 -0.06649038 -0.03550439
0.07120273 -0.1372754 -0.13572627 -0.03887647 0.16152893 -0.051344126 0.10156784 0.14390713
0.07452401 0.004403008 0.054501437 -0.008148379 -0.030215064 0.17733432 0.04622069 -0.0318508
0.29468971 0.22164704 -0.19497557 -0.10958716 -0.13315424 -0.14813259 0.09563412 0.11874438
-0.07778684 -0.14478512 -0.17672008 0.14771469 -0.06685937 -0.17660455 0.14891008 -0.01475794
0.08925665 0.28310168 -0.059370134 -0.10267541 -0.06779873 0.20401902 0.1643404 -0.18325384
-0.20011373 0.00057499326 0.07395059 -0.1903888 -0.13268475 0.2563038 -0.0032769982 -0.039105825

fc3.bias f4 [19]
00000000: 7eb5 96be 7a00 d5bd 5dbe 393d 37bc 103b
00000010: efca 73be c393 1b3e f0e6 a0be d8d1 c23c
00000020: 4871 8cbe e019 acbd 662c a03e 090a 88bd
00000030: a886 833e 4902 6dbc d4ca a43d eb33 363e
00000040: 3695 93b9 1400 693e 87d2 abbd
-0.29435343 -0.104004815 0.04534756 0.002208484 -0.23807882 0.15193085 -0.3142619 0.023781702
-0.27430177 -0.08403373 0.31283873 -0.06642539 0.25688672 -0.014465877 0.08046499 0.17793243
-0.00028149196 0.22753936 -0.08389764
