python/finetune19.pth (torch_old, 249902 bytes, 10 tensors)

conv1.weight f4 [6, 3, 5, 5]
000000 78 01 3a be 92 d4 90 be a0 14 b7 be e4 7b 49 bd
       -0.18164623 -0.28287178 -0.35757923 -0.049190417
000010 2e 8f e2 bd 41 ff cb bd 5e c8 bf be e4 5d b2 be
       -0.110624656 -0.09960795 -0.37457556 -0.34837258
000020 56 50 a2 bd b0 7b 02 be da ff 2d be e4 6e a6 be
       -0.07925479 -0.12742496 -0.16992131 -0.32506478
000030 c2 73 e1 bd 5a 47 1f be 65 1b 8f 3c f0 dd 95 be
       -0.11008407 -0.15554562 0.017469117 -0.29270887
000040 c3 64 29 be 3b 36 19 be c6 51 dc bc 2c 4e 51 3e
       -0.16542344 -0.14962094 -0.026894461 0.20439976
000050 5b 2d 6c 3d 67 22 d6 3b ee 87 65 3d a4 2f 79 3e
       0.05766044 0.006534863 0.056037836 0.2433458
000060 28 bb 93 3e 7e 87 be bd 2d 86 a5 be 33 4a 5f bd
       0.28853726 -0.09303187 -0.3232893 -0.05451412
000070 96 cc 7f bd 8e 93 40 3d 66 ac 34 be 96 03 b7 be
       -0.062450968 0.04701572 -0.1764389 -0.35744923
000080 50 f0 bf bd e1 7f b5 3c 0b c6 11 3e c4 00 8c be
       -0.09372008 0.022155704 0.14235704 -0.27344334
000090 3d 4e 9d be 1d 01 0b be 7b 86 0e bd 35 4d 09 3e
       -0.30723754 -0.13574643 -0.03479622 0.13408358
0000a0 24 08 86 be 84 90 ea bd c9 0f 74 3d ec 46 12 3e
       -0.26178086 -0.114533454 0.059585366 0.14284867
0000b0 0b f9 36 3e 49 d1 ae 3c 3b bd 66 3d 4e 1a bc 3d
       0.1786844 0.02134003 0.056332808 0.09184705
0000c0 4e b5 5d 3e 83 e6 0b 3e cb 86 d5 3d d8 cc c4 bd
       0.21651193 0.13662152 0.104261 -0.09609383
0000d0 92 6c 0c 3e c9 6d 4c 3e 69 ba 1d 3e a9 72 05 3e
       0.13713291 0.19963755 0.15403141 0.1303202
0000e0 e3 50 b8 bd ee 8d 09 bd 02 a3 87 3e 75 28 02 3e
       -0.08999803 -0.03358262 0.26491553 0.12710746
0000f0 cb 1e 10 3d 77 ba 02 3c 02 a3 5e 3e 43 be 9d 3e
       0.035185616 0.007979027 0.2174187 0.3080922
000100 9c a8 80 3e 81 f0 00 bc 5a b4 9e 3c c4 e9 8c 3e
       0.2512864 -0.007869841 0.019373108 0.275221
000110 19 40 57 3e 77 5e 9b 3e 3d f0 3a 3e 25 03 32 3d
       0.21020545 0.30345508 0.18255706 0.04346003
000120 bd 32 8f 3e 3c c9 58 3e b5 f5 45 3e 8d 9c 21 3f
       0.27968398 0.21170515 0.19332011 0.631295
000130 05 39 24 3f 67 57 f2 3e 8e 1f bb 3e 85 10 69 3e
       0.64149505 0.47332308 0.36547512 0.22760208
000140 cc 8f be 3e b6 d1 e0 3e c1 40 95 3e 1c 97 a6 3e
       0.37219083 0.43909997 0.29150966 0.32537162
000150 ce dd b9 3d 37 c6 3b bd 56 96 73 be b8 77 41 be
       0.09075509 -0.04584333 -0.23787817 -0.18893325
000160 1a 18 1c 3d 29 ae bd bd c0 50 82 be 02 aa fa be
       0.038108923 -0.09261734 -0.25452232 -0.4895783
000170 af e1 f2 be 95 4c 9c be 71 89 d9 be db 7d e7 bd
       -0.47437808 -0.30527177 -0.42487672 -0.11303302
000180 87 d1 06 bf 3b 93 0e bf d1 c8 b1 be 3e ef a4 be
       -0.52663463 -0.55693406 -0.34723523 -0.32213777
000190 6d d8 27 3f c5 97 13 3f ff bb e1 3e ed 45 20 3e
       0.65564615 0.57653457 0.44088742 0.15651675
0001a0 43 5e 34 3e 20 59 9f 3e 16 43 a3 3e 5e 38 83 3e
       0.17614083 0.31122684 0.3188712 0.25628942
0001b0 8d 81 83 3e 2d 97 fd 3d 74 6d 88 3d a8 f9 f8 bd
       0.25684777 0.1238235 0.066615015 -0.12156993
0001c0 64 1a 0d bc 1c 26 2f 3e 3e 5e f9 bc 43 7a 3d bd
       -0.008612249 0.17104381 -0.030440446 -0.046259176
0001d0 89 93 af be dc 48 b3 be 20 27 61 bd cc 99 9b be
       -0.34292248 -0.35016525 -0.054968953 -0.30390775
0001e0 b8 5e d9 bd de 12 c6 be 7c c5 75 be 58 d1 6e be
       -0.10613769 -0.3868627 -0.24001116 -0.23322046
0001f0 a6 c2 99 be a4 a4 dd 3e be 87 7d 3e a2 9c 4c 3e
       -0.30031317 0.43289673 0.24758813 0.19981626
000200 21 63 11 bc 2c bf b0 bd 9c 86 12 3e 54 6e e4 3d
       -0.008873732 -0.08630213 0.14309162 0.11153856
000210 bc 8b 4e 3e fe 39 2f 3e 05 fd cd bd 41 80 a3 bc
       0.20170492 0.17111966 -0.10058025 -0.019958617
000220 f7 43 6e be 24 ee 35 be 00 5b 1d 3d 06 28 f0 b9
       -0.23268114 -0.17766625 0.038416862 -0.00045806187
000230 e4 08 a9 bd dc cb 5c be 15 b3 82 be d6 c4 20 be
       -0.08253649 -0.21562141 -0.25527254 -0.15700087
000240 75 57 a9 be 2b db 67 bd 33 2b b7 be e5 28 d6 be
       -0.33074537 -0.0566055 -0.35775146 -0.41828075
000250 49 88 ab be 2f 95 ab be 1b 42 39 bd 70 f1 13 3e
       -0.33502415 -0.33512256 -0.04522906 0.1444757
000260 5f 73 98 3e 78 9c d4 3e 24 f7 20 3f 41 33 dd 3d
       0.2977552 0.41525626 0.62877107 0.108007915
000270 a6 ed a5 3d 3a 7f 93 3e 21 92 c9 3e b1 11 f7 3e
       0.081019685 0.28808004 0.393693 0.48255685
000280 e6 32 1f 3e 79 cc 7b 3e 9e 44 da 3d 1c aa 69 3e
       0.1554676 0.24589719 0.10657619 0.22818798
000290 e9 90 91 3e ee bc 7d 3d 87 3c ad 3e b3 77 48 3e
       0.2843087 0.061947756 0.3383524 0.19576912
0002a0 22 c2 4b 3e 84 45 63 3e 7b 27 58 3e 32 e4 c8 3e
       0.19898275 0.22194487 0.2110881 0.392366
0002b0 5b 3e bb 3e f5 75 99 3e 1f ca 67 3e 18 20 a0 be
       0.3657101 0.29972807 0.22635697 -0.31274486
0002c0 96 18 c4 be 69 74 a2 bd 87 6e 3b bd 1d a7 26 3d
       -0.38300008 -0.0793236 -0.045759704 0.040686715
0002d0 f9 fd 96 be 92 17 02 bf 19 d3 70 be 7f b2 94 be
       -0.2949064 -0.50817215 -0.23518027 -0.29042432
0002e0 1d 31 20 be 3f 4f d1 be 4e bc 07 bf 74 c5 04 bf
       -0.15643735 -0.40880772 -0.53021705 -0.5186379
0002f0 b6 e7 f9 be dc b9 d5 be bf 0d d4 be e1 8d a2 be
       -0.48809594 -0.41743362 -0.41416737 -0.3174887
000300 e5 91 d7 be fa 67 02 bf 69 eb 0c bf 97 76 94 be
       -0.42103496 -0.50939906 -0.5504671 -0.28996727
000310 16 e9 8c be 3b 66 c7 bd ee 02 61 be 23 ef b8 be
       -0.2752158 -0.09736296 -0.21973774 -0.36119947
000320 a8 64 cc 3d 9f 10 3f 3e c3 ad a8 3e 75 0a d4 3e
       0.09980136 0.18658684 0.3294507 0.41414228
000330 4f c0 a1 3e 6c 0c 1a 3e 84 39 f9 3a 1a 0f bf bd
       0.31592032 0.15043801 0.0019014333 -0.09329052
000340 a1 7d b9 3b 96 1c 0a 3e a2 61 d2 bc 91 4c e9 bd
       0.005660728 0.13487467 -0.02568132 -0.11391557
000350 df 29 38 be 26 25 84 be f8 10 cd 3d 14 28 f2 bd
       -0.17984723 -0.25809592 0.10013002 -0.118240505
000360 af 9e 01 be a5 e5 a6 bd 9d 8f 27 be 0e f9 e5 bd
       -0.12658189 -0.0814927 -0.16363378 -0.11229144
000370 a9 57 0d bc 1d 68 e5 3d 5a 42 01 3e 19 1f 76 3d
       -0.008626857 0.11201499 0.12622967 0.06008825
000380 99 fa c8 bc e1 ba e7 bd fd f3 95 bd a2 78 2a bd
       -0.024533557 -0.11314941 -0.07321928 -0.04161895
000390 4f 5e f8 3d 17 73 f5 3d 85 90 0f 3c d8 10 38 3d
       0.12127363 0.11984842 0.0087624835 0.04493794
0003a0 94 ac bd 3c 9c 22 19 3e 6e 8a 19 3e 6d 41 64 3d
       0.02315358 0.14954609 0.14994213 0.055726457
0003b0 91 80 41 bd e5 c4 83 bc ac 4c 18 3d 91 0c c0 3c
       -0.04724175 -0.016085098 0.037182495 0.023443492
0003c0 fd 1e 34 bd 6e d1 f8 bd 3d 36 7a 3d 4d 85 1c 3e
       -0.043974865 -0.121493205 0.061086882 0.15285225
0003d0 11 28 ab 3d 25 c3 89 bd a3 09 ef bd 6c 30 8c bd
       0.083572514 -0.06726674 -0.1167176 -0.06845173
0003e0 4b c4 86 bc 90 57 37 3d 64 06 09 be a7 d7 c0 3b
       -0.016451022 0.04476124 -0.13381344 0.0058850828
0003f0 dd 97 99 3d 9a 33 9f 3c 39 bf fe 3d 0c f1 e3 3c
       0.07499669 0.019433785 0.124388166 0.027824901

conv1.bias f4 [6]
000000 26 75 ba 3a 71 60 c9 3e f2 d1 63 bd 37 44 f8 3e
       0.0014225587 0.3933139 -0.05562014 0.48489544
000010 e3 a8 82 3e 14 d0 5a 3d
       0.25519475 0.053421095

conv2.weight f4 [16, 6, 5, 5]
000000 cc 69 19 bd 1d 48 d3 bc 7f 89 02 bd af 13 4b bd
       -0.03745441 -0.025791222 -0.031869408 -0.04957932
000010 7b 93 5d 3d a5 81 b0 3c 87 0c a2 bc 0d 5d 0c 3d
       0.054095726 0.021546194 -0.019781364 0.034268428
000020 e5 b5 c0 3d e2 07 b4 3d 39 a5 14 3b d2 d0 ab bd
       0.09409694 0.08790566 0.0022681488 -0.08389439
000030 e5 96 0e be 0f b7 d5 bd 3d 7e 26 3e 16 1f 00 bb
       -0.13924749 -0.10435306 0.16259094 -0.0019549779
000040 ba d2 50 be 5c dc 46 be b7 8d 23 be eb 7b d2 bc
       -0.20392886 -0.19419998 -0.15972029 -0.025693854
000050 ae ad 4a 3d 85 db 1d be 7e c0 de bd 9f e6 85 bc
       0.04948204 -0.15415771 -0.10876559 -0.01634532
000060 ab 87 28 3e d7 61 b4 bc dc a8 f3 ba 9b a6 ab 3d
       0.16458003 -0.02201931 -0.0018589753 0.08381387
000070 91 15 23 3e 3b e2 72 3d d0 a8 88 3c f3 d4 41 be
       0.15926196 0.05929778 0.016682059 -0.1892889
000080 73 bd 01 be 13 69 39 3c da d6 0f bd c2 3e 54 be
       -0.12669925 0.011316556 -0.035117008 -0.20727065
000090 7a 82 88 be 87 de 87 be a6 01 16 be 23 f0 14 be
       -0.26662046 -0.26536962 -0.14649066 -0.1454473
0000a0 3b 99 fe bd 93 19 a3 3d 58 cf af bc 3d be 3a 3c
       -0.1243157 0.07963862 -0.021461174 0.011397895
0000b0 63 9c 65 be 8e 0d 27 be e9 ec a2 3e cc 69 ef 3e
       -0.22422938 -0.16313764 0.31821373 0.46760404
0000c0 fc ff b5 3e 63 83 60 3d b5 0c 41 3d a5 7e ca 3d
       0.35546863 0.0548128 0.04713126 0.09887437
0000d0 9e 02 60 3e 78 4e 19 3e 97 20 96 bd 53 6c a3 3d
       0.21875998 0.1497134 -0.07330435 0.079796456
0000e0 94 c6 90 3d 70 31 7b 3d 0a 16 65 bd 3e da 25 3d
       0.07069126 0.061326444 -0.05592922 0.040491335
0000f0 63 a5 28 bd 8f 85 e7 bd 83 0c 73 3c 05 bb d2 bd
       -0.04117335 -0.11304771 0.014834526 -0.102895774
000100 24 33 4a bd 43 19 87 bc b1 86 19 be 4a a3 fa bd
       -0.049365178 -0.016491538 -0.14992787 -0.12238176
000110 fc bc 0c bd ca 17 f6 bb fa 41 86 bd df 7f 39 be
       -0.034359917 -0.00751016 -0.06555553 -0.18115185
000120 6b 41 b8 bd ed 2c ed bd a4 7a 0f 3c 96 0d 34 bd
       -0.089968525 -0.115808345 0.008757267 -0.04395827
000130 1f c8 2d bd 88 7b f2 bd ce 59 e9 3c 9e 75 5d bd
       -0.04242718 -0.11839968 0.028485205 -0.054067247
000140 bf 77 a1 bb 44 b0 fa bc ae ce 88 3c ae 98 cc bd
       -0.004927605 -0.030601628 0.016700115 -0.09990059
000150 ed ed 59 3d 6f ce 0f 3d 34 3a 46 bb 55 46 c4 3d
       0.05320542 0.03510898 -0.0030247094 0.09583727
000160 a8 7a 0b bd 84 f7 29 3c a8 7b b9 3d 19 56 17 3e
       -0.03405252 0.010373954 0.09056789 0.14778937
000170 57 b7 85 3d 43 4c 97 3d d8 01 ab bd bb f9 23 3e
       0.0652911 0.07387593 -0.08349961 0.16013233
000180 9e a8 b2 3c 80 69 8e 3d 44 24 aa 3d ea 45 cf bd
       0.021808919 0.06953716 0.08307698 -0.10120757
000190 0b 96 07 be 03 cf f0 bc 0a 1b 81 bd 04 ee 1f be
       -0.1324083 -0.029395586 -0.063039854 -0.1561814
0001a0 c4 96 52 be cf 14 dc bd 3c da 3a 3e dd 53 10 3e
       -0.20565325 -0.107461564 0.18247312 0.14094491
0001b0 5f b6 1e 3e fe 3f e8 3c 98 94 7c 3c ea 03 c0 3d
       0.15499257 0.028350826 0.015416287 0.093757465
0001c0 21 70 c7 3d 5f 45 45 3e 00 f0 04 3e ca 96 13 be
       0.09738184 0.19264744 0.12982178 -0.1441299
0001d0 53 89 c9 bd a3 0b d8 bd d8 4b 1b 3d 5f 4e 20 3d
       -0.09840646 -0.105490945 0.037914127 0.03913724
0001e0 7c a7 03 ba 87 d3 f2 3b 00 57 86 be 54 10 01 bd
       -0.00050222105 0.00741047 -0.2623825 -0.031509712
0001f0 fa 57 e3 bc 22 36 b2 bd d8 9c 98 3c 0c d2 9f bc
       -0.027751911 -0.08701731 0.018629476 -0.019509338
000200 a1 b5 d1 bd 87 9e 37 be 73 33 00 3d 9d c0 21 3e
       -0.10239721 -0.17931567 0.031299066 0.15796132
000210 22 4a 4b 3e 28 7a df 3d 18 ff e0 bd 89 56 d4 3c
       0.19852498 0.10911971 -0.10986155 0.02592017
000220 a9 34 1d 3e 35 6c 27 3d 04 ce 2e 3e b8 0f dd 3c
       0.1535212 0.04087468 0.17070776 0.026985034
000230 0c 15 46 be d4 e7 95 bd c4 f6 b2 3d 87 4f 48 3c
       -0.19343966 -0.07319608 0.08738473 0.012225992
000240 95 f4 12 bd f9 33 23 be ad 11 c0 bd bc 36 e5 bd
       -0.035877783 -0.15937795 -0.093783714 -0.111920804
000250 35 ae 04 be 3e 71 b6 bd 4a 6f 4a 3d ff a4 da 3d
       -0.1295708 -0.08908318 0.04942254 0.10676002
000260 9d cd 80 bd be c0 83 bd 7a 96 88 bb a1 c1 2c bd
       -0.062892176 -0.06433247 -0.004168329 -0.042176846
000270 e0 17 dd 3c 7d 37 df bc 2e af 56 3c 31 5b ca bd
       0.026988924 -0.027248139 0.0131032895 -0.09880675
000280 93 86 7a bc f3 8e 92 bd 8a 12 19 bc 32 23 92 3d
       -0.015290874 -0.07156172 -0.009342799 0.07135619
000290 96 d5 a2 bc 7a cb eb bc 34 62 04 3d cc 06 8c 3e
       -0.019877236 -0.028783549 0.032320216 0.27348936
0002a0 ad 59 03 3e f3 9e 30 3c f2 6b a4 bd 2c 55 9d 3d
       0.12827177 0.010780084 -0.080284014 0.07682261
0002b0 a0 e1 1c 3c 2b da 63 be 64 83 62 be 6c ff 4a bd
       0.009575278 -0.22251193 -0.22120434 -0.049559996
0002c0 a1 8e 9a be ce 77 83 bd eb 1a a0 3d f9 26 22 3d
       -0.30186942 -0.06419335 0.07817634 0.03958795
0002d0 21 b0 b1 bd 69 d8 bc bd c5 9d da bc 65 f0 61 bd
       -0.08676172 -0.092209645 -0.026686558 -0.0551609
0002e0 9a a4 0b be d3 df b0 3e a6 5d 0f 3f d1 67 f0 3e
       -0.1363701 0.34545764 0.5600227 0.46954206
0002f0 0a 62 d8 3b 34 c6 d2 bc 4f ad 06 3c c9 78 cf 3d
       0.006603484 -0.025729276 0.008220031 0.1013046
000300 f9 4c 5e be 74 75 93 be 3d e8 54 be 28 14 c4 bd
       -0.2170905 -0.28800547 -0.20791717 -0.09574157
000310 17 63 58 be f2 ba 60 be ec 2e 69 bc 75 37 4d 3e
       -0.2113155 -0.21946314 -0.014232378 0.20040686
000320 07 b1 41 3e 8c 45 2f 3e 1a ae 38 3c 34 0c 2e 3d
       0.18915187 0.17116374 0.011271978 0.042492107
000330 53 41 ad 3d 8e c1 94 bd 6a 57 09 be 94 cf 97 bd
       0.08459725 -0.0726348 -0.13412252 -0.07412639
000340 f2 3e 9e bd 91 e9 4f bd 03 ed 88 3b 27 84 df 3c
       -0.077268496 -0.050759856 0.0041786446 0.027284695
000350 f9 c2 86 bc a3 ce 17 bd 35 08 58 3d ff 59 8f 3d
       -0.016450392 -0.0370623 0.0527422 0.06999587
000360 11 cb 88 bd b8 d4 82 bc 4f 22 86 bd dd 1f 25 3d
       -0.06679357 -0.015970573 -0.065495126 0.04031359
000370 c9 c2 5a 3d fe 25 1c be 2c 10 71 bd a7 37 2c 3c
       0.053408418 -0.15248868 -0.058853313 0.010511315
000380 62 ad c7 bc e2 72 ba bd 29 20 e8 bc fb e5 75 bd
       -0.024374668 -0.091039434 -0.028335648 -0.06003378
000390 7b 18 c2 bd 1e 60 ae 3c 6e 28 a1 bd 11 2d ae bc
       -0.094773255 0.021286067 -0.078690395 -0.021261724
0003a0 f1 35 15 3d d0 27 b2 bd e2 c3 20 3d 19 3f 4f 3c
       0.036428396 -0.08699 0.03924931 0.012649321
0003b0 e5 5c 5f 3d cd 50 0d bd 28 2a ac 3c e9 2c 20 3d
       0.05453195 -0.034500886 0.021016195 0.03910533
0003c0 7b c0 b4 39 e9 b7 49 3d f2 ff 74 bd a0 52 9c bc
       0.00034475685 0.049247656 -0.0598144 -0.019082367
0003d0 4c d9 b3 bd 2c 76 38 3d 01 66 3c bd 55 f0 00 3e
       -0.087816805 0.045034572 -0.045995716 0.1259168
0003e0 f8 b0 e1 3d 75 6b 73 bc 0a 0b e6 bc 7b 20 ff bd
       0.11020082 -0.014857163 -0.028081436 -0.12457367
0003f0 9d 5a 17 be ad 2b 79 bd 47 46 19 be 33 f5 8b bc
       -0.1478066 -0.060832668 -0.14968215 -0.017084694

conv2.bias f4 [16]
000000 1f 85 af 3a 71 7b 58 3e 9a c8 57 bd a9 5a 47 3e
       0.0013391114 0.21140839 -0.052681543 0.19468178
000010 5d eb 8a 3d 43 cc e1 3d 65 3b 00 3d 29 ad b5 3d
       0.06783173 0.11025288 0.031306643 0.08870918
000020 14 e2 ed 3c 3f 04 0d bd 83 1e ae 3e 17 80 b4 3e
       0.029038467 -0.034427878 0.34007654 0.35253975
000030 ac ef 4e bd 25 06 f3 3d 6c 33 42 3e f8 a1 1f bc
       -0.050521538 0.11866406 0.18964928 -0.009743206

fc1.weight f4 [120, 400]
000000 ad 8d 48 3d f5 2c aa bc 24 bd 60 3d 65 8a 95 3d
       0.048963238 -0.02077339 0.05486788 0.07301787
000010 a7 ea 47 3d 05 3b d5 3b df 1d c2 bd b6 92 8b 3d
       0.048807766 0.00650728 -0.09478354 0.06815092
000020 2b d9 b3 3d 37 19 01 3d 40 8f d8 bc 05 3e 42 bc
       0.08781656 0.031518187 -0.026435494 -0.011855607
000030 18 d0 d4 bc a9 34 98 bd d1 cd 89 bd 9f e3 96 3c
       -0.025978133 -0.07431919 -0.067287095 0.018419085
000040 4f 03 da 3d 21 03 6a 3e 7a de 56 3d f8 7b 88 3d
       0.10645162 0.22852756 0.052458264 0.0666427
000050 9a d2 84 3b 7b e3 2a bd 80 d6 13 bc 69 ae 83 bd
       0.004053426 -0.04172085 -0.009023309 -0.064297505
000060 0e 29 a7 bd 63 a3 2c bd 10 5c ca bd 88 7b fa bd
       -0.081621274 -0.042148005 -0.09880841 -0.12230593
000070 d7 fb f5 3b 97 45 d1 bc d8 32 8d 3b ec 7a ac bd
       0.0075068283 -0.025545878 0.0043090396 -0.08421883
000080 d9 b1 1c 3d 1a 5b 20 3d fd 79 60 3c dd 84 68 bd
       0.038255546 0.03914938 0.013700959 -0.056767333
000090 1f 87 2f 3c 5d 17 f3 3c 02 8b d0 3c dc 08 43 3d
       0.010713368 0.029674226 0.02545691 0.04761587
0000a0 d6 bd 5d 3c ca 09 5e 3d 4a 15 1e 3e 6f 19 05 3d
       0.01353403 0.054208554 0.15437809 0.03249496
0000b0 5c 57 a1 bd f1 10 63 3c 03 32 7c bd 6f 46 ff 3c
       -0.078779906 0.01385902 -0.061571132 0.031161515
0000c0 9a 70 00 bc 3c 1d ce bc 02 8b 01 bd 6e 91 16 3c
       -0.007839346 -0.025160424 -0.03162671 0.009189947
0000d0 05 41 1c 3d 81 25 b4 3d 1d 03 61 bd f0 78 79 bb
       0.038147945 0.08796216 -0.05493461 -0.003806647
0000e0 29 01 1c 3d 41 80 07 3e 81 ec 59 3d 7a 46 f7 3c
       0.038087044 0.13232519 0.053204063 0.030184973
0000f0 e6 42 c3 3c 46 34 ab 3d 00 a7 47 39 f8 28 d8 3c
       0.02383561 0.0835958 0.00019040331 0.026386723
000100 38 ef 56 bd 12 a3 d2 3b cb 37 27 3d f2 6f 9b 3b
       -0.05247423 0.006428131 0.040824693 0.0047435695
000110 a6 7b ab bd cb 6d 81 3d 9f f6 fb 3c 11 22 f2 bc
       -0.083731934 0.063197695 0.030757247 -0.02955726
000120 da d3 58 bc 78 86 15 3d 5a f3 56 3d ab 6d 9b 3b
       -0.013234103 0.036505193 0.052478172 0.004743298
000130 cd 81 be bc 65 2a 5f bc 26 43 f7 bb f8 ca be 3c
       -0.023255253 -0.0136209475 -0.0075458465 0.023290142
000140 99 23 94 3c 99 72 ea 3b a6 07 97 bd 9f 48 09 3d
       0.01808338 0.0071547744 -0.07374506 0.033516522
000150 39 09 26 bb 55 9a 88 ba 2e f7 ed 3b 51 e8 7e bd
       -0.0025335087 -0.0010421971 0.007262132 -0.062233273
000160 98 37 46 bc a5 cd 96 bd ff 1e 3b 3d 98 6e ae 3d
       -0.0120982155 -0.07363442 0.045683857 0.08517188
000170 b6 fb 8b bc 09 11 f8 bc 54 df ca bd 3d c0 c8 3d
       -0.017087799 -0.03028156 -0.09905878 0.098022915
000180 3d 69 a0 3c bf 01 63 3c 33 37 b0 3d 0a 5b 60 39
       0.019581432 0.013855397 0.086042784 0.0002139622
000190 91 98 47 3d 08 40 ab 3d 6b af b4 3c e4 1a 58 3c
       0.048729483 0.08361822 0.022056302 0.013190005
0001a0 b7 83 58 bc a7 ec 3d be b4 dd ff bd d6 d9 44 bd
       -0.013214997 -0.18547307 -0.124934584 -0.048059307
0001b0 5d 93 8d bd a5 27 33 bd 6a cf b4 bd 5a b3 85 bc
       -0.06912873 -0.04373898 -0.088286236 -0.016320873
0001c0 0c ca 31 3c 4d 85 01 bd bc 29 bd 3c 05 43 1f 3e
       0.010851394 -0.031621266 0.02309119 0.1555291
0001d0 37 2b 2c 3e 82 47 5f 3d ad 2d 38 bd 0b ed e1 3c
       0.1681336 0.054511555 -0.044965435 0.027578851
0001e0 7c d8 39 3a 2b 76 47 3d 16 53 c5 bb d0 8b 29 bc
       0.00070894486 0.048696678 -0.0060218675 -0.010348275
0001f0 97 b9 37 3c f5 a4 25 bd 9f 80 a8 bd b4 04 7f 3d
       0.011213682 -0.04044052 -0.082276575 0.062260345
000200 27 5a 89 3d db af ca 3c a7 01 87 bb 2c 60 71 bd
       0.06706648 0.024742058 -0.00412007 -0.058929607
000210 0e a4 08 3d 3f e7 88 3d 8e 26 df ba fe d2 3e 3c
       0.03335958 0.06684732 -0.001702504 0.011646984
000220 da 04 5b bd 52 10 8b bd 39 45 6b bd 1b 41 34 bd
       -0.053471424 -0.06790222 -0.057439063 -0.044007402
000230 c9 6e 61 3d 66 cd bc bc e4 72 05 3c c8 eb 61 bd
       0.055037294 -0.02304716 0.008145068 -0.0551565
000240 9e fd bb 3c d6 72 ab 3d f1 57 35 3c f9 8e 83 3d
       0.022948083 0.083715126 0.01106833 0.06423754
000250 57 61 3c bd 11 be a6 bd 0a 80 29 3d ed 7f 32 bd
       -0.045991268 -0.08141721 0.041381873 -0.04357903
000260 9a 14 6e bd 5b ef 49 bc 88 fb 38 3d 7d 00 3c 3d
       -0.058125116 -0.012325133 0.045161754 0.045898903
000270 c0 25 c6 bd 79 80 11 be 6e 28 43 bd e8 d5 8f bc
       -0.09675169 -0.14209165 -0.04764598 -0.017558053
000280 1e b9 9c 3c 61 93 8c bd 3b f8 09 bd ca 06 52 3c
       0.01913124 -0.06864048 -0.033683997 0.012819001
000290 fb fd 80 3d de 3f 89 bd dd c3 28 3c e3 b3 a9 3b
       0.06298443 -0.06701635 0.010300604 0.005178915
0002a0 1c ae 21 bb 5a 3f c1 bc a2 ff 0e 3d 60 21 30 bc
       -0.0024670428 -0.023589779 0.03491176 -0.010750145
0002b0 ab 3a db bc b7 5b dc 3c 17 58 48 3d 1c 76 ca bd
       -0.026761374 0.026899202 0.048912134 -0.09885809
0002c0 9e 48 7b bd ca 3f 8b 3b 1f 60 65 3c 4f 01 42 bc
       -0.06134855 0.0042495476 0.013999968 -0.011841132
0002d0 7b 12 11 3d 8b 3c 37 3d 90 d9 d8 3c 33 9f b0 3b
       0.035418015 0.044735473 0.02647093 0.005390072
0002e0 5b dd e0 bc d9 2b da 3d d2 4d 95 3d 45 9f 95 bc
       -0.0274493 0.106528945 0.07290234 -0.018264422
0002f0 55 bd 64 bc e4 d2 3c bb 4b ce bb 3a 6a 50 a5 3c
       -0.013961156 -0.0028812224 0.0014328448 0.020179946
000300 c7 30 88 bc 09 b7 00 3d 98 4e 35 bd f6 f8 46 bb
       -0.016624821 0.031424556 -0.044264406 -0.0030360795
000310 8d 3d f6 3c f7 11 15 3b b1 bb a0 3d 75 cd ee bb
       0.030058647 0.0022746304 0.07848299 -0.007287676
000320 07 b3 19 be 36 b3 6d bd 53 83 ad bd a3 d7 6f bb
       -0.150097 -0.058032237 -0.08472314 -0.0036597035
000330 61 9d 33 3d f3 4c 8b 3d ba 8c 03 3c 86 e3 6e bd
       0.04385126 0.06801786 0.008029157 -0.058322452
000340 c4 58 a9 bc 05 79 1a 3c a3 32 0f 3d e3 96 a4 3d
       -0.02067221 0.009428267 0.0349604 0.08036592
000350 16 3e f5 bb d6 8a a4 bd ab de fb 3b 0d 62 56 bc
       -0.007484208 -0.08034293 0.007686456 -0.013084901
000360 57 89 20 3e 84 00 de 3d 65 e3 19 3c 00 db 03 3b
       0.15677391 0.10839942 0.009392594 0.0020119548
000370 2b 38 cc bc e2 dd 1c 3d e1 f7 71 3d bd c2 00 3e
       -0.024929127 0.03829754 0.059074286 0.12574287
000380 37 39 8e 3d a2 f1 88 3d 94 9e f1 bb b7 87 52 bb
       0.069445066 0.06686713 -0.0073736403 -0.003212435
000390 d5 37 a0 bc dd ae 15 3b 8c 70 7c bd e8 00 85 bb
       -0.019557873 0.0022839822 -0.06163077 -0.004058946
0003a0 2d f3 75 bd 11 58 7d bd 84 07 28 bd 75 0b dc bd
       -0.060046364 -0.061851565 -0.041022792 -0.10744373
0003b0 b5 8c 9e bd 32 9f ac bd 0a 9e 18 be 04 de 6d 3c
       -0.077416815 -0.084288016 -0.14904037 0.014518265
0003c0 07 ae 08 bd d5 82 17 bc 79 cf 22 bc ee 86 d0 3b
       -0.03336909 -0.009247501 -0.009937161 0.006363741
0003d0 10 fb 91 bc f6 49 19 bd 2c eb 52 3d 94 a2 95 3c
       -0.017819911 -0.03742405 0.05149381 0.018266
0003e0 ca 92 d3 3c 71 57 81 bd 4b 8a 12 bd f6 8d 30 bc
       0.02582683 -0.06315506 -0.035776418 -0.010776034
0003f0 52 13 87 bd 1b 1b 60 bd ad 6c 11 bd 91 7a 37 bd
       -0.06595482 -0.05471335 -0.035504032 -0.044794623

fc1.bias f4 [120]
000000 d5 be 60 bd ab b4 50 bd dc 94 c8 3d 96 fa 67 3d
       -0.05486949 -0.05095355 0.09794018 0.05663546
000010 a0 9a 03 bd 3e 0c 51 3d 25 e9 0e bd 10 63 28 bc
       -0.032129884 0.051037066 -0.034890313 -0.010277525
000020 8c 08 59 3d d0 f1 da 3c e0 7a 80 bb 39 12 1f bc
       0.052986667 0.026726633 -0.003920898 -0.009708934
000030 f4 33 a6 3d 05 05 a0 3c 51 66 ad bd 39 92 2e 3d
       0.08115378 0.019533643 -0.08466781 0.042619918
000040 5f ba 59 3c e6 6a fc bb 0f 44 91 3d 0b b1 94 3c
       0.013289063 -0.007703173 0.07093059 0.018150827
000050 30 71 ff 3b 72 2e 82 3d 73 dc 3f 3c 30 35 5f bc
       0.0077954754 0.06356515 0.011710274 -0.013623521
000060 5f 85 82 3c 5e e2 82 bc 08 50 f8 3c ff 5a ea 3b
       0.015932737 -0.01597708 0.0303116 0.007151961
000070 8c 05 ef 3d 76 93 65 3b 82 61 1c bd 48 cd d6 bc
       0.1167098 0.003503052 -0.03817893 -0.026220933
000080 01 7e 0c bd f2 e5 dc 3d c7 13 e9 bc f4 42 ac bc
       -0.034299854 0.10786046 -0.028451813 -0.02102802
000090 6c 80 17 bd 44 15 4b bd ed 72 13 bd 78 8f 91 3d
       -0.036987707 -0.049580827 -0.035998274 0.071074426
0000a0 12 d8 29 bd df 26 84 3b 80 db 1d 3d 5b c1 7d 3d
       -0.041465826 0.004032954 0.03853941 0.061951976
0000b0 16 50 73 3c 4c 92 d9 3c 5d 37 8b 3c 18 9b 83 3d
       0.014850637 0.026559018 0.016994173 0.06426066
0000c0 a9 4f bb 3d e4 42 54 3d ff f4 97 3d 53 cb 9a 3c
       0.09146053 0.051821604 0.07419776 0.01889578
0000d0 9e 35 4a bd 28 47 c8 bc b8 43 a8 3d 8b 98 4e 3c
       -0.04936754 -0.024447992 0.08216041 0.012609611
0000e0 e6 5a 80 3c 03 56 14 3c ac e7 f4 bb 36 be 7d 3d
       0.015668344 0.00905371 -0.0074739065 0.061948977
0000f0 bf 73 4d bd b0 c1 36 bd 91 f0 42 bc 9e de 8f bc
       -0.050159212 -0.04461831 -0.011898176 -0.017562207
000100 9c 5c 47 3d 81 50 74 3d 6f dc d5 3c 63 bb cd 3b
       0.048672304 0.059647087 0.026106087 0.0062784418
000110 32 f7 aa bc e3 2e 03 bc b1 8e 02 bd f8 ae 23 3d
       -0.020869825 -0.008006784 -0.031874362 0.039961785
000120 4a 23 65 bc 5f 9a 94 3d 4c 95 e7 3c 3f a2 9e 3d
       -0.013985464 0.072560064 0.028269432 0.0774579
000130 f3 d5 27 3c 60 9e ac b3 c0 98 23 bd 1a e7 81 3d
       0.010243881 -8.0381824e-08 -0.039940596 0.06342907
000140 4a d1 33 3d 35 f8 e2 bc 0d b2 f8 bc c3 29 79 3c
       0.043900765 -0.027706245 -0.030358339 0.015207711
000150 86 90 6b 3d 9b e5 79 bc 00 d2 a5 bc f9 80 01 3c
       0.057510875 -0.015252496 -0.020241737 0.007904285
000160 1e de cb 3c e9 f8 41 bc cb f9 c3 3d cd eb a5 3c
       0.024886187 -0.01183913 0.095691286 0.02025404
000170 29 f8 2b 3c 65 68 8f bc 77 6c 98 3d 00 fc c6 bc
       0.010496178 -0.017505834 0.07442563 -0.024290085
000180 75 ec fc bc 05 d9 a4 3b 37 61 83 3b 39 67 3d bc
       -0.03087447 0.0050307536 0.0040093916 -0.011560255
000190 7c b8 8c bc 82 54 08 bc 57 ad 1a 3d a3 21 c1 3c
       -0.017177813 -0.0083209295 0.037762966 0.02357561
0001a0 fc e7 21 3d fa b8 45 3d cd 0c 1c bc f9 d6 0a 3d
       0.03952788 0.04827211 -0.009524536 0.03389642
0001b0 5d 02 f4 bc be 1d 47 bd 36 93 61 bd f4 96 12 bd
       -0.029786283 -0.04861235 -0.055072032 -0.03578849
0001c0 9f 8c 21 3d 38 7f a7 3d 3f 17 e8 3c 7e 25 1a 3c
       0.039440747 0.08178562 0.028331397 0.009408353
0001d0 6d ae f8 bc ee 28 24 bd 19 9c a9 3d 5f f3 03 3d
       -0.03035661 -0.040078096 0.082817264 0.03221452

fc2.weight f4 [84, 120]
000000 19 8f 36 3d 05 e3 0e 3d 2a 76 d5 bc 31 40 cf bd
       0.044570062 0.03488447 -0.026057322 -0.101196654
000010 74 54 65 3d 92 4f ca bd d2 b0 98 bc 43 d9 9c bc
       0.055988744 -0.09878458 -0.018639002 -0.019146567
000020 39 1f cd bc df 89 c2 bd 2e 60 b4 bc 40 71 ab bd
       -0.025039302 -0.09498953 -0.022018518 -0.0837121
000030 97 44 d2 3c c3 2b b2 3d f2 79 0a bd b2 d9 49 bd
       0.025667472 0.08699753 -0.033807702 -0.049279876
000040 95 51 33 3d 22 ad 8f bd ae 4e b1 bd fe 82 8f 3c
       0.043778975 -0.07015444 -0.08657585 0.017518517
000050 08 84 9a bd 5b aa 3d 3d df 47 72 bb 2c ef 93 bd
       -0.07544714 0.04630504 -0.0036969108 -0.07223353
000060 bc 46 2a bd b5 01 13 3d c9 c6 00 bd 74 2a 8d bb
       -0.041571364 0.0358903 -0.031439576 -0.0043080393
000070 27 8d 80 bd 87 c6 26 3c df 83 39 3d 41 75 98 3d
       -0.06276923 0.010179169 0.045291778 0.074442394
000080 ce 39 c7 3c c7 06 04 3e 7c 1a a9 bd 36 82 98 bc
       0.024319556 0.1289321 -0.082570046 -0.018616777
000090 32 b9 2c 3b 67 31 93 3d aa 62 7c bc 95 ff d9 3d
       0.0026355502 0.07187157 -0.015404383 0.106444515
0000a0 76 7f b2 3d e4 06 24 bd 5a 88 d3 bd 09 e0 49 bc
       0.087157175 -0.040045634 -0.10328741 -0.012321481
0000b0 18 98 5d 3d 18 1f 49 bd b8 7a 12 bd 69 05 70 3d
       0.054100126 -0.04910192 -0.035761565 0.05859891
0000c0 df 04 ef 3c 00 b9 1a bd 0d a3 d5 bc c8 f0 1d 3d
       0.029177127 -0.037774086 -0.026078725 0.038559705
0000d0 28 db 49 bd e8 da 82 3d c6 2a fc bd d0 97 a7 3d
       -0.04928127 0.06389409 -0.12312846 0.08183253
0000e0 5e c7 c7 bc 19 0c 88 bd 38 6a 7e 3d dc 9f d0 bc
       -0.024387058 -0.066429324 0.062113017 -0.025466852
0000f0 40 45 84 3d 68 d0 9c bd 66 0d 2b bd 8f 15 86 3d
       0.06458521 -0.07656938 -0.041760825 0.06547081
000100 c3 95 94 3c 44 f6 3b bd 5b c1 c8 ba 1a 97 6f 3d
       0.018137818 -0.045889154 -0.0015316413 0.05849371
000110 68 c1 d2 3d 29 92 dd 3d 3e 10 1b 3d 5d 8a 9f 3d
       0.102907956 0.108188935 0.037857287 0.077900626
000120 57 1e b7 3d b3 db 63 3d d4 16 bb bc da 5e 92 bd
       0.08941334 0.055629443 -0.022838034 -0.07146998
000130 60 0d 75 3d d1 8a 1d bd 25 6d 99 3d 1b fe 54 3d
       0.05982721 -0.038462464 0.07491521 0.052000146
000140 c1 d6 9e bd e6 f2 e5 3d 2a e9 8b 3d 82 85 e7 39
       -0.07755805 0.1122797 0.06831582 0.00044159224
000150 ec b2 20 bd 74 e8 5f 3a c2 b5 48 bd 18 45 7c 3d
       -0.039233133 0.0008541413 -0.049001463 0.06158933
000160 90 b0 c0 bd 69 05 b9 3c ca f4 c6 3b 62 4f a5 3d
       -0.094086766 0.022585588 0.0060716616 0.08071782
000170 1c 67 ae bd b9 06 c2 3d 08 52 bc 3d 25 4f e8 3d
       -0.0851576 0.094739385 0.09195334 0.113432206
000180 68 e8 31 bd 16 bc d5 3c e8 58 8f bd e0 ee 94 3c
       -0.04343453 0.026090663 -0.069993794 0.01818031
000190 3a 6a 9f bd df e3 2c bd 47 bb ff 3d cc d3 9d bd
       -0.07783933 -0.042209502 0.12486892 -0.07706413
0001a0 45 e2 18 3b 8e e9 8d 3d 3c cd 88 3c 82 73 5c bd
       0.0023328227 0.06929313 0.016699426 -0.053821094
0001b0 ed 40 6a 3d 87 0d f4 3c 6c 9f 82 3d a9 90 95 3d
       0.057190824 0.029791607 0.063780636 0.07302982
0001c0 01 85 70 bc 04 33 ea 3d f5 ed ae bd 02 3f 73 3d
       -0.014680148 0.11435512 -0.085414805 0.05938626
0001d0 e5 42 81 3d 17 25 5f bd 81 54 88 bd 78 e6 f1 3c
       0.06311587 -0.05447873 -0.06656743 0.029528841
0001e0 71 3d 80 bd e9 9c 86 3d a5 1f 8d bd 19 25 57 3d
       -0.06261719 0.06572897 -0.06890801 0.052525613
0001f0 d4 27 29 3c 9d b1 8d 3d a0 ca 07 3d 04 80 4b bb
       0.010324437 0.06918643 0.033152223 -0.0031051645
000200 2c 80 25 bd 7f 19 83 3d 9c bc 04 3d 01 af 0f bd
       -0.040405437 0.06401347 0.032406434 -0.035079006
000210 80 4b 29 bd 3d f4 db 3c e4 d0 a1 bd 42 4d 8a bd
       -0.041331768 0.02684986 -0.07901171 -0.06753017
000220 f3 03 8e 3d e6 a7 92 bd 22 0b 22 3d 8e 04 a8 bc
       0.06934347 -0.0716093 0.0395614 -0.020509984
000230 39 2f 8f bd d9 d9 1d 3d bf 76 92 3c 8a 28 84 3d
       -0.06991429 0.038537834 0.017878888 0.06453045
000240 a1 f6 07 3d e5 ea 4a 3d 0c 9c b8 bc a3 79 8a bd
       0.033194188 0.04954042 -0.022535346 -0.067614816
000250 12 55 6e bd 5a f9 b7 bd f2 b8 46 bd 7d 99 9d bc
       -0.058186598 -0.08983107 -0.04851622 -0.019238228
000260 2a 87 78 3d 23 76 7c 3d 33 95 84 3c 5b 2e 78 bd
       0.060675777 0.0616361 0.016184425 -0.060591083
000270 8e ee 9e bd 3b ea 03 3c 78 8e 15 bd 5c 3f 48 bd
       -0.077603444 0.00805145 -0.036512822 -0.04888855
000280 ac 85 6c 3c 91 3a 9b 3d 3a 69 7e 3d 07 cc 9c 3b
       0.014436167 0.0757953 0.06211207 0.004785064
000290 44 16 23 3d af 12 7b bd 8d 3c ab bd 4a d4 69 3c
       0.039816156 -0.061297115 -0.083611585 0.014271805
0002a0 ce 62 7e bc c8 e5 3a bd 3d 03 93 bd 8a b7 a7 bb
       -0.015526487 -0.045629293 -0.07178352 -0.005118315
0002b0 84 3a 90 3d f1 4f fd 3c 72 62 93 bc c0 5a a1 3d
       0.07042411 0.030921908 -0.017991278 0.07878637
0002c0 df b9 28 3d 2d a1 09 bd 71 c5 8c bd df 5e bd bb
       0.041192885 -0.033600975 -0.068735965 -0.005779132
0002d0 4e 63 8c bc 44 04 b8 bd de 33 b1 bd c2 33 d5 39
       -0.017137196 -0.089851886 -0.08652471 0.00040665088
0002e0 a0 37 ba 3d 55 f2 82 bc 9d 3e 83 bd 31 47 95 bd
       0.09092641 -0.015984694 -0.06408427 -0.07288969
0002f0 cb 64 ab bc a6 d1 4e 3d 46 91 6a 3d 8a 7e 2e 3c
       -0.020922085 0.050492905 0.05726745 0.010650286
000300 86 96 2d 3d ba b1 7e bd 6a 68 a6 bc 05 79 bc bd
       0.04237988 -0.062181212 -0.02031346 -0.0920277
000310 31 86 0f 3c b0 24 d2 3c 94 39 15 3c b4 48 4a bb
       0.008760021 0.02565226 0.009107966 -0.0030866088
000320 77 1a 36 3d 6c f2 1e 3d 4e 83 c1 bd 4c 81 74 bb
       0.044458833 0.03880541 -0.094488725 -0.0037308512
000330 06 28 71 3d 84 a5 f4 3c ad 6d 64 3d 12 7c 97 bd
       0.05887606 0.02986408 0.055768657 -0.073967114
000340 cb 95 8b bc 5d fd 6b bd d4 6b 22 bd 89 4b a0 bd
       -0.0170392 -0.057614673 -0.039653614 -0.07826907
000350 6f af b0 bd 67 de 39 3c 39 c2 87 3d d9 22 83 bd
       -0.08627211 0.011344529 0.06628842 -0.06403131
000360 a7 32 ed 3c db c6 64 bd af d8 97 3d eb 0b 99 3d
       0.028954817 -0.055853706 0.07414376 0.07472976
000370 83 24 ba 3d ac 78 87 3d 8b 3d 94 bd 82 69 a8 3d
       0.09088995 0.06614813 -0.07238301 0.08223249
000380 7a fa 80 3d 03 f4 a0 3d d3 96 3c bd ed 60 08 3d
       0.062977746 0.078590415 -0.046042275 0.03329556
000390 00 77 83 bd a7 38 b1 3d 92 f2 84 bd 67 04 f6 bb
       -0.06419182 0.08653384 -0.06491579 -0.007507849
0003a0 c6 5e 96 ba 11 64 37 bc 3c 26 b9 bd 88 23 81 bd
       -0.0011472336 -0.011193291 -0.09040496 -0.06305605
0003b0 d6 7d 79 bc a7 a2 77 bc f9 42 df 3c 41 47 51 3c
       -0.0152277555 -0.015114463 0.027253615 0.012773336
0003c0 74 2b e1 bc 31 4b 62 3d 18 2f fc 3d 19 cd 86 3d
       -0.02748654 0.05524749 0.1231367 0.06582088
0003d0 d1 27 8b 3d 01 ee 1a be 88 6c c6 bc e7 41 09 3e
       0.06794704 -0.15129854 -0.024221674 0.13404046
0003e0 b8 bc bb bc 14 ac 72 3d 77 ed c0 bc 64 0d 5b bd
       -0.022917137 0.059246138 -0.023550732 -0.053479567
0003f0 95 9f 4e 3e ec 77 03 bd ae b4 01 be bf 55 93 3b
       0.20178063 -0.03209679 -0.1266658 0.0044963057

fc2.bias f4 [84]
000000 b5 91 f2 bc 43 6b 09 bc 40 eb 0a 3e cc 67 f8 3d
       -0.029610494 -0.00838739 0.13566303 0.12129173
000010 1f 4d eb bc 6d 47 07 39 2c 9a a9 3d dd 39 8b bd
       -0.028723298 0.00012901211 0.08281359 -0.06798146
000020 3a 83 43 3d ac ef ff 3c 3a 53 92 bc c9 d6 8d ba
       0.04773257 0.031242214 -0.017861951 -0.0010821457
000030 c2 13 9e bd 56 d8 7a bd b7 31 c0 bd 20 15 af 3d
       -0.07718612 -0.06124147 -0.09384482 0.08548951
000040 f9 09 5f bc a8 c1 87 3e 92 5d 1e 3e 9b 68 56 3e
       -0.0136132175 0.26514935 0.15465382 0.20938341
000050 de 87 d5 ba 89 63 b8 bc 9a 17 34 bd a6 02 99 bd
       -0.0016291102 -0.0225084 -0.04396782 -0.07471208
000060 6c 65 98 3c 88 66 ab 3c 1b af 59 bd a6 f9 96 3c
       0.01860305 0.020922914 -0.05314551 0.018429589
000070 c8 54 02 3d ae a8 34 3d ea d5 4f bc ac 4e 5e bd
       0.031819135 0.044106178 -0.012685278 -0.054274246
000080 28 bd d9 bd e7 7e db bc 1f 75 2e 3e 9d 88 88 3d
       -0.10631782 -0.02679391 0.17036866 0.06666682
000090 17 2a 18 be ce a9 79 bc 93 08 51 bd b8 3f 56 bd
       -0.14859806 -0.0152382385 -0.051033568 -0.05230686
0000a0 fb 93 24 3e f0 9e d9 bc 11 90 53 3e c0 d5 31 3e
       0.16072075 -0.026565045 0.20660426 0.17366695
0000b0 3d 63 ab bc f1 91 e9 bc b1 f6 89 3c a0 52 17 3e
       -0.020921344 -0.028511973 0.016841264 0.14777613
0000c0 d9 41 ff 3d c4 ec 19 3c 23 46 7e bd 8c e0 1b 3d
       0.12463731 0.009394828 -0.062078606 0.03805594
0000d0 fe 5e 28 bc 21 9a dd bc 7f 33 20 3c 33 5b 8c ba
       -0.010276554 -0.027051033 0.009777903 -0.0010708332
0000e0 e3 ed 3c bd ba 68 16 bd b0 31 8f bc 22 87 a9 bd
       -0.046125304 -0.03672097 -0.017479748 -0.08277728
0000f0 ae 73 9e 3b 64 9d ed 3d 85 b2 cf bd 4d f8 9b 3c
       0.0048355674 0.116022855 -0.10141472 0.019039297
000100 74 3b 64 3e 6a f8 71 bb 10 f4 05 3d fc 74 1b 3e
       0.22288305 -0.0036921748 0.03270346 0.15181345
000110 98 02 05 bc 23 40 0c 3e 05 bd 07 3e a4 9d 0d 3e
       -0.008118294 0.13696341 0.13255699 0.13829666
000120 3b 37 5c 3e 86 38 f5 3d 7d 1f 89 bd 16 1c b5 3c
       0.21505444 0.119736716 -0.06695459 0.022108119
000130 8a 8c 4a bd a1 f4 ac 3d 8b aa ff 3d 02 c5 23 bc
       -0.049450435 0.08445097 0.124837 -0.009995701
000140 6a 16 89 bd 6c d5 82 bd 46 9b 8e bd b6 2a b5 bd
       -0.06693728 -0.06388363 -0.0696321 -0.08846037

fc3.weight f4 [11, 84]
000000 29 74 ff 3d 6f 10 de 3d 28 87 22 3d c1 a6 1d 3e
       0.12473328 0.10842978 0.039679676 0.15395643
000010 77 1b 36 3e 4c d2 3a be c7 68 6f bc e4 d0 44 3d
       0.17783915 -0.18244284 -0.014612383 0.048050776
000020 9c f1 b4 bd d5 3f a4 3c d6 98 ad 3d 82 6d d4 bd
       -0.08835146 0.020049969 0.08476417 -0.103724495
000030 20 e2 36 bc b4 c0 54 3d 05 de 19 3e 03 8f bd 3c
       -0.011162311 0.05194159 0.150261 0.023139482
000040 5d 09 9b bc 67 db 90 bc 65 1e 69 bd 66 3a 6e 3d
       -0.018925363 -0.017682744 -0.056913752 0.05816116
000050 cc 5c 8c bc 19 1c a0 bd 37 9f 55 3d 78 de 94 bd
       -0.017134093 -0.07817859 0.052153792 -0.07268995
000060 36 53 30 3d ba 60 7c 3c 11 74 55 3d e9 0b 48 3e
       0.043048106 0.015403921 0.052112643 0.19535793
000070 48 f9 52 be ee 65 ac 3d c5 55 54 3d 4f 2f 29 3e
       -0.20602906 0.08417879 0.05183961 0.16521953
000080 b6 6f eb bc b9 cb 9e bd 05 a3 8b bd eb bc 8b bc
       -0.028739791 -0.07753701 -0.06818203 -0.017057857
000090 1f 16 0d 3d 8e 04 cb 3d ac 2c d7 3d cc 8a 69 3d
       0.034444924 0.09912978 0.10506567 0.057017133
0000a0 a0 f7 af 3c 1f 9f b9 bd f6 da d2 3d 66 ab c7 bd
       0.021480381 -0.09063553 0.1029567 -0.097494885
0000b0 ef 27 cc 39 14 cf af 3b 80 60 42 3c 24 66 a4 bd
       0.00038939665 0.005365262 0.011863828 -0.08027294
0000c0 2d d6 75 3d 75 bb 87 3d ba df d2 bb e7 27 e7 bc
       0.060018707 0.066275515 -0.0064353617 -0.02821727
0000d0 f2 0e 46 3d 4e b4 7b 3e 64 ce 8d 3d d7 5e 1d 3e
       0.048354097 0.245805 0.069241315 0.1536821
0000e0 b0 9e b6 3d 2d 92 2f be 3d dd 9f bd 11 7e e7 bd
       0.08916986 -0.17145605 -0.0780587 -0.11303342
0000f0 0d e0 c8 bd 05 42 56 3d 69 af 7f bc 9d 25 f7 3c
       -0.09808359 0.052309055 -0.015605786 0.030169303
000100 77 ba 3c 3d 34 2c 84 3c ec dc 6e bd 94 99 6a bd
       0.046076264 0.016134359 -0.058316156 -0.05727537
000110 4c 5b 1d be 8e 02 0a 3d e4 6c e4 3d c6 09 5f 3d
       -0.15366858 0.033693843 0.11153582 0.05445268
000120 77 b6 95 3d 94 a6 1d 3d cd 19 60 3d 36 ae 54 3d
       0.07310193 0.03848894 0.054712106 0.051923953
000130 f0 0d c8 bc aa ce 0d bd fb da 9c bd 71 a2 18 3d
       -0.024420708 -0.03462092 -0.07658955 0.03726429
000140 d1 7d cf bd d2 05 d9 3c 4b a0 37 3e 28 a1 fe bd
       -0.101314195 0.026492033 0.1793224 -0.12433082
000150 d9 b6 e3 bd 15 7e 21 3c c1 20 91 bd 6f 5f a3 3d
       -0.1111886 0.00985672 -0.070863254 0.07977187
000160 b1 57 91 3d b5 fa da 3d d9 18 07 bd f5 ff e0 3c
       0.07096804 0.1069235 -0.03298268 0.0274658
000170 18 1d f5 bc 17 b2 07 3a 82 06 a8 3c f3 ea b2 3d
       -0.0299211 0.0005176379 0.020510916 0.08736219
000180 aa 2d f3 3c b0 39 4e 3d 7f 18 1b be da 20 29 bd
       0.02968486 0.050347984 -0.15146063 -0.041291095
000190 de e6 a3 bc 0e 3a 71 3d c4 06 51 bd c6 3b 85 bd
       -0.020007547 0.058893256 -0.051031843 -0.065055415
0001a0 20 44 8a bd 93 df cb bd 49 f1 4e bd d9 f8 01 3d
       -0.06751275 -0.09954753 -0.050523076 0.03173146
0001b0 50 29 7e bc 4e 3f 96 3d cf dd 75 3b 05 fd b4 3d
       -0.015512779 0.07336293 0.0037516241 0.08837322
0001c0 8f f1 09 3d 25 58 34 bd 24 ca 23 be ed 67 bc bc
       0.033677634 -0.044029374 -0.1599508 -0.022998774
0001d0 c3 bf c5 bd 37 16 e7 bd 7b 5d a4 bc d6 c9 e2 bd
       -0.09655716 -0.11283534 -0.020064106 -0.110736534
0001e0 ac 26 ef 3d ce 9d 72 3d a7 8c 2a 3b 32 5a 41 bd
       0.11677298 0.059232526 0.0026023777 -0.047205158
0001f0 01 ee ea bd 1a 02 13 bd 69 99 fd bc cb 49 fb bc
       -0.11471177 -0.035890676 -0.03095694 -0.030674836
000200 55 7b 97 bd e7 5a 69 bd 65 dd c6 3d 96 33 4c 3c
       -0.073965706 -0.056971457 0.097101964 0.012463471
000210 cc 34 3d bc 11 c1 63 bd 43 b0 2b bd cd 6d f3 3c
       -0.011548232 -0.055604044 -0.041916143 0.029715443
000220 f5 cb 98 3d 21 06 cb bd 1f 2e bc bd 69 07 75 bd
       0.07460777 -0.09913278 -0.091884844 -0.05982152
000230 28 3f 02 3d 70 58 64 3b e4 17 86 3d de 52 21 3e
       0.03179851 0.0034842752 0.065475255 0.15754268
000240 c5 f7 fb bc 3c 9d c8 bd 16 34 d2 bc a9 0b 59 3c
       -0.030757794 -0.09795615 -0.025659602 0.013247409
000250 e2 1d 19 be f2 49 54 3d 14 f8 d2 bd df 07 0f 3d
       -0.14952806 0.051828332 -0.103012234 0.034919616
000260 d4 de 89 3d 2e 09 9a 3d be bc 2d bc 90 6f 99 3b
       0.06731954 0.07521282 -0.010604082 0.0046824887
000270 e5 88 8a bd 66 f5 e8 bd 56 ad 45 3c 11 3b bb 3c
       -0.06764392 -0.11374931 0.012065252 0.022855313
000280 52 b4 04 3c dd 54 b5 bc 41 16 88 3d 3d 27 c0 3d
       0.008099632 -0.022135193 0.066448696 0.09382484
000290 74 09 02 3e ce 26 53 3d 2b be 7f be b6 b0 95 3d
       0.12698919 0.05155068 -0.24974887 0.073090956
0002a0 4b d5 c6 bc 15 62 58 3d 69 f1 85 bd 85 26 97 bc
       -0.024271628 0.052827913 -0.06540186 -0.018450985
0002b0 8b 86 f4 bd 8d 9c 4d 3e d8 fc 23 be 23 94 80 bd
       -0.119397245 0.2007925 -0.16014421 -0.06278255
0002c0 fb 07 52 bd c5 06 7f 3d d5 39 ee 3d 78 50 74 bc
       -0.051277142 0.062262315 0.11632124 -0.014911763
0002d0 bf 1d c4 bd 5b 1b 56 3c 68 84 fa 3d 9d c5 17 3e
       -0.09575986 0.0130680455 0.12232286 0.14821477
0002e0 65 17 02 3e 7d ca ab 3d cf 69 9b 3d 14 9b cd bc
       0.12704237 0.08388231 0.07588541 -0.025098361
0002f0 44 70 e6 3c ca 89 d2 3d 50 9e b5 3d 90 6f 80 bd
       0.028129704 0.102801874 0.08868086 -0.06271279
000300 3a de 75 3d 54 ac 67 3d 97 4c 06 3c 82 2b a6 bd
       0.060026385 0.05656083 0.008196971 -0.08113767
000310 c9 e9 3a bd c2 e1 ab 3c 05 b1 b0 3d 8b c2 30 be
       -0.04563311 0.020981673 0.08627514 -0.17261712
000320 40 ab 49 3e bc f0 89 ba 75 22 87 3d 9f 1f f8 3d
       0.19694233 -0.0010524015 0.06598369 0.12115406
000330 f4 54 1b be 96 f4 ed 3d 2f 82 30 3c d5 bd 94 3d
       -0.15169126 0.11618917 0.010773226 0.0726277
000340 fd fc b4 3b f8 24 8f bd 62 76 ea 3d 31 b4 11 3c
       0.0055233226 -0.06989473 0.11448361 0.008893059
000350 27 04 68 3c df 21 e4 39 20 da 43 3c cd 62 f8 bd
       0.014161146 0.00043512785 0.0119538605 -0.1212822
000360 fc 19 4a 3e d0 81 45 bc 9a a3 20 3e 59 9d 12 be
       0.19736475 -0.0120548755 0.15687409 -0.14317836
000370 9b f2 89 3d f2 76 50 bb a5 ae 8f bd fd d3 28 3e
       0.067357264 -0.0031809178 -0.07015733 0.16487117
000380 89 5c 93 3d 60 5e 58 3d 57 2b 9f 3c 6e f0 78 3c
       0.07195384 0.052824378 0.019429846 0.015194042
000390 9b 7a c2 3d 0a 2b 7e bc e1 fc c9 bd c3 c2 22 3d
       0.094960414 -0.015513191 -0.09862686 0.03973652
0003a0 84 3e 2a be ac 44 80 bd ae 24 90 3d 78 d6 87 3d
       -0.1662541 -0.06263098 0.07038246 0.066327035
0003b0 9e fa b5 bd 6b da a4 be b6 32 8e bb 7e a4 0a 3d
       -0.08885692 -0.3219789 -0.0043395413 0.03384828
0003c0 90 a4 9d 3b 14 22 74 bd 07 0e cc 3c 38 41 2c 3d
       0.004810877 -0.059602812 0.024909033 0.042054385
0003d0 ca cb e8 3d 81 92 99 bc ee 25 2f bd 65 dd f6 bd
       0.11366995 -0.018746616 -0.042760782 -0.120539464
0003e0 b0 fb bb 3d c4 49 c2 bd 5d 12 fe 3c 81 ca bb bc
       0.09178865 -0.09486726 0.031014616 -0.02292371
0003f0 e7 17 c6 bd 09 03 e1 bd 88 c9 6f 3d 08 88 49 bd
       -0.09672528 -0.10986907 0.058541805 -0.049201995

fc3.bias f4 [11]
000000 30 aa 7e 3d 6f 9f 3e 3d 7a 9b b5 bc 3d 83 6c 3c
       0.062174022 0.046538766 -0.022168864 0.0144355865
000010 75 31 97 bd 7c da c3 3d be 13 8a bd a0 ae 44 3d
       -0.0738248 0.09563157 -0.06742047 0.048018098
000020 ca 72 52 3d c2 aa 19 3d 94 98 65 3d
       0.051379003 0.037516363 0.056053713
