python/Media_and_Cognition/exp/cifar_net.pth (torch_old, 252622 bytes, 10 tensors)

conv1.weight f4 [6, 3, 5, 5]
00000000: c7c5 fc3e cee0 f63e f770 4f3f ec25 863f
00000010: 8a29 b13f 604a 8d3e 8039 343f bc04 1f3f
00000020: 5c3d 0b3f c4ed 6a3f 6d1d 8abd f6bd 203d
00000030: a71e 69be d166 1cbf d506 76bd 8dc5 1bbe
00000040: 2dd4 a23e 7a0b ae3e feed 0abe 3e74 cbbe
00000050: 9365 9cbe b0c5 403f 13c1 9b3f a39c 1b3f
00000060: 0c79 01bf bb4d d9be 90e6 31bf 14d1 cfbe
00000070: 9466 183e 1819 803e 373f 09bf 9b93 0dbf
00000080: 0aeb 25bf 595a 95be dfbd ac3e d115 88bf
00000090: cd8a 72bf 4d5b a0bf 5670 b2bf ac8a bbbe
000000a0: b49a 6abf ea5e 44bf 217b 11bf 719c 63bf
000000b0: 8c16 41bf 2cb6 43bf 1f56 5c3e e45b a63e
000000c0: bb6b 0f3e e646 51bf a5c3 69bc 1475 5dbe
000000d0: aa74 8f3c fbe3 ee3e 9a6c 343f 4c1e 433d
000000e0: 589a 543d 7cf7 75be d1d1 62bc d6ad 173f
000000f0: a567 5dbe 00fe a3be 90e2 1fbf d386 4ebf
00000100: 4dfd 0a3d 4d72 73bb a5dd 863c c053 f93d
00000110: 653a a5bd a483 203e 5941 163f f17d b03f
00000120: 42c6 c43f 9608 9d3f b31c f73e d817 d9bd
00000130: eca0 adbd 71e7 ca3d 0b64 443e 6bd6 0b3d
00000140: 4bc9 ad3b b29b fb3b 9f29 f93b 716e 3bbc
00000150: c249 ac3d 229b ed3c 5edb 363e b7a5 583e
00000160: 9d45 32bd 7266 ca3d 2186 9a3e 63b6 dd3d
00000170: 1ada 493e f250 28bd 7f88 1abd fb31 523e
00000180: 693a 813d dadc 88ba 8ccd f93a a209 f1bd
00000190: c1ee a0be 06a7 53be 90d1 89bd 60af 20be
000001a0: ade5 febd 5015 76be a6a2 00be 200e 1fbe
000001b0: 9895 07be 3575 cdbc c87a 57be df40 4dbe
000001c0: 0f54 eabd 24cf fcbd 93e7 1abe 1f6f 35be
000001d0: d41e 91bd 43bd 02be aa6c 93bd eec6 00be
000001e0: b5e8 b3be 215d 63be 501b 85be 4586 31be
000001f0: 36b9 04be 50c0 61bd 4627 fc3d 291a 683d
00000200: fe6f 083e c5b6 dbbd 1ce3 df3c ce08 723e
00000210: 8243 153e 8f25 093e 9d4f aebc 21bc 36bd
00000220: ea24 0f3e 216b 643e 91ad 3b3e 4ae3 053d
00000230: 93aa dfbd a5e8 143e 5d6a 1b3e 7d07 823e
00000240: 5825 803e 721f 87bd 161f e1bd 4a66 8e3d
00000250: c94d ef3d b920 f93d 93cd 9d3c d676 bcbf
00000260: 3c14 82bf 4fe1 f63d a568 acbd 98b5 f3be
00000270: bffb babf 4559 31bf 9e1b 07be d03b 8ebb
00000280: e426 68bf d59d b8bf 5364 16bf 5bf8 1ebe
00000290: dcdd 033d 7825 3bbf 19cb 06bf 5572 0fbd
000002a0: 14ab 833d c95c c03e 5c95 963d 0bc5 993e
000002b0: 8ba5 723f d0f8 9e3f 0693 933f 396d 673f
000002c0: 3a2f 1fbf 0c59 72be 0a89 563f a649 013f
000002d0: 9dc0 b73e 8e11 efbe 9b8f 613e f3b7 283f
000002e0: b04a 233f b4ea 0a3d b64c f2be 2307 103f
000002f0: 93b8 233f 96c0 063f eab1 3cbc fa07 6f3e
00000300: e11d 523f 36e6 403f 2f4c 253f 5e09 fd3e
00000310: 0a38 653f 1d78 b83f 438b ce3f 4cfb a43f
00000320: 65a4 2f3f 52f5 6bbf ba21 09bf 889f b93e
00000330: 4a6b ea3d 0eec 533e 8826 47bf 6048 5bbe
00000340: 4d3d c33e 6258 0c3e 5b68 9bbd ab3c 0dbf
00000350: 151f 06bd 8237 283e f788 a6bd 99fa 4ebe
00000360: 3da3 48be 96af 7a3d 96d8 c03d 8a77 79be
00000370: 10c3 e8bd 9411 a13e 4c0b 2c3f ce5b 153f
00000380: 2c61 5f3e ea9d c33e 9562 b4be 4f60 0ebf
00000390: 67d4 0fbe 414c 83bc f82c 20bf ec64 9bbf
000003a0: 1e0a a5bf 3e86 3fbf 3721 31be d626 24bf
000003b0: 072b 6abf 5e25 a5bf 232b 8ebf 936d 2abe
000003c0: ae8b b3bd d6c6 16bf ef23 90bf 1f99 75bf
000003d0: 0e48 5839 d0cd c3bd 2e7f 36be cc2d 44bf
000003e0: f11d 2dbf f7e5 cc3e d68b 413f 255c ba3e
000003f0: 2e60 d53d 1f0e e33e a75c f03e cee9 0ebe
0.49369642 0.48218387 0.81031746 1.0480323 1.3840802 0.27595806 0.7040024 0.621166
0.543905 0.9176905 -0.06743894 0.03924366 -0.22765599 -0.61094385 -0.06006511 -0.15212078
0.31802502 0.3399313 -0.1356735 -0.39737123 -0.30546245 0.7530165 1.2168297 0.60785884
-0.5057533 -0.42442116 -0.69492435 -0.405892 0.1488288 0.25019145 -0.53612083 -0.55303353
-0.64811766 -0.29170492 0.3373861 -1.0631658 -0.94743043 -1.2527863 -1.3940532 -0.36629236
-0.9164231 -0.7670733 -0.56828505 -0.88910586 -0.7542503 -0.7644985 0.21517228 0.32491982
0.1400594 -0.8174881 -0.014267837 -0.21626693 0.017511684 0.4665831 0.7047821 0.047636315
0.051905006 -0.24020189 -0.013843969 0.5924963 -0.21621569 -0.32029724 -0.6245508 -0.80674475
0.033932973 -0.0037146986 0.01646311 0.12174177 -0.080677785 0.15675217 0.5869346 1.3788434
1.5373003 1.2268245 0.48264083 -0.10600251 -0.08477959 0.09907425 0.19178788 0.03414003
0.005303537 0.0076784724 0.0076038386 -0.0114399055 0.08412506 0.029004637 0.1785712 0.21156965
-0.04352342 0.09882821 0.30180457 0.10825803 0.19712105 -0.04109282 -0.03772783 0.20526879
0.06309969 -0.0010441795 0.001905845 -0.117694154 -0.31432155 -0.20669183 -0.06729424 -0.156919
-0.12446151 -0.24031568 -0.12562045 -0.15532732 -0.13240659 -0.025080303 -0.21042931 -0.20044278
-0.11441814 -0.123441964 -0.15127401 -0.1771817 -0.07085958 -0.1276751 -0.071984604 -0.12575886
-0.3513848 -0.22203495 -0.259974 -0.17336376 -0.12961277 -0.055115044 0.12312178 0.056665573
0.13323972 -0.1072822 0.027329974 0.23636171 0.14576533 0.13393234 -0.021278197 -0.044613007
0.13978925 0.22306491 0.18327929 0.032687463 -0.10921206 0.14541872 0.15177293 0.25396338
0.2502849 -0.065977946 -0.10992257 0.06953104 0.11684758 0.121644445 0.019263064 -1.4723766
-1.0162425 0.12054693 -0.08418397 -0.47599483 -1.4608077 -0.6927684 -0.13194129 -0.0043406263
-0.9068434 -1.4423167 -0.5874683 -0.15524428 0.032194003 -0.7310405 -0.5265365 -0.035021145
0.06429115 0.3757079 0.07352707 0.30033144 0.9478385 1.2419682 1.1529243 0.90401036
-0.62181437 -0.23666781 0.83802855 0.50503004 0.3588914 -0.4669308 0.22027437 0.65905684
0.6378584 0.033915237 -0.4732415 0.5626089 0.6395351 0.5263761 -0.011517027 0.23342887
0.8207684 0.75351274 0.6456937 0.4942121 0.89538634 1.4411656 1.6136249 1.288919
0.6861022 -0.92171204 -0.5356709 0.36254525 0.11446245 0.20695516 -0.7779317 -0.21414328
0.38132706 0.1370559 -0.075882636 -0.55170697 -0.032744486 0.16427425 -0.08131593 -0.20212783
-0.1959352 0.061202608 0.094163105 -0.24362007 -0.1136533 0.31458724 0.6720474 0.5834321
0.21814412 0.38206416 -0.35231462 -0.55615705 -0.14045869 -0.016027572 -0.62568617 -1.2140174
-1.2893713 -0.7481421 -0.17297827 -0.6412176 -0.91471905 -1.2902029 -1.1106914 -0.16643362
-0.08766876 -0.5889715 -1.1260966 -0.9593677 0.00020626208 -0.0956074 -0.17821953 -0.7663238
-0.6762381 0.400192 0.75604 0.36398426 0.104187354 0.4434671 0.46945688 -0.13956377

conv1.bias f4 [6]
00000000: c253 1bc0 75de 0cc0 2ea0 c0bf a82b 61c0
00000010: e0b3 84bf f4f9 bdbf
-2.4269872 -2.2010777 -1.5048883 -3.5182896 -1.0367393 -1.4841905

conv2.weight f4 [16, 6, 5, 5]
00000000: f72b 91be 9845 cc3c c3a3 1a3e d92f c7bc
00000010: dbfd 683e b188 66bf 000a d9be 9ea5 053e
00000020: bbc1 d13d fe33 ddbd 5a3d d2be 530b f8bd
00000030: 7ee1 e03d 17ab dd3e 0d97 adbe 49b9 43bf
00000040: 0454 1dbf 0c40 30bf 7a27 0fbf 59f9 29bf
00000050: 3f1c 8ebe 51d6 d73e b54d 553e 7f3c 9abe
00000060: 22cf afbe 9d21 0fbd 1914 ccbd 6f8e 2bbc
00000070: 2e40 343e 526c bd3d e74a 2ebd b1b7 27bc
00000080: 0810 8b3d b898 d3ba 8e18 2f3d 1281 dabd
00000090: 16b6 74bc cf99 43bd 66f9 e13c 632f 413e
000000a0: 0adf 1fbe 4610 f3bd d626 07be 88b4 21be
000000b0: 1ee6 f23d 9a14 c8bc b9f9 eabd 23ee 68bc
000000c0: 9e4a 143d 1f6d 373e d350 54bf 3670 06bf
000000d0: 3746 073e da0b 40bf 9316 ed3e eca7 86bf
000000e0: 31ec 98be be4d be3e 4b5d d8be 7536 ebbe
000000f0: 26fc 08bf 22c1 80be 5cfb 2f3f d607 cabc
00000100: d165 12bf 905c c9be b716 11bf 7f33 8dbf
00000110: 22d1 51bf 1877 63bf 67d3 13be 68f3 cbbe
00000120: c5f9 0dbf 93a7 21bf a205 e6be 1977 69be
00000130: 3256 8bbe 9771 7abc ac09 83be 91ba d23d
00000140: 829f 0cbf d856 91be 6103 27be 282e 2cbe
00000150: 30e1 783e 813f 00bf 3a79 cabe 3f1b e7be
00000160: fa59 18be d57b 173f a329 90be 474d 08be
00000170: eabe 74be b537 f0be 780e ddbd a2d9 1ebe
00000180: 46a1 933e 6d86 253f 3aff d33e bc04 a83e
00000190: 9699 f3bb 1d31 4ebd f833 053e 8739 873c
000001a0: 3c96 a73d 392f e63b cc56 d53d 0068 b23b
000001b0: 5b21 ef3d f3c5 c03d 1202 98bd ed6e babd
000001c0: 1f98 963b 3d1c 45bd a674 c7bc 6278 b7bd
000001d0: 207d ccbd 11fc bfbb 8b91 4ebd affa 043d
000001e0: e762 0cbd 134b fa3c f99b 84bc 227b d03d
000001f0: cad4 833d 2d0f d2be de8c 8c3e 7733 b93c
00000200: 19c4 c6be b004 09bf 9ee3 f3be 6296 2fbe
00000210: 3dfc 6ebe 0c62 17bf 2414 2abf 2de2 45be
00000220: 6ecc 703e 8523 273f 2734 8e3f c991 143f
00000230: a0eb 7a3d ba5d 11bf b981 85be 742a 113f
00000240: 0084 103f 8662 7dbe c4b3 90bf d09e 04bf
00000250: 7904 d9be 650c 22bf e212 2f3d a558 84bf
00000260: f851 35be d035 a33e 0143 353f b1ee 4f3f
00000270: 9ae6 8bbe a557 84be 1aa3 fa3e 61c1 9bbb
00000280: 21d9 5e3d 8f15 04bf 1928 9cbd 8aec 943e
00000290: 30b6 27bd 6446 50bf 8d8c 1bbf 3e3b 29bf
000002a0: 8066 77bf df33 37bf 7441 43bf 9b6c 16bf
000002b0: 085d ddbe 6585 06bf 1c37 39bf 094c 293e
000002c0: 955b c63d cd61 ae3e 9d51 3d3e 7e2b 093e
000002d0: 1026 043e c9e3 6cbd ee36 c43e 21d3 ac3e
000002e0: e913 3f3e 7320 f93b 2f68 62be efc4 373e
000002f0: 183d 363e d24e 46bc bb79 45bd a2ef e3be
00000300: c162 9ebe 96af 51be f0fb 67be c722 c0bc
00000310: 6e25 c1be e313 e4be 4247 a0be 1c4f 28be
00000320: a00d 043f 7208 bfbe fb0f debe 791b 62bf
00000330: 8a07 d73d 7861 2e3f 6627 42bf eaad 913e
00000340: f9e4 2dbf dc37 b6bd 8210 a4be 88b6 26bf
00000350: 01b9 3f3f e684 413d 6692 d1bf 1a40 19bc
00000360: 0ff0 82bf b2e8 10bf eb62 853e 31f4 18bf
00000370: 8d65 3d3f b39a 51bf 49df e0bf 2fa2 69bf
00000380: c06c 673e 6449 bb3e 2cde 0d3f e82b 1a3f
00000390: ab4a d33e 4a63 8fbd a94b 21be c533 393f
000003a0: 767e d73d e334 813e 7450 36bd 4468 56bf
000003b0: 002a 7fbe 0558 4ebe 1c0b 64bd 69d9 c33e
000003c0: b726 ddbe cb2e 85bf 8571 7bbf 7090 39bb
000003d0: 6cb3 1f3f bf99 293f e1fa fabe 743f 05bf
000003e0: 04e3 74bf fb9b 3bbf 1b96 543e 9784 2a3e
000003f0: 87fb a83d 7b85 963d ef7a ef3d 5834 323e
-0.28353855 0.024935529 0.15101533 -0.024314808 0.22753088 -0.90052325 -0.42390442 0.13051459
0.10242029 -0.10800932 -0.41062433 -0.12111535 0.10980509 0.43294594 -0.33904305 -0.764546
-0.6145632 -0.6884773 -0.5591961 -0.663961 -0.27755925 0.42155698 0.20830424 -0.3012428
-0.34337717 -0.034944165 -0.09964771 -0.0104709705 0.17602608 0.09249176 -0.0425519 -0.010236667
0.06790167 -0.0016143536 0.042748027 -0.106691495 -0.014935991 -0.047754105 0.027584743 0.18865733
-0.15612426 -0.11868338 -0.13198408 -0.15791523 0.118602976 -0.024423886 -0.11473412 -0.0142169325
0.036203973 0.1791272 -0.8293583 -0.5251497 0.13210379 -0.75018084 0.46306285 -1.0519996
-0.298677 0.37168688 -0.42258677 -0.45939985 -0.5350975 -0.2514735 0.6874292 -0.02466194
-0.5718661 -0.39328432 -0.56675285 -1.103134 -0.81959736 -0.888536 -0.14436112 -0.39834142
-0.55459243 -0.6314632 -0.44926172 -0.22799338 -0.272142 -0.015285871 -0.25593317 0.10289491
-0.5493089 -0.2838657 -0.16309883 -0.16814482 0.24304652 -0.500969 -0.39545614 -0.45137975
-0.14878073 0.5917333 -0.28156766 -0.13310729 -0.23900953 -0.469175 -0.10793775 -0.15512708
0.2883398 0.6465824 0.4140566 0.32816112 -0.0074340804 -0.050339807 0.13008106 0.016506923
0.08182952 0.0070246723 0.10416946 0.0054445267 0.11676284 0.09412756 -0.0742227 -0.09103189
0.004595771 -0.048122633 -0.024347614 -0.08958508 -0.09984803 -0.005858906 -0.05043177 0.032465633
-0.034274008 0.030553376 -0.016187655 0.10179736 0.06437071 -0.41027203 0.27451223 0.022607548
-0.38821486 -0.5352278 -0.47634596 -0.1714721 -0.23338409 -0.5913398 -0.6643698 -0.1932456
0.23515484 0.65288574 1.1109666 0.5803495 0.061259866 -0.5678364 -0.26075533 0.56705403
0.56451416 -0.24744615 -1.130486 -0.5180483 -0.42386225 -0.6330016 0.042742617 -1.0339552
-0.1770705 0.31876993 0.70805365 0.8122359 -0.27324373 -0.25848117 0.48952562 -0.004753277
0.05440629 -0.51595396 -0.076248355 0.29086715 -0.040945232 -0.8135741 -0.6076134 -0.6610602
-0.9664078 -0.71563524 -0.7627175 -0.5875947 -0.4323504 -0.52547294 -0.72349715 0.16532911
0.09685437 0.3405899 0.18488164 0.13395497 0.12905145 -0.05783442 0.38323158 0.3375483
0.18659939 0.007602745 -0.22110055 0.17946218 0.17796743 -0.012103753 -0.048211794 -0.44518763
-0.30934718 -0.20477137 -0.226547 -0.023454083 -0.3772387 -0.44546422 -0.31304365 -0.16436428
0.5158329 -0.3731113 -0.43371567 -0.8832317 0.10499485 0.68117476 -0.7584137 0.28452998
-0.6792751 -0.08897373 -0.32043844 -0.6512227 0.7489167 0.047245882 -1.6372802 -0.009353662
-1.022951 -0.56605065 0.2605203 -0.59747607 0.7398308 -0.8187668 -1.7568141 -0.912631
0.22600079 0.3657943 0.5541713 0.60223246 0.41267905 -0.0700136 -0.15751518 0.7234462
0.105221674 0.25235662 -0.04451032 -0.83752847 -0.24918365 -0.20150764 -0.055674657 0.38251808
-0.431936 -1.0404905 -0.9822009 -0.0028314851 0.6238315 0.6625022 -0.4901953 -0.52049947
-0.956589 -0.7328488 0.20760386 0.16652142 0.082511 0.07349678 0.116933696 0.1740278

conv2.bias f4 [16]
00000000: f352 4dbe ca49 96bd 9718 1cbf c6db 2ebe
00000010: 268b cbbd 8cbd 9a3d 9873 e73e dcbe 3dbe
00000020: c7f0 31be 287f 74be 738c b93e f227 af3f
00000030: ca71 9bbd 0e20 fa3e bab6 983d d58a 543f
-0.20051174 -0.07338293 -0.6097502 -0.17076024 -0.0993865 0.075556844 0.4520538 -0.18529838
-0.17377006 -0.23876631 0.36239967 1.3684065 -0.07590063 0.4885258 0.07456727 0.8302434

fc1.weight f4 [120, 400]
00000000: 6b9d d9bb a701 60be 4932 4cbe 62dc 9b3d
00000010: 1607 383d d48b 96be e1ff 6ebe 5d24 9abe
00000020: b08d c8bc b826 08be 3668 d2bd 6824 d7be
00000030: d2fd 82be 8725 23be eb3c 31be 21de 773e
00000040: 2ba4 253d ed21 27be 7210 99bd 01b2 1abe
00000050: 0b05 02be 37ae 56be d7c7 47be 5ee0 913d
00000060: 28e2 e6bd ef4d c93d 07c9 053e d4ad 7bbe
00000070: be81 cbbe d992 60be 96f4 18be 0bd8 623c
00000080: 003c c1be 424c 64be ca2d 73bd e595 a83e
00000090: 023a 993c 021a 303e 98c0 6f3d d7ba debd
000000a0: 9462 943e abcd 7a3e 3eba 4d3e 7651 0cbe
000000b0: 3622 aabe ceba af3d 7daf 013e 0b14 273d
000000c0: e4d5 ef3d 3529 92be 7bae 61bc ee7b 75bd
000000d0: 6ed9 6bbc 62f7 ddbc 5aca 6c3d 67aa 06be
000000e0: f869 183d adfe 2abe 369f 46bd 6073 86bd
000000f0: 87e6 72be 618c a4be a277 ffbd 70d8 c33d
00000100: bcd1 3cbe a674 cebd 911d 78be 51c2 95bd
00000110: 3e30 3abe a893 1cbe f498 f9bd 9876 bbbd
00000120: 9700 de3c a3ad 2dbe 9fa4 15bb efb4 b2bd
00000130: ded6 1dbe 2027 29be e689 67be 4480 b8bd
00000140: d971 85bd f5cc ea3d b43d b0be bddc e63d
00000150: b655 96bd e43c c6bd a350 a6be ef0f 99be
00000160: a2e9 2ebd 5852 1dbe a1d8 1e3f b931 21be
00000170: a737 9dbc cdda 43be 573b 01be 6615 52be
00000180: c9b9 5bbe 283b 1dbe 2759 8b3c 41b0 32bd
00000190: 2081 0ebe b404 c93e f0fe ffbd 814b 55be
000001a0: 5fdb eb3d 4d82 d23c 59b2 ea3d 5739 d2be
000001b0: 98ed d1bd 84d6 983d 8e55 63be 7f6f abbe
000001c0: 40cc 67be d06a 0a3e b47d 4fbe a538 34be
000001d0: f5e1 1bbe e8c7 d4bd dd61 16be 9571 05be
000001e0: 7033 6cbe afec 70be 8304 993d ada7 b93c
000001f0: df7c 21be 7818 58bd 8087 ad3a 518f 21be
00000200: f543 8abe a891 efbd bb2f d8bc 0e4a 8c3e
00000210: cc4e e83d c7a8 e7bd fc26 80bd 8dde ebbb
00000220: 66d0 ddbd a4c1 b1bd e088 18be c307 cc3c
00000230: 6ec4 15be a2c4 52be 8bca f7bd bbaa 72bd
00000240: 2ed1 1d3e 7f64 69be 4709 153d 04fd ad3e
00000250: 3797 1d3d 4759 01be e34c b8bb 4330 403e
00000260: 6136 e03d 4d60 d83d fd00 863e ca7b e4bc
00000270: 681e dabe 6cfe 8ebe 2df9 2dbe 5a3f 30bd
00000280: 550a cfbe 0bc0 bfbd d33a 48be 46c6 0bbd
00000290: 44db 22bc 0a65 95be ba5c cb3d 41c0 6b3d
000002a0: 110b 0abe d0a8 683e 171e 003e 4c85 c93e
000002b0: 26bc a7bd aaa4 2ebe 5e64 68be 4c3f 503d
000002c0: 7cff 01bd 5670 383d 0262 fcbc 384d d33c
000002d0: 05be 9a3b db4a 243d c4b1 3fbd d1e4 cebc
000002e0: d21f 69bd ef33 8ebb e45b 513c a14a 24bd
000002f0: 8763 c33a 3d53 a3bb e2c4 63bd dcfc 25ba
00000300: d0e3 74bd a49d 35bc e8d1 b2bc 4c8d f33b
00000310: 40e2 4bbd fe74 00bc 0b3c 263d a4c3 eabc
00000320: a041 c63d d8ad e2bc 622f 8cbe 81db 39be
00000330: 5a3c b1bd 5d36 57bc 7535 abbe 105c bdbe
00000340: 18e4 5abe 4c55 87be d50c 3e3e 40c0 9dbe
00000350: 4e0f 82be c7fd 89bd 10f9 863c 3c5d 0dbe
00000360: c95b 9dbd 50a5 323e faa6 45bd 53b0 613d
00000370: 272a 9dba 809e d63e 6bd6 32be ff57 75be
00000380: 2d5f aabe ed75 1bbf 7547 52be 0b1a 4bbe
00000390: d3be b4be b3fd da3d bf27 68be 8917 6cbe
000003a0: 5476 e0be aa36 aabe 7321 84bc bc11 93be
000003b0: ebaf 91bd 7f73 10bf f4de acbe 70fd f6bd
000003c0: 9f25 a6be f1f9 483e bbeb e7bd c7e1 09ba
000003d0: 5aa6 8e3e 1248 bc3d acfb c73d bf71 62bd
000003e0: 2918 91be 505e 6bbe e32b aebd c79e 90bd
000003f0: 5585 64bd 9147 83be 978f e9bd 5bec fbbd
-0.00664108 -0.2187563 -0.19941057 0.07610394 0.044928633 -0.29403555 -0.23339798 -0.30105868
-0.024481624 -0.1329602 -0.10273783 -0.42019963 -0.25584275 -0.15932284 -0.17308395 0.24205829
0.040439766 -0.16321535 -0.0747384 -0.15106966 -0.12697236 -0.20964895 -0.19509827 0.07122873
-0.11273605 0.09829318 0.13064967 -0.24578029 -0.39747423 -0.21931018 -0.14937052 0.013845454
-0.3774109 -0.22294715 -0.05936984 0.3292686 0.018704418 0.17197421 0.05853328 -0.108754806
0.2898146 0.24492519 0.20090577 -0.1370295 -0.33229226 0.08580552 0.126646 0.0407906
0.11710718 -0.28547063 -0.01377451 -0.05993264 -0.014395101 -0.0270955 0.057810165 -0.13150941
0.037210435 -0.16698714 -0.04849168 -0.06564975 -0.23720752 -0.3213835 -0.1247399 0.095627666
-0.18439382 -0.10080843 -0.24230029 -0.073124535 -0.18182465 -0.15290701 -0.121873766 -0.09153479
0.02709989 -0.16960768 -0.0022833718 -0.087259166 -0.15413997 -0.16518831 -0.22611198 -0.0900884
-0.06515855 0.11464874 -0.34422076 0.11272571 -0.07340567 -0.09679583 -0.32483396 -0.2989497
-0.04270328 -0.15363443 0.620493 -0.15741624 -0.019191576 -0.19126435 -0.12620293 -0.20515975
-0.2145759 -0.15354598 0.017010285 -0.04362512 -0.13916445 0.392614 -0.12499797 -0.20829584
0.11516451 0.025696898 0.11459798 -0.41059372 -0.102503955 0.074627906 -0.22200605 -0.33483502
-0.22636509 0.13517308 -0.20262796 -0.17599733 -0.15222915 -0.103896916 -0.1468577 -0.1303161
-0.23066497 -0.23527788 0.07471564 0.022662962 -0.15770291 -0.05275771 0.0013239235 -0.15777327
-0.27004972 -0.116977036 -0.026389947 0.2740025 0.11343154 -0.113114886 -0.06257436 -0.007198161
-0.108307645 -0.08679512 -0.14895964 0.024906045 -0.14625713 -0.20582822 -0.12099179 -0.059244853
0.15411827 -0.22792242 0.0363858 0.33982098 0.038474288 -0.12631713 -0.0056244 0.1876841
0.10947872 0.10565243 0.2617263 -0.027891058 -0.42601323 -0.27928483 -0.16989584 -0.043029167
-0.4043757 -0.09362801 -0.1955369 -0.034124635 -0.009939972 -0.2917865 0.099297956 0.057556394
-0.13480784 0.22720647 0.12511478 0.3935951 -0.08190183 -0.17055002 -0.22694537 0.050841615
-0.03173779 0.045029007 -0.030808453 0.025793657 0.004722359 0.04011045 -0.04680039 -0.025255593
-0.05691511 -0.004339687 0.012778256 -0.040110234 0.0014906981 -0.004984288 -0.055607684 -0.00063319295
-0.05978757 -0.011084948 -0.021828607 0.0074326154 -0.049776316 -0.007840393 0.040584605 -0.028657742
0.09680486 -0.027670786 -0.273799 -0.1815014 -0.08654089 -0.01313552 -0.33439222 -0.369843
-0.21376073 -0.26432264 0.18559583 -0.30810738 -0.25402302 -0.06737857 0.016476184 -0.13805097
-0.07683522 0.17445874 -0.048254944 0.055099797 -0.0011990712 0.419178 -0.17464606 -0.23959349
-0.33275738 -0.60726815 -0.20535071 -0.19834153 -0.35301837 0.106929205 -0.22671412 -0.23055853
-0.43840277 -0.3324483 -0.016129231 -0.28724468 -0.07113632 -0.56426233 -0.3376385 -0.12060058
-0.32450578 0.19626595 -0.11324259 -0.00052597787 0.2786129 0.09193434 0.097647995 -0.055284258
-0.28338745 -0.22985196 -0.085044645 -0.070615344 -0.055791218 -0.25640538 -0.11404341 -0.123009406

fc1.bias f4 [120]
00000000: 7678 8bbd 7fa7 adbc 5dfb 953d 0d53 5ebc
00000010: 9667 1ebe 0adc 65bc a4c9 ad3b 30f8 603e
00000020: 974c 2b3c 719a b3bd 4fa0 3abd 6bf1 843e
00000030: 41d2 883b 594e adbd ec1d 23bd ec3a 99bd
00000040: 9cf4 6c3e 1a0a f1be a2d4 bfbe d94a 8e3c
00000050: 237f c23e fba0 3cbe ba97 f9bd 86de 92be
00000060: 671b 0fbe c0c5 4fbd c1a9 ef3d dbc6 86be
00000070: c105 52be 5588 023d 6aa3 ef3c bfa2 ad3c
00000080: 3b30 473e 6a01 93bd aeb2 a63c 8fbb 333f
00000090: f603 9a3d 7898 7abe 55d4 8abd 2899 97bd
000000a0: 084d f7bd e266 833c 6273 27be 0089 8f3c
000000b0: 88aa b93e c0dd e5bd 98c1 c23d fd6c 2cbe
000000c0: 905a 0bbe d60f 00be 6c61 e2bc 5126 e3bd
000000d0: 8cf5 9ebc 941e 7c3d 0dd5 0f3e 9830 83bc
000000e0: 2908 34be cc04 313d af04 17be 0ae2 18be
000000f0: b183 85bd f76d ea3d 7d10 473d 97b5 a33b
00000100: 033f ac3e e375 0a3f 45ca 91be 7fad e1bb
00000110: 7eb3 873e 3cf9 273e b439 f0bd 8d22 3a3f
00000120: 72c3 f2bd 0954 3f3e 71d6 37be fd48 05be
00000130: 0780 d93e 511a 8dbe ed7d 92bc 8880 043f
00000140: fef8 b4bd bb4d 8a3e 493f cabd b588 c53e
00000150: 30b9 e6bd c469 ae3b 57e2 203d fe84 83bd
00000160: f616 9dbd d76a 58bd 4735 a5be 04a2 02be
00000170: d5e8 7cbe f10e 393c 17d5 183d 9687 0d3e
00000180: 53df f73d 93c8 933c f8a4 153e 9d68 c2bd
00000190: b764 82be dab9 bcbc 5d26 333e 7180 06be
000001a0: 40d9 37bd 8beb 05be 0741 453e a3b5 813e
000001b0: 145d 7c3d dd34 f13d dd14 d0bd 9c69 88bc
000001c0: 8242 2dbd 32de 6a3d 442f db3d dd89 9ebd
000001d0: 6f86 69be 7abc 4dbd 88bd 73bd 45a6 68be
-0.068100855 -0.021198032 0.07323334 -0.013569606 -0.15469202 -0.014029512 0.0053035785 0.21969676
0.010455272 -0.08769692 -0.04556304 0.25965437 0.004175455 -0.08462209 -0.039823458 -0.074819416
0.23140186 -0.4707802 -0.37466913 0.017369675 0.37987623 -0.18420784 -0.12187143 -0.28685397
-0.13975297 -0.0507257 0.117023 -0.2632359 -0.20510007 0.031868298 0.029252727 0.021195767
0.19451992 -0.07178004 0.020348873 0.70208067 0.07520287 -0.24472225 -0.0677878 -0.07402259
-0.120752394 0.01604027 -0.16352609 0.017521381 0.36262918 -0.11223936 0.09509581 -0.1683845
-0.13608766 -0.12506041 -0.027634345 -0.11091293 -0.019404195 0.0615526 0.14046116 -0.016014382
-0.17581238 0.043217465 -0.1474788 -0.14929977 -0.06519259 0.114467554 0.04859971 0.0049960124
0.33641824 0.5408613 -0.28474632 -0.0068871374 0.2650413 0.16403669 -0.11729756 0.7270897
-0.118536845 0.186844 -0.17952897 -0.13016124 0.4248049 -0.2755914 -0.017882312 0.51758623
-0.08836554 0.2701243 -0.09875352 0.38580862 -0.112657905 0.005322667 0.039278354 -0.064218506
-0.07670395 -0.052836265 -0.3226721 -0.12757117 -0.24698193 0.011295066 0.037312593 0.13821253
0.121031426 0.018039977 0.14613712 -0.0949261 -0.25467464 -0.02303784 0.17495103 -0.13134934
-0.04488492 -0.13078134 0.19263087 0.2533389 0.061612204 0.11777661 -0.10160229 -0.016651921
-0.042299755 0.05734081 0.107023746 -0.07741139 -0.22805189 -0.050228573 -0.059506923 -0.22719677

fc2.weight f4 [84, 120]
00000000: 705f 4b3e 8eb8 afbe 1efb 3e3d 17cf 82be
00000010: 38f2 e0bd 6bc9 6abe 5049 9abe 0b50 5bbe
00000020: aad3 74be b094 8ebe 50d9 a5be 23c8 97be
00000030: 761b b6bc 42b4 9ebe 8748 95bd cf56 8cbe
00000040: d774 edbd bd12 153d a9fa 893c 2325 97bc
00000050: 8d10 55be 8a46 2cbe c48e a93d aafa 863c
00000060: c33d de3c 87b3 b4bc 1bca 3dbd ae2e 46be
00000070: c12e 03be dc0d 51bd 11d6 95bc 854e 0dbe
00000080: bb52 41bd 0330 a5be abe7 d5bd 5cd1 08be
00000090: e519 d6bd a062 99bd f2fb 9cbd 7172 5cbd
000000a0: 8d06 46bd 2c53 adbe 5562 c8bd 3e87 393e
000000b0: be24 95bd 035f 27be 9342 4d3d f03d 42be
000000c0: 3b32 14bd 6a5a f13c bc48 f7bd 715a 0f3e
000000d0: 6219 273d d9ac 953d 3d02 61be 8163 0abd
000000e0: 03f3 213d d2ee a63d f2cc e93d 2959 3fbe
000000f0: c6b6 3e3d 09d0 c3bd f8e7 963c 90de 0fbe
00000100: 38bc 233d 672e 383d 9a91 dbbe c7fc b8be
00000110: bb8d dbbe 3888 08be 5517 62be 8379 5bbe
00000120: dc03 7dbe 52c8 2cba 43d8 aebd 4ac2 51be
00000130: 0ce8 c2bd 987e 4fbe 766c 48bd 677a debd
00000140: 9e4d fbbc 6d92 9ebe 1211 49be 2c8b d7bc
00000150: d8d7 ffbd 01fe 07be aad1 9f3c 3240 65be
00000160: b449 563d 940c b7be a288 6abd 2b0b f63c
00000170: e37e 99be aa15 55be f2de 6abe 237a 023d
00000180: 1da7 ba3c f7ae b63b 1f9b 77bd 0844 ddbc
00000190: 47e5 e6be 34cf adbe b79c 45bc 05a9 18be
000001a0: 6106 13be 918b a3be 1157 24bd 8796 e53d
000001b0: 312f 163e c1b7 b4be 9cd9 9fbd 8e85 06be
000001c0: e27f d63c 692a 89be fef3 be3d 350c 15be
000001d0: fd40 8abe 2d2c 97be 517b 173d 8a40 a1be
000001e0: 8503 b73e 0008 91be 5b71 31bd a425 55be
000001f0: a7d6 99be 08c4 99be 5dfa aabe f15f f63d
00000200: f717 3dbe 4fef e4b8 122b 31be 8388 09be
00000210: e6be a03d 9407 5b3c a8ff 6a3d 533c 78be
00000220: 5bb4 debd 1701 8ebe acd8 b0bd 4f5a 913c
00000230: 3917 f8bc 20c4 1cbe 19cc e4be 9f00 54be
00000240: e53d a3be 3fc5 bb3e e09d ffbd 0602 88be
00000250: 4c54 083e 33bb babd f0fd aabd 1dd4 e43c
00000260: 4ad1 323e cf76 5cbd 7886 a8be 6309 02be
00000270: 8d33 0cbe d7b0 af3d 283d 1fbe d622 9dbd
00000280: c654 97be 91fc 20bf f76a 0bbd 9a82 babe
00000290: 9f66 b8be af1c b8bd e2e1 87be 8431 3e3d
000002a0: b066 61be 3726 3fbe 5116 eb3d bd45 1a3e
000002b0: 4b84 233e b396 b2bd c1c1 31be a247 9bbd
000002c0: 443c 113e 4d37 0ebe aa9e 94bc cb0f 0b3e
000002d0: 0af9 88bd b315 00be 5ef7 a6be 433e 463e
000002e0: 1e23 a13c 3ef9 28bd 02ad 51be cffc 11be
000002f0: e3c8 8abe 121d 053d e8b4 203d 28b2 193b
00000300: 60aa 6fbe 48b0 39bd 1084 bfbd 05ee 01bd
00000310: 74cf d2bd 1a95 9abe 6980 d7bd 3f6f 9dbe
00000320: 5330 223c de9e c0be 5fdc 05be 0f81 883d
00000330: 4fcf 543e afa2 b5bd e5a6 0c3d 55ea f9bd
00000340: 7ee1 f4bd bcea 8ebe d05b 66be b4bd 2bbe
00000350: 3e73 87be a855 3ebe ea30 20be 2228 acbe
00000360: d500 acbd b78b 333a 94fd bcbe e2ba 533c
00000370: 6665 8bbe 07dd 2bbe d4ed 11be 9e81 74be
00000380: 4b22 89be b6cc 54be 603b 7abe 268f 6cbe
00000390: 9166 c9ba 8745 3dbd 9843 4abe b913 0abe
000003a0: 916b cebc f6d5 9dbe 3fb9 8cbb ef74 c73d
000003b0: 1cad 7dbe fe50 82be 2f4f 0dbe cbc1 74be
000003c0: 75db a9be b7b8 9abe 8995 093e 498d f1be
000003d0: a9d3 97be 2500 44be 23c2 07bd 3071 21bd
000003e0: cb5b 9cbe a945 acbb 9977 24be 073a a9be
000003f0: dca8 cbbc 92a3 a0be 6bf1 973d 0c86 f0bd
0.19860625 -0.34320492 0.046626203 -0.25548622 -0.109836996 -0.22928397 -0.30134058 -0.21417253
-0.23908868 -0.27847815 -0.3239236 -0.2964488 -0.022229891 -0.309969 -0.07289224 -0.2740998
-0.11594551 0.036394823 0.016843157 -0.018450325 -0.20807095 -0.16823784 0.082791835 0.016476948
0.02712906 -0.022058262 -0.04633532 -0.19353744 -0.12810804 -0.051038608 -0.018290551 -0.13799484
-0.04719804 -0.32263193 -0.10444578 -0.13361114 -0.10454158 -0.07489514 -0.07665242 -0.053820077
-0.04834609 -0.33852518 -0.0978438 0.18117997 -0.07282399 -0.16344838 0.05011232 -0.1896894
-0.036180716 0.029462058 -0.1207442 0.13999344 0.04079569 0.07308359 -0.2197351 -0.0337863
0.039538395 0.0815102 0.11416043 -0.18686356 0.046561025 -0.09561164 0.018421158 -0.14049745
0.03997442 0.044966128 -0.42884523 -0.36130354 -0.4288157 -0.13333213 -0.22079213 -0.21433072
-0.24708503 -0.00065911293 -0.085373424 -0.20484272 -0.09516916 -0.20263135 -0.04893156 -0.1086319
-0.03067666 -0.3097109 -0.19635418 -0.02631148 -0.12492341 -0.13280489 0.019509155 -0.2238777
0.052316383 -0.35751784 -0.05725921 0.030034622 -0.2997962 -0.20809045 -0.2293661 0.03185476
0.022784764 0.0055750567 -0.06045067 -0.027009979 -0.450968 -0.33947146 -0.0120612895 -0.14908226
-0.14357902 -0.31942418 -0.040122095 0.112103514 0.1466644 -0.35296443 -0.078051776 -0.13136885
0.026184026 -0.2679017 0.093238816 -0.14555438 -0.27002707 -0.2952589 0.036982838 -0.31494552
0.35744873 -0.28326416 -0.043320995 -0.2081514 -0.3004658 -0.30032372 -0.33394137 0.12030018
-0.18466173 -0.00010916462 -0.17301586 -0.13430981 0.07848911 0.013368506 0.05737272 -0.24241762
-0.10874244 -0.27735206 -0.08635077 0.017743258 -0.03028451 -0.15309191 -0.44686964 -0.20703362
-0.3188316 0.36673924 -0.12481284 -0.26564044 0.13313407 -0.09117737 -0.08349216 0.027933175
0.1746265 -0.053824242 -0.32915092 -0.12698893 -0.1369154 0.085786514 -0.15550673 -0.0767266
-0.29556865 -0.62885386 -0.034037556 -0.36427766 -0.36015794 -0.08989846 -0.26539522 0.04643394
-0.22011828 -0.18666922 0.11478866 0.15065666 0.15968435 -0.0872015 -0.17359067 -0.07582022
0.14183146 -0.13888283 -0.018142063 0.13580243 -0.066881254 -0.12508278 -0.326106 0.19359688
0.019670065 -0.04125332 -0.20476153 -0.14256595 -0.2710639 0.032498427 0.039235026 0.0023452137
-0.23404837 -0.04533413 -0.09351361 -0.031721134 -0.10293475 -0.3019188 -0.10522539 -0.30748937
0.009899217 -0.37621206 -0.13072346 0.06665241 0.20782207 -0.0886892 0.03433885 -0.122028984
-0.11957072 -0.27913463 -0.22495961 -0.16771585 -0.2645511 -0.18587363 -0.15643659 -0.3362437
-0.08398596 0.0006849127 -0.36912215 0.012922974 -0.27225798 -0.16783534 -0.1425088 -0.2387757
-0.26783976 -0.20781216 -0.24436712 -0.23101482 -0.001536565 -0.046208885 -0.19752347 -0.13484086
-0.025197776 -0.30827302 -0.004294544 0.097391 -0.24773067 -0.25452417 -0.13799737 -0.23902051
-0.33175245 -0.3021905 0.1343595 -0.47178105 -0.2965367 -0.1914068 -0.033144128 -0.039414585
-0.30538782 -0.0052573276 -0.16061248 -0.33052084 -0.024860792 -0.31374794 0.07419094 -0.117443174

fc2.bias f4 [84]
00000000: 6caf 81bd df11 ef3e 8989 283d af98 a43d
00000010: 126d 30bd 8004 60bc efd8 5c3f 5eb8 1fbd
00000020: 2d5b 993f 64eb 873e dd6f a33e 76a3 c23e
00000030: dd57 36bd 28d8 00be fee6 cabd fecd 03be
00000040: 718d 6a3e de1e f73e 4f28 633e 34f0 6a3e
00000050: 36f0 49be daef 083f 18f4 c63d dcd7 e93c
00000060: 8b43 6a3f abe7 533e d71b 2bbc aba9 c33d
00000070: 82ae ff3d a0dc c0bc 8805 35bd 5eeb 143f
00000080: 6643 54bd 3328 f13c 4d93 543d 3aa3 9b3d
00000090: 01ce 843e 1897 9e3e e5ec 39be 8d0f 953b
000000a0: 1ee4 1e3e 9e46 093e 3fb3 bb3e 06d1 703e
000000b0: ef5f 0abd 58ce aa3d 4c67 dbbd d0d3 433e
000000c0: caa2 243f 3478 b83e b36c 3a3f b18f e4bd
000000d0: 279a cd3e 817a 2c3f f9df e23e 136c 9abd
000000e0: f95d 89bc 5a3d 593d d3f8 0b3f 01ae b93e
000000f0: d218 783b 5f44 69bd b47f ff3b 4e2a 803e
00000100: e855 663e 3459 25be 47f7 053f 659e 033f
00000110: 8568 133f e8b8 753e 7dc8 ee3e 2713 b03d
00000120: 7408 433f 953e e63e 09b2 913e 011c bb3d
00000130: 89a1 ec3d 5306 91be babe 08be 1309 e1bd
00000140: dd99 293f 654c eb3d d6cc 863e 5de5 f1bd
-0.06332287 0.46693322 0.04114679 0.080369346 -0.043072768 -0.013672948 0.86268514 -0.038994186
1.198095 0.26546776 0.31921282 0.38015336 -0.044517387 -0.12582457 -0.099073395 -0.12871549
0.22905518 0.48265737 0.22183345 0.22943193 -0.1972054 0.53490984 0.09714526 0.028545313
0.9150931 0.20693843 -0.010443649 0.09553846 0.124844566 -0.023542702 -0.044194728 0.5817164
-0.05182209 0.029438114 0.05189829 0.07599492 0.25938419 0.3097465 -0.18156774 0.004548973
0.15516707 0.13405845 0.3666019 0.23517236 -0.033782896 0.08340138 -0.10713062 0.19123769
0.64310896 0.36029208 0.7282211 -0.111602195 0.4015667 0.67374426 0.44311503 -0.07540145
-0.016768442 0.053037025 0.5467655 0.36265567 0.003785659 -0.05694997 0.007797206 0.25032276
0.22493708 -0.1614731 0.5233044 0.51413566 0.5758136 0.23996317 0.46637335 0.08597403
0.76184773 0.4496962 0.28456143 0.09136201 0.11554248 -0.28325137 -0.13354006 -0.10988059
0.662504 0.114891805 0.26328152 -0.11811326

fc3.weight f4 [19, 84]
00000000: e248 17be bcc7 e9be c01d a53e a66c c6bc
00000010: 4a6a cabc 40bf 51bd 161c c43e 0cf7 903d
00000020: 170a 9abe 56cb 963e a3e0 73be 8830 9dbe
00000030: fbce de3b be66 adbe 1717 ecbc 0374 45bd
00000040: b1b2 df3e cdf7 e3be 7b39 d8be 7822 cebd
00000050: 38ab 0ebe 5482 5ebe c7be 75be 60ec babd
00000060: 8830 e7bd 7485 afbe 2b87 30bd e6eb 94bd
00000070: 2f3c 1fbe 5787 27be 0cd3 ed3e 14b1 89be
00000080: ae04 6dbd d2fd 01be f08b 4ebe 3594 fd3d
00000090: f98b 8f3e 5a8c 943e bd94 12be b151 603e
000000a0: 55ae 0fbe 1c00 8fbd 3809 15be c543 083e
000000b0: e2f3 93be a782 36be f102 f5bd f2f6 08be
000000c0: facb 8c3e f050 65be a249 0e3f 1f6a 2f3e
000000d0: 1b32 603e cab4 cd3e 493e ba3e bb0a 85bc
000000e0: ea87 4bbe d8b8 84bd df52 8c3e cf1f 063d
000000f0: 58eb c53d 3fa5 e03d f06e 2dbe f9b3 15be
00000100: 45ce 38be 164c e3bc 35d9 98be 0cb0 9e3e
00000110: 293b 323d 6741 4a3e 0e82 aebe bce6 d63d
00000120: a9d2 743e 9a86 93be 5240 983d 41eb 13be
00000130: 18b8 88be 536d a2be 4120 58be 31f9 2f3e
00000140: f8d2 3dbe d9f8 8cbd b1c9 3f3e dc20 e9bd
00000150: 1b5a 89be 1162 85be aa3f c43d ec87 e0bd
00000160: c388 c73e 3a83 973d 9720 093f 7c64 a93e
00000170: 27db b2be e511 c3bc be1f 7cbe 879e f3bd
00000180: 0fa8 51be 228f 643e 2b06 cf3d dd5b ae3c
00000190: a630 053f eb57 033e 2c45 9abe 09b2 bdbd
000001a0: e5fc 05be 15e8 4abe fd00 cd3d 1c71 53bd
000001b0: 01e7 f9bd c977 44be 5d6f 823d 1a2a bbbd
000001c0: 1a46 ebbd 0b00 c53e a65d b4bd fee7 89be
000001d0: 0412 a9bc 5c1a fa3d 4d50 c5be d3e9 c53d
000001e0: 6896 b5bb 5ea5 bf3e adcb 08be c395 b53c
000001f0: 7feb afbc 0c1f 01be d76a 9a3c 59e3 cc3c
00000200: 8a1a 4f3d 156c babd a65e c7bd f683 e33c
00000210: bf4a 303f 2f0e 5cbe 2b97 8fbd 73e2 413d
00000220: 1ae4 643e e002 763d e4d1 b23e 2715 73bd
00000230: 89b8 3dbd cca6 443e 4744 4d3d 1fb9 58be
00000240: 0bf1 38be 2ff5 8bbd 836b 76be ea36 4ebe
00000250: c834 42be c831 15be b7ce 23be 0a45 1d3f
00000260: 5851 a13d 67d6 043d 1da0 003e f327 843d
00000270: a0e4 9a3e 5373 24be 992a f83b 9680 32be
00000280: 550f e6bd 7489 4fbe 562e 82be 47c3 a0bd
00000290: 0061 83bd 92b5 bdbd 0f09 2b3f 25a0 c43c
000002a0: 09fa 70be 543c c8bd a46e a73e 37e9 80be
000002b0: e960 5ebe 744b da3d 76b8 953e 2a83 6c3d
000002c0: 9cee ccbe 9362 7abd 8043 1f3e bacf d5be
000002d0: 5e31 2abd c79c ca3d 6457 843d 3cf7 a13d
000002e0: b0b7 a13e 821d aebd ea1c f4bd 5bbf 8e3e
000002f0: 2ed0 b03d a5ba 70bd f75c 3e3c f215 12be
00000300: 504c a33d e89f acbd 3c84 0abe 4166 d93c
00000310: fae3 99bd f791 1a3e ee40 92be 4be8 dfbd
00000320: 54d7 e53d 9768 8dbe 5686 533d 79d2 09be
00000330: dfec fc3c c75c 723e 8cf8 35bd 2fe2 fdbd
00000340: 2bf4 14be f662 c6bd 2508 b83d ce21 243f
00000350: 0df6 9bbc 890d 11bd 3713 6d3e 2502 8ebe
00000360: 2ea7 023f 6a48 703b ad38 d13e 7f1d f23d
00000370: 936f 913e 3368 6a3e 6604 f73c e714 253e
00000380: 5b11 b0bd d5ae 723e 957d 9c3d b088 cabc
00000390: 4a3c c7be ddc2 49be 4000 57bd 4252 d9bd
000003a0: c7cc 34bb bd90 19be 4763 f4be d0f3 723d
000003b0: eb5f 923d b0dc 523f 5a6c 1cbe 32ac cb3b
000003c0: 2df5 4cbe 4612 dfbd f798 53bc aff9 d93d
000003d0: 65c1 15be bb25 293c ad67 aebd 957f 34be
000003e0: ceb3 28bb 9f4f babd c5c9 973d 9b27 c03e
000003f0: bc01 13be 85d0 c2be 3163 033e 88f9 babd
-0.14773896 -0.45660198 0.3224926 -0.02422173 -0.024708886 -0.05120778 0.38302678 0.070783705
-0.30085823 0.29452008 -0.23816161 -0.3070109 0.0067995763 -0.3386745 -0.028819604 -0.04820634
0.43691018 -0.44524994 -0.42231354 -0.10065168 -0.13932502 -0.21729404 -0.23998557 -0.09127116
-0.112885535 -0.34281504 -0.043097656 -0.072715566 -0.15550302 -0.16360222 0.46450078 -0.26892912
-0.05786579 -0.12694481 -0.2017057 0.12381784 0.28036478 0.2901333 -0.14314552 0.21906163
-0.14031346 -0.06982443 -0.14554298 0.13307102 -0.28897005 -0.17823277 -0.11963452 -0.13375452
0.27499372 -0.22394156 0.55581105 0.17130326 0.21894114 0.40176994 0.36375645 -0.016240468
-0.19876066 -0.06480569 0.27406976 0.03274518 0.09664029 0.10969018 -0.1693685 -0.14619435
-0.18047436 -0.027746242 -0.29853216 0.30993688 0.04351345 0.19751512 -0.340836 0.10493228
0.23908485 -0.2881363 0.07434143 -0.14445211 -0.26702952 -0.31724033 -0.21106054 0.17184903
-0.1853751 -0.068834014 0.18729283 -0.113832206 -0.26826558 -0.2605138 0.095824555 -0.10963425
0.38971528 0.07398076 0.53565353 0.33084476 -0.34932825 -0.023812244 -0.24621484 -0.11895471
-0.20474266 0.22320226 0.10108598 0.021284038 0.52027357 0.12826507 -0.301309 -0.09262473
-0.13084753 -0.19815095 0.10009954 -0.05162154 -0.122022636 -0.1918632 0.06368897 -0.091388896
-0.1148798 0.38476595 -0.088069245 -0.26934808 -0.020638473 0.12212059 -0.38537827 0.09663739
-0.0055416115 0.37430853 -0.13358946 0.022166139 -0.021474598 -0.126095 0.018849773 0.025010752
0.05056242 -0.09102646 -0.0973485 0.027772885 0.68864053 -0.21489786 -0.07011255 0.0473351
0.22352639 0.060061336 0.3492576 -0.059346344 -0.046318565 0.19204253 0.050113942 -0.21164368
-0.180607 -0.068338744 -0.2406445 -0.20138136 -0.18965447 -0.14569771 -0.15996824 0.6143347
0.07876843 0.032431033 0.12561078 0.06452932 0.30252552 -0.16059618 0.0075734374 -0.17431864
-0.11233393 -0.20267278 -0.25425977 -0.07849746 -0.06414986 -0.092631474 0.668107 0.024002144
-0.23532881 -0.09777132 0.327016 -0.2517793 -0.21716656 0.10658923 0.29242295 0.057742275
-0.40025795 -0.061129164 0.15553093 -0.41760045 -0.041550986 0.09893184 0.06461981 0.07908484
0.31585455 -0.08501722 -0.119195774 0.27880368 0.08633457 -0.058771748 0.011618844 -0.14266184
0.0797354 -0.08428937 -0.13527006 0.026538016 -0.07514186 0.15094744 -0.28565162 -0.10932978
0.11222711 -0.27618858 0.051641785 -0.13459195 0.030874668 0.23668204 -0.044426486 -0.12396657
-0.14546268 -0.09686844 0.089859284 0.6411408 -0.019038225 -0.0354133 0.23151861 -0.2773601
0.51036346 0.0036664256 0.40863553 0.11822032 0.28405437 0.22891311 0.030153465 0.16121255
-0.0859706 0.23699506 0.0764114 -0.02472338 -0.38913184 -0.1970324 -0.052490473 -0.106113926
-0.0027587877 -0.1499662 -0.47731993 0.05931455 0.07147201 0.8236799 -0.15275708 0.0062155956
-0.20015402 -0.10892157 -0.012914888 0.106433265 -0.14624555 0.010323937 -0.08515868 -0.17626794
-0.0025741938 -0.09097218 0.07411531 0.37530217 -0.1435613 -0.38049713 0.12830807 -0.091296256

fc3.bias f4 [19]
00000000: 616b 54be 33bb c2bd 6e5c 4dbe 4b28 6c3e
00000010: 7434 8dbf 3ea5 0d3f eafe 9ebf 3fc7 7e3e
00000020: 4d3a 89bf dc22 74be 8a43 273f 3f92 29bf
00000030: c1a5 0a3f d28e 833e 2a84 b73d d869 273f
00000040: 9d18 473f 7111 0b3f a7fa 9abe
-0.20744087 -0.09508362 -0.2005479 0.23062246 -1.1031632 0.55330265 -1.2421544 0.24880694
-1.0720917 -0.23841423 0.6533743 -0.6623878 0.5415917 0.256949 0.08960755 0.6539588
0.7777193 0.5432349 -0.30269358
