python/Media_and_Cognition/exp/MCDNN_best.pth (torch_old, 505134 bytes, 20 tensors)

conv1_1.weight f4 [6, 3, 5, 5]
0	0x3e8ae748	0.2712958
1	0x3e240892	0.16018894
2	0x3d891904	0.066942245
3	0xbe54fcec	-0.20799607
4	0xbe48d560	-0.19612646
5	0x3e6a7cbf	0.2289915
6	0x3e456548	0.19276917
7	0xbdd84046	-0.10559134
8	0xbebea05f	-0.37231728
9	0xbea64217	-0.32472298
10	0xbcb8e77e	-0.022571322
11	0x3d8639e0	0.065540075
12	0xbe58489b	-0.21121447
13	0xbea10f1f	-0.3145685
14	0xbeb7e733	-0.35918579
15	0x3e04bbe7	0.12962304
16	0xbdec4ad7	-0.11537712
17	0xbead3b71	-0.33834413
18	0xbee4f3a5	-0.44717136
19	0xbdf21ca5	-0.1182187
20	0x3eac59e9	0.33662346
21	0xbd616c64	-0.05503501
22	0xbeb5820c	-0.3545078
23	0xbe6c1715	-0.2305568
24	0x3e123eab	0.14281718
25	0x3d3b4a4b	0.04572515
26	0x3c9a8acd	0.018865013
27	0x3d3c4f4c	0.04597406
28	0xbe5b182b	-0.21395938
29	0xbea265a3	-0.31718168
30	0xbd1c6de9	-0.038190756
31	0x3e07dbf4	0.13267499
32	0xbd6015e3	-0.054708373
33	0xbed9556c	-0.42447984
34	0xbec899a1	-0.3917971
35	0xbd532520	-0.051549077
36	0x3b157863	0.0022807352
37	0xbe9a17ff	-0.30096433
38	0xbed7f592	-0.42179543
39	0xbeb9d2b4	-0.36293566
40	0xbd4fac89	-0.05070165
41	0xbe55b71c	-0.20870632
42	0xbee61949	-0.44941166
43	0xbee9d26c	-0.45668352
44	0xbe35c87f	-0.17752264
45	0x3dab3a2c	0.08360705
46	0xbe06d277	-0.13166223
47	0xbeadf723	-0.33977613
48	0xbec649b5	-0.3872811
49	0xbe0ba1ee	-0.1363599
50	0x3ead3e54	0.33836615
51	0x3ef23b63	0.47310933
52	0x3ea0edac	0.3143133
53	0x3dbbeb60	0.091757536
54	0x3e550216	0.20801577
55	0x3ec6f0cc	0.38855588
56	0x3f0db62d	0.55356103
57	0x3e916624	0.2839824
58	0x3d8016aa	0.06254323
59	0x3e3f9174	0.1870783
60	0x3ea8f067	0.32995912
61	0x3ee009a1	0.43757346
62	0x3e372606	0.17885599
63	0xbbe4ce05	-0.0069825673
64	0x3d95efe7	0.07321148
65	0x3e45884f	0.19290279
66	0x3eb3b330	0.35097647
67	0x3d33fda6	0.04394307
68	0x3cc941c9	0.024567502
69	0x3e580531	0.2109573
70	0x3e8ebb27	0.2787716
71	0x3e5ad625	0.21370752
72	0x3d706154	0.05868657
73	0x3db1b665	0.08677367
74	0x3e639f69	0.22228779
75	0x3ecb4c7c	0.3970679
76	0x3edcc4e2	0.4311896
77	0x3e8c9dd5	0.27464166
78	0x3e93c116	0.2885825
79	0x3ec0e104	0.37671673
80	0xbc67a2e5	-0.014137958
81	0x3d165676	0.03670355
82	0x3e0cfa12	0.13767269
83	0x3e860678	0.2617681
84	0x3e81a0d8	0.25318027
85	0xbdd2df2c	-0.10296473
86	0xbe814b62	-0.25252825
87	0x3c5a92e8	0.013340689
88	0x3d121af3	0.035670232
89	0xbd8e186b	-0.06938251
90	0xbe87d61e	-0.26530546
91	0xbe9c4d54	-0.30527747
92	0xbe792231	-0.24329449
93	0xbe65f1db	-0.22455542
94	0xbe45018e	-0.19238874
95	0xbed34800	-0.4126587
96	0xbed241c8	-0.41065812
97	0xbeb8d6ca	-0.3610137
98	0xbeecb4c9	-0.46231678
99	0xbeb4fb82	-0.35348135
100	0x3ee1d284	0.44105923
101	0x3ec4eb82	0.38460928
102	0x3f1291fc	0.57254004
103	0x3ed37ef1	0.41307786
104	0x3ef64fb0	0.48107672
105	0x3e8e32bb	0.2777308
106	0x3e7eeafe	0.2489433
107	0x3e6af1b2	0.22943762
108	0x3ec1c754	0.37847388
109	0x3ef061f9	0.46949747
110	0x3cf6bd5c	0.03011959
111	0x3d414a7f	0.047190186
112	0x3e14f70a	0.14547363
113	0x3dc7518d	0.097323515
114	0x3db1bd28	0.08678657
115	0x3cfb45e2	0.030672971
116	0xbe32f7b0	-0.17477298
117	0xbdaa93bd	-0.0832896
118	0xbe6fc623	-0.23415427
119	0xbd3086cd	-0.043097306
120	0xbd195cf6	-0.03744217
121	0xbcea34dd	-0.02858966
122	0xbe095b6d	-0.13413782
123	0xbe704170	-0.23462462
124	0xbe8dabec	-0.27670228
125	0x3cc852ae	0.024453487
126	0x3de831f8	0.11337656
127	0x3e688aa2	0.22709134
128	0x3dab17b8	0.08354133
129	0x3e4bc06c	0.19897622
130	0xbc6aae87	-0.014323837
131	0x3cbcc48a	0.023042936
132	0x3ded56d7	0.11588829
133	0x3e7e0b74	0.24809057
134	0x3d68794a	0.056756295
135	0xbe04ce5f	-0.1296935
136	0xbdde44be	-0.10852955
137	0xbd32af83	-0.043624412
138	0xbd117e6a	-0.03552095
139	0xbd81441a	-0.063118175
140	0xbe64fb4e	-0.2236149
141	0xbe933033	-0.2874771
142	0xbebb4487	-0.3657572
143	0xbed9dd40	-0.42551613
144	0xbeafa6a5	-0.34306827
145	0xbeb3415f	-0.35010812
146	0xbea9c9bb	-0.3316172
147	0xbec347c1	-0.3814068
148	0xbefeb356	-0.49746197
149	0xbf07593d	-0.5287054
150	0x3e09aad9	0.1344408
151	0x3d85935c	0.06522247
152	0x3e80b16e	0.25135368
153	0x3e9a3b0f	0.30123183
154	0x3e73ba3e	0.23801515
155	0x3db6e826	0.089309976
156	0x3da7de25	0.081966676
157	0xbcfe105f	-0.031013666
158	0x3e1182ab	0.14210002
159	0x3e4e22e3	0.20130496
160	0x3e6e4a53	0.2327054
161	0x3d89b1ad	0.06723342
162	0x3df0b33f	0.117529385
163	0xbd04d158	-0.03242621
164	0x3d660e9a	0.05616627
165	0x3e91ce21	0.28477576
166	0x3e37eba9	0.17960991
167	0x3e9a7466	0.3016693
168	0x3e4532d2	0.19257668
169	0x3bedf65b	0.007262034
170	0x3e9741d6	0.29542416
171	0x3e893944	0.26801503
172	0x3e2de4a2	0.16981748
173	0x3e89ce6c	0.269153
174	0x3e354b2a	0.17704454
175	0xbe26297e	-0.16226766
176	0xbe71cbe4	-0.23612934
177	0xbdae7061	-0.08517528
178	0xbba49be3	-0.005023466
179	0xbd50356a	-0.05083219
180	0xbe8c1734	-0.27361453
181	0xbe191257	-0.14948402
182	0xbe697474	-0.2279833
183	0xbe9f7449	-0.31143406
184	0xbe3ccf61	-0.18438484
185	0xbe7587b8	-0.23977554
186	0xbdf05283	-0.11734488
187	0xbea22f7e	-0.3167686
188	0xbe986571	-0.29764894
189	0xbe2eaf4b	-0.17059056
190	0xbdbf0def	-0.093288295
191	0xbe60e661	-0.21962883
192	0xbe1f1baa	-0.15537897
193	0xbe71bcd0	-0.23607183
194	0xbd8f789a	-0.07005425
195	0xbc9cc9e8	-0.019139245
196	0xbe3a08fa	-0.18167487
197	0xbd7064e6	-0.058689974
198	0xbe5908cc	-0.21194762
199	0xbe63a986	-0.22232637
200	0xbca28a88	-0.019841447
201	0x3da74dad	0.08169112
202	0x3da11387	0.07865053
203	0xbb6430f6	-0.0034819222
204	0x3e543bb3	0.20725898
205	0x3c673e06	0.014113909
206	0xbe26ee79	-0.16301908
207	0xbcea63ab	-0.028611979
208	0xbd38103b	-0.044937354
209	0x3d3aede0	0.04563701
210	0xbcb877c4	-0.022518046
211	0xbdfe6ba0	-0.124228716
212	0xbe23f7cd	-0.16012497
213	0xbd3d4d3f	-0.046216246
214	0xbdb85b54	-0.090017945
215	0xbd9079eb	-0.07054504
216	0xbc89fbd4	-0.016843714
217	0x3db47da4	0.088130265
218	0x3de42309	0.11139495
219	0xbd256ec5	-0.04038884
220	0xbd3cbfaa	-0.046081223
221	0xbc98733b	-0.018609634
222	0x3d3b40af	0.045715984
223	0x3d81b729	0.06333763
224	0x3da42977	0.08015721
225	0xbe8db1e1	-0.27674773
226	0xbec00112	-0.37500817
227	0xbf036f49	-0.5134168
228	0xbef12ccb	-0.47104487
229	0xbe3c3798	-0.18380582
230	0x3ab3672c	0.0013687364
231	0xbe21a847	-0.15786849
232	0xbe90cfc2	-0.28283507
233	0xbeb3b0d0	-0.35095835
234	0xbebb11df	-0.36537072
235	0x3ed09c2e	0.40744156
236	0x3ec56cb6	0.38559502
237	0xbd08fac0	-0.03344226
238	0xbb5427ba	-0.0032372312
239	0x3da21636	0.07914393
240	0x3f2351cd	0.63796693
241	0x3f14bd7a	0.5810162
242	0x3ea6a0ca	0.32544547
243	0x3d4f23ee	0.050571375
244	0x3d59fa03	0.053216945
245	0x3f06b1ea	0.52615225
246	0x3f253aa9	0.64542633
247	0x3f242495	0.6411832
248	0x3e6884ef	0.2270696
249	0x3d3f3c9e	0.04668867
250	0xbe1b6a5f	-0.15177296
251	0xbed20bd0	-0.41024637
252	0xbf219e6e	-0.6313237
253	0xbf1675e2	-0.58773625
254	0xbecd742d	-0.40127698
255	0xbd0b80ac	-0.034058258

conv1_1.bias f4 [6]
0	0xbe12cecb	-0.14336698
1	0xbbb4682f	-0.0055055837
2	0x3e720637	0.23635183
3	0x3c9dbee3	0.019256061
4	0x3dfacb21	0.12245775
5	0xbf0c97ef	-0.5491933

conv2_1.weight f4 [16, 6, 5, 5]
0	0x3e089ddd	0.1334147
1	0x3e81ab04	0.25325787
2	0x3e2c82ca	0.16846767
3	0xbdeff696	-0.117169544
4	0xbe5c18f8	-0.214939
5	0x3e5a498c	0.21317118
6	0x3e858657	0.26079056
7	0x3db01740	0.085981846
8	0xbe5d1c75	-0.21592887
9	0xbe8e3c58	-0.27780414
10	0x3e53b207	0.20673381
11	0x3e3fc7d8	0.18728578
12	0xbdc41fce	-0.09576379
13	0xbdcc4cca	-0.09975584
14	0xbe62b387	-0.22138797
15	0x3e430786	0.19045839
16	0x3e080e8a	0.13286796
17	0xbdd39f8a	-0.10333164
18	0xbbbb04c0	-0.0057073534
19	0x3cf8325f	0.030297456
20	0xbd317faa	-0.04333464
21	0xbdf1b6e9	-0.118024655
22	0xbc1511ef	-0.009098514
23	0xbc4b4042	-0.012405457
24	0xbd0792c6	-0.03309896
25	0xbc8fe6ba	-0.017566074
26	0x3d1689ec	0.036752626
27	0x3c9a8ed0	0.018866926
28	0x3c22a5fe	0.009927271
29	0xbdfd088e	-0.12355147
30	0xbdfff1b2	-0.124972716
31	0xbde09ad8	-0.10967034
32	0xbe29f180	-0.16596031
33	0xbe6760ed	-0.22595568
34	0xbe2cd7e3	-0.16879229
35	0x3d331b79	0.04372737
36	0x3bdfe1fc	0.0068323594
37	0xbddebf74	-0.108763605
38	0xbe13dcd2	-0.14439705
39	0xbdf3e35c	-0.119086
40	0x3dd13662	0.10215451
41	0x3b500e7a	0.003174691
42	0xbdfff3fa	-0.12497707
43	0xbde949e0	-0.11391044
44	0xbdddd795	-0.10832135
45	0xbe8df5b5	-0.27726522
46	0xbe478c33	-0.19487076
47	0xbe3a5aa7	-0.18198644
48	0xbe38429c	-0.1799416
49	0xbd8550ce	-0.06509553
50	0x3bc202ac	0.0059207287
51	0xbd53b495	-0.05168589
52	0x3d8fac17	0.070152454
53	0xba5f1e06	-0.0008511249
54	0x3e040adf	0.12894772
55	0xbcd462df	-0.025926052
56	0xbd214a7d	-0.03937768
57	0x3ded2983	0.11580183
58	0x3dca959a	0.098918155
59	0xbc09d426	-0.008412397
60	0xbd9ed41c	-0.077553004
61	0xbdb89a25	-0.09013776
62	0x3c3dda9f	0.011587768
63	0x3d529dbd	0.051419962
64	0x3d0e39b5	0.034723002
65	0x3da07a19	0.07835788
66	0x3d0e4952	0.034737892
67	0x3d375038	0.044754237
68	0x3c557950	0.013029411
69	0x3db35893	0.087571286
70	0x3da2e524	0.07953861
71	0x3d8add14	0.067804486
72	0x3c9c04f2	0.019045327
73	0x3d0992d0	0.033587277
74	0xbd45f443	-0.04832865
75	0x3c15ed4d	0.009150815
76	0x3e44c1db	0.19214575
77	0x3d1f184b	0.038841527
78	0xbcd75cc0	-0.026289344
79	0x3e01343b	0.1261758
80	0xbd9ea92a	-0.07747109
81	0x3dbd40d8	0.092408836
82	0x3e5e1dbc	0.2169103
83	0x3cbcffb0	0.02307114
84	0x3e0e5b97	0.13902126
85	0xbe32f98f	-0.17478012
86	0xbe4b3ea3	-0.19848113
87	0xbd55ddd1	-0.052213494
88	0xbc942856	-0.01808564
89	0x3c927632	0.017878626
90	0xbd1a87d5	-0.037727196
91	0xbcd3011c	-0.025757365
92	0xbdd9c75a	-0.106337264
93	0xbd6d0308	-0.05786422
94	0xbc6d473e	-0.0144823175
95	0x3eccc0ab	0.39990744
96	0x3e1637dc	0.14669746
97	0xbca7177a	-0.020396937
98	0xbe25afa9	-0.1618029
99	0xbe37dabd	-0.17954536
100	0xbbd54631	-0.0065086116
101	0xbba7021b	-0.0050966865
102	0x3de43eb4	0.11144772
103	0x3c9103a0	0.017701924
104	0xbdb9ad51	-0.090662606
105	0xbd92f1f6	-0.07175057
106	0xbdef468f	-0.1168338
107	0x3d467c2b	0.04845826
108	0x3a22e07f	0.0006213262
109	0xbd52cf86	-0.05146744
110	0xbccd5592	-0.025065217
111	0xbb541b5d	-0.0032364943
112	0x3d70c80d	0.058784533
113	0x3d822d40	0.06356287
114	0x3c46bd73	0.012130129
115	0x3ddd503f	0.10806321
116	0x3def9700	0.11698723
117	0x3dcb48fd	0.09926031
118	0x3cc254c3	0.023722058
119	0xbd8e48fa	-0.06947513
120	0xbdcb0b5c	-0.09914276
121	0xbde26709	-0.11054809
122	0xbe2f7560	-0.17134619
123	0xbd984c76	-0.07436459
124	0x3d73d0ed	0.05952542
125	0x3da134b5	0.07871381
126	0x3e4a329f	0.19745873
127	0x3dca444c	0.09876308
128	0x3c529004	0.012851719
129	0xbdffc2af	-0.12488305
130	0x3d908440	0.07056475
131	0x3e3c0198	0.18359983
132	0x3e132369	0.14368977
133	0xbd8bb9ac	-0.068225235
134	0xbd2a84b0	-0.041630447
135	0x3d35b9ab	0.04436652
136	0x3d511d92	0.05105359
137	0xbd8bade1	-0.06820274
138	0xbe0c4e14	-0.1370166
139	0xbe65099e	-0.2236695
140	0x3db7fa59	0.08983297
141	0x3e46f664	0.19429928
142	0xbcd6ade3	-0.026205963
143	0xbe2798a2	-0.16366819
144	0xbe689e2c	-0.22716588
145	0x3d7f28a7	0.06229463
146	0x3d9ba860	0.07600474
147	0xbe1940ba	-0.14966097
148	0xbe30bbce	-0.17259142
149	0xbdbb981c	-0.09159872
150	0x3dffc774	0.124892145
151	0x3cc8086d	0.02441808
152	0xbd63ce66	-0.05561676
153	0x3bf28bdc	0.0074019264
154	0x3c805dcb	0.015669724
155	0x3ce2de10	0.027693778
156	0x3e144dd4	0.14482814
157	0xbcdf05ff	-0.027224539
158	0xbb9bb0cb	-0.0047513
159	0xbe3cbc94	-0.18431312
160	0xbcfa4575	-0.030550698
161	0x3cf92a8e	0.0304158
162	0xbd56799d	-0.052362073
163	0xbe7e305f	-0.2482314
164	0xbe515c87	-0.20445453
165	0xbe61251d	-0.21986814
166	0xbe0e6e28	-0.13909209
167	0xbda76ff5	-0.08175651
168	0xbe2fccf1	-0.17168023
169	0xbd637c51	-0.05553848
170	0xbe37f7f1	-0.17965676
171	0xbe448ff5	-0.1919554
172	0xbd4fae48	-0.050703317
173	0xbd77354a	-0.060353555
174	0x3d0363d6	0.032077633
175	0xbe839c1c	-0.2570504
176	0xbec4c637	-0.38432476
177	0xbe0416e3	-0.12899356
178	0xbd490dec	-0.049085543
179	0x3dfcd3f6	0.12345116
180	0xbd4acad9	-0.049509857
181	0x3d5d48cb	0.0540245
182	0x3dd626a5	0.104565896
183	0x3e327610	0.1742785
184	0x3d8190b5	0.06326429
185	0x3e1020e3	0.14075045
186	0x3d7067a8	0.058692604
187	0x3de0e7e2	0.10981728
188	0x3db5191a	0.08842678
189	0x3d5bf18b	0.05369715
190	0xbdf2f1d0	-0.11862528
191	0xbdac3cc4	-0.084100276
192	0xbdf55fa8	-0.119811356
193	0xbe6b3430	-0.22969127
194	0xbe2df7fc	-0.1698913
195	0x3d39cb98	0.045360178
196	0xbdb2a5ca	-0.08723028
197	0x3c624507	0.013810403
198	0xbc27a570	-0.0102323145
199	0xbe10b39b	-0.14131014
200	0x3d31a3d3	0.043369126
201	0x3e0cdb80	0.13755608
202	0x3d98755f	0.07444262
203	0x3d9968cc	0.074906915
204	0x3b62d05f	0.0034609062
205	0xbdaae46c	-0.08344349
206	0x3c516c25	0.012782131
207	0x3d1574ad	0.036488224
208	0xbc99ee1b	-0.018790295
209	0x3db5b42f	0.08872258
210	0xbde03c85	-0.10949043
211	0x3d988a49	0.07448251
212	0x3df7f692	0.121075764
213	0x3e9b110e	0.3028645
214	0x3e67ec70	0.22648787
215	0x3d36717f	0.044541832
216	0x3c9029cb	0.017598053
217	0x3d6e3ef1	0.058165494
218	0x3e1367bf	0.14395045
219	0x3e394451	0.18092467
220	0xbe882d58	-0.26597095
221	0xbe10a62c	-0.1412589
222	0xbd22e509	-0.039769206
223	0x39bfeb91	0.0003660587
224	0x3d403e67	0.04693451
225	0xbda0e5a8	-0.078563035
226	0xbd9727db	-0.07380649
227	0xbeb08f47	-0.34484312
228	0xbe2326c8	-0.15932763
229	0xbdcd771a	-0.100324824
230	0xbe78aad2	-0.24283913
231	0x3d0bd80b	0.03414158
232	0xbddca552	-0.1077372
233	0xbdad1509	-0.08451278
234	0x3e4e6eac	0.20159405
235	0xbea49e99	-0.3215225
236	0x3e3b6454	0.18299991
237	0x3e0056dd	0.12533136
238	0x3d1f012f	0.03881949
239	0x3eb80e3b	0.35948357
240	0xbd3e650c	-0.046483085
241	0x3e31594f	0.17319225
242	0x3edbf4b9	0.42960146
243	0x3eabacf3	0.33530387
244	0x3e20e3af	0.15711854
245	0xbe4f70e7	-0.20257913
246	0xbda91b83	-0.082572006
247	0x3c08cefc	0.00835013
248	0xbda1227f	-0.07867908
249	0xbe2fc683	-0.1716557
250	0xbdcd62a8	-0.10028583
251	0xbd780601	-0.0605526
252	0x3d23d58f	0.039998587
253	0xbe1a8706	-0.1509057
254	0xbe2fb5df	-0.17159222
255	0xbdb9bc39	-0.09069104

conv2_1.bias f4 [16]
0	0xbd154260	-0.036440253
1	0xbe3fbbfd	-0.18724056
2	0x3b032c24	0.0020015324
3	0x3e5a1b5b	0.21299498
4	0xbdedb7ff	-0.1160736
5	0x3d343de8	0.04400435
6	0xbe2aef05	-0.16692741
7	0xbcccf31e	-0.025018271
8	0x3e771434	0.241288
9	0x3e750b7d	0.23930164
10	0xbc1ae4dd	-0.009453979
11	0xbcecf9a3	-0.02892763
12	0x3dca13fd	0.09867094
13	0x3d8133e0	0.063087225
14	0x3da8aafe	0.08235739
15	0x3d25b6ec	0.04045765

fc1_1.weight f4 [120, 400]
0	0x3d45fe7a	0.04833839
1	0xbd60f838	-0.05492422
2	0x3c08eb47	0.008356876
3	0xbccc4050	-0.02493301
4	0xbd219423	-0.039447915
5	0xbd1ef723	-0.038809907
6	0xbc93eb6b	-0.018056592
7	0x3cc619a2	0.024182145
8	0x3c3c2c2f	0.011485144
9	0xbd5a607f	-0.053314682
10	0x3b9ece9b	0.0048464066
11	0x3d6903d0	0.0568884
12	0xbcb0e63a	-0.021594156
13	0xbb29163e	-0.002580061
14	0xbd53eee8	-0.05174151
15	0x3c8ca246	0.017167222
16	0xbd00e97c	-0.031472668
17	0x3c24ed0e	0.010066284
18	0x3d24c80f	0.040229853
19	0xbd02f8ef	-0.031975683
20	0x3d088e7b	0.033339005
21	0xbb3f2f1e	-0.002917237
22	0x3c534a3c	0.012896117
23	0x3c7f7cc0	0.015593708
24	0xbc533384	-0.0128907
25	0x3d2f71a3	0.04283298
26	0xbbdad2db	-0.006677968
27	0x3bf6ac3f	0.0075278576
28	0xbcb3ecb9	-0.021963464
29	0xbbcc0b63	-0.0062269433
30	0x3d090a38	0.03345701
31	0xbd95bdcb	-0.07311591
32	0xbcd58030	-0.026062101
33	0x3d33aa7f	0.04386377
34	0x3d1f857d	0.038945664
35	0x3d6939df	0.056939956
36	0x3ce9eef5	0.028556326
37	0x3bd93f6f	0.0066298763
38	0xb9477f16	-0.00019025462
39	0xbd0b746b	-0.03404657
40	0xbd70611c	-0.05868636
41	0xbba68b6f	-0.0050825397
42	0xbcd1549f	-0.025553046
43	0x3cfd98d9	0.030956673
44	0x3ce4581f	0.02787405
45	0x3abf1bb8	0.0014580404
46	0xbc752fb1	-0.014964984
47	0xbd6514eb	-0.055928152
48	0xbc85a022	-0.016311709
49	0x3d07fb31	0.03319854
50	0x3d6d7482	0.05797244
51	0xbbe39456	-0.0069451733
52	0xbc8abf8b	-0.016937038
53	0xbdabb20e	-0.083835706
54	0xbda2b5c6	-0.07944827
55	0xbd86f386	-0.06589417
56	0x3c96bfd5	0.01840202
57	0x3cb9ea87	0.02269484
58	0xbb3b8a47	-0.0028616355
59	0xbd449a85	-0.047998924
60	0xbd3661a3	-0.044526707
61	0x38b42877	8.590606e-05
62	0x3cc607c9	0.024173634
63	0xbd28c632	-0.04120464
64	0xbcbb92fd	-0.022897238
65	0x3ce034d0	0.027368933
66	0xbd293108	-0.041306525
67	0xbd6f91ca	-0.058488645
68	0xbd2f590e	-0.04280954
69	0xbd079156	-0.033097588
70	0x3c3b8d50	0.011447266
71	0xbcfa0843	-0.030521518
72	0xbd52672e	-0.05136793
73	0xbc2442bd	-0.010025677
74	0xbd586335	-0.052828986
75	0xbd0641f6	-0.03277775
76	0x3cc85a5d	0.024457151
77	0xbd1a26b8	-0.03763458
78	0xbc854daa	-0.016272385
79	0xbdb66764	-0.08906439
80	0x3b925b19	0.004466426
81	0x3c7b7e4d	0.015349937
82	0xbd4affb1	-0.049560253
83	0x3b43450e	0.0029795798
84	0xbd8441c5	-0.06457857
85	0x3cdf5b2f	0.02726516
86	0x3d40748e	0.046986155
87	0xbdaecd1c	-0.08535215
88	0xbd8ab089	-0.06771953
89	0xbd405aba	-0.046961524
90	0xbc664558	-0.014054619
91	0xbca6c013	-0.02035526
92	0xbdb544fc	-0.08851048
93	0x3c4357eb	0.011922817
94	0xbd328170	-0.043580472
95	0x3c006483	0.007836464
96	0xbcd53678	-0.02602695
97	0xbd59de88	-0.053190738
98	0xbdcbd633	-0.09952965
99	0x3a895d1e	0.0010480022
100	0x3bd1161c	0.0063808095
101	0xbd04ae13	-0.032392573
102	0xbd6c9f2d	-0.05776899
103	0x3c001be4	0.00781915
104	0xbd1e721a	-0.038683034
105	0x3d0caadd	0.034342635
106	0xbd27eca2	-0.040997155
107	0xbcf40da8	-0.029791668
108	0xbd22cdce	-0.039747052
109	0x3d21594c	0.0393918
110	0xba9cd83e	-0.0011966301
111	0xbc8574e0	-0.016291082
112	0xbd5e2a22	-0.0542394
113	0x3bc5d459	0.0060372767
114	0xbd396dc5	-0.0452707
115	0xbc46139b	-0.012089635
116	0xbd1aedf1	-0.037824575
117	0xbd2c816c	-0.042115614
118	0xbd0a6f85	-0.03379776
119	0xbaf36d64	-0.001857203
120	0xbd2a84bf	-0.041630503
121	0xbd36a042	-0.044586428
122	0x3d00e48b	0.031467956
123	0x3d351687	0.044210937
124	0xbc6d53cb	-0.01448531
125	0xbd5138a5	-0.05107941
126	0x3c94657a	0.018114794
127	0xbd45b252	-0.048265763
128	0x3d03fbca	0.032222547
129	0xbb2a77ca	-0.0026011341
130	0xbd6654b2	-0.056233115
131	0xbc9bcb0c	-0.019017719
132	0x3d612f91	0.054977003
133	0xbc8b18fd	-0.016979689
134	0x3c8715a3	0.01648981
135	0xbc173b15	-0.009230395
136	0x3bdd68ba	0.006756869
137	0xbcf99902	-0.030468468
138	0xbb027158	-0.0019903984
139	0xbbf53d59	-0.00748412
140	0x3cf27085	0.02959467
141	0x3cf7fa26	0.030270647
142	0x3ac768a3	0.0015213679
143	0x3c13bcfa	0.0090172235
144	0xbcd4cc3e	-0.025976297
145	0xbd1dc73f	-0.038520094
146	0x3c2604bb	0.010132964
147	0xbd2847ee	-0.041084222
148	0xbb0d839d	-0.002159334
149	0xbc926617	-0.017870946
150	0xbd2609a1	-0.040536527
151	0xbc750e9d	-0.014957097
152	0x3c3726f3	0.01117872
153	0x3b9a1ab3	0.00470289
154	0x3a8704f6	0.0010301161
155	0x3cb4fc10	0.022092849
156	0x3cfe79eb	0.031063994
157	0xbd0572eb	-0.032580297
158	0xbc6f9404	-0.014622692
159	0x3d9cb833	0.07652321
160	0x3d0451d3	0.032304596
161	0x3d5de827	0.054176476
162	0x3d0339e0	0.032037616
163	0xbb864e37	-0.0040986794
164	0x3d685233	0.056719016
165	0x3d22fdec	0.03979294
166	0xbcbcf08a	-0.023063917
167	0x3d6000e6	0.054688357
168	0x3d434cf3	0.047680806
169	0x3d3e3bf0	0.04644388
170	0x3de62085	0.11236671
171	0x3d3cf153	0.046128582
172	0xbcfdfd53	-0.031004583
173	0xbb80c2ca	-0.0039294707
174	0xbbeb1ae2	-0.0071748355
175	0xbcfeab21	-0.03108746
176	0xbc81aa82	-0.015828375
177	0xbab59f26	-0.0013856634
178	0xbcec4ac8	-0.028844252
179	0xbd1d0401	-0.038333897
180	0x3d3d0d73	0.046155404
181	0x3c26ab66	0.0101727005
182	0x3bc93d9f	0.006141379
183	0x3c1c45c6	0.00953812
184	0xbd570b13	-0.052500796
185	0x3b09f970	0.0021053217
186	0xbd4c7342	-0.049914606
187	0x3d02b230	0.031908214
188	0xbcf25869	-0.029583173
189	0x3db67b2c	0.08910212
190	0x3d1e70f4	0.03868194
191	0x3c7dce19	0.015491032
192	0x3d09a9e9	0.033609305
193	0xbd438ee4	-0.047743693
194	0x3b0bb126	0.0021315305
195	0x3db7eaee	0.08980356
196	0x3cb5b6b5	0.022181848
197	0xbcc72326	-0.024308752
198	0xbd3ca2a5	-0.046053547
199	0xbd25c142	-0.040467508
200	0xbce02cb1	-0.02736506
201	0xbc633809	-0.01386834
202	0x3d0ca659	0.03433833
203	0x3d0798d8	0.033104748
204	0xbc9b5b90	-0.018964559
205	0xbca31414	-0.019907035
206	0x3c25294e	0.010080649
207	0x3d25fa7d	0.040522087
208	0x3bd9a585	0.006642046
209	0x3bffa242	0.007801325
210	0x3cedbdf7	0.029021246
211	0x3d658ed0	0.0560444
212	0x3c5dd4e4	0.013539527
213	0xbccf412d	-0.025299633
214	0xbd6363a3	-0.055514943
215	0x3d45f070	0.048325002
216	0xbd2b6646	-0.041845582
217	0xbca28440	-0.019838452
218	0xbc9de381	-0.019273521
219	0x3c751e1a	0.01496079
220	0x3d14121a	0.036150075
221	0x3d6347d4	0.055488423
222	0xbc433369	-0.011914113
223	0xbcc99c1b	-0.02461057
224	0xbb1715a2	-0.0023053666
225	0xbc93627c	-0.017991297
226	0x3d29f228	0.041490704
227	0xbce250c6	-0.027626406
228	0x3d2f9716	0.042868696
229	0x3d59f73f	0.053214308
230	0x3d9055da	0.07047625
231	0xbd132934	-0.035927966
232	0xbcfd6418	-0.030931517
233	0x3c5d833f	0.013520061
234	0xbd2df963	-0.04247416
235	0xbce22984	-0.027607687
236	0xbd2341a8	-0.039857537
237	0xbc4492c7	-0.011997885
238	0x3cfe74d6	0.031061571
239	0x3d6554e8	0.055989176
240	0x3d50ac23	0.050945412
241	0x3d60d416	0.05488976
242	0xbd218a83	-0.039438736
243	0xbca84953	-0.020542776
244	0xbcc51ed0	-0.024062544
245	0x3b8fca9c	0.0043881666
246	0x3ba37ceb	0.0049892566
247	0x3bf5a751	0.0074967523
248	0xbd05927a	-0.032610394
249	0x3cb1158a	0.021616716
250	0xbc32f519	-0.010922694
251	0x3ca3eb31	0.020009609
252	0xbcc423d8	-0.023942873
253	0xbb72be03	-0.0037039525
254	0xbcbdee91	-0.023185046
255	0xbc97df96	-0.018539231

fc1_1.bias f4 [120]
0	0xbb260400	-0.0025331974
1	0xbd0db281	-0.034594063
2	0xb993981b	-0.00028151352
3	0xbc823f52	-0.015899334
4	0xbc516cf3	-0.012782323
5	0x3ac886d7	0.0015298974
6	0x3c5115e0	0.012761563
7	0x3bc49bc5	0.0060000145
8	0xbd71680b	-0.058937114
9	0x3d98a479	0.07453246
10	0xbd1ee436	-0.038791858
11	0xbc9e9490	-0.01935795
12	0xbc3e6f9d	-0.01162329
13	0xbc87424b	-0.016511103
14	0x3d62b269	0.055345926
15	0x3dcf276f	0.10114943
16	0xbbed97ed	-0.007250777
17	0x3dcb5807	0.09928899
18	0xbc1c47ed	-0.009538633
19	0x3d18d7f6	0.03731533
20	0x3d228b6d	0.039683748
21	0x3d14cd20	0.036328435
22	0x3c89e4a8	0.016832665
23	0x3d28e866	0.041237257
24	0x3d338093	0.04382379
25	0x3c9d22dc	0.019181661
26	0x3dd4f4ae	0.103982314
27	0x3c25cbb0	0.010119364
28	0xbcf8d582	-0.030375246
29	0xbcf3ac1a	-0.02974515
30	0x3c1ea202	0.00968218
31	0x3dfddbe3	0.12395456
32	0xbd52c924	-0.051461354
33	0xbd022214	-0.03177078
34	0x3d80af9b	0.06283494
35	0xbce2318c	-0.027611516
36	0xbcdd005f	-0.026977716
37	0xbcae5a11	-0.021283181
38	0x3be70159	0.007049721
39	0xbc949d35	-0.018141368
40	0x3db393e0	0.08768439
41	0x3d18f07d	0.037338722
42	0x3d50c2cf	0.050967034
43	0xbc8d48a5	-0.017246554
44	0x3d6a18d3	0.05715258
45	0xbcb4ad89	-0.022055404
46	0x3c052798	0.008127116
47	0xbb9c5fb8	-0.0047721528
48	0x3c99279b	0.018695643
49	0x3da3f1fc	0.08005139
50	0x3df1d0b2	0.118073836
51	0x3d000905	0.0312586
52	0x3d4a9828	0.049461514
53	0x3d1ff0f5	0.039048154
54	0xbd6819c5	-0.0566652
55	0x3c8cb7fb	0.017177572
56	0xbbaf5013	-0.0053501218
57	0x3d33f964	0.04393901
58	0x3d5b66cd	0.053564835
59	0x3d1dc87c	0.038521275
60	0x3d40755b	0.04698692
61	0x3d1197f1	0.035545293
62	0xbd16f323	-0.036852967
63	0xbccb8a07	-0.02484609
64	0x3b2544fd	0.0025218122
65	0xbc6910d8	-0.014225207
66	0x3c117263	0.00887737
67	0xbbb5df86	-0.0055503277
68	0x3d3c70c5	0.046005983
69	0x3d2f98df	0.0428704
70	0xbbc8c404	-0.0061268825
71	0x3b8dd436	0.004328276
72	0xbbad560b	-0.005289798
73	0x3d284ebc	0.041090712
74	0x3cd8ef26	0.026481222
75	0xbd29cec7	-0.041456964
76	0x3d5c8c3a	0.053844668
77	0xbd6590b5	-0.056046207
78	0x3cefe2b5	0.029282907
79	0x3cbcacb7	0.023031576
80	0x3b44105d	0.002991698
81	0x3d0bd5e0	0.034139514
82	0x3cd94e24	0.026526518
83	0x3d3284d6	0.043583713
84	0x3dace54e	0.08442174
85	0xbd209fb5	-0.03921481
86	0x3d70f45d	0.058826793
87	0xbcd3ea4a	-0.025868554
88	0xbcc43e4e	-0.02395549
89	0x3e0fe02e	0.14050362
90	0x3c67ecf7	0.014155618
91	0xbca6453c	-0.020296685
92	0xbc89a39c	-0.016801648
93	0x3d8654bc	0.065591305
94	0xbd41522a	-0.0471975
95	0xbd111726	-0.035422467
96	0x3d166a6c	0.036722586
97	0x3c3bc4a8	0.011460461
98	0x3cc09b88	0.023511663
99	0x3d82e927	0.063921265
100	0xbc70c804	-0.014696125
101	0xbcda0d62	-0.02661771
102	0x3cdabb0d	0.02670052
103	0x3cc7356c	0.024317466
104	0xbcda11ef	-0.02661988
105	0x3d4a6f75	0.0494227
106	0x3bc74a3e	0.0060818484
107	0xbabe44fa	-0.0014516406
108	0x3d4cf665	0.050039668
109	0x3c0f1c7f	0.008734821
110	0xbd10a239	-0.035310958
111	0xbc9f06d4	-0.019412436
112	0x3d9db8e7	0.07701283
113	0x3c4575c9	0.012052008
114	0xbb799154	-0.0038081007
115	0x3d489435	0.048969466
116	0x3d841ee9	0.06451208
117	0xbc8a43b7	-0.016877992
118	0x3da8ebd7	0.08248108
119	0xbd9aa648	-0.07551247

fc2_1.weight f4 [84, 120]
0	0xbd3542c6	-0.044253133
1	0x3d61b583	0.055104744
2	0xbd7b6c60	-0.06138265
3	0xbd03dfeb	-0.032195967
4	0xbd3c1708	-0.0459204
5	0xbb9dd949	-0.004817162
6	0x3c804da7	0.015662028
7	0x3d04ac3f	0.03239083
8	0x3db95c80	0.09050846
9	0xbd05c2b0	-0.03265637
10	0xbd33df76	-0.04391428
11	0xbd90e04e	-0.07074033
12	0xbd163985	-0.03667595
13	0xbdadd439	-0.08487744
14	0xbcbdd4dd	-0.02317279
15	0x3dbfc910	0.093645215
16	0xbcfc6b4b	-0.03081288
17	0x3afc8566	0.001926583
18	0xbcd7f173	-0.02636025
19	0xbd2691f7	-0.040666547
20	0x3d78fa37	0.0607855
21	0xbd48f933	-0.04906578
22	0xbd1dc326	-0.038516186
23	0xbd54fd0a	-0.05199913
24	0x3d53ae52	0.051679917
25	0x3a087edc	0.0005206892
26	0x3d85ed84	0.06539443
27	0xbbae0f4a	-0.005311881
28	0x3dc6da12	0.09709562
29	0x3d43938d	0.047748137
30	0x3d6a59ed	0.057214666
31	0xbdb1eeb0	-0.08688104
32	0xbcbc5251	-0.02298847
33	0x3dac226a	0.084050015
34	0x3dc58f29	0.09646446
35	0xbdc76616	-0.09736268
36	0x3d16531d	0.036700357
37	0xbb76ea46	-0.003767626
38	0xbdbef153	-0.09323373
39	0xbc14ee5f	-0.009090035
40	0x3add8e1b	0.0016903313
41	0x3d0ea0dc	0.034821376
42	0xbcf71761	-0.030162515
43	0xbd266fff	-0.04063415
44	0x3c127bac	0.0089406185
45	0x3d9a9cbb	0.07549425
46	0x3d57acfb	0.0526552
47	0x3d4c8d4b	0.049939435
48	0x3d76fce8	0.060299784
49	0xbd358e4f	-0.04432517
50	0xbda616e3	-0.08109834
51	0xbcf931c3	-0.030419236
52	0xbbeaacc9	-0.007161711
53	0x3cfc462f	0.030795185
54	0x3db4a4a8	0.08820468
55	0x3e012b4b	0.12614171
56	0x3d37a998	0.04483947
57	0x3d4dd705	0.050253887
58	0xbd255373	-0.040362787
59	0x3d12e536	0.035863124
60	0x3bbb27bf	0.005711525
61	0xbdbcc575	-0.092173494
62	0x3d90ece3	0.070764326
63	0x3d83d8ef	0.06437861
64	0xbd5b2b42	-0.05350805
65	0x3d9872ee	0.07443796
66	0xbdbd5012	-0.09243788
67	0x3dcc8afb	0.09987446
68	0xbda7db41	-0.08196116
69	0x3cd840a7	0.026398016
70	0xbd87e721	-0.06635881
71	0xbc7d430a	-0.015457878
72	0xbbd4e5e8	-0.0064971335
73	0x3d3c7308	0.04600814
74	0xbd7422f8	-0.05960366
75	0x3d86348a	0.0655299
76	0x3cd9ffc5	0.026611218
77	0x3df8d11b	0.12149259
78	0x3ce8f47b	0.02843689
79	0xbdb65520	-0.08902955
80	0x3b850ada	0.0040601315
81	0x3dcc3ddd	0.09972737
82	0xbc9bddc8	-0.019026652
83	0xbd8a7eab	-0.06762441
84	0x3d0717a2	0.032981522
85	0xbdaa98f6	-0.08329956
86	0xbc39ee1c	-0.011348274
87	0xbce7e206	-0.028306019
88	0x3d736741	0.059424642
89	0x3da35ea6	0.07977037
90	0x3b1b5cd1	0.0023706446
91	0xbd92fc4e	-0.071770296
92	0x3dc0fbd4	0.094230324
93	0x3d02c1cf	0.03192311
94	0x3dc52545	0.09626249
95	0xbd35865d	-0.044317592
96	0xbcbb6e50	-0.02287975
97	0x3dd4fde5	0.10399989
98	0x3b04ee02	0.0020283465
99	0x3d995fe4	0.07488993
100	0xbdbb84d9	-0.09156198
101	0xbc6b0582	-0.014344575
102	0x3dc30afa	0.09523578
103	0xbd7c26e8	-0.06156054
104	0x3adc1e0b	0.0016793621
105	0x3d84bd12	0.06481375
106	0xbc0d894f	-0.008638694
107	0xbd61117f	-0.054948326
108	0xbbe49942	-0.0069762776
109	0x3dd0e42d	0.10199771
110	0xbd0d183d	-0.034446944
111	0xbd10e471	-0.03537411
112	0xbdce61ed	-0.100772716
113	0x3d713051	0.05888397
114	0xbdc05ef3	-0.0939311
115	0xbd36fa55	-0.04467233
116	0xbd2dc4a2	-0.04242385
117	0x3cf54785	0.02994133
118	0xbd5c2331	-0.0537445
119	0xbd4cea9c	-0.05002843
120	0x3d51f2fc	0.05125712
121	0x3d6c05bd	0.05762266
122	0x3c1027a3	0.008798513
123	0xbcb45a43	-0.022015696
124	0xbbb95113	-0.0056554168
125	0x3e252849	0.16128649
126	0x3c127681	0.008939386
127	0xbd15b18d	-0.03654628
128	0x3b0c763b	0.0021432776
129	0x3c4c28bd	0.012460885
130	0x3e1683c0	0.14698696
131	0xbc34f9cb	-0.011045883
132	0x3c0fcaa0	0.008776337
133	0x3d36a42f	0.04459017
134	0xbc5b3929	-0.013380327
135	0x3e8ced40	0.27524757
136	0xbbc01774	-0.005862171
137	0x3d3dbaa3	0.04632057
138	0xbcd6af17	-0.026206536
139	0xbde8c6e6	-0.11366062
140	0xbcdda22a	-0.027054865
141	0x3d12280d	0.035682727
142	0xbce927ae	-0.028461304
143	0xbe2c0714	-0.16799575
144	0xbd83cf19	-0.06435985
145	0xbcf9d217	-0.030495686
146	0x3df3ddf4	0.119075686
147	0xbcf6d2f5	-0.030129889
148	0x3da93cc0	0.0826354
149	0xbc841e63	-0.01612777
150	0x3cab7ded	0.02093407
151	0xbd8604f7	-0.06543916
152	0xbca0b821	-0.01961905
153	0xbd4caf2e	-0.049971752
154	0xbd0f3b7a	-0.03496883
155	0xbd3208c1	-0.04346538
156	0xbdc7acef	-0.09749781
157	0x3e7ef839	0.24899377
158	0x3e1f03eb	0.15528838
159	0xbd6b41c8	-0.05743578
160	0xbd52c9dd	-0.051462043
161	0x3d0348ba	0.03205178
162	0xbd1f2edc	-0.038863048
163	0x3c898604	0.016787536
164	0xbd8bd97a	-0.0682859
165	0x3d67d552	0.056599922
166	0xbd561b83	-0.05227233
167	0xbd2c8b92	-0.042125292
168	0x3e1ddb09	0.15415587
169	0xbd01ae51	-0.03166038
170	0x3e8c44d3	0.2739626
171	0x3c61d145	0.013782804
172	0x3e2d3296	0.16913828
173	0xbdbe0fb5	-0.0928034
174	0x3d44b275	0.048021752
175	0x3d983c3e	0.07433365
176	0x3e048340	0.12940693
177	0x3db0903a	0.08621259
178	0xbd06861e	-0.032842748
179	0xbd79564f	-0.060873326
180	0xbd3168bf	-0.043312784
181	0xbcd99c04	-0.026563652
182	0x3dabb324	0.08383778
183	0x3b161c45	0.0022905034
184	0x3d35691b	0.04428969
185	0x3d50017a	0.05078266
186	0xbdc2f62a	-0.09519608
187	0x3c1fd40e	0.009755148
188	0x3e50602a	0.20349184
189	0x3d79dbd9	0.06100068
190	0xbdb2c9f2	-0.08729924
191	0x3daa6656	0.083203
192	0x3d20d26c	0.039263174
193	0x3e18da1c	0.14926952
194	0x3c1691c9	0.009190031
195	0xbcf1ce62	-0.029517356
196	0x3dd01409	0.101600714
197	0x3d1d843b	0.038456183
198	0xbd6e723b	-0.058214407
199	0xbe1125f6	-0.14174637
200	0xbde79038	-0.113068044
201	0xbcdd625d	-0.027024442
202	0xbd41e7a2	-0.047340043
203	0x3dfe4fae	0.124175414
204	0xbd16e55a	-0.03683982
205	0xbc8b5fb0	-0.0170134
206	0xbe456f09	-0.19280638
207	0xbd8f3526	-0.06992559
208	0xbe141912	-0.14462689
209	0xbe17161f	-0.14754532
210	0x3d743870	0.059624135
211	0xbb960cb1	-0.0045791497
212	0x3d3daa0b	0.046304744
213	0xbd155b99	-0.036464307
214	0x3d49b8b2	0.049248405
215	0xbd6ee476	-0.058323346
216	0xbd8c75a9	-0.068583794
217	0x3d93a4cc	0.07209167
218	0x3e1f65f1	0.15566231
219	0xbcd985a0	-0.026552975
220	0x388281e4	6.223077e-05
221	0xbc41e8b1	-0.011835263
222	0x3d3d12ff	0.046160694
223	0xbe2873e6	-0.16450462
224	0xbdc80abf	-0.09767675
225	0xbcf54c44	-0.029943593
226	0x3cc0c7b4	0.023532726
227	0xbe58efb1	-0.21185185
228	0xbca4d039	-0.02011882
229	0x3d8e6414	0.06952682
230	0xbd89a029	-0.06720001
231	0x3e26570b	0.16244142
232	0xbe167fe9	-0.14697231
233	0x3e0d55eb	0.13802306
234	0xbe344dfd	-0.17607875
235	0xbd4cf9fe	-0.0500431
236	0xbde2bf0a	-0.11071594
237	0xbc9872b5	-0.018609384
238	0x3dd05a5f	0.10173487
239	0x3c94aedb	0.018149784
240	0xbc2706c5	-0.010194485
241	0xbd074b9c	-0.03303109
242	0xbd75bb69	-0.05999318
243	0xbc159822	-0.00913051
244	0x3d6b3a0b	0.0574284
245	0x3dedebc3	0.116172336
246	0xbd030ca4	-0.031994477
247	0x3df65782	0.120284095
248	0x3da51e17	0.0806238
249	0x3c8093cf	0.01569548
250	0xbc8057de	-0.015666898
251	0xb9a29338	-0.00031008734
252	0x3d10771e	0.03526985
253	0x3c308174	0.0107730515
254	0x3c4ba5c4	0.012429658
255	0x3dbd1e5f	0.092343085

fc2_1.bias f4 [84]
0	0xbafccc68	-0.0019286992
1	0x3cf57c30	0.029966444
2	0x3de1ee31	0.110317595
3	0x3ca88236	0.020569902
4	0x3d9ec53f	0.077524655
5	0xbc4a3363	-0.012341353
6	0xbd5f853b	-0.054570418
7	0x3e33796e	0.1752679
8	0x3e11187a	0.14169493
9	0x3d017c1a	0.031612493
10	0x3e2da87b	0.16958801
11	0x3ddde621	0.10834909
12	0x3d1b5819	0.037925813
13	0xbd95bc07	-0.07311254
14	0x3d9eb5be	0.07749508
15	0xbdb6c67c	-0.08924577
16	0x3dab43b9	0.083625264
17	0xbaeb9d34	-0.0017975927
18	0xbd88980a	-0.06669624
19	0xbd1ef204	-0.038805023
20	0x3d80e26c	0.062931865
21	0xbb4f1bc2	-0.0031602238
22	0xbbf36c15	-0.007428656
23	0x3cfe4883	0.031040436
24	0xbd852b27	-0.06502371
25	0xbc545c52	-0.012961464
26	0xbd8d48c9	-0.06898648
27	0x3e69a4e0	0.22816801
28	0xbc0ffb2c	-0.008787911
29	0x3d16cbb0	0.036815345
30	0x3e16f308	0.14741147
31	0x3cf61ede	0.030044015
32	0xbcdd3267	-0.027001573
33	0x3d8fd96f	0.07023894
34	0xbc90d65f	-0.017680345
35	0xbdcaa1b9	-0.098941274
36	0xbd3ab116	-0.04557904
37	0xbbffbfa2	-0.007804827
38	0xbd5e2c61	-0.05424154
39	0x3d089d5f	0.033353206
40	0x3e6df4f6	0.23237976
41	0xbbd41396	-0.0064720614
42	0x3e1dacd2	0.15397957
43	0x3d9e7d8b	0.07738789
44	0x3de22daa	0.11043866
45	0x3d9107ca	0.07081564
46	0xbdb09035	-0.08621255
47	0xbd18a1fe	-0.037263863
48	0x3cdc5fb5	0.026901105
49	0xbd5b47ce	-0.053535275
50	0x3d3ecda8	0.046582848
51	0xbdc8d09d	-0.09805415
52	0xbd8dccea	-0.0692385
53	0x3c3e3f3f	0.011611759
54	0x3d4fa255	0.05069192
55	0xbcf37527	-0.029718949
56	0x3a88237c	0.0010386552
57	0xbc26d949	-0.010183641
58	0x3c5932ed	0.013256771
59	0xbd8b4697	-0.06800573
60	0x3e02ca83	0.12772565
61	0x3e07878b	0.132353
62	0xbdd0d3a3	-0.101966165
63	0x3da5d123	0.0809653
64	0xbbe913b9	-0.007112947
65	0xbd63815f	-0.0555433
66	0x3d639510	0.05556208
67	0x3cb3e538	0.021959886
68	0xbdb7f856	-0.08982913
69	0xbdaa6295	-0.08319584
70	0x3d8d2b2d	0.06893001
71	0xbcf7fb89	-0.030271308
72	0x3bac5560	0.005259201
73	0x3dc33507	0.095315985
74	0xbce13abd	-0.027493829
75	0x3dcdb6cf	0.100446336
76	0x3e2632e5	0.16230352
77	0xbca275ca	-0.019831557
78	0xbc8173fd	-0.015802378
79	0xbbe8541a	-0.007090104
80	0x3d87b31f	0.066259615
81	0x3dbe75d4	0.09299818
82	0x3e188ac7	0.1489669
83	0xbcc38ede	-0.023871835

fc3_1.weight f4 [19, 84]
0	0xbe05eaa9	-0.13077797
1	0xbea9f523	-0.33194837
2	0x3ca72f6e	0.020408358
3	0xbd407873	-0.04698987
4	0xbdfc851e	-0.123300776
5	0x3e87b2ce	0.26503605
6	0x3cb41d3f	0.021986602
7	0xbe86469a	-0.2622574
8	0x3e573fec	0.21020478
9	0x3dd5be77	0.10436719
10	0xbde8301b	-0.113373004
11	0x3d807eb7	0.06274169
12	0x3ea4fb85	0.32223144
13	0x3e9d1993	0.30683574
14	0xbde2df47	-0.11077743
15	0x3dc55de6	0.0963705
16	0xbdcc1910	-0.09965718
17	0x3cf7ca0c	0.03024771
18	0x3eaf479e	0.34234327
19	0xbdbfe1d9	-0.09369249
20	0xbe9f36f4	-0.31096613
21	0x3dcdd8de	0.1005113
22	0x3dd3ea50	0.10347426
23	0x3e2f4514	0.17116195
24	0x3d7d4076	0.061829053
25	0xbe3eeaf8	-0.18644321
26	0xbc2f9e89	-0.01071895
27	0x3e262668	0.16225588
28	0xbe6b183f	-0.22958468
29	0xbe72383a	-0.23654261
30	0x3e6d346f	0.23164533
31	0xbe15da6f	-0.14634107
32	0x3cc88fc7	0.02448262
33	0xbc59e385	-0.013298874
34	0xbe97e3dd	-0.29666033
35	0xbe8a092c	-0.26960123
36	0xbdaaee58	-0.08346242
37	0xbbd73561	-0.0065676426
38	0xbdbd66cd	-0.09248123
39	0x3e438574	0.19093877
40	0xbe7e215a	-0.2481741
41	0xbd980b27	-0.07424002
42	0xbe60897d	-0.21927448
43	0xbb217d1b	-0.002464122
44	0xbe063b4a	-0.13108554
45	0x3e0e91b5	0.1392277
46	0x3b89a910	0.004201062
47	0xbdd96b3e	-0.10616158
48	0xbcf7404a	-0.030182023
49	0x3e1059b1	0.14096715
50	0xbdf94513	-0.12171378
51	0xbd418cbf	-0.047253367
52	0x3cbc10f7	0.022957308
53	0xbe63d0d2	-0.22247627
54	0xbdd2a953	-0.10286202
55	0xbd42709a	-0.047470666
56	0xbc972f19	-0.018455075
57	0x3d3e2a19	0.046426866
58	0x3efba658	0.49150348
59	0x3e231f2d	0.15929861
60	0xbd199c9e	-0.037502877
61	0x3e69a739	0.22817697
62	0x3e45fd94	0.19335014
63	0xbe4c5f6b	-0.19958274
64	0xbcb5ba38	-0.022183523
65	0xbd96f8a7	-0.073716454
66	0xbd86dee4	-0.06585482
67	0xbd181e33	-0.037138175
68	0xbd311f6a	-0.04324285
69	0xbdd91bb5	-0.10600988
70	0x3d4d1dce	0.050077252
71	0xbe35c547	-0.17751037
72	0xbe78c7da	-0.24294987
73	0xbe232d81	-0.15935327
74	0x3ea679d6	0.32514828
75	0xbe8b2bcf	-0.2718186
76	0x3c9062da	0.017625261
77	0x3bd3f52e	0.0064684367
78	0xbe3a62a7	-0.18201695
79	0x3e92fe95	0.28709856
80	0xbdafa73e	-0.08576821
81	0x3d85e079	0.065369554
82	0x3d03d143	0.03218199
83	0xbd873102	-0.066011444
84	0x3bc13cc6	0.0058971373
85	0x3ca3e556	0.020006817
86	0xbda2f048	-0.07955986
87	0xbbda3121	-0.0066586887
88	0xbe0ec9f3	-0.13944225
89	0x3e937d35	0.28806463
90	0xbe2a9b84	-0.16660887
91	0x3e46f56c	0.19429559
92	0xbe0d4ceb	-0.13798873
93	0x3ea49653	0.32145938
94	0xbe2ef85c	-0.17086929
95	0xbd9d8396	-0.07691114
96	0x3eb84ddd	0.35996905
97	0x3d220a96	0.039560877
98	0xbd192b59	-0.037394855
99	0x3d479eb1	0.048735324
100	0xbd969404	-0.073524505
101	0x3d6d973d	0.05800556
102	0xbeaced67	-0.33774874
103	0x3d9b5ace	0.07585679
104	0xbe739f4b	-0.23791234
105	0x3d76301d	0.06010448
106	0x3e779ad7	0.2418016
107	0xbeb64493	-0.35599193
108	0x3d8ce2cb	0.06879195
109	0x3d9dac51	0.07698882
110	0x3bc4c10a	0.0060044574
111	0xbe3d1bb6	-0.18467602
112	0xbdbee919	-0.093218036
113	0xbe1adda0	-0.15123606
114	0xbe8a3b9e	-0.2699861
115	0x3d82c46f	0.06385123
116	0xbc8c85e4	-0.017153688
117	0xbdf44163	-0.11926534
118	0x3e0a5d8c	0.13512248
119	0x3da8cf91	0.08242715
120	0x3d5a7360	0.053332686
121	0xbdeb8b0b	-0.1150113
122	0x3d5d964d	0.054098416
123	0xbe48e8e8	-0.19620097
124	0xbea28630	-0.31743002
125	0xbdd939e9	-0.106067486
126	0xbe6dbc22	-0.23216298
127	0x3e89dc6b	0.26925978
128	0xbe054ff1	-0.13018776
129	0xbddf9a53	-0.10918107
130	0xbd8b5eeb	-0.068052135
131	0xbd1e3c1e	-0.03863155
132	0xbd238a75	-0.039926965
133	0xbc9f8dda	-0.01947682
134	0xbe19dc36	-0.1502541
135	0xbe576d12	-0.21037701
136	0xbd56f121	-0.052476052
137	0x3dfc3b32	0.12315978
138	0xbd529575	-0.051412065
139	0x3cbb3b29	0.022855358
140	0xbdeca91c	-0.115556926
141	0xbde60c17	-0.11232775
142	0x3e8afa94	0.271443
143	0x3dd38110	0.10327351
144	0xbe5c2187	-0.21497165
145	0x3eb9217e	0.36158365
146	0xbea25022	-0.3170176
147	0xbe210cbe	-0.15727517
148	0xbd523fbc	-0.051330313
149	0xbd360270	-0.04443592
150	0xbe286742	-0.1644564
151	0xbc3ffdf3	-0.011718261
152	0xbd6135da	-0.054982997
153	0xbd6f90b2	-0.0584876
154	0xbe13d8a0	-0.14438105
155	0xbd3942fc	-0.045229897
156	0x3d87d75c	0.066328734
157	0xbd36f626	-0.04466834
158	0x3edcba1e	0.43110746
159	0x3e252a9e	0.16129538
160	0xbd85decf	-0.06536638
161	0x3e2788ec	0.16360825
162	0x3ec01d8c	0.37522542
163	0x3eb85078	0.35998893
164	0x3c5e172c	0.013555329
165	0xbe8355e7	-0.25651476
166	0x3dfda52a	0.12385018
167	0x3d2ab3e3	0.04167546
168	0x3e147cf4	0.14500791
169	0x3e747532	0.23872831
170	0x3e36fdda	0.17870274
171	0xbe44f708	-0.1923486
172	0xbc12b405	-0.008954053
173	0x3ea72415	0.32644716
174	0xbd50b5a8	-0.05095449
175	0x3e581530	0.21101832
176	0x3dda668c	0.106640905
177	0x3de009e9	0.1093939
178	0xbe820067	-0.25390932
179	0xbe472942	-0.19449332
180	0x3e5c0237	0.2148522
181	0xbcef9340	-0.029245019
182	0xbdbe7e8a	-0.09301479
183	0xbd998a38	-0.07497066
184	0xbdb3d704	-0.08781245
185	0xbbfd721f	-0.0077345516
186	0xbe4d75b8	-0.20064437
187	0xbb5c9bca	-0.0033662193
188	0xbe18f16e	-0.14935848
189	0x3d06dfce	0.03292828
190	0xbe0db054	-0.13836795
191	0x3e89acf5	0.26889768
192	0xbcf997af	-0.030467836
193	0x3e6f25e4	0.23354298
194	0x3d2b87ef	0.041877683
195	0xbe1713fb	-0.14753716
196	0xbdce0d19	-0.10061092
197	0xbe8e796d	-0.27827016
198	0x3e266e89	0.16253103
199	0xbe23d35b	-0.15998594
200	0x3c822fad	0.015891874
201	0xbe010011	-0.12597682
202	0x3c94bb02	0.018155579
203	0x3da29f29	0.07940514
204	0xbd6831a1	-0.056687955
205	0xbe6535a2	-0.2238374
206	0xbdf27cb6	-0.11840193
207	0x3ebd39dd	0.3695821
208	0xbe87b517	-0.26505348
209	0xbd006c55	-0.031353313
210	0xbe3a5025	-0.18194635
211	0x3e7e6999	0.2484497
212	0xbe32d9dc	-0.1746592
213	0xbdcdfa25	-0.10057477
214	0xbddcd90c	-0.10783586
215	0x3bd2af2c	0.0064295735
216	0xbda00957	-0.078142814
217	0xbd15b8b5	-0.036553103
218	0xbe0f774d	-0.14010353
219	0x3c8e978e	0.017406251
220	0xbd704414	-0.058658674
221	0x3d634907	0.055489566
222	0xbdef041b	-0.11670705
223	0xbd9d869d	-0.07691691
224	0xbe1ded3b	-0.15422527
225	0xbce363b1	-0.027757498
226	0x3ebcee66	0.36900634
227	0xbd3ad42e	-0.045612507
228	0xbe76285c	-0.24038833
229	0x3e29d2f6	0.16584381
230	0x3e620a75	0.22074302
231	0xbc10028f	-0.0087896725
232	0xbdc9d85b	-0.0985572
233	0xbcf33acf	-0.029691128
234	0x3c9d98b5	0.019237855
235	0x3e0c4739	0.13699044
236	0x3b93608f	0.0044975947
237	0xbdc8708f	-0.09787094
238	0x3dc10e12	0.09426512
239	0xbdd365b7	-0.10322135
240	0x3c5a807f	0.0133363
241	0x3eacbba1	0.337369
242	0xbe825753	-0.25457248
243	0xbe15bd81	-0.14623071
244	0x3cc819ff	0.024426458
245	0xbe46e980	-0.1942501
246	0xbd4f2d22	-0.05058015
247	0xbe8cf746	-0.27532405
248	0xbe292f2b	-0.165219
249	0xbe1ba219	-0.15198554
250	0xbd17918c	-0.03700404
251	0xbd973d0b	-0.0738469
252	0xbc0c19a2	-0.008551033
253	0x3dbf9ad2	0.093557015
254	0xbe29c0ff	-0.16577528
255	0xbce81142	-0.028328542

fc3_1.bias f4 [19]
0	0xbea4c466	-0.3218109
1	0xbe0a3c05	-0.13499458
2	0xbd873fbc	-0.06603953
3	0xbdb6f03a	-0.08932538
4	0xbe7a4d0c	-0.24443454
5	0x3e736fbd	0.23773094
6	0xbeb7d1ab	-0.3590215
7	0xbe57b78f	-0.21066116
8	0xbea15701	-0.3151169
9	0x3ca1ce05	0.019751558
10	0x3eff7648	0.4989493
11	0x3b9c0e01	0.0047624116
12	0x3ecd72cb	0.40126643
13	0x3c977552	0.01848856
14	0x3e0d06be	0.13772103
15	0x3e3799a9	0.1792971
16	0xbd91b46f	-0.07114493
17	0x3e5f8866	0.21829376
18	0xbd6d6bc5	-0.057964105

momentum_buffer f4 [6, 3, 5, 5]
0	0xbbdd487f	-0.006753027
1	0xbbaf666f	-0.005352787
2	0xbb65e147	-0.0035076903
3	0x398cd5ef	0.00026862274
4	0x3a94e652	0.0011360145
5	0xbba90d28	-0.005159039
6	0xbb65de0f	-0.0035074984
7	0xba3d978d	-0.00072323607
8	0x3b30eb32	0.0026995656
9	0x3b3e5aa8	0.0029045735
10	0xbb67f1a6	-0.0035391836
11	0xbb023818	-0.001986986
12	0x3a659779	0.0008758228
13	0x3b48511d	0.0030565925
14	0x3b133c05	0.0022466194
15	0xbb38b7c7	-0.0028185712
16	0xb9a1ad25	-0.00030837316
17	0x3b17dc63	0.0023172132
18	0x3b698851	0.003563423
19	0x3b244626	0.0025066226
20	0xbb883bbc	-0.0041575115
21	0xba25864b	-0.00063142617
22	0x3aed84be	0.0018121225
23	0x3b392c6d	0.002825524
24	0x3aa02e04	0.0012220745
25	0xbc039205	-0.008030419
26	0xbbc96144	-0.006145628
27	0xbb44456f	-0.0029948612
28	0x3b271c9f	0.0025499237
29	0x3b954c1c	0.004556192
30	0xbbc81cb2	-0.0061069364
31	0xbb885131	-0.0041600694
32	0x39814f24	0.00024663762
33	0x3bb66f92	0.0055674994
34	0x3bcd21e6	0.0062601445
35	0xbb31c18f	-0.0027123427
36	0xba59c35d	-0.00083070045
37	0x3b641319	0.0034801422
38	0x3bf9af9e	0.007619812
39	0x3be46b75	0.0069708177
40	0x3a89ebc5	0.0010522535
41	0x3b591c8c	0.0033128588
42	0x3bd7671d	0.0065735714
43	0x3c0f74c0	0.008755863
44	0x3bfe0088	0.007751528
45	0xb91de644	-0.00015058467
46	0x3b47fac7	0.0030514465
47	0x3bb65233	0.005563998
48	0x3bed673d	0.007244973
49	0x3bcb98b9	0.0062132743
50	0xbc214955	-0.009844144
51	0xbbf652d1	-0.0075171967
52	0xbb87790b	-0.0041343025
53	0x3ac70d68	0.001518649
54	0x3b7ea1ee	0.0038853842
55	0xbc00e629	-0.007867374
56	0xbbb13f38	-0.0054091476
57	0xba83513f	-0.001001872
58	0x3b922571	0.00446003
59	0x3bb6fdfa	0.0055844756
60	0xbb8644d1	-0.004097559
61	0xbaefe6d6	-0.0018303047
62	0x3b212c19	0.0024592935
63	0x3bd32d66	0.006444621
64	0x3bba9aaf	0.0056947093
65	0xba21b2f1	-0.0006168327
66	0x3af96d07	0.0019029685
67	0x3bb3caf5	0.005486841
68	0x3bf61fe3	0.0075111254
69	0x3bcff12f	0.00634589
70	0xbac8c5c9	-0.0015317734
71	0x3b02f7ff	0.0019984243
72	0x3b9d2c88	0.0047965683
73	0x3bcd2745	0.006260785
74	0x3b9c8e23	0.004777686
75	0xbc8ebe10	-0.017424613
76	0xbc9edadd	-0.019391472
77	0xbc8ba398	-0.017045781
78	0xbc9fb46a	-0.019495208
79	0xbca118c7	-0.019665135
80	0xbca36cab	-0.019949278
81	0xbcaf9f36	-0.021438222
82	0xbca7e3fe	-0.020494457
83	0xbcc15d08	-0.023603931
84	0xbcd1c6fb	-0.025607577
85	0xbc9d2ff8	-0.019187912
86	0xbcb80d91	-0.022467406
87	0xbcbb157a	-0.02283739
88	0xbcb9475a	-0.02261703
89	0xbccddf19	-0.025130795
90	0xbcb53d7d	-0.022124046
91	0xbccca65f	-0.024981676
92	0xbcb99f47	-0.022658957
93	0xbca9da5b	-0.020734003
94	0xbcba5aa2	-0.022748295
95	0xbc91d15b	-0.017800024
96	0xbc949d33	-0.018141365
97	0xbc7f3d95	-0.015578647
98	0xbc5c1bb2	-0.013434337
99	0xbc76a4c5	-0.015053933
100	0xbc80a657	-0.015704317
101	0xbcaa5de4	-0.020796724
102	0xbc94814d	-0.018128062
103	0xbc88f3e4	-0.016717859
104	0xbc66ebae	-0.014094276
105	0xbcfda863	-0.030964082
106	0xbd0aa2d5	-0.033846695
107	0xbd075150	-0.03303653
108	0xbd0ab6ff	-0.033865925
109	0xbd0e7d68	-0.034787565
110	0xbd0cdb23	-0.034388673
111	0xbd144dac	-0.036206886
112	0xbd11e316	-0.035616957
113	0xbd11ca00	-0.035593033
114	0xbd1a2448	-0.037632257
115	0xbd2a228e	-0.04153686
116	0xbd3126e1	-0.04324997
117	0xbd20195f	-0.039086696
118	0xbd1580fe	-0.03649997
119	0xbd176bf6	-0.036968194
120	0xbd08ef12	-0.03343112
121	0xbd05e636	-0.03269025
122	0xbcef9f38	-0.029250726
123	0xbcc7bb9d	-0.024381453
124	0xbcb72790	-0.022357732
125	0xbc83aab2	-0.016072605
126	0xbc9ebd20	-0.019377291
127	0xbc834cb5	-0.016027788
128	0xbc7692e3	-0.015049669
129	0xbc640b57	-0.013918719
130	0xbcd791d6	-0.026314657
131	0xbced35ff	-0.028956411
132	0xbcdec9c7	-0.027195824
133	0xbcebffb1	-0.028808447
134	0xbcfb18ac	-0.030651413
135	0xbcec95e7	-0.028880073
136	0xbd08e620	-0.03342259
137	0xbd08374c	-0.03325586
138	0xbd010a24	-0.03150381
139	0xbd0b7ffd	-0.034057606
140	0xbd16aa95	-0.036783773
141	0xbd2932dc	-0.04130827
142	0xbd17e0cf	-0.03707963
143	0xbd030ce1	-0.031994704
144	0xbd04218c	-0.032258555
145	0xbcda3193	-0.026634967
146	0xbcec5966	-0.028851222
147	0xbcc4dbda	-0.024030615
148	0xbc8da1d3	-0.017289078
149	0xbc75b5a9	-0.014996924
150	0x3b96ca00	0.004601717
151	0x3bc5343c	0.0060181897
152	0x3b9b77eb	0.00474452
153	0x3b515f09	0.0031947515
154	0x3b40d999	0.0029426573
155	0x3bedc24a	0.007255827
156	0x3c0aece8	0.008479334
157	0x3c0b4f92	0.008502858
158	0x3c158313	0.009125489
159	0x3c0b5857	0.008504949
160	0x3bc7abfa	0.0060934993
161	0x3c234ee3	0.0099675385
162	0x3c343e12	0.011001127
163	0x3c2c972e	0.010534091
164	0x3c6b937d	0.014378426
165	0x3b678b10	0.003533069
166	0x3c1874bf	0.009305178
167	0x3c2383b2	0.009980129
168	0x3c576306	0.013146168
169	0x3caba3d8	0.02095215
170	0xbb0c3f1a	-0.0021399916
171	0x3b389eb5	0.0028170769
172	0x3c1f9ee7	0.009742475
173	0x3c9528f9	0.018208014
174	0x3cee93e5	0.029123256
175	0x3c4c9b34	0.012488175
176	0x3c631b68	0.013861515
177	0x3c3e51f9	0.0116162235
178	0x3c245166	0.0100291725
179	0x3c1cf8fe	0.009580849
180	0x3c557e88	0.013030656
181	0x3c67a6a6	0.014138853
182	0x3c59698b	0.013269792
183	0x3c743778	0.014905803
184	0x3c699f91	0.014259235
185	0x3c1cb517	0.00956466
186	0x3c7c2f59	0.015392148
187	0x3c846e38	0.016165838
188	0x3c876e02	0.016531948
189	0x3cb76440	0.02238667
190	0x3bc1c475	0.005913312
191	0x3c645a31	0.013937519
192	0x3c89d443	0.016824847
193	0x3cb62a75	0.022237042
194	0x3d016db2	0.031598754
195	0xbbda1d0b	-0.006656294
196	0x3b509c6c	0.0031831516
197	0x3c709fc3	0.014686528
198	0x3cce566e	0.025187697
199	0x3d20c06b	0.039246004
200	0x3c6504f4	0.013978232
201	0x3c756c45	0.014979427
202	0x3c38b135	0.011272718
203	0x3bf2fb3f	0.007415205
204	0x3be2e5b1	0.006924354
205	0x3c756c8a	0.014979491
206	0x3c7e6ca2	0.01552883
207	0x3c4c3ae8	0.012465216
208	0x3c3c4495	0.011490961
209	0x3c4dd069	0.012561896
210	0x3c262310	0.0101401955
211	0x3c71cee6	0.014758801
212	0x3c735ba4	0.014853392
213	0x3c63b491	0.013898031
214	0x3cad4cc8	0.021154776
215	0x3b2ed7bd	0.0026678883
216	0x3c2e6daa	0.010646263
217	0x3c4b6eb8	0.012416534
218	0x3c9d9cf7	0.019239886
219	0x3d00bb67	0.03142872
220	0xbc3d3ad9	-0.011549675
221	0xb9f786f6	-0.00047212065
222	0x3c3eae3d	0.011638221
223	0x3cc97f7d	0.024596924
224	0x3d285864	0.04109992
225	0xbbd35c74	-0.0064502303
226	0xbb93d912	-0.004511961
227	0xbb853831	-0.0040655364
228	0xbb9f9be3	-0.004870878
229	0xbb92083d	-0.0044565485
230	0xbb4b28b6	-0.0030999607
231	0xbb2b6a36	-0.0026155836
232	0xbb9c1ee7	-0.004764426
233	0xbbe2bfba	-0.0069198282
234	0xbb31d96c	-0.002713765
235	0xbc014597	-0.007890127
236	0xbc1d49d1	-0.009600119
237	0xbc249408	-0.010045059
238	0xbbf4610d	-0.0074578584
239	0xbba2094b	-0.0049449555
240	0xbc2187d7	-0.009859047
241	0xbc34d676	-0.01103746
242	0xbc008f6d	-0.007846695
243	0xbbe849bd	-0.0070888684
244	0xbbd34f77	-0.006448682
245	0xbb7021d6	-0.0036641262
246	0xbbb334e3	-0.005468951
247	0xbc075ff3	-0.008262622
248	0xbc029adb	-0.007971491
249	0xbbabbbb1	-0.0052408804
250	0xbca99bd9	-0.020704197
251	0xbca21579	-0.01978563
252	0xbca0b40b	-0.019617101
253	0xbc936dd1	-0.0179967
254	0xbc4a5be0	-0.012351006
255	0xbc91b85f	-0.01778811

momentum_buffer f4 [6]
0	0xbcb1f6d9	-0.021724151
1	0x3b79c9a4	0.0038114572
2	0xbcfa2f23	-0.030540055
3	0x3bb77548	0.005598698
4	0x3cc7faa0	0.0244115
5	0xbc33ba09	-0.010969647
